best_model.pth (torch, 61988 bytes, 8 tensors)

convs.0.weight f4 [32, 1, 2, 50]
00000000: 28ca 803d 77a0 c93c ae31 4fbc e0c9 803d
00000010: 6d58 51bd 2a4d cfbd aa85 763d 1118 0bbe
00000020: 8f5a 68be bc3c 903c 9675 80bd d790 30bd
00000030: 1774 e73d 94b8 2aba fc8c aabd 26d7 183e
00000040: 973c 46bc 0b64 263d eb02 2cbd 2765 733d
00000050: 54fb 11bd 16da b8bd d406 613e 0e68 a43d
00000060: a3ab 0bbe 0a6c 1c3e 3f57 c03c 1b42 aa3d
00000070: 279d 1dbd 9c50 f4bc ec27 0c3d 82f8 9fbd
00000080: d2f8 823c 8348 f8bc e1c7 273d 2368 563e
00000090: 8cea 073e bb8f e0bc 5e9b 40bd e44a ce3d
000000a0: b8a7 eb3d dbed 173e 0de8 43bc d1d0 223c
000000b0: 185d b0bd b535 64bd 5ad2 c73c 658d 9f3e
000000c0: 42c4 ecbd 3237 053e 3a6b 34be 728c 2fbd
000000d0: 502f b5be f881 d0bd cfb7 b53c 7d2d 4b3d
000000e0: 4cdb 49be cd75 e5bd 3e5c 253d beb8 95bb
000000f0: 92f7 333c ceae 403e 496e b93d 4dd6 23bc
00000100: dea0 73be 9bf2 92be 56c3 383e 439e 1b3d
00000110: 555e acbd 9853 92be dfb0 57be 5876 233e
00000120: 6bdd 5abd 1511 753c 08a8 9b3c a433 96bd
00000130: f766 073e 5b36 7c3e b50d d2bc 8521 c6bd
00000140: 0851 893d 16f6 31bd df9f e0bd 36ab 1fbe
00000150: 7c54 dd3d 136a 4b3e 81da 6b3d a56d 04be
00000160: d87a 803e 7493 87bd 977c 253e 5d47 9fbd
00000170: aa87 e43d 0cfb 60bd 424f 383e 96b5 163d
00000180: b568 37be aec7 20be 5f1e 7cbd 3007 16ba
00000190: 9635 6f3d 3693 d53d a049 0fbe b34a 94bd
000001a0: e867 c23d 621e c9bd af5f 71be bdb9 03be
000001b0: 10ae 8abd 5cea a0bd 3c6f 41bd 95c4 9abd
000001c0: 20d8 94ba 10ac a33b 3bb4 773c bf91 11be
000001d0: 1082 19be 6517 30bd 8727 4ebb 2133 c5bd
000001e0: a63d 16bc 5d01 afbd 3f55 71bd 2dcc 413e
000001f0: 7e2a 8e3c ef5b 1a3e 5bf5 8e3b 7861 7e3d
00000200: 2303 dbbc 70fe c13d f4ac 8fbe 188d 06be
00000210: 2e08 803b ecbc b6bd d2cc 20be 58ff 173e
00000220: 804a be3c ad1b dc3d 2b8d 8e3d c52f 0fbb
00000230: 8172 f03d e306 c4bc cc8b 583e 16ad 44be
00000240: 4cbb 42be a97a 663d ffaa cabd e7ba bbbb
00000250: 6a38 043d f1b1 34be 3285 fbbd 7732 653c
00000260: c01f 9ebe 7e5b 453e 4bc2 f1bc bb71 94be
00000270: bcd1 77be 0cb8 0dbe e9de 9ebd 0515 693d
00000280: 8019 0bbd 3569 e0bd f38a 90bd d809 d9bd
00000290: 46d8 963c 0947 b0bd 7351 453e df7c 15bd
000002a0: ba6a 773d 61ff c83c a47d a93d e592 f43d
000002b0: 90d5 02be 889e c3bd 954d 693e 525e d93c
000002c0: ac6a 41bd d079 03bd 9825 82bd e209 313d
000002d0: 70ed dd3d 0aeb b13d d3f3 ecbd 5ecb 18be
000002e0: 7a1b 24be be8c a63d 5bcf 173e ebac 5fbd
000002f0: 25a8 b03d 7a9d c83c 5f88 403e 9b49 4e3e
00000300: db76 593d d886 19be f0d1 71be 93e2 ea3d
00000310: f9f5 20bc 5e3e a9bb a275 16be 923d 9a3d
00000320: 783d d03d fa84 3e3e 09ad 913d e161 f1bc
00000330: a948 72bd ec20 1abe 95ed 11bb 375e 08bd
00000340: ee0f 6f3d 7765 8e3c d0a9 783c 7bdd 6fba
00000350: a25c 653d 94d3 65be 298b 3dbc 5952 06be
00000360: dd45 1cbd db51 61be 6b18 843d 1d1c af3d
00000370: 5570 6e3b 42e7 aebd d5a0 b23d 521f 893e
00000380: 1d69 dabc 8a8b f2bd f955 b9bd 48be 4f3e
00000390: 34e1 5a3d 3cce 75bd 9d32 6cbe cff2 4abd
000003a0: 20d2 5e3d a6b7 9dbd ae11 72bd 90b3 f0ba
000003b0: a461 febd 1816 7bbd 997d 8b3d 2c4f 9abd
000003c0: 9657 f63d 957d c5bc 7dd4 b13d ea1b 853c
000003d0: 163c 66be 6ecb f03d fb1b bcbc 5bb4 b03d
000003e0: 6903 44bc 0ce7 b03d 7c46 483c fb16 053d
000003f0: 6f4c 0dbe 002f a2bc 3161 0dbc 9a9b e2bc
0.06288558 0.024612648 -0.012646122 0.062885046 -0.05110972 -0.1012214 0.060186066 -0.135834
-0.22690795 0.017607085 -0.06272428 -0.04310688 0.11301439 -0.00065124896 -0.08327672 0.14925823
-0.012099407 0.040622752 -0.04199497 0.05942264 -0.035640076 -0.090259716 0.21975261 0.08027659
-0.13639693 0.15275589 0.023479102 0.0831339 -0.03847995 -0.029823594 0.03421776 -0.07811071
0.015987787 -0.030308014 0.040962104 0.20938163 0.13273066 -0.027412286 -0.04702317 0.10072878
0.11506599 0.14836828 -0.011957181 0.009937481 -0.08611506 -0.05571528 0.024392296 0.31162563
-0.11560871 0.13009337 -0.17619029 -0.04285855 -0.3538766 -0.101810396 0.022182373 0.049603928
-0.19712561 -0.11204109 0.040371172 -0.004569142 0.010984318 0.18816683 0.09054238 -0.009999824
-0.23791835 -0.28700718 0.18043265 0.037992727 -0.0841643 -0.28579402 -0.21063565 0.15963113
-0.053433817 0.014957686 0.019001022 -0.073340684 0.13222872 0.2463011 -0.025641302 -0.09674362
0.067049086 -0.043447576 -0.10967993 -0.15592656 0.1080713 0.19864683 0.05758143 -0.12932451
0.25093722 -0.06619921 0.16160809 -0.07777283 0.11158688 -0.054926917 0.17998984 0.036794268
-0.17911036 -0.15701172 -0.0615524 -0.0005723117 0.058400713 0.10428469 -0.1399293 -0.0724081
0.09492475 -0.09820248 -0.23571657 -0.12863822 -0.06771481 -0.078572005 -0.047225222 -0.07557026
-0.0011355914 0.0049948767 0.015118654 -0.14215754 -0.14991021 -0.04299106 -0.0031456666 -0.09628893
-0.009169972 -0.08545182 -0.058919188 0.18925543 0.017354246 0.15074132 0.0043627447 0.062104672
-0.026734894 0.09472358 -0.2806164 -0.1313976 0.003907225 -0.08922753 -0.15703133 0.148435
0.023228884 0.10747466 0.069605194 -0.0021848541 0.1174059 -0.023929065 0.21147078 -0.19206652
-0.1901676 0.05626932 -0.09895896 -0.0057290676 0.032280363 -0.17646004 -0.12281264 0.013989083
-0.30883598 0.19273183 -0.029511591 -0.2899302 -0.24201101 -0.1383974 -0.077573605 0.05690481
-0.033959866 -0.10957567 -0.070577525 -0.10597581 0.018413674 -0.08607299 0.19269352 -0.03649604
0.060404517 0.024535837 0.08275917 0.119420804 -0.1277678 -0.09551722 0.22783501 0.026534233
-0.04722087 -0.03209859 -0.06354827 0.043222316 0.10836303 0.08687408 -0.11569943 -0.14921328
-0.16026106 0.08132313 0.14825194 -0.054608267 0.08625821 0.024489153 0.18802021 0.20145266
0.053091865 -0.14992845 -0.23615241 0.11468997 -0.009824269 -0.0051649055 -0.14693311 0.07531275
0.10167974 0.18605414 0.07113082 -0.029465618 -0.059151325 -0.15051621 -0.0022266854 -0.033292975
0.0583648 0.017382367 0.015177205 -0.00091501296 0.055996545 -0.22443992 -0.011568823 -0.1311735
-0.038152564 -0.22003882 0.0644997 0.08550284 0.0036382873 -0.08540203 0.087220825 0.26781708
-0.02666145 -0.11843021 -0.09049601 0.2028743 0.053437427 -0.060011134 -0.23066182 -0.049547967
0.05439961 -0.07701044 -0.059098892 -0.0018364061 -0.12420967 -0.061300367 0.06811065 -0.07534632
0.120284244 -0.024107734 0.08683107 0.016248662 -0.22483858 0.11757551 -0.02296256 0.0862815
-0.011963704 0.08637819 0.012223836 0.03249262 -0.13798688 -0.019797802 -0.008629129 -0.027662087

convs.0.bias f4 [32]
00000000: 0cca f1bd 1d52 72bd ea6d 5abd 20f1 09be
00000010: a6ee 05bd 08c1 1cbd 9163 1fbe 9e88 17be
00000020: 5450 47bd 07db 2bbe dd40 47bd 8613 0cbe
00000030: e038 b2bd 25e4 d3bd 6fd9 b0bc 4171 00be
00000040: 5a3d 1bbd c32f 0dbe 1064 96bd 5cc5 31bd
00000050: 02d1 6fbd 6bff 54be 72e7 cbbd f335 cbbd
00000060: 4671 38be dc29 c2bd 7b9d 05be 3da0 b8bd
00000070: cda3 39bd 8bb5 17be 461f 99bd a81d b0bb
-0.118061155 -0.05916034 -0.05332748 -0.13470888 -0.032698296 -0.038270026 -0.15565325 -0.14798209
-0.04866059 -0.16782771 -0.048645843 -0.13679323 -0.08702254 -0.103462495 -0.021588055 -0.12543203
-0.037900306 -0.13787751 -0.07343304 -0.043401107 -0.058548935 -0.20800559 -0.09956254 -0.09922399
-0.1801196 -0.0948064 -0.13048355 -0.09014938 -0.04532223 -0.14815347 -0.07476668 -0.005374629

convs.1.weight f4 [32, 1, 3, 50]
00000000: 7913 01bc 733f dabc bd39 1abd 5b88 523d
00000010: a5f8 ea3c a911 f5bc 2520 c0bd fcef 77bd
00000020: bbac 17be ef81 bfbd 4c93 103e 2402 563e
00000030: 9364 833d 35cd b63d 3afb 6abe d9c7 113e
00000040: f46b 2ebe c992 25be c55e 333c d4d0 0f3d
00000050: e873 6e3e 7c21 f4bd 4999 7ebd f898 a93d
00000060: 3e22 a8bd e283 6bbd d51a c03d 1813 bf3a
00000070: 412f 22be 41e3 ddbd de07 683d c47f b83c
00000080: 5183 73be 5a40 f53c 7892 57bc 1572 91bd
00000090: 2d47 8dbc dba8 9e3d d35d 3b3e 35ef 533d
000000a0: eb62 67bd 740b e43c 7719 2f3e efa4 11be
000000b0: acac 15bd 5083 54bb e95c b5bc 2589 62bd
000000c0: 5b65 2abe b044 173d aacf 733a c434 b13c
000000d0: f276 b7bc 86c9 9a3c 9054 89bd 4af6 723c
000000e0: 037f d4bd 384d 163e fac3 94bd c17c 633b
000000f0: fe37 c4bd 2ddb 673e 6d1d 89be b4db 38bb
00000100: 859c bf3c 5f60 91bd 9f61 323d 4f1f b9bd
00000110: 0b11 06bd 40e3 5ebd afe4 833e 32ad ec3c
00000120: 27a8 613c cc5c bebd 054b 253c 0e3a b1bd
00000130: 804b 19bd f736 97bd 9023 4e3d dbc7 5cbd
00000140: 11ea 29be 2f15 2bbe fec7 5cbe d71d dcbd
00000150: aeb9 2c3e dc33 3d3d dd47 00bd c7a6 e93d
00000160: aa9b a7be ff69 31bd 0117 63bd 7dee 15be
00000170: ff56 c4bd d1b0 343d aa92 54bd 8d71 913d
00000180: 2e32 2bbe 2163 823b 02ef 72bd b399 66be
00000190: 357d 1fbe f620 5dbe 9687 e2bd dd8d 7ebd
000001a0: 6ff5 efbc eefa f23d 6be9 a2bd 3ae2 aabd
000001b0: 537a 86bc 7c05 1d3e d9bc 47be 7168 b03d
000001c0: 3e96 4dbe 947b e33c b982 9a3c 0ff5 5a3e
000001d0: ccb7 23bb 08ab 773d 1295 02bb 11df 9c3c
000001e0: 1452 bebd e911 443d bc8e 253e e626 bdbd
000001f0: 51d1 24be 47bd a0bd 0d37 2a3d 3fed d53d
00000200: aa04 d6bc 7e60 ff3d fe2f 253e e1a7 cbbd
00000210: 86e3 423d 5787 c5bd d38e dcbc 36e0 98bd
00000220: 7dfc dc3c 6cd5 15be 4f2c 923c 63c1 c43d
00000230: 78bb fbbd 1b95 d93d 3b6c a53d b853 14bd
00000240: 31ce 9c3d 4170 26bc 012f 303e 6cab 133d
00000250: e128 8dbe 47ec d9bc f962 993c 17df 133e
00000260: 8959 2dbd ef9d 363d 9f5b 563b 88b1 ed3d
00000270: b985 10be 2c31 c7bc f629 6ebe d1c3 84bd
00000280: 9789 0ebe a16b a7bd 02e1 193d 0857 61bd
00000290: 36a5 d5bc 9af3 53bd 1b23 abbc 7946 323d
000002a0: 48c6 5ebb a003 2d3d 15de 033e cd0c 4f3d
000002b0: 6117 85ba dd3e 47bd 5772 3abe 4db8 e83d
000002c0: ba14 823d 0920 1e3e 7a5f 23be 0f94 9ebd
000002d0: ea6f 153d 43f3 f9bd 1ce5 be3d 8f2d c9bd
000002e0: 6ddd aabd d07b 263d b3f0 963d d947 46be
000002f0: ad06 0ebe b179 c6bd c61d a23d d97a aabd
00000300: 265c 083e 817e 9b3d f568 ba3d 16be b83d
00000310: f3ce 553d f094 923d 140a 91bd 5164 3c3e
00000320: 7784 c53d 1c57 5d3e 882c dcbd 187e 51be
00000330: bc40 4abd d99a 963d 2d8e 6dbd 234f 90bd
00000340: 23a7 b5bd 5ec2 03be 99c4 be3d 83e7 2e3d
00000350: ae40 8a3d eda0 1abe 81de 24bd 6484 e43b
00000360: a17d 88bc 1b91 3ebe e87c 023e 745c 763d
00000370: 881b 1b3e be70 a7bd 2543 ba3d 03e1 97bd
00000380: 349b 18bc dfcc 083e fc08 423c 3b3c 433e
00000390: 3f8d 9c3d 56cf 94bd ca1d b2bd a05b 63bd
000003a0: 2d63 733d a239 9cbd e9b8 40bd 0cdc 9f3d
000003b0: 5e0c a9bd fecc 31be 2b31 ea3d b5fe 3c3e
000003c0: 0305 263d d783 ee3d 23e9 ea3d aef6 853d
000003d0: 1b14 31be 82a6 6fbd 25cd 25be 609d 363c
000003e0: 2ecc 80bd 56f5 673d c4d4 dd3d c9ed 183e
000003f0: 772e c83d de45 0a3d c8bc 223e 0af4 863c
-0.007878178 -0.026641583 -0.03765272 0.05139957 0.028683016 -0.029915648 -0.09381131 -0.0605316
-0.14811985 -0.09350955 0.1411869 0.20899254 0.064156674 0.08925859 -0.22947398 0.14236392
-0.17033368 -0.16169275 0.010947888 0.035111263 0.23286402 -0.11920449 -0.062157903 0.082811296
-0.08209656 -0.05749882 0.09380118 0.0014577834 -0.15838338 -0.10834361 0.056648128 0.02252186
-0.23780562 0.029937912 -0.013157479 -0.071018375 -0.017245853 0.077470504 0.1829751 0.051741797
-0.05649082 0.027837493 0.17099558 -0.14223073 -0.036541626 -0.00324269 -0.02213903 -0.055306572
-0.16640227 0.03693074 0.0009300659 0.021631606 -0.022395585 0.018894922 -0.06705582 0.014829228
-0.10375788 0.14677894 -0.07263942 0.003471181 -0.09580992 0.22642203 -0.26780263 -0.0028207125
0.023390064 -0.070984595 0.04355013 -0.09039175 -0.032731097 -0.05441594 0.2576041 0.02889118
0.013773001 -0.09295043 0.010088687 -0.08653651 -0.037425518 -0.073835306 0.050326884 -0.053901535
-0.16593195 -0.167073 -0.21560666 -0.10747879 0.16867706 0.046192035 -0.031318534 0.114087634
-0.3273595 -0.043313976 -0.05544186 -0.14641757 -0.09586906 0.044113938 -0.051897682 0.07101736
-0.16718361 0.0039791022 -0.059309967 -0.22519569 -0.15575106 -0.21594605 -0.11061017 -0.06214701
-0.029291837 0.11864267 -0.07954677 -0.083439305 -0.01641575 0.15334123 -0.19505633 0.086136706
-0.20076844 0.027768888 0.018861162 0.21382545 -0.0024981378 0.060465842 -0.0019925279 0.019149335
-0.09292999 0.047868643 0.1616773 -0.09235935 -0.16095473 -0.07848602 0.041556407 0.10445642
-0.02612527 0.12469576 0.16131589 -0.0994413 0.047580265 -0.09644955 -0.026923573 -0.0746464
0.026975865 -0.14632195 0.017843394 0.09607198 -0.12291616 0.10624143 0.08077284 -0.036212653
0.076565154 -0.010158599 0.1720543 0.036052153 -0.2757025 -0.026601924 0.018723952 0.14440571
-0.042321716 0.04458421 0.003270842 0.11606127 -0.14113511 -0.02431544 -0.23258194 -0.064826615
-0.13919674 -0.081748255 0.0375681 -0.05501464 -0.026079755 -0.05174599 -0.020890763 0.04352424
-0.0033992697 0.042239785 0.12877686 0.050549317 -0.0010154062 -0.048643935 -0.1820768 0.113632776
0.063516095 0.15441908 -0.1595439 -0.07743084 0.036483683 -0.122046016 0.09321043 -0.09823143
-0.08343015 0.04064542 0.073701285 -0.19363345 -0.13869734 -0.096911795 0.07915835 -0.083242126
0.13316402 0.07592488 0.0910205 0.09020631 0.052199315 0.07157314 -0.070820004 0.18397643
0.09644406 0.21615261 -0.10750681 -0.20458257 -0.04937814 0.073537536 -0.057996918 -0.07046344
-0.088697694 -0.12867114 0.09314842 0.042701256 0.06750618 -0.15100451 -0.04025126 0.00697379
-0.016661467 -0.18610041 0.1274296 0.060146764 0.15147221 -0.08175801 0.09094838 -0.074159645
-0.009314347 0.13359402 0.011842962 0.19065945 0.07644128 -0.07266109 -0.08697088 -0.055507302
0.059420753 -0.0762818 -0.047051344 0.078056425 -0.08254312 -0.17363355 0.11435159 0.18456538
0.040532123 0.1164624 0.114702486 0.06541191 -0.17292826 -0.058508404 -0.16191538 0.01114592
-0.06288944 0.056630455 0.108315974 0.14934458 0.097744875 0.033758037 0.15892327 0.016473789

convs.1.bias f4 [32]
00000000: 7274 c1bc f862 edbd 1643 17be 5231 e2bd
00000010: 7701 39bd 5183 47bd 2aeb 43bd 272a 4fbd
00000020: 93a5 f6bc fdc8 4dbd 843b 1fbe 856e fabd
00000030: a0b5 f9bd 9441 4fbd f06d 89bd a520 96bd
00000040: 00ee adbd c126 2ebd 3ad4 cebd 4cba afbd
00000050: dca7 c7bd f7ed e5bd 20ac 06bd 6a54 4dbd
00000060: 6cfc 8dbd cdf7 c1bd 4a80 aabd 18b5 b0bd
00000070: 8156 a0bd dbc3 f9bd b27c 1ebe 9bd4 3dbd
-0.023615096 -0.115911424 -0.14771685 -0.11044563 -0.045167413 -0.048709217 -0.04783169 -0.05057731
-0.030108249 -0.050240505 -0.15550047 -0.12228111 -0.12192845 -0.05059965 -0.06710422 -0.07330445
-0.084926605 -0.042517427 -0.10099073 -0.08580455 -0.097488135 -0.11227029 -0.032878995 -0.05012933
-0.06932911 -0.094710924 -0.083252504 -0.08628291 -0.07828999 -0.121955596 -0.15477255 -0.046345335

convs.2.weight f4 [32, 1, 4, 50]
00000000: cea9 ebbd 3e6d 64be 7b5b 20be 5791 4abd
00000010: 51bf 5f3d d210 333e 141d b9be 5eda e9bd
00000020: 949b 0abd cf24 e93c 4f28 0f3d 2193 503d
00000030: 3afd 44be 4094 733d 711b 68be 3a9d 833e
00000040: 921a 3f3c 2fbb cbbd 711d c03d 459b 953d
00000050: 0fed 423e bfca 9b3d 9e95 40bd 90c3 11bd
00000060: 1d36 43be 0bb4 c8bd b2d3 dfbc de91 8fbd
00000070: 0849 b7bc 075c 48bd d160 01be 40a9 7f3d
00000080: 42df 29be 48c3 3bbd 4098 8f3d 6030 4d3c
00000090: d29a c2bc 632f b33d f559 463d ad49 d03d
000000a0: 32a4 b83b 1420 5dbd c4be e53d 298a 3a3e
000000b0: 3d19 183d 0197 c23d 4917 07be ea6e ef3c
000000c0: 35b5 9abd 7028 4abd dcd6 e2bd e8fb 8fbd
000000d0: d857 383d df7e 0cbe b6f6 0abe 3c8b a43b
000000e0: 7db7 b0bd f41b e0bc 52ab 0c3d 020a 833e
000000f0: 7f35 74bd f44f 293c 56ce 70bb 34f7 a9bc
00000100: eb84 27be a11b 723d c237 323d 85be 4cbe
00000110: afee e8bc e5b9 91bd c05c 183e a86f 00bc
00000120: cbf9 313d 54e6 f8bd d0c8 71bc fb13 4f3d
00000130: e4b4 403d 81a8 92bd 1500 15bd b8d4 1bbc
00000140: 29fb c7bc 4249 b93c 963f ce3d c101 ae3d
00000150: 3b72 bf3c e2ff 2a3e 36a0 f7bc 5ffa c8bd
00000160: 8566 42bd b588 afbd c103 5fbd 1272 283e
00000170: 2b83 423d 18e4 353e 8cdb 8bbd 476e 523d
00000180: bd21 39bc a440 ec3c 6321 18be b35c 0c3e
00000190: f296 cdbd 7219 3f3e 40ef b93d d1af 793d
000001a0: 5149 d33c 08bb dc3d f3df dc3d f165 cc3d
000001b0: c2bd 9ebd 841e c13d dbc8 06bc dd47 aa3d
000001c0: cad3 3bbe 1007 7dbd 7b57 bb3d e91d b3bd
000001d0: 1876 8ebd 7421 b23d 7f27 753e 4292 febc
000001e0: 0b23 adbd 18e7 53be 436c c73d cd7e 1abe
000001f0: 3a58 06be 0a43 303d eae9 54bb e465 163e
00000200: dde6 e83c c233 673e e753 3e3d d41b eebc
00000210: 331a 63be 8a8c 293c 428f 1cbe 8052 06bd
00000220: 12bf 24be 5341 883d 647a 8abd 87e3 873e
00000230: ccfd 353d 2e56 2dbd 1690 04be 8a21 40bb
00000240: ed48 e5bd e65d 8abd cdc4 b8bd 3a14 463d
00000250: fcd6 52be b14a 46bd 6bf5 fabd fe5f e9bd
00000260: 8ea2 07bd b9ff 3cbd cca1 f0bd 673b 553d
00000270: 336b efbd de48 43bd e66c 903d 104a 17bd
00000280: b701 5e3d 5349 24bc 9452 d13b 6111 2f3d
00000290: eb5f 1cbe 1ff9 87bc 2d95 8f3d 8b63 3c3d
000002a0: ddc0 f13c 9fa4 43bd 1da5 423d c6eb c83d
000002b0: 4003 03be 6578 a93c 7c6b ffba cfe1 0ebd
000002c0: 7ceb 34be 7cb6 3c3e 7cbd 0abc 7ebb 8fbd
000002d0: 4a05 60bc 5e15 223e 9913 c13c 5634 12bd
000002e0: 42a2 9a3a f479 ccbc f550 29be ac24 803d
000002f0: 6032 a93d bd8c 353d 19cd 2cbc bdd5 87bd
00000300: d977 80bd 7c22 03bc 6428 703d a916 433b
00000310: d382 e7bc 89dc de3d 11c3 ecbd 7dd5 a4bd
00000320: 7860 0dbd 8238 5b3e b9d1 e1bd 1d8b 16bd
00000330: a365 b33d 1867 1ebe 3f9a 703d 838a cabd
00000340: 9474 13be 60b5 fc3d e1c4 8fbd 28fb 9f3d
00000350: 1126 47bd 223f a6bd ea99 923d 5b90 45bd
00000360: ba83 283d c273 59bd 3ea8 ca3d a494 29be
00000370: 5bdc 5f3c 9b3d 3a3d 70a0 a8bd be55 e53d
00000380: 082a 353c 3c00 463d be53 e63d afed 9b3d
00000390: 5752 713d 8533 64bd ba81 2f3e ec6a 8bbd
000003a0: 6fca f5bd 3305 e83c dedd 6ebd 51db e13d
000003b0: 4da7 8d3c 1a58 c0bd 33c1 243e d5b9 e23c
000003c0: 2aaf 893e 66e3 653e e56c 123e 933e 2c3d
000003d0: 28ee 33bd 02a4 0bbe 51f5 7abd b39b 013e
000003e0: e982 fa3b b0d3 473e 6b33 983d 99fa 1f3c
000003f0: 6c7a cbbd 7139 16bd f190 5c3d ac7b 42be
-0.11506997 -0.22307298 -0.15659897 -0.049455013 0.054625813 0.17486885 -0.36154997 -0.11418603
-0.033839777 0.028459935 0.03495055 0.050921563 -0.19237223 0.059467554 -0.22666718 0.25705892
0.01166405 -0.09947812 0.093806155 0.07305006 0.19035743 0.0760703 -0.047017686 -0.035586894
-0.19063611 -0.097999655 -0.027322624 -0.07010244 -0.022373691 -0.04891589 -0.12634589 0.06241727
-0.16589072 -0.04584053 0.07011461 0.0125237405 -0.023755465 0.08749273 0.048425633 0.101703025
0.005634808 -0.05398567 0.11218026 0.18216766 0.037133444 0.09501458 -0.13192476 0.029227693
-0.07554094 -0.04935497 -0.110761374 -0.07030469 0.04500565 -0.13720272 -0.13570675 0.005021481
-0.086287476 -0.02735708 0.03434307 0.25593573 -0.05962133 0.010334004 -0.003674408 -0.020747758
-0.16359298 0.05910838 0.043510206 -0.19994552 -0.028434126 -0.07115535 0.14879131 -0.007839121
0.04345111 -0.121533066 -0.01475735 0.050556164 0.04704751 -0.07161046 -0.03637703 -0.009511165
-0.024411755 0.02261794 0.10070722 0.08496428 0.023369899 0.16699174 -0.030227762 -0.098133795
-0.04746105 -0.08570997 -0.05444694 0.16449764 0.047488373 0.17762792 -0.068289846 0.0513747
-0.011299548 0.028839417 -0.14856486 0.13707237 -0.10038556 0.1866205 0.090788364 0.060958687
0.025791796 0.10777861 0.107849024 0.09980381 -0.07751037 0.094296485 -0.008226599 0.08314488
-0.1834251 -0.061774313 0.09147545 -0.08745939 -0.06956118 0.08697787 0.23940848 -0.0310756
-0.084539495 -0.20693624 0.09737446 -0.15087433 -0.13119593 0.043032683 -0.0032488056 0.14687306
0.028430397 0.22578338 0.046466734 -0.029066004 -0.22177963 0.0103484485 -0.15289024 -0.032793522
-0.16088513 0.066530846 -0.067616254 0.26540777 0.044431493 -0.042318515 -0.1294559 -0.0029316866
-0.1119555 -0.06756191 -0.09021912 0.048359133 -0.20589823 -0.048411075 -0.12253841 -0.11395262
-0.03311401 -0.046142314 -0.1174961 0.052058604 -0.116903685 -0.047676913 0.07052021 -0.036935866
0.054200854 -0.0100272475 0.006388018 0.042741183 -0.15270965 -0.016598282 0.07010875 0.04599337
0.02951091 -0.047764417 0.047520746 0.09810595 -0.12794209 0.020687291 -0.0019486989 -0.034883317
-0.17667955 0.18428987 -0.008468028 -0.07018183 -0.013673136 0.15828463 0.023568915 -0.035694443
0.0011797624 -0.024960496 -0.16534789 0.062569946 0.082615614 0.04432367 -0.010546946 -0.06632564
-0.06272859 -0.008003827 0.05863227 0.0029768145 -0.028260624 0.108819075 -0.115606435 -0.08048532
-0.034515828 0.21408275 -0.110263295 -0.036753763 0.0875962 -0.15469015 0.05874085 -0.098897
-0.1439994 0.12339282 -0.070199735 0.07811576 -0.048620287 -0.081175104 0.07158263 -0.04823337
0.04114125 -0.05308891 0.09895371 -0.16560608 0.013663377 0.045468908 -0.08233726 0.11197995
0.011057384 0.048340067 0.11246441 0.07613694 0.058916416 -0.055713195 0.1713933 -0.06807503
-0.12001502 0.028322792 -0.058317058 0.110281594 0.01729169 -0.09391804 0.16089325 0.027676502
0.26891452 0.22450027 0.14299352 0.042051863 -0.043928295 -0.13636783 -0.06126911 0.12657051
0.0076450002 0.19514346 0.07431682 0.009764337 -0.099354595 -0.036675874 0.053849164 -0.1899249

convs.2.bias f4 [32]
00000000: 7771 39bd 057b adbd 7c59 21be 42fe 49bd
00000010: f14a 3dbe 1d1c 8cbd e6a2 b3bd 078b 94bd
00000020: 3b67 50bd 78a0 d1bd adbc b2bd 4626 b0bd
00000030: 7e34 46bd fd10 e8bd 08f1 c1bd f437 eebd
00000040: b6e0 e7bd 4b2f 2cbd def0 42bd b6f3 0dbd
00000050: 09b9 64bd 1133 3fbd a609 09be 502e 5bbd
00000060: 9344 c4bd 448e a9bd 12b2 82bd 7f9a ddbd
00000070: 4773 e9bc 3acc 0abe 8726 66bd 9239 8cbd
-0.045274224 -0.0847073 -0.15756792 -0.049314745 -0.18485619 -0.068413 -0.08771305 -0.0725308
-0.0508797 -0.10235685 -0.08727393 -0.0860105 -0.048389904 -0.11331365 -0.09469801 -0.11631766
-0.11322157 -0.04203729 -0.04759299 -0.03465625 -0.055840526 -0.04667956 -0.13382587 -0.053510964
-0.09583392 -0.08279088 -0.063816205 -0.108204834 -0.028497351 -0.13554469 -0.056189086 -0.06846918

fc.weight f4 [2, 96]
00000000: 56f5 66be 4789 8a3e 9936 3c3e 2664 6ebe
00000010: 982d 743e 5f27 3fbe 4817 55be a513 8bbe
00000020: d8fd 893e 4aa8 513e 9a63 18be 119d a2be
00000030: 0cbb 7d3e 3064 5c3e 3999 663e 3173 453e
00000040: 0899 523e ff36 59be 516f 7ebe 9f79 693e
00000050: 8d23 86be 00b8 96be cd8f 813e 0483 7e3e
00000060: 39ae 5dbe 6858 983e d7e2 90be 1e27 86be
00000070: 2603 a13e ce74 913e 7bf7 6d3e e65c 0c3e
00000080: 3512 74be 42f3 773e 5988 1ebe f09d 843e
00000090: db39 54be 32cc bbbe 5ec6 96be 63c1 813e
000000a0: a595 943e 51dd 99be 6dae 59be f85c 8abe
000000b0: 8610 92be 47ef 723e 0174 3a3e 5294 58be
000000c0: 730d 26be f43d 82be bd8e a33e be64 c2be
000000d0: fd41 a63e d628 973e c6ca 513e a6ec afbe
000000e0: fdc0 9c3e b12a 18be 2e1c 68be 3222 963e
000000f0: ed1e 8c3e 176f 39be 2e0b 9ebe e63b 7e3e
00000100: 27e5 eabd a38e 7c3e 6456 953e d849 9fbe
00000110: ca31 703e f84f 893e 8df3 a03e 5fc9 54be
00000120: 39d7 8fbe 083f 7ebe 6f26 45be 54d1 6dbe
00000130: 397a b43e 1a53 6b3e 79d9 933e ed78 39be
00000140: c24a 8fbe 8ba4 0ebe df73 7c3e 69d0 abbe
00000150: 97c0 753e 9c6e 9f3e a8b8 1abe 5d8c 97be
00000160: 1f65 90be 1681 98be ffce 5abe 9535 83be
00000170: 9546 7e3e d9e4 383e d723 533e 10c8 693e
00000180: 4b3c c93e 1468 24be 6a64 64be 8800 103e
00000190: 484f 24be f456 753e 433e 773e 8c71 563e
000001a0: d4a9 79be 7176 5bbe f54d ad3e c7ac 233e
000001b0: 8dc2 9cbe 9812 8fbe 644f 85be c37d 13be
000001c0: 7b5c 2fbe 1b61 433e 2274 a13e 9d3b a7be
000001d0: e40b a73d ae3b 553e 4500 7cbe 510c a5be
000001e0: 0638 eb3d c94e 38be d735 063e d624 2c3e
000001f0: a388 71be d812 61be e23b 42be 6f9b 8cbe
00000200: 3812 723e d809 43be 8dd6 a83e 5e15 86be
00000210: 3d39 253e f13b 793e d696 883e 9de2 10be
00000220: b767 0fbe bb4b 943e b61c 8c3e 9498 663e
00000230: 7a69 7c3e 4763 8dbe ee30 55be dd1c ae3e
00000240: 5e6e 8e3e c710 933e 8988 72be 5c48 c43e
00000250: a2e8 9dbe f362 b8be 0450 10be 5e26 2b3e
00000260: 1cd7 57be f89d 803e 889b a13e bd2f 4dbe
00000270: edd4 7bbe c885 853e 77f9 6e3e d8b2 ebbd
00000280: 6992 8b3e c450 abbe 0212 98be dce3 2c3e
00000290: 4717 8fbe 1370 aebe 07bc 92be 2794 883e
000002a0: fa9e 753e 4056 a43e 07d1 563e 680f c13e
000002b0: c1e0 82be cd7c 64be a00e 87be 1d43 8f3e
000002c0: e2a9 8e3e 0c5b 9b3e c2a1 a2be 4d1c 8d3e
000002d0: c9af 9dbe 2a52 52be 5121 883e 7216 a13e
000002e0: 75b6 593e 285e 7c3e 63b5 8b3e d0bc 973e
000002f0: df9b 94be bb9c 88be f361 60be 89a2 3ebe
-0.22554526 0.2705786 0.18380202 -0.23280391 0.23845518 -0.18667363 -0.20809662 -0.27163425
0.2695148 0.20474353 -0.14881745 -0.31760457 0.24778384 0.21522593 0.22519387 0.19282223
0.2056619 -0.21212386 -0.24847151 0.22800301 -0.26198998 -0.29437256 0.25305024 0.24854666
-0.21648492 0.2975495 -0.28298065 -0.2620172 0.31447715 0.28409427 0.23238938 0.13707313
-0.2383507 0.24213889 -0.154817 0.25901747 -0.20725195 -0.36679226 -0.29448217 0.25342855
0.2902042 -0.30051664 -0.21257944 -0.27024055 -0.2852823 0.2372409 0.18208314 -0.2115033
-0.16216068 -0.2543789 0.31944838 -0.37967485 0.3247222 0.29523343 0.20487508 -0.34360236
0.30615988 -0.14860035 -0.22667 0.29322964 0.27367344 -0.18108784 -0.30867904 0.24827537
-0.114694886 0.24663787 0.29167473 -0.31111026 0.23456493 0.26818824 0.31435814 -0.20779942
-0.2809389 -0.24828732 -0.19252943 -0.23224384 0.35249498 0.2298092 0.28876856 -0.18112536
-0.27986723 -0.13929956 0.24653576 -0.33557442 0.23999248 0.31139076 -0.15109503 -0.29599276
-0.2820215 -0.29785985 -0.21368025 -0.25626817 0.24831612 0.18056048 0.2061914 0.22830224
0.39303812 -0.16055328 -0.2230393 0.14062703 -0.16045868 0.23958951 0.24144845 0.20941752
-0.2438119 -0.214319 0.3384854 0.15983878 -0.3061718 -0.27943873 -0.26037133 -0.14403443
-0.17125122 0.19080012 0.31533915 -0.3266267 0.08156565 0.20823547 -0.24609478 -0.3223596
0.11485295 -0.17998804 0.13106476 0.16810927 -0.23587279 -0.21979845 -0.18968156 -0.27462336
0.23639762 -0.19046724 0.3297619 -0.26188177 0.16135116 0.24339272 0.2667758 -0.14148946
-0.14004408 0.28964028 0.27365655 0.22519141 0.24649611 -0.27614805 -0.20819446 0.34006396
0.27818578 0.28723738 -0.23684897 0.38336456 -0.30841547 -0.36012992 -0.14093024 0.16713855
-0.21078151 0.2512052 0.31563973 -0.20037742 -0.24592943 0.2607863 0.23337351 -0.11508721
0.2726014 -0.33460057 -0.2970124 0.16883796 -0.27947447 -0.3406988 -0.28659078 0.2667553
0.23986426 0.32097054 0.20978175 0.37707067 -0.255621 -0.22313233 -0.26378345 0.2798089
0.27863985 0.303429 -0.31764036 0.27560654 -0.30798176 -0.20539156 0.26587918 0.31462437
0.21261008 0.24645293 0.27286825 0.2963624 -0.2902517 -0.26682076 -0.21912365 -0.1861669

fc.bias f4 [2]
00000000: 2942 413e b70c 09be
0.18872894 -0.13383757
