results/cnn/cnn_filters_100x[2, 3, 4]_length_64_batch_64_lr_0.1.pth (torch, 187600 bytes, 8 tensors)

convs.0.weight f4 [100, 1, 2, 50]
0	0xbf831433	-1.0240539
1	0xbe126c7f	-0.142992
2	0x3d173954	0.036919907
3	0x3da45e3e	0.08025788
4	0xbf43ee19	-0.76535183
5	0xbee6b321	-0.4505854
6	0x3d4f8164	0.050660506
7	0xbf6ea71d	-0.93223745
8	0xbf662e12	-0.8991405
9	0xbb789b8b	-0.0037934508
10	0xbf8b8b51	-1.0901891
11	0x3f4f0d5e	0.8087977
12	0xbf6db4bd	-0.9285391
13	0xbf3f452c	-0.7471492
14	0xbf202883	-0.62561816
15	0xbc29e321	-0.010369093
16	0xbf24cd4e	-0.6437577
17	0xbf8a1785	-1.0788428
18	0x3cd2fb57	0.025754614
19	0xbf17b6e2	-0.5926343
20	0xbf9d021f	-1.2266272
21	0xbf1b5184	-0.6067126
22	0x3f6ce57a	0.92537653
23	0xbe5824a6	-0.2110773
24	0xbda456d4	-0.08024374
25	0x3f4bb028	0.7956567
26	0xbd3c93f6	-0.046039544
27	0x3dcbb302	0.099462524
28	0xbf73995a	-0.9515587
29	0xbe4cd7e0	-0.20004225
30	0x3c9df80b	0.019283315
31	0xbf485987	-0.7826161
32	0xbf75ce61	-0.96018034
33	0xbf682093	-0.90674704
34	0xbf7759ef	-0.966216
35	0xbca2cada	-0.019872118
36	0xbe8fa1cc	-0.2805313
37	0xbce216d8	-0.027598783
38	0xbc130096	-0.008972308
39	0x3f7b3729	0.9813104
40	0x3e33b340	0.17548847
41	0x3f781827	0.96911854
42	0xbc294c7f	-0.0103331795
43	0xbf93b1aa	-1.1538594
44	0xbb7bb9bf	-0.0038410274
45	0x3e57ea7e	0.21085545
46	0xbf9eab32	-1.2395995
47	0x3f44453d	0.7666815
48	0xbf4bb3f1	-0.79571444
49	0x3f5220c6	0.8208126
50	0xbf2ddb22	-0.67912495
51	0xbf01fa29	-0.5077234
52	0x3f016654	0.50546765
53	0x3f00db89	0.50334984
54	0x3f2e4b13	0.68083304
55	0x3f17f9f6	0.59365785
56	0x3f3324e1	0.6997815
57	0xbf2e79ef	-0.68154806
58	0xbf1a40ff	-0.60255426
59	0xbf283331	-0.6570311
60	0xbf08b261	-0.53397185
61	0x3f215676	0.63022554
62	0xbf14c3b2	-0.5811111
63	0xbf29c2aa	-0.6631266
64	0xbf10f643	-0.56625766
65	0x3f09573a	0.5364872
66	0xbf242f76	-0.6413492
67	0xbf2ac97c	-0.6671369
68	0xbf31b075	-0.6940988
69	0x3f03e843	0.5152628
70	0xbf129278	-0.57254744
71	0xbf0c9304	-0.5491183
72	0x3f238643	0.6387674
73	0x3f247ef9	0.64256245
74	0xbf162ddc	-0.58663726
75	0x3f2c49a9	0.67299896
76	0xbf00b618	-0.50277853
77	0x3f26ac25	0.6510642
78	0xbf1fec17	-0.6246962
79	0xbf0d4323	-0.5518057
80	0x3f01542a	0.5051905
81	0xbf0fcd90	-0.5617304
82	0xbf027f9f	-0.50975984
83	0xbf2724ed	-0.6529072
84	0xbf10926d	-0.5647343
85	0x3f187bcc	0.595639
86	0xbf2c4fbc	-0.67309165
87	0xbf071e11	-0.5278025
88	0x3f15d5f3	0.58529586
89	0x3f142fcf	0.5788545
90	0x3f31d9a1	0.694727
91	0x3f1ffa08	0.6249089
92	0x3f11e6de	0.569929
93	0xbf1654ee	-0.5872334
94	0x3f0a314b	0.53981465
95	0x3f179d6c	0.5922458
96	0xbf208373	-0.62700576
97	0x3f179d2a	0.5922419
98	0xbf312cea	-0.6920916
99	0x3f217137	0.6306338
100	0xbef82b79	-0.48470667
101	0xbee60e05	-0.4493257
102	0xbf20c0a5	-0.6279395
103	0x3ee54f74	0.4478718
104	0xbeb7d061	-0.35901168
105	0x3dd76246	0.10516791
106	0x3bac0637	0.0052497643
107	0xbef2ecd1	-0.47446302
108	0xbf1780ec	-0.59181094
109	0xbed3c8a1	-0.41364005
110	0xbf2fcb5e	-0.6866969
111	0x3ef5d74f	0.4801583
112	0xbefd7f98	-0.4951141
113	0xbf16e3db	-0.5894143
114	0xbf10e3aa	-0.5659739
115	0x3edb2dde	0.4280843
116	0xbf1dc9dd	-0.61636144
117	0xbf2282ac	-0.6348064
118	0xbf0c8de8	-0.5490403
119	0xbf0ba293	-0.54544944
120	0xbf0d5a5b	-0.55215997
121	0xbf0864c7	-0.53278774
122	0x3f200af0	0.6251669
123	0xbefbd51c	-0.49186027
124	0xbf145f58	-0.57957983
125	0x3ef72abe	0.48274797
126	0x3f0a1810	0.53942966
127	0x3ecc357b	0.39884552
128	0xbf0ca2c3	-0.54935855
129	0xbefe4ab3	-0.49666366
130	0x3e2f47c6	0.17117223
131	0xbf2467e5	-0.6422103
132	0xbf35840c	-0.7090461
133	0xbef7bf2a	-0.48388034
134	0xbf629440	-0.8850746
135	0x3e421546	0.18953428
136	0xbcbb8c5b	-0.022894075
137	0xbe68be18	-0.22728765
138	0xbefd8ff1	-0.4952388
139	0x3f0e3874	0.5555489
140	0x3f09f101	0.5388337
141	0x3f0df363	0.55449504
142	0x3eda5753	0.42644748
143	0xbe8e1059	-0.27746847
144	0x3e0b41a5	0.1359926
145	0x3f06e4ce	0.5269288
146	0xbf2ffca5	-0.6874488
147	0x3ee35c21	0.44406226
148	0xbedee5ca	-0.4353469
149	0x3ebc2f18	0.3675468
150	0xbf1dc7f9	-0.6163326
151	0xbee2048d	-0.44144097
152	0xbef886dd	-0.48540393
153	0x3ed3f605	0.41398636
154	0xbeff7a26	-0.4989788
155	0x3ecfaf86	0.405636
156	0x3f1eee41	0.62082297
157	0xbedd3ad7	-0.43208954
158	0xbf2c9a2b	-0.6742274
159	0xbac46baf	-0.0014985705
160	0xbf1503f5	-0.5820916
161	0x3ed1a8c7	0.4094908
162	0xbf36e70b	-0.71446294
163	0xbf296ee9	-0.6618486
164	0xbef4e46b	-0.4783052
165	0xbf10943a	-0.56476176
166	0xbf297494	-0.6619351
167	0xbf1868cd	-0.59534913
168	0xbf29e4e6	-0.66364896
169	0xbe184a9d	-0.14872213
170	0xbec43fb9	-0.38329867
171	0xbf34a886	-0.70569646
172	0x3f16e5d0	0.58944416
173	0xbf175de4	-0.5912764
174	0xbf07be1c	-0.5302446
175	0x3f113787	0.56725353
176	0x3e98ae9e	0.29820722
177	0xbec5dc77	-0.38644764
178	0xbf21a136	-0.63136613
179	0x3efca2e5	0.4934303
180	0xbcb2798a	-0.02178647
181	0xbf17cbaa	-0.5929514
182	0xbf29c49d	-0.66315633
183	0xbf1aeb7e	-0.6051558
184	0xbf07b88c	-0.5301597
185	0x3d6761ab	0.056489628
186	0xbf23acc2	-0.6393548
187	0xbe93d878	-0.2887609
188	0xbf47306d	-0.77808267
189	0x3f0732e4	0.5281203
190	0x3f1e59e7	0.6185593
191	0x3f404d7b	0.75118226
192	0x3f32001a	0.69531405
193	0x3f002196	0.5005125
194	0x3ed531a2	0.4163943
195	0x3edff354	0.43740332
196	0xbf1f61e4	-0.62258744
197	0x3f1e211e	0.6176928
198	0xbf454e4a	-0.77072585
199	0x3f1615b7	0.58626884
200	0x3e12591a	0.14291802
201	0xbfdecc34	-1.7406068
202	0xbf247bd0	-0.6425142
203	0xbf075808	-0.528687
204	0xbfd368cd	-1.6516358
205	0xbfe2b8bc	-1.7712626
206	0x3f25c171	0.64748293
207	0xbfeb17bc	-1.8366618
208	0xbfd59261	-1.6685296
209	0xbfe481ee	-1.7852151
210	0xbf8c7e44	-1.0976033
211	0x3f1ddcb2	0.6166488
212	0xbf940a34	-1.1565614
213	0xbfddc91a	-1.7326996
214	0xbfd5106e	-1.6645639
215	0xbf156f1c	-0.58372664
216	0xbfd70ea0	-1.6801338
217	0xbf090eb1	-0.5353804
218	0xbfa341ef	-1.2754496
219	0x3f26942e	0.65069854
220	0x3fdba3cb	1.7159361
221	0x3f203473	0.6258003
222	0xbf120bda	-0.57049334
223	0x3f1a48cf	0.6026735
224	0x3f1511a1	0.58230025
225	0x3fcfe877	1.6242818
226	0xbf05befd	-0.5224455
227	0xbef7a065	-0.4836456
228	0xbf9e8eb3	-1.2387298
229	0xbf12b415	-0.57306033
230	0xbf13ac49	-0.5768476
231	0xbfe150e0	-1.7602806
232	0xbfd2022b	-1.6406912
233	0xbfdf74af	-1.7457484
234	0xbfe19d36	-1.7626102
235	0xbee98892	-0.45612007
236	0x3f1eada9	0.61983734
237	0xbf043394	-0.516412
238	0x3fe7d44f	1.8111666
239	0xbef15b51	-0.4713998
240	0x3fded27e	1.7407987
241	0x3fdb3a9a	1.7127259
242	0x3f02d142	0.5110055
243	0xbfd9c4ee	-1.7013223
244	0x3fb47c66	1.4100463
245	0x3fe508ca	1.7893307
246	0xbfe0f8e8	-1.757596
247	0x3fba1f87	1.4540871
248	0x3efdce8f	0.49571654
249	0x3f18e164	0.5971892
250	0xbf0870aa	-0.5329691
251	0xbf1e95e6	-0.61947477
252	0xbf323afa	-0.6962124
253	0x3f01c521	0.5069142
254	0xbf29ec25	-0.6637595
255	0xbf121671	-0.5706549

convs.0.bias f4 [100]
0	0xbf66690d	-0.90004045
1	0xbf24f88b	-0.64441746
2	0xbfddbf35	-1.7323977
3	0xbfa7d074	-1.311049
4	0xbf1ca053	-0.61182135
5	0xbff564e3	-1.9171413
6	0xbfadadd3	-1.3568672
7	0xbfdbb18d	-1.7163559
8	0xbf602cb2	-0.875682
9	0xbf2993b7	-0.6624102
10	0xbf358425	-0.7090476
11	0xbfa90955	-1.3205973
12	0xbf1e754a	-0.6189772
13	0xbf321113	-0.69557303
14	0xbf246fe6	-0.64233243
15	0xbf3d1ced	-0.7387226
16	0xbf622942	-0.88344204
17	0xbfcad1a1	-1.5845224
18	0xbf643456	-0.8914236
19	0xbf2015bb	-0.6253316
20	0xbf9d3ad3	-1.2283577
21	0xbf237fe2	-0.6386701
22	0xbf469bda	-0.7758156
23	0xc02ad530	-2.669262
24	0xbf2068e4	-0.6266005
25	0xbf1effb2	-0.6210891
26	0xbf13f4a7	-0.57795185
27	0xbf32ae47	-0.69797176
28	0xbf358bdb	-0.7091653
29	0xbfaa13cd	-1.3287293
30	0xbf289673	-0.6585457
31	0xbf11ec87	-0.5700154
32	0xbf139fc2	-0.57665646
33	0xbf0fc55b	-0.56160516
34	0xbf225f96	-0.634271
35	0xbf168111	-0.5879069
36	0xbfc5a5c8	-1.5441217
37	0xbf2617d3	-0.648801
38	0xbf3e8807	-0.7442631
39	0xbf267066	-0.65015256
40	0xbfdac472	-1.70912
41	0xbf48d371	-0.78447634
42	0xbf568796	-0.8380064
43	0xbf9a3840	-1.2048416
44	0xbf8c8f0d	-1.0981156
45	0xbf055671	-0.52085024
46	0xc0648069	-3.5703375
47	0xbfcc0bd0	-1.5941105
48	0xbf1ae192	-0.60500443
49	0xbf254580	-0.64559174
50	0xbf4b1cb0	-0.7934065
51	0xbf259c26	-0.6469139
52	0xbf0acb9a	-0.5421692
53	0xbf04a5b8	-0.51815367
54	0xbf184adf	-0.59489244
55	0xbf65507b	-0.8957593
56	0xbf33151b	-0.6995408
57	0xbf443e50	-0.7665758
58	0xbf0b09ff	-0.5431213
59	0xbf22bde8	-0.63571024
60	0xbf399fef	-0.72509664
61	0xbeff93b7	-0.49917385
62	0xbf1f9915	-0.6234296
63	0xbf480b5c	-0.78142333
64	0xbf1872da	-0.5955025
65	0xbf61a777	-0.88146156
66	0xbf2205f9	-0.63290364
67	0xbf185df9	-0.5951839
68	0xbf1f87f9	-0.6231685
69	0xc044f5f1	-3.077511
70	0xbf106ff8	-0.5642085
71	0xbf2f556d	-0.68489724
72	0xbf001c83	-0.50043505
73	0xbf19e7ff	-0.6011962
74	0xbf7ab32c	-0.97929645
75	0xc01b54f2	-2.4270597
76	0xbfc93b03	-1.5721134
77	0xbf759231	-0.95926195
78	0xbf1b1b82	-0.6058885
79	0xbf0dc5a3	-0.55379695
80	0xbf25ceff	-0.64768976
81	0xbf0dcc92	-0.55390275
82	0xbf881fc1	-1.063469
83	0xbf2562b8	-0.6460376
84	0xbf29dc9a	-0.66352236
85	0xbf181511	-0.59407145
86	0xc05ac2f9	-3.4181502
87	0xbf98476c	-1.1896796
88	0xbf16ae96	-0.58860147
89	0xbf1c54d7	-0.61066955
90	0xbf9a0dd1	-1.2035466
91	0xbf173e13	-0.5907909
92	0xbf175eed	-0.5912922
93	0xbf2e90e6	-0.6818985
94	0xbf194417	-0.5986952
95	0xbf258d35	-0.6466859
96	0xbf23db21	-0.6400624
97	0xc00e247e	-2.2209773
98	0xbf139e5e	-0.57663524
99	0xbf120cca	-0.57050765

convs.1.weight f4 [100, 1, 3, 50]
0	0xbf427e3a	-0.75973856
1	0xbf54b620	-0.830904
2	0xbf075b55	-0.52873737
3	0x3e88ccb9	0.2671869
4	0xbf1ee263	-0.6206419
5	0x3f208736	0.62706316
6	0x3ed3035a	0.41213495
7	0xbf1dd28c	-0.61649394
8	0xbf39838d	-0.72466356
9	0xbf3f46a3	-0.7471716
10	0xbf261f7d	-0.648918
11	0x3f4d699b	0.80239266
12	0xbefb517b	-0.49085602
13	0xbee19cd0	-0.4406495
14	0xbe5648f5	-0.20926268
15	0xbebf9613	-0.37419185
16	0xbeea7812	-0.4579473
17	0xbeb9ae5f	-0.36265847
18	0xbf5de377	-0.8667521
19	0xbef5f75b	-0.4804028
20	0xbeb891c4	-0.3604871
21	0xbedb0d03	-0.42783365
22	0x3efb2ee0	0.490592
23	0x3dd86181	0.105654724
24	0xbeca72d8	-0.39540744
25	0x3ebc03c1	0.36721614
26	0xbe48d972	-0.19614199
27	0xbf38f947	-0.7225537
28	0xbf2f7dff	-0.6855163
29	0x3eef1dc0	0.46702385
30	0x3cfd1327	0.030892922
31	0xbf1d47cb	-0.6143767
32	0xbef9a8b5	-0.48761526
33	0xbf371ef4	-0.71531606
34	0xbecd6d19	-0.40122297
35	0x3ee4375f	0.44573495
36	0xbf281968	-0.65663767
37	0x3e9e8454	0.30960333
38	0xbea9f03e	-0.33191103
39	0x3f371313	0.7151348
40	0x3f639204	0.8889468
41	0x3f3435cf	0.70394605
42	0x3f3a217e	0.72707355
43	0xbedc1a4e	-0.4298882
44	0x3f3a1cf2	0.7270042
45	0x3ee00b74	0.43758738
46	0xbf50e57a	-0.81600153
47	0x3f43b6a4	0.7645056
48	0xbf23ea90	-0.6402979
49	0x3f352666	0.70761716
50	0xbebbfade	-0.36714834
51	0xbef5dc3b	-0.48019585
52	0xbf21c0af	-0.63184637
53	0x3eefe52d	0.46854535
54	0x3e9f300a	0.31091338
55	0x3e9894bf	0.29800984
56	0xbe7c7448	-0.24653733
57	0xbf2abee0	-0.666975
58	0xbf36914c	-0.71315455
59	0xbf3690f2	-0.7131492
60	0xbf27aecc	-0.65501094
61	0x3ed62813	0.4182745
62	0xbf403936	-0.75087297
63	0xbf2a65b9	-0.66561466
64	0xbf22b1a3	-0.635523
65	0xbf355be3	-0.70843333
66	0xbee997c8	-0.45623612
67	0xbf0602cc	-0.5234802
68	0xbf3b4e98	-0.731668
69	0x3d8411ba	0.064486936
70	0x3ee3b5b1	0.44474557
71	0xbec2733b	-0.3797854
72	0x3f2abb28	0.6669183
73	0xbef8550c	-0.48502386
74	0xbeb4f490	-0.35342836
75	0x3f370fd5	0.7150853
76	0xbec59fb1	-0.38598397
77	0xbe417e67	-0.18895875
78	0xbf05307d	-0.5202711
79	0x3f390559	0.72273785
80	0xbf42c071	-0.7607489
81	0xbf363b75	-0.71184474
82	0xbecbe230	-0.39821005
83	0xbf3b4d16	-0.731645
84	0xbeefde64	-0.46849358
85	0xbf282de7	-0.6569504
86	0xbec34a7c	-0.38142765
87	0xbf616880	-0.8805008
88	0x3f133a74	0.5751107
89	0x3f26d538	0.65169096
90	0x3f207fd1	0.6269503
91	0x3f43874c	0.7637832
92	0x3ee42cb3	0.44565353
93	0xbeb16daa	-0.3465398
94	0x3f41210b	0.75441045
95	0x3f4517d7	0.769895
96	0xbf2d000e	-0.6757821
97	0x3f2fed51	0.6872149
98	0xbf4e7a4e	-0.8065537
99	0x3ebf4889	0.37360027
100	0xbf371c86	-0.715279
101	0x3e4a1d96	0.19737849
102	0xbf166158	-0.58742285
103	0x3f1f8dda	0.62325823
104	0x3f44430f	0.76664823
105	0xbf254176	-0.6455301
106	0xbed0294d	-0.4065651
107	0xbf58b71e	-0.84654415
108	0xbf2227e0	-0.63342094
109	0x3e49b0bd	0.19696327
110	0xbed9f0ed	-0.42566624
111	0x3ecd4816	0.4009406
112	0xbf33840d	-0.7012337
113	0xbf21ad03	-0.6315462
114	0xbf2c26a0	-0.6724644
115	0xbf046817	-0.5172133
116	0xbf2aa757	-0.6666159
117	0xbf68c476	-0.90924776
118	0xbec573f5	-0.3856503
119	0x3ed44ee9	0.41466454
120	0xbea70b0e	-0.32625622
121	0xbf4356c5	-0.76304275
122	0x3f216fa8	0.63061
123	0xbe9c683a	-0.3054827
124	0xbeb8a3da	-0.3606251
125	0x3f1eaac9	0.6197935
126	0x3e14038c	0.14454478
127	0xbedd2b0c	-0.43196905
128	0xbf2566c4	-0.6460993
129	0x3f521bb5	0.8207353
130	0xbeb65417	-0.3561103
131	0xbef35c4f	-0.47531363
132	0xbebcea6e	-0.36897606
133	0xbf2a3837	-0.6649203
134	0xbf02632b	-0.5093257
135	0x3e173a12	0.14768246
136	0xbe608def	-0.21929143
137	0x3ec90cc1	0.39267543
138	0x3f295348	0.661427
139	0x3f52bdb0	0.8232069
140	0x3f4cf830	0.80066204
141	0x3f4ffd65	0.81246024
142	0x3f31deb1	0.69480425
143	0x3e87b3f9	0.26504496
144	0x3ed79d19	0.42112043
145	0xbe912489	-0.28348187
146	0xbf28b390	-0.6589899
147	0x3f30e80c	0.69104075
148	0xbf53c0c3	-0.82716006
149	0x3f574fd5	0.8410619
150	0xbf04f088	-0.5192952
151	0xbee07cfe	-0.4384536
152	0xbf08e8fc	-0.53480506
153	0x3f117ecd	0.5683411
154	0xbe4f735c	-0.2025885
155	0xbf041448	-0.51593447
156	0x3f00bb71	0.5028601
157	0xbf102ccd	-0.5631836
158	0xbf01a2bd	-0.50638944
159	0xbf32ce76	-0.69846284
160	0xbef56291	-0.47926763
161	0x3f08fdf6	0.53512514
162	0xbf072147	-0.5278515
163	0xbf09a0ad	-0.53760797
164	0xbf010642	-0.50400174
165	0x3e654b8f	0.22392105
166	0xbec13891	-0.3773847
167	0xbf1f41fc	-0.6221006
168	0xbe3727b3	-0.17886238
169	0xbef6b2b5	-0.48183218
170	0x3e4378d6	0.19089064
171	0xbf038732	-0.51378167
172	0x3ec4b144	0.38416493
173	0xbefd33a3	-0.49453458
174	0xbeddb8b4	-0.4330498
175	0x3f00693a	0.50160563
176	0x3ef2d015	0.4742438
177	0xbd09903b	-0.033584815
178	0xbf174460	-0.59088707
179	0x3ea1a7a1	0.31573203
180	0xbe9f98f6	-0.31171387
181	0xbf241bf2	-0.6410514
182	0xbf01f3cd	-0.50762635
183	0xbf138040	-0.5761757
184	0xbf136543	-0.5757639
185	0x3f046ea5	0.5173133
186	0xbf02eb73	-0.51140517
187	0x3f0cf35d	0.5505884
188	0xbf5ee7cc	-0.87072444
189	0x3eef9011	0.467896
190	0x3f0727ae	0.5279492
191	0x3f02a9ad	0.51040155
192	0x3f365942	0.71229947
193	0xbef4161e	-0.47673124
194	0xbf12c9c9	-0.5733915
195	0x3f15af19	0.584703
196	0xbf04deaa	-0.5190226
197	0x3ed78a6f	0.42097804
198	0xbedecc05	-0.4351503
199	0x3f06c663	0.52646464
200	0xbee47b59	-0.44625357
201	0xbef5bbc7	-0.47994825
202	0xbeed21f3	-0.46314964
203	0x3f08e237	0.53470176
204	0xbef0cd5b	-0.47031674
205	0x3f408ae3	0.75211924
206	0xbe8d057f	-0.27543256
207	0xbf80aae3	-1.005215
208	0xbef9854c	-0.4873451
209	0xbf41f8b6	-0.7577013
210	0xbf18468c	-0.59482646
211	0x3eb84c67	0.3599579
212	0xbf0d00f3	-0.55079573
213	0xbee0c0e0	-0.43897152
214	0xbf079ca2	-0.5297338
215	0x3ec8c978	0.39216208
216	0xbf127bd0	-0.5722017
217	0xbf145473	-0.5794136
218	0x3f3e3e20	0.74313545
219	0xbebec8d3	-0.37262592
220	0x3f102e29	0.56320435
221	0xbf26698c	-0.650048
222	0x3ec0ed26	0.3768093
223	0x3eaa30dc	0.33240402
224	0xbcf92dd6	-0.030417364
225	0x3eeef7ad	0.46673337
226	0xbec63565	-0.38712612
227	0x3e58bcb6	0.21165738
228	0xbf1132c3	-0.5671808
229	0xbf002004	-0.5004885
230	0xb9b62d5f	-0.0003474755
231	0xbf0f7922	-0.5604421
232	0xbf2c04b2	-0.67194664
233	0xbf0ec57d	-0.55770093
234	0xbf23f257	-0.64041656
235	0xbed345f0	-0.41264296
236	0xbee903b2	-0.45510632
237	0xbeb37fe1	-0.350585
238	0xbf0943a4	-0.53618836
239	0x3edb00de	0.427741
240	0x3ec8248d	0.39090386
241	0x3eea8806	0.45806903
242	0x3f4f2ebe	0.809307
243	0x3d2089b6	0.03919383
244	0x3f7ebb23	0.995043
245	0x3f25ef4c	0.64818263
246	0xbf1dc4b2	-0.6162826
247	0x3ed34ec8	0.41271043
248	0xbf17e0fd	-0.5932768
249	0x3f13389f	0.5750827
250	0xbefbc40b	-0.49173006
251	0xbef92e25	-0.48668018
252	0xbf84f9c6	-1.0388725
253	0x3f1bfd82	0.609337
254	0xbc8d2375	-0.017228821
255	0xbed59516	-0.41715306

convs.1.bias f4 [100]
0	0xbf206218	-0.6264968
1	0xbf04d868	-0.5189271
2	0xbf0e52e6	-0.5559524
3	0xbf018084	-0.50586724
4	0xbfa7c20f	-1.3106097
5	0xbf4e2058	-0.805181
6	0xbf1e6dff	-0.6188659
7	0xbf1d0dd4	-0.61349225
8	0xbf0e02b9	-0.55472904
9	0xbf71f1d9	-0.94509655
10	0xc014f3e7	-2.3273866
11	0xbf14fc36	-0.58197343
12	0xbf2c62bc	-0.67338157
13	0xbf3dcca3	-0.74140376
14	0xbf204b17	-0.6261458
15	0xbfe5996a	-1.7937443
16	0xbfa1ed26	-1.2650497
17	0xbf135223	-0.57547206
18	0xbf1811db	-0.59402245
19	0xbf2e32d3	-0.680463
20	0xc075bae8	-3.8395329
21	0xbf0e23d6	-0.5552343
22	0xbf2b6408	-0.6694951
23	0xbf9445f2	-1.1583846
24	0xbf222eea	-0.63352835
25	0xbf1eddda	-0.6205727
26	0xbf24aef7	-0.64329475
27	0xbf3361a7	-0.7007088
28	0xbfdd22d3	-1.7276253
29	0xbf25ae9b	-0.6471955
30	0xbf0eb02d	-0.5573757
31	0xbf5db359	-0.8660179
32	0xbf0f4f71	-0.5598059
33	0xbf0ed63a	-0.55795634
34	0xbf2349e7	-0.6378464
35	0xbf8df2d7	-1.1089734
36	0xbf1931ff	-0.59841913
37	0xbf08e1ec	-0.5346973
38	0xbfe5d991	-1.7957021
39	0xbf18997b	-0.5960919
40	0xbea4852a	-0.32132846
41	0xbe317527	-0.17329846
42	0xbf21e33a	-0.63237345
43	0xbfdaf8a0	-1.7107124
44	0xbf15175d	-0.58238775
45	0xbf0f5144	-0.55983377
46	0xbf092816	-0.5357679
47	0xbf12f724	-0.57408357
48	0xbf08b14c	-0.53395534
49	0xbf4d8609	-0.80282646
50	0xc043ceb1	-3.0594904
51	0xbf11055c	-0.566488
52	0xbf1264fe	-0.5718535
53	0xbf0b95f0	-0.5452566
54	0xbf8bb2e1	-1.0913965
55	0xbfc98312	-1.5743124
56	0xbf0a76ba	-0.5408741
57	0xbf2cad05	-0.67451507
58	0xbf283edc	-0.65720916
59	0xbf1b484a	-0.6065718
60	0xbfd6c14e	-1.6777742
61	0xbf0b1985	-0.54335815
62	0xbff304b6	-1.8985813
63	0xbf44ab41	-0.7682381
64	0xbefc80f4	-0.49317133
65	0xbf15e9d2	-0.58559906
66	0xbf19794f	-0.5995073
67	0xbf303c4c	-0.68842006
68	0xbf21b22f	-0.6316251
69	0xbf19192e	-0.59804046
70	0xbfa55219	-1.2915679
71	0xbf1136f3	-0.5672447
72	0xbf1ef85f	-0.62097734
73	0xbfb8fac9	-1.4451534
74	0xbf2634b2	-0.64924157
75	0xbf9de705	-1.2336127
76	0xbf108777	-0.564567
77	0xbf1b1088	-0.605721
78	0xc013d975	-2.3101475
79	0xbf337c9a	-0.70112
80	0xbf624ebb	-0.88401383
81	0xbf53dfee	-0.82763565
82	0xbf275786	-0.65367925
83	0xbf96e0f1	-1.1787397
84	0xc01468cb	-2.318896
85	0xbf1a7e88	-0.6034932
86	0xbf07ffb6	-0.5312456
87	0xbf12464f	-0.5713853
88	0xbf0ba710	-0.5455179
89	0xbf13f370	-0.5779333
90	0xbf233884	-0.6375811
91	0xc00a54b0	-2.161419
92	0xbf0e0df3	-0.55490035
93	0xbfb5b503	-1.4195865
94	0xbf24d634	-0.6438935
95	0xbf396bfa	-0.72430384
96	0xbf15851f	-0.5840625
97	0xbffeb58e	-1.9899156
98	0xbfdd073b	-1.7267832
99	0xbf09647c	-0.5366895

convs.2.weight f4 [100, 1, 4, 50]
0	0xbf0253b5	-0.50908977
1	0xbf27a65c	-0.6548822
2	0xbf0848bd	-0.5323599
3	0x3efd95be	0.49528307
4	0xbefdc8f7	-0.49567387
5	0xbf0fd116	-0.56178415
6	0x3f0f6b46	0.5602306
7	0xbf14f903	-0.5819246
8	0xbf52c409	-0.82330376
9	0x3ecfeeb5	0.40611807
10	0xbef7ba1d	-0.4838418
11	0x3edc6ef2	0.43053395
12	0xbf1ef14c	-0.6208694
13	0xbf3e2ac4	-0.74284005
14	0xbf786d0d	-0.970414
15	0xbeb276cf	-0.3485627
16	0xbf16467a	-0.5870129
17	0xbf0d2c1f	-0.5514545
18	0xbf04678f	-0.5172052
19	0xbd9815a8	-0.074260056
20	0xbede7f4f	-0.43456504
21	0xbf16db6a	-0.5892855
22	0x3f0fc147	0.5615429
23	0xbef2e6fe	-0.47441858
24	0xbf374eb4	-0.71604466
25	0x3ef1c3db	0.47219738
26	0x3efff923	0.49994764
27	0xbf0ea60b	-0.5572211
28	0xbf0473c5	-0.5173915
29	0x3f37943a	0.7171055
30	0xbf1961f8	-0.59915113
31	0xbf438ee9	-0.7638994
32	0xbf081d35	-0.53169566
33	0xbf32fb70	-0.69914913
34	0xbf041196	-0.51589334
35	0x3f050e49	0.5197492
36	0x3dc21c3c	0.094780415
37	0x3ee69230	0.45033407
38	0x3f013236	0.5046724
39	0x3ef28dea	0.47373897
40	0x3f16545e	0.58722484
41	0x3f0eefc5	0.5583461
42	0xbec001b4	-0.375013
43	0xbf2064c1	-0.6265374
44	0x3f19351f	0.5984668
45	0x3ee41a6d	0.4455141
46	0xbeec030e	-0.4609608
47	0x3f0f11ac	0.5588634
48	0xbf1f8f4c	-0.6232803
49	0x3f01f636	0.50766313
50	0xbf4f1239	-0.8088718
51	0xbf083d96	-0.5321897
52	0xbf0bd077	-0.5461497
53	0x3f286488	0.657784
54	0x3e9ee433	0.31033477
55	0xbeeca15b	-0.46216854
56	0xbea9a527	-0.33133814
57	0xbf0f0b42	-0.55876553
58	0xbf1c40c4	-0.61036325
59	0xbeb6fd96	-0.35740346
60	0xbf45f63e	-0.7732886
61	0x3eed1c83	0.46310815
62	0xbf17be5f	-0.5927486
63	0xbee26554	-0.44217932
64	0xbf44621c	-0.76712203
65	0x3f12fc7c	0.5741651
66	0xbf0805a1	-0.5313359
67	0xbf1b19a4	-0.60586
68	0xbf094d11	-0.5363322
69	0xbeb39f05	-0.3508226
70	0xbecb6f5d	-0.397334
71	0xbf147933	-0.57997435
72	0x3f0c7b18	0.54875326
73	0xbf22ba17	-0.635652
74	0xbf2fa05a	-0.6860405
75	0x3ee188a9	0.44049576
76	0x3efbc0a5	0.49170414
77	0x3e194654	0.14968234
78	0xbf018c94	-0.5060513
79	0x3e89d60c	0.26921117
80	0xbf199f32	-0.6000854
81	0xbf36f902	-0.71473706
82	0xbeee569a	-0.46550447
83	0xbf005b75	-0.5013955
84	0xbf0a332c	-0.5398433
85	0x3f20b8cf	0.62781996
86	0x3e759a19	0.23984565
87	0xbee9c4ca	-0.4565795
88	0xbf0a9bb3	-0.5414383
89	0x3eede1e4	0.46461403
90	0x3f041717	0.5159773
91	0x3f1bd09e	0.608652
92	0x3ed7336e	0.42031425
93	0xbf42cf84	-0.76097894
94	0xbe488a75	-0.19584067
95	0x3f1bddea	0.6088549
96	0xbf15ba6f	-0.584876
97	0x3f2dfcaa	0.6796366
98	0xbf04b3b0	-0.5183668
99	0x3ee80c22	0.45321757
100	0xbf38cdf2	-0.7218925
101	0x3f138113	0.57618827
102	0xbf0c3c41	-0.5477944
103	0x3d86cae0	0.06581664
104	0xbedfdccc	-0.43723142
105	0x3ef9120e	0.48646587
106	0x3ec76774	0.38946116
107	0xbf108d1c	-0.56465316
108	0xbf21545f	-0.63019365
109	0x3f111912	0.5667888
110	0xbf0977d6	-0.5369848
111	0x3f69d9e3	0.91348094
112	0xbf1a623a	-0.6030613
113	0xbf431478	-0.7620311
114	0xbed0ae69	-0.40758064
115	0xbf11435f	-0.56743425
116	0xbf10286e	-0.5631169
117	0xbf26f378	-0.65215254
118	0xbef3c660	-0.47612286
119	0x3eda80b7	0.42676327
120	0xbf362ba7	-0.7116036
121	0xbf0663e7	-0.5249619
122	0x3f4be27d	0.7964247
123	0x3ec2ec66	0.38070983
124	0xbee1300d	-0.43981972
125	0x3edb6f88	0.4285853
126	0x3eefb5e1	0.4681845
127	0xbed24bb8	-0.41073394
128	0xbf1b969c	-0.60776687
129	0x3e1f4832	0.15554884
130	0xbf6ff45f	-0.93732256
131	0xbefa46ba	-0.48882085
132	0xbee40b65	-0.44539943
133	0xbedfab2a	-0.43685275
134	0xbee7c19d	-0.45264903
135	0x3f1b24ca	0.6060301
136	0xbf21c67d	-0.63193494
137	0x3f08ee1c	0.53488326
138	0xbf351e7a	-0.7074963
139	0x3eef13ef	0.46694896
140	0x3f43a8dd	0.7642954
141	0x3f15ea1e	0.5856036
142	0x3ef1bdca	0.4721511
143	0xbee17c37	-0.4404008
144	0x3f0acb35	0.5421632
145	0x3f182dc3	0.59444827
146	0xbf0c5816	-0.5482191
147	0x3f000b86	0.50017583
148	0xbf06aa1b	-0.5260331
149	0x3ee04ae4	0.43807137
150	0xbf16c429	-0.58893067
151	0xbee862b5	-0.45387807
152	0xbf070b72	-0.5275184
153	0x3efbdde3	0.49192724
154	0xbf0fa846	-0.5611614
155	0x3d156f87	0.036483314
156	0x3ea96fa4	0.33092988
157	0xbf0d2605	-0.5513614
158	0xbf1502b0	-0.58207226
159	0xbef16e4b	-0.4715446
160	0xbf1fe5d3	-0.6246006
161	0xbe9dc0e3	-0.30811223
162	0xbf148744	-0.580189
163	0xbf338cab	-0.7013652
164	0xbee3fac6	-0.44527262
165	0x3edf7c72	0.43649632
166	0xbed71a3b	-0.420122
167	0xbef0ca20	-0.4702921
168	0x3ec2bb24	0.38033402
169	0xbf24a17e	-0.6430892
170	0xbf160e80	-0.58615875
171	0xbf025adf	-0.5091991
172	0x3f1c7fee	0.61132705
173	0xbede7ed1	-0.43456128
174	0xbf0e730d	-0.55644304
175	0x3f10de9f	0.5658969
176	0x3cb72773	0.022357678
177	0x3f10ac53	0.56512946
178	0xbf07e2a6	-0.53080213
179	0xbe8895dd	-0.26676837
180	0x3d9413e3	0.072303556
181	0xbf1708d9	-0.58997875
182	0xbefb20f4	-0.4904858
183	0xbf012248	-0.50442934
184	0xbf13e54e	-0.57771766
185	0xbe93005c	-0.28711212
186	0xbf0b55a6	-0.54427564
187	0xbedfacdf	-0.43686578
188	0x3df9f75f	0.122053854
189	0x3f05c5b9	0.52254826
190	0x3f0729bb	0.5279805
191	0x3f0ae3b9	0.5425373
192	0x3f03f5ad	0.51546746
193	0xbf39de4d	-0.7260483
194	0x3f025fb8	0.50927305
195	0x3f1a25ec	0.60214114
196	0xbd6dfb44	-0.058100954
197	0x3f105dc4	0.56393075
198	0xbf046b0e	-0.5172585
199	0x3f4083de	0.75201213
200	0xbf10518e	-0.5637444
201	0xbf1b6ed9	-0.60716015
202	0xbf594190	-0.84865665
203	0x3f044d6a	0.51680624
204	0xbf2b4e74	-0.66916585
205	0x3ea2d0d2	0.31799942
206	0x3ef92300	0.48659515
207	0xbf3f8de9	-0.7482591
208	0xbf10fadf	-0.566328
209	0x3e5fc4f8	0.21852481
210	0xbef81e66	-0.48460692
211	0x3f232039	0.6372104
212	0xbf13084b	-0.5743453
213	0xbf0c6b5b	-0.5485131
214	0xbf47bcb5	-0.7802232
215	0xbf234b22	-0.6378652
216	0xbf12faeb	-0.5741412
217	0xbf1c47f3	-0.61047286
218	0xbf07b562	-0.53011143
219	0xbe091eaa	-0.13390604
220	0xbf0844f9	-0.53230244
221	0xbf08c036	-0.5341829
222	0x3f45540f	0.7708139
223	0xbebedb6b	-0.37276778
224	0xbefbe991	-0.49201635
225	0x3efea7a7	0.49737284
226	0x3f3412de	0.7034129
227	0xbf377a07	-0.71670574
228	0xbf11461a	-0.5674759
229	0x3f2aedf0	0.66769314
230	0xbf569fd5	-0.83837634
231	0xbf081849	-0.53162056
232	0xbf0ca3b7	-0.5493731
233	0xbefb5f5b	-0.49096188
234	0xbf03c2fa	-0.51469386
235	0x3f444174	0.76662374
236	0xbf053c71	-0.5204535
237	0x3f09eaa1	0.5387364
238	0xbe85bc56	-0.2612025
239	0x3f1e4ece	0.61838996
240	0x3f0db2cd	0.55350953
241	0x3f1a43cd	0.60259706
242	0xbcf7c82d	-0.030246818
243	0xbeea659f	-0.45780656
244	0x3ec0f1a8	0.3768437
245	0x3f0ee540	0.5581856
246	0xbf41169f	-0.7542514
247	0x3f153213	0.5827953
248	0xbf16c2a3	-0.5889074
249	0x3eee7036	0.46569985
250	0xbeeff635	-0.4686753
251	0xbf0e47b2	-0.5557815
252	0xbefff058	-0.49988055
253	0x3f14f4ba	0.58185923
254	0xbef0f2b0	-0.47060156
255	0x3efd2679	0.49443415

convs.2.bias f4 [100]
0	0xbf1af018	-0.60522604
1	0xbf14b24a	-0.5808455
2	0xbf1b2856	-0.6060842
3	0xbf09b607	-0.53793377
4	0xbf289431	-0.6585112
5	0xbf09c8c8	-0.5382199
6	0xbf20d497	-0.62824386
7	0xbf213d46	-0.6298412
8	0xbf0f6052	-0.5600635
9	0xbf6749ab	-0.90346783
10	0xbf18cd6e	-0.5968846
11	0xbf05e377	-0.5230021
12	0xbf385561	-0.7200528
13	0xbf19cfa1	-0.6008244
14	0xbf1058d8	-0.56385565
15	0xbf477c97	-0.77924484
16	0xbf337ad0	-0.7010927
17	0xbf1e72e7	-0.6189408
18	0xbedf16aa	-0.4357198
19	0xbf070e07	-0.5275578
20	0xbf384eed	-0.7199543
21	0xbf0fd729	-0.56187683
22	0xbf2a823c	-0.6660497
23	0xbf1a78ff	-0.60340875
24	0xbf1e3c03	-0.6181032
25	0xbf235cb9	-0.6381336
26	0xbf91a893	-1.137957
27	0xbf28a3dd	-0.65875036
28	0xbf144eca	-0.5793272
29	0xbf11ea27	-0.56997913
30	0xbf17fe41	-0.59372336
31	0xbf2b3ac3	-0.6688654
32	0xbf293dec	-0.6611011
33	0xc074fcf3	-3.8279388
34	0xc01e5624	-2.4740076
35	0xbf8743d5	-1.0567576
36	0xbf18e229	-0.59720093
37	0xbf54ff35	-0.83201915
38	0xbf049132	-0.5178405
39	0xc02f5e3b	-2.7401264
40	0xbf53d6e5	-0.8274978
41	0xbf1d5e83	-0.6147234
42	0xbf352c93	-0.7077114
43	0xbf293fd4	-0.6611302
44	0xbf900aef	-1.1253337
45	0xbf82d9f0	-1.0222759
46	0xbf19efd6	-0.60131586
47	0xbf222594	-0.6333859
48	0xbf1e8030	-0.6191435
49	0xbf1e29e8	-0.61782694
50	0xbf1c6eea	-0.6110674
51	0xbf08febd	-0.535137
52	0xbf462669	-0.7740236
53	0xbf137a70	-0.576087
54	0xbf28be62	-0.659155
55	0xbf1fdbb8	-0.6244464
56	0xbf287166	-0.6579803
57	0xbf292a3e	-0.6608008
58	0xbf1400e1	-0.5781384
59	0xc0907deb	-4.515371
60	0xbf38532e	-0.7200192
61	0xbf61b4a5	-0.88166267
62	0xbf13fab2	-0.57804406
63	0xbf19e486	-0.60114324
64	0xbf163dc2	-0.58687985
65	0xc034ab1a	-2.8229432
66	0xbf1014d6	-0.56281793
67	0xbf0c3818	-0.5477309
68	0xbfb1414e	-1.3848054
69	0xbf828c41	-1.0199052
70	0xbf0be6d7	-0.5464911
71	0xbf8aee13	-1.0853904
72	0xbf11835d	-0.5684107
73	0xbf2065ac	-0.6265514
74	0xbf16b4c5	-0.5886958
75	0xbf12c523	-0.57332057
76	0xbf25ad77	-0.6471781
77	0xbf21fad4	-0.6327336
78	0xbf1f6d0b	-0.6227576
79	0xbf30b4d2	-0.6902591
80	0xbf23760b	-0.63851994
81	0xc09ae3a4	-4.840288
82	0xbf054757	-0.5206198
83	0xbfb9cbe0	-1.4515343
84	0xbf0b3b41	-0.5438729
85	0xbf16e480	-0.58942413
86	0xbf0683e2	-0.5254499
87	0xbf9c278a	-1.2199566
88	0xbf085763	-0.5325834
89	0xbf0ca00a	-0.549317
90	0xbf173bf9	-0.59075886
91	0xbfb8b395	-1.4429804
92	0xbf44dc37	-0.7689852
93	0xbf0ddc55	-0.55414325
94	0xbfa14461	-1.2598993
95	0xbea7429e	-0.32668012
96	0xbf2140cf	-0.62989515
97	0xbf146969	-0.57973343
98	0xbf2128f8	-0.6295314
99	0xbf27de34	-0.6557343

fc.weight f4 [2, 300]
0	0x3f0eef10	0.5583353
1	0xbf0df4a5	-0.5545142
2	0x3e532425	0.20619257
3	0xbe46a5e4	-0.1939922
4	0xbefb9131	-0.4913421
5	0x3edee0f0	0.4353099
6	0x3d784e49	0.060621534
7	0xbec36bdf	-0.38168237
8	0x3f0273ab	0.50957745
9	0xbf110715	-0.5665143
10	0xbec83a4b	-0.39106974
11	0x3ea0827b	0.3134955
12	0xbf13367a	-0.57505
13	0xbf00e719	-0.5035263
14	0xbf11fb1a	-0.57023776
15	0xbee38c72	-0.4444309
16	0xbebb2d96	-0.36558217
17	0x3dda4537	0.10657733
18	0x3f04585a	0.51697314
19	0xbf05ee1d	-0.5231646
20	0x3b7d6327	0.0038663836
21	0xbefef36f	-0.497951
22	0xbee1d466	-0.4410736
23	0xbf943d85	-1.1581274
24	0xbefd6168	-0.49488378
25	0xbf092a2e	-0.53579986
26	0xbeffd090	-0.49963808
27	0x3f25b5ef	0.64730734
28	0xbecbe7a1	-0.39825156
29	0x3ddabe8f	0.106808774
30	0xbf09e16d	-0.538596
31	0xbee72ee8	-0.45152974
32	0xbf179ee6	-0.59226835
33	0x3ecb0ec1	0.39659694
34	0x3f0c2222	0.5473958
35	0x3f1a891e	0.60365474
36	0x3fa33d5b	1.2753099
37	0x3ce845fe	0.028353687
38	0x3f0ba2b2	0.5454513
39	0xbf14d38f	-0.5813531
40	0x3ed4c3e9	0.41555718
41	0x3f083a67	0.53214115
42	0x3eb9a10f	0.3625569
43	0xbd98a594	-0.074534565
44	0xbedbb450	-0.42911005
45	0xbf0e6ae6	-0.55631864
46	0xc0052cca	-2.0808587
47	0xbe28bd89	-0.16478552
48	0x3f20eb63	0.6285917
49	0xbf07a175	-0.5298074
50	0x3f131c46	0.57465017
51	0xbf050cce	-0.51972663
52	0xbf01e31d	-0.5073717
53	0x3f0db91b	0.55360574
54	0xbefb8224	-0.49122727
55	0x3f0751e2	0.5285932
56	0xbf065ea8	-0.52488184
57	0x3f11f319	0.5701156
58	0xbf10fd31	-0.5663634
59	0xbf07e0fd	-0.5307768
60	0xbf00873b	-0.50206345
61	0xbf0228b4	-0.5084336
62	0x3f16463c	0.5870092
63	0xbe4d06c3	-0.2002211
64	0xbf11718e	-0.56813896
65	0xbe550099	-0.20801009
66	0xbeeb7d0c	-0.4599384
67	0xbef04ba0	-0.46932697
68	0xbf10fb1b	-0.56633157
69	0xbf49d90b	-0.78846806
70	0xbf0a389c	-0.5399263
71	0xbf1dc0c7	-0.6162228
72	0xbef8839c	-0.4853791
73	0xbefcd40c	-0.4938053
74	0x3ef51fca	0.47875816
75	0x3f8fded1	1.1239873
76	0x3f10d5d6	0.5657629
77	0x3e102694	0.14077216
78	0x3f0d2145	0.5512889
79	0xbf0e7dae	-0.5566052
80	0xbf047f61	-0.51756865
81	0xbf0465bf	-0.5171775
82	0x3dec6eec	0.11544594
83	0xbefdf626	-0.4960186
84	0xbee90f51	-0.45519498
85	0xbf064b9a	-0.5245911
86	0x3e0d46c3	0.13796525
87	0x3f0b6c70	0.5446234
88	0xbf18fcb1	-0.59760576
89	0xbf08c170	-0.5342016
90	0x3eb71f70	0.35766172
91	0xbf01831c	-0.5059068
92	0xbf04acc1	-0.518261
93	0xbed09fb9	-0.4074686
94	0xbf037441	-0.51349264
95	0xbef5b781	-0.47991565
96	0x3f114a43	0.5675394
97	0xbf534451	-0.8252612
98	0xbf04054e	-0.51570594
99	0xbee6cf5c	-0.45080078
100	0xbde8a734	-0.113600165
101	0xbeff7996	-0.4989745
102	0xbf067607	-0.52523845
103	0xbed67cf0	-0.41892195
104	0xbe15c417	-0.14625584
105	0x3de44b1e	0.1114714
106	0xbf044ef8	-0.51682997
107	0xbf0ae424	-0.54254365
108	0xbed1a68c	-0.40947378
109	0x3efb80a0	0.4912157
110	0xbf1ca992	-0.61196244
111	0x3f1d3b15	0.6141828
112	0xbf0fdcf4	-0.5619652
113	0x3edcec1c	0.43148887
114	0x3f1722ed	0.5903767
115	0xbd6ae277	-0.05734488
116	0x3f0140d4	0.50489545
117	0x3f0c92eb	0.5491168
118	0xbf12f62e	-0.5740689
119	0x3f1693ab	0.58819073
120	0xbfc67707	-1.5505074
121	0xbf005330	-0.50126934
122	0xbf0f600c	-0.5600593
123	0xbee1a610	-0.44072008
124	0xbef1454d	-0.47123185
125	0x3e86b059	0.26306418
126	0xbefae6ac	-0.49004114
127	0xbc2becb0	-0.010493442
128	0xbe589be8	-0.21153224
129	0xbf057be2	-0.52142155
130	0xbf0119a7	-0.5042977
131	0x3efcf745	0.49407402
132	0xbf063b57	-0.52434295
133	0xbef606ee	-0.48052162
134	0xbf1ab0f1	-0.6042624
135	0x3e9a3d98	0.30125117
136	0xbe26a242	-0.16272834
137	0xbf05ee53	-0.5231678
138	0x3eb5167c	0.35368717
139	0xbef8ef9e	-0.48620313
140	0x3e95a69f	0.29228684
141	0x3e37433e	0.17896745
142	0xbe7c8895	-0.24661477
143	0xbeeb445d	-0.45950595
144	0xbf0410b0	-0.51587963
145	0xbf04138b	-0.5159232
146	0xbef094c6	-0.46988505
147	0xbed6a25e	-0.4192075
148	0xbee0ee1b	-0.4393166
149	0x3e6c3e99	0.23070754
150	0xbf680cd6	-0.90644586
151	0xbf163d07	-0.5868687
152	0xbf01bf5a	-0.50682604
153	0xbf07772a	-0.52916205
154	0x3f0d053a	0.550861
155	0xbebbf7ec	-0.36712587
156	0x3f19c1ea	0.60061514
157	0xbedf8752	-0.4365793
158	0xbea6add3	-0.32554492
159	0xbf0f2054	-0.55908704
160	0x3ecb0760	0.39654064
161	0xbef7efea	-0.48425227
162	0xbf2bd582	-0.6712266
163	0xbe590d07	-0.21196376
164	0xbf038c86	-0.51386297
165	0x3f164a66	0.58707273
166	0x3f0ff8c9	0.5623899
167	0xbf21b3ee	-0.63165176
168	0xbefd404a	-0.4946311
169	0xbf211eca	-0.62937605
170	0x3ef83254	0.48475897
171	0xbf0c032b	-0.54692334
172	0xbf03fd2b	-0.5155818
173	0xbf7137ee	-0.94225967
174	0xbf0e4cb2	-0.5558578
175	0x3f195863	0.5990049
176	0xbefc8bbd	-0.49325362
177	0xbf17d567	-0.5931
178	0xbfa854f7	-1.3150929
179	0x3ed5db31	0.41768792
180	0x3eced750	0.40398645
181	0xbd2c438a	-0.042056598
182	0xbeaaadd0	-0.33335733
183	0x3f183abb	0.59464616
184	0xbf82cc53	-1.0218605
185	0xbf17ea6a	-0.5934206
186	0xbef06cd0	-0.46958017
187	0x3f153eee	0.5829915
188	0xbf03a42c	-0.5142238
189	0xbeff6890	-0.49884462
190	0x3f1892f1	0.59599215
191	0x3e907082	0.28210837
192	0xbf180fc6	-0.5939907
193	0x3ea4129d	0.3204545
194	0xbf01a1a9	-0.506373
195	0x3f09a29a	0.53763735
196	0xbf026b4f	-0.5094499
197	0x3f0e0d46	0.55489004
198	0xbf39425c	-0.7236688
199	0x3f104360	0.56352806
200	0xbf049ad8	-0.5179877
201	0xbefb797b	-0.4911612
202	0xbedd6f46	-0.43248957
203	0xbede4894	-0.43414748
204	0xbf144af3	-0.57926863
205	0xbf012db4	-0.5046036
206	0xbf0fef7b	-0.56224793
207	0x3f106b6e	0.56413925
208	0xbef767d5	-0.48321405
209	0x3e9d7175	0.30750623
210	0x3f1c5100	0.61061096
211	0xbedd1cb8	-0.43185973
212	0xbe6b2399	-0.22962798
213	0x3f0d394a	0.5516554
214	0xbed191c7	-0.40931532
215	0xbe2d708f	-0.16937469
216	0xbf03beae	-0.5146283
217	0xbf13d8d2	-0.57752717
218	0x3ecc1afa	0.3986433
219	0xbef8059c	-0.4844178
220	0x3d849226	0.06473188
221	0xbef99755	-0.4874827
222	0xbeb85a8e	-0.36006588
223	0xbf0681fe	-0.525421
224	0xbf16c5a7	-0.58895344
225	0xbf12cabb	-0.5734059
226	0x3f16be62	0.5888425
227	0xbed18ba1	-0.4092684
228	0xbf0875ee	-0.53304946
229	0xbf0174d3	-0.50568885
230	0xbf0b6924	-0.54457307
231	0xbf111c77	-0.5668406
232	0x3e7e92b2	0.24860647
233	0xbfa9fb8a	-1.3279889
234	0x3e072c2b	0.13200442
235	0x3f071d39	0.52778965
236	0xbefd2263	-0.49440297
237	0x3e821ae0	0.2541113
238	0xbf14991c	-0.58046126
239	0xbf9a7b49	-1.2068874
240	0xbef0f132	-0.47059017
241	0xbf132ff7	-0.57495064
242	0x3e14e132	0.1453903
243	0x3f18077a	0.5938641
244	0xbeed46de	-0.4634313
245	0x3ef8c69d	0.4858903
246	0xbf0c708f	-0.5485925
247	0xbf01c10d	-0.506852
248	0xbf0cdb6b	-0.55022305
249	0xbf0f7a5e	-0.5604609
250	0xbf01009f	-0.5039157
251	0xbefcb051	-0.4935327
252	0x3eb2ac31	0.34896997
253	0x3f12040c	0.57037425
254	0xbe7d267d	-0.24721713
255	0xbefb0a34	-0.49031222

fc.bias f4 [2]
0	0x3c0f716f	0.008755072
1	0xbb70c582	-0.0036738818
