results/cnn/cnn_filters_200x[2, 3, 4]_length_64_batch_64_lr_0.001.pth (torch, 371304 bytes, 8 tensors)

convs.0.weight f4 [200, 1, 2, 50]
0	0x3d75d600	0.06001854
1	0x3d22e14c	0.03976564
2	0x3d1ea9ae	0.038736038
3	0xbddd059a	-0.10792084
4	0x3d789051	0.060684506
5	0x3e169e3d	0.147088
6	0xbe50ff82	-0.20409968
7	0xbd1c6d6e	-0.038190298
8	0x3c34ed96	0.011042973
9	0x3d992014	0.074768215
10	0x3c4de1b9	0.0125660235
11	0x3cd688a4	0.026188202
12	0xbc0c5028	-0.008564033
13	0xbd122d33	-0.035687637
14	0x3c657161	0.014004082
15	0xbd641f95	-0.05569418
16	0xbe058f16	-0.13042864
17	0xbe19b991	-0.15012194
18	0xbd075e73	-0.03304906
19	0xbdc4d32b	-0.096105896
20	0x3dfe347b	0.124123536
21	0xbe75e858	-0.24014413
22	0xbd6e1838	-0.058128566
23	0x3cd62a2e	0.02614316
24	0xbdf78012	-0.12084974
25	0xbd2c9837	-0.04213735
26	0x3d390556	0.045171104
27	0x3e3e77d3	0.18600397
28	0x3df06f1a	0.11739941
29	0x3ba840c7	0.005134675
30	0xbe1f9ecf	-0.15587924
31	0x3d65e720	0.05612862
32	0xbce4799f	-0.027890025
33	0xbd3859f3	-0.045007657
34	0xbe84f1b7	-0.25965664
35	0x3c9ef909	0.019405859
36	0xbdddea0c	-0.108356565
37	0xbe56a8d5	-0.20962842
38	0x3d81a3f4	0.063301
39	0xbcc61057	-0.024177713
40	0x3de1312e	0.109957084
41	0xbdc82a4d	-0.09773693
42	0x3d2473ab	0.040149372
43	0x3d02c51d	0.031926263
44	0x3cabe549	0.020983355
45	0x3e97ff15	0.296868
46	0xbc8a83a9	-0.016908484
47	0x3d482c98	0.048870653
48	0xbb7a72d4	-0.0038215416
49	0xbd2f242c	-0.042759106
50	0xbd4e3fbb	-0.050353747
51	0xbc968d24	-0.018377848
52	0xbe0eae12	-0.1393359
53	0x3d853ac4	0.06505349
54	0xbe195d88	-0.14977086
55	0xbe4670e1	-0.19378997
56	0xbd8d9b5c	-0.06914398
57	0x3bd58570	0.006516151
58	0x3d6b25bc	0.057409033
59	0xbe0ae484	-0.13563734
60	0x3dfcaf00	0.12338066
61	0xbdd4f68f	-0.1039859
62	0xbdde0d0f	-0.108423345
63	0xbd835873	-0.06413355
64	0x3d0cc8d3	0.03437121
65	0xbdc0996d	-0.09404264
66	0xbda0709f	-0.07833981
67	0xbdabaaf8	-0.08382219
68	0x3d9e0cff	0.077173226
69	0xbdcfdbec	-0.10149369
70	0x3de0c715	0.10975472
71	0xbdf535cc	-0.119731516
72	0xbd04d380	-0.032428265
73	0xbe2a7a80	-0.16648293
74	0xbd09079f	-0.033454534
75	0x3d649975	0.05581041
76	0x3d19834b	0.037478726
77	0x3e4858f1	0.19565178
78	0xbce6b08c	-0.028160356
79	0xbc943fd9	-0.018096851
80	0x3dedda4a	0.11613901
81	0xbde96f68	-0.11398202
82	0xbd3745f6	-0.044744454
83	0xbc3bca68	-0.011461832
84	0x3df29ee1	0.1184671
85	0x3e19057c	0.14943498
86	0x3e19da23	0.15024619
87	0xbd137f23	-0.03600992
88	0x3d9ba05b	0.07598945
89	0x3e3fa597	0.18715511
90	0xbc9c5998	-0.01908569
91	0x3d0269ab	0.031839054
92	0xbbe336e8	-0.0069340356
93	0x3d0aea49	0.033914838
94	0xbe3dec13	-0.18547086
95	0xbda858d6	-0.08220069
96	0xbb98b3a8	-0.0046600886
97	0xbcd1c55e	-0.025606807
98	0xbdf8b565	-0.12143973
99	0x3c852d3f	0.016256927
100	0xbc79cfd8	-0.015247308
101	0xbde67468	-0.112526715
102	0xbd2e3f5b	-0.04254089
103	0x3d54b510	0.051930487
104	0xbdfbf89a	-0.12303276
105	0xbe15ae01	-0.14617158
106	0xbe21c81b	-0.1579899
107	0xbc3a061a	-0.011353994
108	0x3dbd30cc	0.09237823
109	0xbb3dad85	-0.0028942537
110	0xbe2108df	-0.1572604
111	0x3da86e8e	0.08224212
112	0xbe626d7c	-0.22112077
113	0xbd6ad514	-0.057332113
114	0x3b3a0bfa	0.0028388486
115	0x3dc072e5	0.093969144
116	0x3d9a233f	0.07526254
117	0xbd0155cd	-0.031575967
118	0xbdac9a77	-0.08427899
119	0x3d7e733c	0.062121615
120	0x3e3e6f28	0.1859709
121	0x3c4ac272	0.012375461
122	0x3d14b13a	0.03630183
123	0xbcfc415b	-0.030792883
124	0xbe6b12cc	-0.22956389
125	0x3c0c862e	0.008576913
126	0x3db99586	0.090617225
127	0xbe02de26	-0.12780055
128	0x3cb8b998	0.022549435
129	0x3c3c49ac	0.011492174
130	0xbd522bb1	-0.0513112
131	0x3d1330b5	0.035935123
132	0xbbaf3cc6	-0.005347821
133	0x3cc7968a	0.024363775
134	0x3d4f95ad	0.05067985
135	0x3c0f8b4c	0.008761238
136	0xbdecace1	-0.115564115
137	0x3e0bbc3b	0.13646023
138	0x3dcaa500	0.098947525
139	0x3bcd203d	0.0062599466
140	0xbd767fa6	-0.06018033
141	0x3cf642a1	0.030061068
142	0xbd23f678	-0.040029973
143	0x3e178f62	0.1480079
144	0xbdcc50a3	-0.09976318
145	0xbdb310ea	-0.087434605
146	0xbcae545b	-0.021280458
147	0x3d31840c	0.04333882
148	0x3b8584dd	0.0040746764
149	0x3d6ecb6d	0.05829947
150	0xbdb1752d	-0.08664928
151	0xbdec45b0	-0.11536729
152	0xbde81891	-0.11332811
153	0xbd9a1080	-0.075226784
154	0xbe1ceaea	-0.15323988
155	0xbd827b19	-0.06371135
156	0xbdf64348	-0.12024552
157	0xbda57da1	-0.080806024
158	0xbd08cee6	-0.03340044
159	0xbd101c74	-0.035183385
160	0xbd95d6a3	-0.07316329
161	0x3d5dd318	0.054156393
162	0xbcb23b0d	-0.021756673
163	0x3cca3fae	0.024688568
164	0xbe5c39c9	-0.21506418
165	0x3e122f1a	0.1427578
166	0xbca17432	-0.019708727
167	0xbb333fc9	-0.0027351251
168	0xbcb77fb4	-0.02239976
169	0x3c03de49	0.008048602
170	0xbe65e7f8	-0.2245177
171	0xbd1fa20f	-0.03897291
172	0xbd968bd1	-0.073508866
173	0xbd69ed9f	-0.05711138
174	0xbe96a746	-0.29424495
175	0xbd7c0e6e	-0.0615372
176	0x3d5c460e	0.053777747
177	0x3c22f9d1	0.009947256
178	0x3dbdb9fb	0.092639886
179	0x3d1e8cd3	0.03870852
180	0x3e22d118	0.15900075
181	0xbd824368	-0.06360513
182	0xbd75d8d3	-0.060021233
183	0xbbda7e7b	-0.0066679097
184	0xbc6f9dda	-0.014625037
185	0xbd388a00	-0.045053482
186	0x3cf6f75a	0.030147243
187	0xbdf5b7ce	-0.119979486
188	0xbca09071	-0.019600125
189	0xbc85b156	-0.016319912
190	0x3e0b619d	0.13611455
191	0x3cb35e76	0.021895628
192	0x3cabaf34	0.020957567
193	0x3da8e27c	0.082463235
194	0x3ab02f75	0.0013441878
195	0x3d9d1235	0.07669488
196	0x3d4c0b05	0.049815197
197	0x3d4ad782	0.04952193
198	0xbd28793d	-0.041131247
199	0xbda9d0ab	-0.082917534
200	0x3ceca085	0.028885135
201	0x3e72591d	0.23666807
202	0xbe4d98ca	-0.20077816
203	0xbdc7ad41	-0.097498424
204	0x3d4b3c86	0.049618267
205	0x3e1f90a9	0.15582527
206	0xbdad871b	-0.08473035
207	0xbda43235	-0.08017389
208	0xbdb7dcfe	-0.08977698
209	0xbdba61e8	-0.091007054
210	0x3db5b312	0.088720456
211	0xbd0bfeca	-0.034178533
212	0xbe14118c	-0.14459819
213	0xbc468c15	-0.012118359
214	0xbd27bce8	-0.04095164
215	0xbc822812	-0.015888248
216	0xbe1a81df	-0.15088604
217	0xbcf300cb	-0.029663464
218	0xbcff9b11	-0.031201871
219	0xbe05732c	-0.13032216
220	0xbdc0962e	-0.094036445
221	0xbd4d339c	-0.050098047
222	0x3dbf1429	0.09330017
223	0x3e88080e	0.26568645
224	0xbd1dff54	-0.038573578
225	0x3d89c265	0.06726531
226	0x3e677c32	0.2260597
227	0xbcd596c7	-0.026072873
228	0x3d4aa8d5	0.049477417
229	0xbe08fb11	-0.13377024
230	0x3dc1552c	0.09440073
231	0xbd0d9bac	-0.03457229
232	0x3d9b655b	0.075876914
233	0xbc5b3e2d	-0.013381523
234	0xbb2e0c81	-0.0026557746
235	0x3cfb6eec	0.03069254
236	0xbe134071	-0.14380051
237	0x3d33593e	0.04378628
238	0x3da81495	0.08207051
239	0x3d0b2aa9	0.03397623
240	0xbdc5a233	-0.09650078
241	0x3d4529fa	0.048135735
242	0x3df4ba5f	0.1194961
243	0xbd6ad651	-0.057333294
244	0xbd1c38ec	-0.038140222
245	0xbd5ad985	-0.0534301
246	0xbe2f7a7f	-0.17136572
247	0x3d2401ca	0.04004077
248	0x3cc89a5e	0.02448767
249	0xbd056787	-0.032569434
250	0xbcc65887	-0.024212135
251	0x3e4fc539	0.20290078
252	0xbd9d3837	-0.07676738
253	0x3eaf4063	0.3422881
254	0x3da5f9a4	0.08104256
255	0xbd47f30f	-0.048815783

convs.0.bias f4 [200]
0	0xbd9a7f2e	-0.07543789
1	0xbdf795e5	-0.12089137
2	0xbe17b133	-0.1481369
3	0xbdc1c3fa	-0.09461208
4	0xbd996845	-0.07490591
5	0xbdb2eb59	-0.08736295
6	0xbddf60d6	-0.10907142
7	0xbce64e63	-0.02811355
8	0xbc3fe4c6	-0.011712259
9	0xbcc832d0	-0.024438292
10	0xbbc8f91b	-0.0061332113
11	0xbe16a5e8	-0.14711726
12	0xbc4a1cd8	-0.012335978
13	0xbd3cbee3	-0.04608048
14	0xbcd26a66	-0.0256855
15	0xbd2085e4	-0.039190188
16	0xbd07a4f6	-0.033116303
17	0x3c9be88c	0.019031785
18	0xbd640b30	-0.05567473
19	0xbdadb39e	-0.08481525
20	0xbcca3f49	-0.02468838
21	0xbbbd8fc7	-0.005784962
22	0xbd227eaf	-0.039671596
23	0xbcb0ce3b	-0.021582713
24	0xbe14e75a	-0.14541379
25	0xbd3f5ed5	-0.0467213
26	0xbdc21d48	-0.09478241
27	0xbe0d462f	-0.13796304
28	0xbdfb286b	-0.122635685
29	0xbcc47d09	-0.023985403
30	0xbcad938f	-0.021188525
31	0xbdb92995	-0.09041134
32	0xbd1ab658	-0.037771553
33	0xbc9299c2	-0.017895583
34	0xbc7c16eb	-0.015386323
35	0xbdd8e8cf	-0.1059128
36	0xbdab2531	-0.08356703
37	0xbe1141f6	-0.14185318
38	0xbc1aab8e	-0.009440316
39	0xbdc7bb31	-0.09752501
40	0xbe0d5c40	-0.13804722
41	0xbd08d1f7	-0.033403363
42	0xbca820ed	-0.020523513
43	0xbdd5c45e	-0.10437845
44	0xbdebcb3b	-0.115133725
45	0xbcfb27cb	-0.030658623
46	0xbc9b1e78	-0.018935427
47	0xbd19ef05	-0.037581462
48	0xbe018b34	-0.12650758
49	0x3ca1a51a	0.019732047
50	0xbda0a020	-0.078430414
51	0xbdb85df5	-0.09002296
52	0xbcdea03f	-0.02717602
53	0xbcb80027	-0.02246101
54	0xbdbbcbd8	-0.091697395
55	0xbd4eb9a5	-0.050470013
56	0xbcc859fc	-0.02445697
57	0xbd644e41	-0.05573869
58	0xbcee06d5	-0.029055992
59	0xbd2f677a	-0.042823292
60	0xbd68778e	-0.05675464
61	0xbdc6a9f0	-0.09700382
62	0xbdb51a1e	-0.08842872
63	0xbc6446ed	-0.013932926
64	0xbdae8131	-0.08520735
65	0xbdf14aa4	-0.11781815
66	0xbce4e26f	-0.027940003
67	0xbcf9b045	-0.03047956
68	0xbd0e75da	-0.03478036
69	0xbd975279	-0.07388777
70	0xbd7faafb	-0.06241892
71	0xbe133175	-0.14374335
72	0xbcd3ab3e	-0.02583849
73	0xbd9025af	-0.070384376
74	0xb9f1d3cf	-0.00046124912
75	0xbced599d	-0.028973395
76	0xbe217cca	-0.1577026
77	0xbd36f37f	-0.04466581
78	0xbdefdab6	-0.11711638
79	0xbe07b6d2	-0.13253334
80	0xbdf25373	-0.11832323
81	0xbc54e5a0	-0.0129942
82	0xbceadd5c	-0.028670006
83	0xbd4da330	-0.050204456
84	0x3d0ddb2c	0.034632847
85	0xbe0a9dad	-0.13536711
86	0xbc40ff3c	-0.011779603
87	0xbe14247b	-0.14467041
88	0xbe037001	-0.12835695
89	0x3cf60303	0.030030733
90	0xbca2c889	-0.019871013
91	0xbc211152	-0.00983079
92	0xbd643c77	-0.055721726
93	0xbd856d99	-0.06515045
94	0xbdf6bdc7	-0.12047916
95	0xbdba5721	-0.0909865
96	0xbddae73c	-0.10688636
97	0xbc2c338e	-0.0105103385
98	0xbd8bec60	-0.06832194
99	0xbd2e20a2	-0.04251159
100	0xbd3e879c	-0.046516046
101	0xbd207bcb	-0.03918056
102	0xbe1a45e8	-0.1506573
103	0xbddb67a2	-0.10713126
104	0xbd00c29d	-0.031435598
105	0xbc6f3f5f	-0.014602511
106	0xbdf99f2d	-0.121885635
107	0xbde53682	-0.11192037
108	0xbe0bf65f	-0.13668202
109	0xbd6a5dab	-0.057218235
110	0xbdb37311	-0.087621816
111	0xbda41684	-0.08012107
112	0xbcca45ff	-0.02469158
113	0xbe30c43e	-0.1726236
114	0xbda5cc8b	-0.08095654
115	0xbcb66e25	-0.022269318
116	0xbc487cb1	-0.01223676
117	0xbd098cd1	-0.03358156
118	0xbd7ffaa1	-0.062494878
119	0xbd224758	-0.03961882
120	0x3c81512a	0.015785772
121	0xbd055fd8	-0.032562107
122	0xbd1d9b43	-0.038478147
123	0xbd024bf5	-0.03181072
124	0xbe08dd2a	-0.13365617
125	0xbd0ea0ea	-0.03482143
126	0xbd303795	-0.043021757
127	0xbd7a365c	-0.061086997
128	0xbc914d8e	-0.017737176
129	0xbca4812f	-0.02008113
130	0xbdd4a9d5	-0.103839554
131	0xbcdc6db2	-0.026907776
132	0xbd31eb9e	-0.043437593
133	0xbcefc6f0	-0.029269665
134	0xbe25c5df	-0.16188763
135	0xbe28f17d	-0.1649837
136	0xbd99c250	-0.07507765
137	0xbd24e356	-0.040255867
138	0xbd956f39	-0.07296605
139	0xbddc6721	-0.10761858
140	0xbcc716a8	-0.024302796
141	0xbcb4cefd	-0.022071356
142	0xbd12a461	-0.035801295
143	0xbdc8dd5e	-0.098078474
144	0xbdd9ca74	-0.10634318
145	0xbde695f4	-0.1125907
146	0xbd021fd7	-0.031768646
147	0xbd02d7a7	-0.031943943
148	0xbe1e21ec	-0.15442628
149	0xbd078772	-0.033088155
150	0xbe04e996	-0.12979731
151	0xbdd68326	-0.10474233
152	0xbdc08c7f	-0.094017975
153	0xbd9f3fa7	-0.077758126
154	0xbda4db43	-0.08049633
155	0xbe37c1a9	-0.17944969
156	0xbc90be0d	-0.017668748
157	0xbdbed3f5	-0.09317771
158	0xbda254fc	-0.07926366
159	0xbe08585b	-0.13314955
160	0xbe0b9d28	-0.13634169
161	0x3ba43b9b	0.0050119883
162	0xbdafa5a8	-0.08576518
163	0xbd42e8b1	-0.047585193
164	0xbe3afd45	-0.18260677
165	0xbd24842e	-0.04016512
166	0xbd83f495	-0.06443135
167	0xbd26b297	-0.04069766
168	0xbc7fbddb	-0.01560923
169	0xbe00c33e	-0.12574479
170	0xbdb46504	-0.0880833
171	0xbcd27bf6	-0.025693875
172	0xbd71bac1	-0.059015993
173	0xbd8240f1	-0.06360043
174	0xbe12c825	-0.14334162
175	0xbde52f28	-0.11190635
176	0x391ae55d	0.00014772029
177	0xbcdae334	-0.026719667
178	0xbc12ae12	-0.008952634
179	0xbdbf3ea4	-0.093381196
180	0xbcb02357	-0.021501226
181	0xbc8a7100	-0.016899586
182	0xbd37bd52	-0.044858284
183	0xbe2489cf	-0.16068195
184	0xbe0d5dbe	-0.13805291
185	0xbe3841aa	-0.17993799
186	0xbd1f7f17	-0.03893956
187	0xbcbf1cec	-0.02332922
188	0xbdcec39b	-0.100959025
189	0xbd065c12	-0.03280265
190	0xbcc2efb1	-0.023795934
191	0xbdc345c5	-0.09534792
192	0xbdfdc02b	-0.12390169
193	0xbd9d08bc	-0.076676816
194	0xbbadfc27	-0.0053096
195	0xbe063105	-0.13104637
196	0xbc815af9	-0.01579045
197	0xbd968a3c	-0.07350585
198	0xbd24092f	-0.04004782
199	0xbd9c4fea	-0.0763243

convs.1.weight f4 [200, 1, 3, 50]
0	0xbdb2cb45	-0.08730177
1	0x3dccc28c	0.09998044
2	0xbe71c22b	-0.23609225
3	0x3da66bcd	0.0812603
4	0x3dc12dab	0.094325386
5	0xbda1d56c	-0.07902035
6	0x3bf3ddd8	0.0074422173
7	0xbd66e435	-0.05636998
8	0xbd7f7732	-0.062369533
9	0xbcff6c73	-0.031179642
10	0x3dce7be5	0.10082225
11	0xbdcf2b71	-0.10115708
12	0xbd095189	-0.033525024
13	0xbb1e3ce9	-0.0024145192
14	0xbbbe9240	-0.005815774
15	0xbddc45fb	-0.10755535
16	0x3d969fd0	0.073547006
17	0xbe942083	-0.28931054
18	0xbc8e1c73	-0.01734755
19	0xbe421f95	-0.1895736
20	0xbd73fdd3	-0.059568238
21	0xbca61a38	-0.020276174
22	0xbd3fb1d7	-0.04680046
23	0x3ce91e68	0.028456882
24	0x3c91a5d2	0.017779265
25	0x3dd48218	0.10376376
26	0xbdd70862	-0.10499646
27	0xbcb49b51	-0.022046717
28	0xbde1295d	-0.109942175
29	0x3e0722f5	0.13196929
30	0xbd4319de	-0.04763209
31	0x3b83405b	0.0040054745
32	0x3d902db3	0.070399664
33	0xbe2aa617	-0.16664921
34	0xbe3d123d	-0.18463989
35	0x3e332dc2	0.17497924
36	0xbd7cbefd	-0.061705578
37	0xbda7ae21	-0.08187509
38	0xbce9a252	-0.028519783
39	0xbd74a46e	-0.059727125
40	0x3c390018	0.011291526
41	0x3d0bcfa3	0.034133565
42	0x3d62258e	0.055211596
43	0xbdedd224	-0.11612347
44	0xbe1d6f0d	-0.15374394
45	0xbc1fd31f	-0.009754925
46	0x3cb0def2	0.021590684
47	0x3a6887dc	0.0008870342
48	0xbdc16fa7	-0.09445124
49	0xbe28cd17	-0.16484486
50	0x3d8648f0	0.065568805
51	0x3d251081	0.040298942
52	0xbddf03c9	-0.10889394
53	0x3e00f78a	0.12594429
54	0xbd5b2497	-0.05350169
55	0xbdc63b4e	-0.0967928
56	0x3d83760a	0.064189985
57	0xbe81c13b	-0.25342736
58	0xbc3ef22d	-0.011654419
59	0xbdf2dd88	-0.1185866
60	0xbb12e784	-0.0022415826
61	0x3e075084	0.13214308
62	0xbd8c26d5	-0.06843344
63	0x3d86ff03	0.065916084
64	0x3d0cc2ed	0.034365583
65	0xbd4e2be7	-0.050334837
66	0x3dcfbf4d	0.101439096
67	0xbe7e8e90	-0.24859071
68	0x3d9b0b2a	0.07570489
69	0xbc69c87c	-0.014268991
70	0xbd024d2c	-0.031811878
71	0xbd1abcd4	-0.037777737
72	0xbb49a215	-0.0030766774
73	0x3daa37db	0.08311435
74	0x3d88be64	0.06676939
75	0x3c4a36a4	0.012342129
76	0xbe436456	-0.19081244
77	0xbbf17518	-0.007368695
78	0xbd8faae2	-0.07015015
79	0x3cc35b96	0.023847383
80	0xbcaf67cf	-0.021411804
81	0x3d7a4ddb	0.061109405
82	0x3c2de490	0.010613576
83	0xbd8daf25	-0.06918172
84	0xbdc8961d	-0.09794257
85	0xbcaa6e4f	-0.020804552
86	0xbe55b146	-0.20868406
87	0xbe520431	-0.20509411
88	0x3e499859	0.19687022
89	0x3d48da10	0.049036086
90	0xbc9c3358	-0.019067451
91	0xbd40ea9f	-0.047098752
92	0x3dafdb4f	0.08586752
93	0xbe65865d	-0.22414537
94	0xbe1fcff3	-0.1560667
95	0x3ae7c5a8	0.0017682808
96	0xbd4e969c	-0.0504366
97	0x3cf4a8f0	0.029865712
98	0x3d0cd2d6	0.034380756
99	0xbe0a0027	-0.1347662
100	0x3e2ef896	0.17087016
101	0x3d9e3be6	0.077262685
102	0xbd9c9d94	-0.07647243
103	0xbe6622b4	-0.22474176
104	0x3ce406d9	0.027835296
105	0xbe096a31	-0.13419415
106	0x3c992ba8	0.018697575
107	0xbd9e78ed	-0.077379085
108	0xbc438daf	-0.0119356355
109	0xbe0c94f6	-0.13728699
110	0xbcaa87ab	-0.020816645
111	0xbe30bfb1	-0.17260624
112	0xbc4acac4	-0.012377445
113	0xbd6480cf	-0.055786904
114	0x3d78d77b	0.060752373
115	0x3ccc4982	0.024937395
116	0xbde4c75b	-0.111708365
117	0xbe2c34bc	-0.16816992
118	0xbdabc946	-0.08387999
119	0xbe4489e8	-0.19193232
120	0x3e3d35bf	0.18477534
121	0x3c2ae50c	0.010430586
122	0xbda8ad06	-0.082361266
123	0x3e31a154	0.17346698
124	0xbd435245	-0.04768588
125	0x3c59b778	0.013288371
126	0xbd551537	-0.052022185
127	0x3d9225a0	0.07136083
128	0xbda6a9c0	-0.08137846
129	0x3e50bef7	0.20385347
130	0xbe372307	-0.17884456
131	0x3dcf945b	0.101357184
132	0xbd5900f0	-0.05297941
133	0xbd46b992	-0.048516817
134	0x3e06ee4a	0.13176838
135	0x3d3de9a3	0.04636539
136	0xbe34d05c	-0.17657608
137	0xbcaaf268	-0.020867541
138	0x3e013f3b	0.12621777
139	0x3d6774e1	0.05650795
140	0x3cbc02df	0.022950588
141	0xbd9c95db	-0.0764577
142	0x3d9d5626	0.07682447
143	0xbe8ce827	-0.27520868
144	0x3e34e980	0.17667198
145	0x3e697b8a	0.22801033
146	0xbded4b25	-0.11586598
147	0xbd96569f	-0.073407404
148	0xbd3a8e2c	-0.045545742
149	0xbc50a914	-0.012735624
150	0x3de0a410	0.109687924
151	0x3dd741a7	0.10510569
152	0xbe2d2511	-0.16908671
153	0xbaea7b5f	-0.0017889551
154	0xbdbf7ddb	-0.09350177
155	0xbda84095	-0.08215443
156	0xbe24d1e9	-0.160957
157	0xbd6d84ca	-0.057987966
158	0xbe4f7349	-0.20258822
159	0xbe0833ce	-0.13301012
160	0xbdfa3af0	-0.12218273
161	0x3c7379c9	0.014860579
162	0xbc46a599	-0.0121244425
163	0x3dadd6b3	0.08488216
164	0xbd0eb952	-0.034844704
165	0x3d6ec06c	0.058288977
166	0x3dd9d314	0.10635963
167	0xbbb618d6	-0.00555716
168	0xbc8aadc4	-0.016928561
169	0xbdbc18af	-0.091843955
170	0x3d123a38	0.035700053
171	0x3d6f03e0	0.058353305
172	0x3daa7575	0.083231844
173	0x3c8c396f	0.01711723
174	0x3d179c0e	0.03701406
175	0x3db357e5	0.08756999
176	0xbe7e3ea2	-0.2482858
177	0xbdb9a69a	-0.0906498
178	0xbe4da2b4	-0.20081598
179	0x3d162ee4	0.036665812
180	0x3dd14d06	0.10219769
181	0xbe37cac7	-0.17948447
182	0xbd86224e	-0.06549512
183	0x3cbe29ca	0.023213286
184	0xbda75aeb	-0.08171638
185	0x3b941d53	0.0045200973
186	0x3e1895d9	0.14900912
187	0x3e34c60b	0.17653672
188	0x3cee1510	0.029062778
189	0x3db2a138	0.08722156
190	0x3d9a23b4	0.07526341
191	0x3df06638	0.11738247
192	0xbd599ca5	-0.053127903
193	0x3d1b9502	0.0379839
194	0xbe131ef5	-0.14367278
195	0x3c2a6a37	0.0104013
196	0x3db1c5d3	0.0868031
197	0x3dd9cf3e	0.106352314
198	0xbba7bb02	-0.0051187286
199	0x3cb63b3f	0.022245048
200	0x3df092f3	0.11746778
201	0x3e022d7b	0.12712662
202	0xbe0d7603	-0.13814549
203	0xbda18f01	-0.07888604
204	0xbe2e611f	-0.17029236
205	0xbe20d77e	-0.15707204
206	0xbd87042f	-0.06592595
207	0x3df9289e	0.1216595
208	0xbe55d3d0	-0.20881581
209	0x3d8e1a5a	0.0693862
210	0xbcf74dd3	-0.030188477
211	0xbd78aaa6	-0.060709618
212	0x3b22ef08	0.0024861712
213	0xbe52201e	-0.20520064
214	0xbdc05dc6	-0.09392886
215	0xbdbdd054	-0.09268251
216	0x3cf6fb88	0.030149236
217	0xbd50cee9	-0.050978575
218	0xbe257d6d	-0.16161127
219	0x3dca2a38	0.09871334
220	0x3c794c3a	0.015215928
221	0xbd4d940c	-0.050190017
222	0x3ddcf406	0.10788731
223	0x3d61fbee	0.0551719
224	0xbe321c20	-0.17393541
225	0xbc2272f5	-0.009915103
226	0xbdd6444b	-0.104622446
227	0x3e1bb30b	0.15205018
228	0x3d54614c	0.051850602
229	0xbcd0bedf	-0.02548164
230	0x3c223ec5	0.009902661
231	0xbd0559de	-0.032556407
232	0xbd3d2813	-0.046180796
233	0x3d234882	0.03986407
234	0xbb27fd92	-0.0025633317
235	0xbd1a6b49	-0.03769997
236	0x3c8480f9	0.01617478
237	0x3cd32312	0.025773559
238	0xbcd07076	-0.02544425
239	0xbdd7266b	-0.105053745
240	0x3e136ef5	0.14397795
241	0xbc95b189	-0.018273132
242	0x3c4cd3bb	0.012501652
243	0xbcda9a4d	-0.026684904
244	0xbdaa73a6	-0.083228394
245	0x3d652113	0.055939745
246	0x3d25f060	0.040512443
247	0x3bbc23ec	0.005741587
248	0x3c7c35bd	0.015393672
249	0x3d936e25	0.07198743
250	0xbcc57632	-0.024104211
251	0xbdcdd18d	-0.10049734
252	0xbd088176	-0.03332659
253	0x3e236415	0.15956147
254	0xbd326278	-0.04355094
255	0xbdf2c4b9	-0.11853928

convs.1.bias f4 [200]
0	0xbda63fb9	-0.08117623
1	0xbdd0ed6e	-0.10201536
2	0xbd386e2b	-0.04502694
3	0xbe164333	-0.14674072
4	0xbde4b312	-0.111669675
5	0xbcc6d5b9	-0.024271833
6	0xbd7a1a8d	-0.061060477
7	0xbd989008	-0.07449347
8	0xbdbe5cff	-0.09295081
9	0xbc6bd58a	-0.014394173
10	0xbdf3ec24	-0.119102746
11	0xbd5a6019	-0.053314302
12	0xbca643ef	-0.020296065
13	0xbd603929	-0.054742012
14	0xbd073967	-0.033013728
15	0xbdd9a2cc	-0.10626754
16	0xbda50211	-0.08057035
17	0xbc940837	-0.018070323
18	0xbd7ef945	-0.06224944
19	0xbd73e6a0	-0.059546113
20	0xbc911a77	-0.017712815
21	0xbd1bc869	-0.038032923
22	0xbdc65398	-0.09683913
23	0xbca4a2c4	-0.020097144
24	0xbc8c07a2	-0.017093483
25	0xbd505eb0	-0.05087155
26	0xbd795891	-0.06087548
27	0xbc79e01f	-0.015251189
28	0xbd96c93e	-0.07362603
29	0xbcd9a4fa	-0.026567925
30	0xbd940975	-0.07228366
31	0xbcc67619	-0.024226235
32	0xbdd5ad45	-0.10433439
33	0xbdf48448	-0.11939293
34	0xbdd56fd6	-0.10421722
35	0xbc650d81	-0.01398027
36	0xbdb308da	-0.08741923
37	0xbda57b0c	-0.0808011
38	0xbdd11049	-0.10208184
39	0xbdac04c8	-0.083993495
40	0xbdddc6b8	-0.10828918
41	0xbe265270	-0.16242385
42	0xbdadd0de	-0.08487104
43	0xbca44a46	-0.020054948
44	0xbdcafe8e	-0.09911834
45	0xbcb58f1f	-0.022162972
46	0xbddb9240	-0.10721254
47	0xbdc0d771	-0.09416092
48	0xbde1e096	-0.110291645
49	0xbcf70ef2	-0.030158494
50	0xbdf2e366	-0.11859779
51	0xbcb5736a	-0.02214976
52	0xbc2fa741	-0.010721029
53	0xbcae3fdf	-0.02127069
54	0xbdbe873e	-0.09303139
55	0xbdf22b0d	-0.118246175
56	0xbcce4ef4	-0.025184132
57	0xbddad92e	-0.10685955
58	0xbd04b40a	-0.03239826
59	0xbd732b3d	-0.059367407
60	0xbcc6ee1f	-0.024283467
61	0xbdf01691	-0.11723054
62	0xbe00726f	-0.12543653
63	0xbd07187c	-0.032982334
64	0xbd0682aa	-0.032839455
65	0xbdf895f5	-0.12137977
66	0xbe014e2d	-0.12627478
67	0xbd761074	-0.060074285
68	0xbd5943e7	-0.053043272
69	0xbcf8147c	-0.030283205
70	0xbd8f1df2	-0.069881335
71	0xbd656d47	-0.056012418
72	0xbcfac226	-0.030610155
73	0xbcba7434	-0.022760488
74	0xbc8e10db	-0.017342022
75	0xbcb7b9bb	-0.02242743
76	0xbd372c27	-0.04471984
77	0x3b12fd7a	0.0022428916
78	0xbd49520e	-0.04915052
79	0xbdb45c57	-0.08806675
80	0xbd0772ed	-0.033068586
81	0xbd95dae7	-0.07317143
82	0xbca1c59d	-0.01974755
83	0xbcc57081	-0.024101498
84	0xbd75b498	-0.05998668
85	0xbd799d7b	-0.0609412
86	0xbd0e1c2f	-0.034694847
87	0xbd5892cb	-0.052874368
88	0xbd3531b9	-0.044236872
89	0xbcbaa6aa	-0.02278455
90	0xbd7d84d9	-0.06189427
91	0xbc5abe6f	-0.013351067
92	0xbd014048	-0.031555444
93	0xbcf58789	-0.029971855
94	0xbd3dc525	-0.04633059
95	0xbd0bc9e9	-0.034128103
96	0xbd9e9efa	-0.07745166
97	0xbde18f98	-0.110137165
98	0xbdf2cbd5	-0.11855284
99	0xbc8e3ef6	-0.017364006
100	0xbdbd0616	-0.092296764
101	0xbd58ebea	-0.05295936
102	0xbd8e88d4	-0.06959692
103	0xbdbe9fe5	-0.09307841
104	0xbd0daa53	-0.034586262
105	0xbc99b5e4	-0.01876349
106	0xbcd24f88	-0.02567269
107	0xbd2168fb	-0.039406758
108	0xbdfc19aa	-0.123095825
109	0xbdc41dbc	-0.09575984
110	0xbde87be7	-0.113517575
111	0xbd40e9d7	-0.047098007
112	0xbd801119	-0.06253261
113	0xbd86dd85	-0.0658522
114	0xbd93e007	-0.07220464
115	0xbd5366dd	-0.05161177
116	0xbd36ebf0	-0.0446586
117	0xbd9a3ac3	-0.07530739
118	0xbd84d3ec	-0.064857334
119	0xbcd2f659	-0.025752233
120	0xbd4b8909	-0.049691234
121	0xbc95a749	-0.018268244
122	0xbd24f3b7	-0.040271487
123	0xbdbe0620	-0.09278512
124	0xbdd36810	-0.10322583
125	0xbd6ad1e5	-0.057329077
126	0xbd693df8	-0.056943864
127	0xbe03d38f	-0.12873672
128	0xbd7d3786	-0.06182053
129	0xbcefd9ef	-0.029278724
130	0xbd07141f	-0.032978173
131	0xbdbddf59	-0.09271116
132	0xbd517666	-0.051138304
133	0xbcd4fdb0	-0.025999874
134	0xbc0233a7	-0.007946885
135	0xbd1db76d	-0.038505007
136	0xbd27ec4d	-0.04099684
137	0xbca78749	-0.020450251
138	0xbddd93a7	-0.10819178
139	0xbc1f8e9e	-0.009738592
140	0xbd35c242	-0.04437471
141	0xbcdc96de	-0.026927408
142	0xbc8d6958	-0.017262146
143	0xbd432d61	-0.0476507
144	0xbdf33505	-0.11875347
145	0xbccc1e15	-0.024916688
146	0xbdc8e381	-0.09809018
147	0xbdf2086a	-0.11818011
148	0xbd8fb559	-0.07017011
149	0xbd416541	-0.047215704
150	0xbc86229f	-0.01637393
151	0xbd351f6f	-0.04421943
152	0xbdb7993f	-0.08964776
153	0xbd46f1a6	-0.048570298
154	0xbda18af4	-0.07887831
155	0xbe08ce91	-0.13360049
156	0xbd82d2bc	-0.06387851
157	0xbb34548d	-0.0027516217
158	0xbd0ecade	-0.034861438
159	0xbc0c0b34	-0.008547593
160	0xbda56aa6	-0.08076982
161	0xbd3590de	-0.04432761
162	0xbdd9f30e	-0.10642062
163	0xbd9f9ffc	-0.077941865
164	0xbd19a851	-0.037514035
165	0xbdbf5fac	-0.0934442
166	0xbce09e2c	-0.027419172
167	0xbe1117a5	-0.14169176
168	0xbd2d68cc	-0.04233627
169	0xbd68f512	-0.056874342
170	0xbd62e971	-0.05539841
171	0xbdc0b26b	-0.094090305
172	0xbd7d73f6	-0.061878167
173	0xbc9ea417	-0.019365354
174	0xbceefdac	-0.029173695
175	0xbd47499b	-0.04865418
176	0xbd17dabe	-0.037073843
177	0xbd51d08c	-0.051224276
178	0xbd72765b	-0.059194904
179	0xbdf1d88e	-0.11808883
180	0xbd548d89	-0.05189279
181	0xbdbadce7	-0.09124165
182	0xbde9eeab	-0.114224754
183	0xbd18435f	-0.037173625
184	0xbd0edf84	-0.03488113
185	0xbd3900ae	-0.045166664
186	0xbd1e4a25	-0.03864493
187	0xbd188289	-0.037233863
188	0xbc77febc	-0.015136417
189	0xbdd3c65c	-0.103405684
190	0xbc00a402	-0.0078516025
191	0xbdddc9bd	-0.10829494
192	0xbe0204f0	-0.12697196
193	0xbd31cd6f	-0.043408807
194	0xbcddffd9	-0.027099537
195	0xbba584c2	-0.0050512264
196	0xbdcc253b	-0.09968039
197	0xbd98405f	-0.07434153
198	0xbda896b5	-0.0823187
199	0xbd92385f	-0.07139658

convs.2.weight f4 [200, 1, 4, 50]
0	0xbdaf4198	-0.08557433
1	0xbd0db5fe	-0.03459739
2	0xbe9e1f4e	-0.3088326
3	0xbd8e97cf	-0.06962549
4	0xbd38ec9c	-0.045147523
5	0x3d508fdd	0.05091845
6	0xbd8e24a1	-0.0694058
7	0xbd008eb4	-0.031386092
8	0x3ce12149	0.027481692
9	0x3e6f5c06	0.23374948
10	0xbe0d6c36	-0.1381081
11	0x3e200e57	0.1563047
12	0xbbe5b008	-0.00700951
13	0xbd942ee3	-0.072355054
14	0xbe6d5bbc	-0.23179525
15	0x3d6b128f	0.057390746
16	0x3ddfe7ad	0.109328605
17	0xbd08cecf	-0.033400353
18	0xbd81514b	-0.063143335
19	0x3d395960	0.04525125
20	0xbe5fb64a	-0.21846882
21	0x3c9b4687	0.018954528
22	0x3e58a2d3	0.21155863
23	0x3d448fda	0.04798875
24	0xbdb22605	-0.08698658
25	0xbd96ec27	-0.07369261
26	0x3dbbf03a	0.09176679
27	0xbdab263c	-0.08356902
28	0xbd0c6826	-0.03427901
29	0x3e051288	0.1299535
30	0x3b24741c	0.002509362
31	0xbd6133d2	-0.05498106
32	0xbceeb898	-0.029140756
33	0x3b99f7c7	0.004698727
34	0xbd15e0fd	-0.03659152
35	0xbd9717ef	-0.07377612
36	0x3d4a78f9	0.049431775
37	0xbc905a9e	-0.017621335
38	0x3e785e59	0.24254741
39	0x3d30ba1d	0.04314624
40	0x3e8c0540	0.27347755
41	0xbdbd5c35	-0.09246103
42	0x3e2f7cf4	0.1713751
43	0xbbc56187	-0.006023589
44	0xbe0b680a	-0.13613907
45	0x3e01b02d	0.12664862
46	0x3cc2209f	0.023697196
47	0x3b7ef330	0.0038902275
48	0xbde5bf02	-0.112180725
49	0xbdef8189	-0.11694629
50	0x3ad5509d	0.0016274635
51	0x3dd68e03	0.10476305
52	0x3d9ee8c8	0.07759243
53	0x3dae69fc	0.08516309
54	0xbe276f9b	-0.16351168
55	0xbc320b9c	-0.010867026
56	0xbdeb4a85	-0.11488823
57	0x3c3e12e9	0.011601188
58	0xbdddc292	-0.10828127
59	0xbe113760	-0.1418128
60	0x3c863331	0.016381832
61	0x3df68451	0.12036956
62	0xbd193fd1	-0.037414376
63	0xbaa957fb	-0.0012919897
64	0xbce60fce	-0.028083708
65	0xbdb8fc89	-0.09032542
66	0x3cab8fb3	0.020942545
67	0xbdfc07b7	-0.12306159
68	0x3db12382	0.08649351
69	0xbdc86c32	-0.097862616
70	0x3e98eb24	0.29866898
71	0xbd5e0a18	-0.054208845
72	0xbc0a5ebf	-0.008445441
73	0x3c71087c	0.0147114955
74	0xbdf87654	-0.12131944
75	0x3de5869f	0.112073176
76	0x3c2ef6ef	0.010678991
77	0xbdb56166	-0.08856468
78	0x3d3615e4	0.04445447
79	0xbdc63095	-0.09677235
80	0xbd0aeca5	-0.033917088
81	0x3d92ef9f	0.0717461
82	0xbdb6c08b	-0.089234434
83	0x3cd547c9	0.026035206
84	0x3d7aeded	0.06126206
85	0x3b14cc73	0.002270487
86	0x3e0e2667	0.13881837
87	0xbdc66a99	-0.09688301
88	0xbd55f89f	-0.052239057
89	0xbd5888e1	-0.052864913
90	0xbcabc2c7	-0.0209669
91	0x3c6091bf	0.013706624
92	0xbe1df6e0	-0.15426207
93	0x3d062255	0.032747585
94	0xbe5b48ee	-0.21414539
95	0xbb6c8c3f	-0.0036094335
96	0xbe147c9e	-0.14500663
97	0x3db56dcf	0.08858835
98	0xbe060020	-0.13085985
99	0x3d0ec895	0.03485926
100	0xbe00b114	-0.1256755
101	0xbbe9bc82	-0.0071330676
102	0x3cee3447	0.029077662
103	0x3e2cb19e	0.1686463
104	0xbc18e55d	-0.009332028
105	0xbcf94c6f	-0.030431954
106	0xbc2e9365	-0.010655259
107	0xbc3ad22b	-0.011402647
108	0x3c884657	0.016635103
109	0x3c1ebae0	0.009688109
110	0xbb7343af	-0.00371192
111	0xbda1ec3f	-0.079063885
112	0xbca8cc63	-0.020605272
113	0xbe083c3f	-0.13304232
114	0x3cd731d0	0.02626887
115	0x3d71e05b	0.059051853
116	0xbca14b63	-0.019689268
117	0x3cdf4454	0.027254261
118	0xbdd27dc8	-0.10277897
119	0xbda2ae19	-0.07943363
120	0x3d536e5e	0.051618926
121	0xbc8c3fca	-0.01712026
122	0xbdc95f5a	-0.0983264
123	0xbc979a5b	-0.01850622
124	0x3dbb49d7	0.09144943
125	0x3d37310c	0.04472451
126	0xbdcb8272	-0.0993699
127	0xbdc6ca9b	-0.09706613
128	0xbdf86dbd	-0.12130306
129	0x3e3a7b37	0.18211065
130	0xbdadd61d	-0.084881045
131	0x3d69d24c	0.05708532
132	0xbc3f5883	-0.011678818
133	0xbd027cee	-0.031857423
134	0xbd3c43dc	-0.045963153
135	0xbd3bd917	-0.04586133
136	0xbd1890e8	-0.03724757
137	0xbc3c1f17	-0.011482022
138	0xbd5cec3c	-0.05393623
139	0xbd0a6d2d	-0.033795524
140	0xbcb5765f	-0.02215117
141	0xbbe05be7	-0.006846893
142	0x3c4ed955	0.012625058
143	0x3be9559e	0.007120802
144	0x3e3611fb	0.17780297
145	0x3d78d6ff	0.06075191
146	0xbd795414	-0.0608712
147	0xbc8608e1	-0.016361656
148	0x3d3cfd87	0.04614022
149	0x3d66ab44	0.056315675
150	0x3cbdb533	0.023157692
151	0xbe64d915	-0.22348435
152	0xbddbb813	-0.10728469
153	0x3d5f3014	0.05448921
154	0xbdaaa1f7	-0.083316736
155	0x3d433648	0.04765919
156	0x3ccd8418	0.025087401
157	0x3d739cbf	0.059475657
158	0xbc802d27	-0.01564653
159	0x3c60081f	0.013673811
160	0xbdcadee8	-0.09905797
161	0xbd9fa06c	-0.0779427
162	0xbd8a6976	-0.06758396
163	0x3d9ca21a	0.07648106
164	0xba34a597	-0.000689113
165	0x3cad4750	0.021152169
166	0x3cc15aff	0.02360296
167	0x3dd64890	0.10463059
168	0xbd7d62e1	-0.061861876
169	0x3d39b04e	0.045334153
170	0x3d9b7e08	0.07592398
171	0x3c7b8167	0.015350676
172	0x3db3848c	0.08765516
173	0x3dba3b71	0.09093369
174	0xbd05a17f	-0.032624718
175	0x3e6684f2	0.22511652
176	0x3de85430	0.113441825
177	0x3e034f5b	0.1282324
178	0x3d9c3ba1	0.07628561
179	0xbe031e03	-0.12804417
180	0x3dc998b7	0.09843581
181	0xbde1d31b	-0.11026593
182	0x3de673b5	0.11252538
183	0xbd0219fb	-0.03176306
184	0xbd8b907d	-0.06814668
185	0x3be40e8e	0.006959743
186	0x3ce3789e	0.027767476
187	0x3def163c	0.11674163
188	0x3da2519d	0.07925723
189	0x3d301e99	0.04299793
190	0x3d786a39	0.060648177
191	0x3d59deab	0.05319087
192	0x3dac346f	0.084084384
193	0xbe49ee33	-0.19719772
194	0x3cbe0f32	0.023200605
195	0xbbde0203	-0.006775142
196	0x3d4ae638	0.04953596
197	0x3c447cd6	0.011992654
198	0xbdd109ed	-0.10206971
199	0x3d93dd3e	0.07219933
200	0xbe28a027	-0.16467343
201	0x3dc0ae40	0.094082355
202	0xbe1e5cc5	-0.15465076
203	0x3dc574a5	0.09641389
204	0x3c532df9	0.012889379
205	0x3e10b86a	0.14132848
206	0x3bfd8528	0.0077368207
207	0xbdb0b574	-0.086283594
208	0xbda0f53e	-0.07859276
209	0xbdc86e43	-0.09786656
210	0xbd390bbf	-0.045177218
211	0x3db2b22c	0.0872539
212	0xbd41cd0b	-0.047314685
213	0x3e292ee5	0.16521795
214	0xbda9310b	-0.08261307
215	0xbd5a23ef	-0.053256925
216	0xbe363ad5	-0.1779588
217	0x3d940366	0.07227211
218	0x3ddf58b8	0.10905594
219	0xbd8c2c8b	-0.068444334
220	0xbcfa1422	-0.030527178
221	0xbe3fc3d9	-0.18727054
222	0x3cc2ba21	0.023770394
223	0x3df64ff2	0.12026967
224	0xbd07d587	-0.03316262
225	0x3de3c78f	0.11122047
226	0x3d76aceb	0.0602235
227	0xbdd0ed08	-0.1020146
228	0xbdf310d6	-0.118684456
229	0xbe0d1ac7	-0.13779746
230	0xbe1faef3	-0.15594082
231	0xbdbc943c	-0.09207961
232	0xbd58f4d2	-0.052967854
233	0xbde08447	-0.1096273
234	0xbd034acd	-0.032053757
235	0x3dd683e7	0.10474377
236	0x3d121f1e	0.035674207
237	0x3c0af7bc	0.008481916
238	0xbdb41805	-0.08793644
239	0xbda283bb	-0.07935282
240	0x3d32413a	0.043519236
241	0xbdcf01d4	-0.101077706
242	0x3c9578c2	0.018246058
243	0xbe3a3eef	-0.1818807
244	0x3cf7a039	0.030227767
245	0x3d542095	0.051788885
246	0xbd9619e2	-0.073291555
247	0x3d3ffb70	0.04687065
248	0x3be62c4b	0.007024323
249	0xbe1af3cd	-0.15132065
250	0x3d5d2228	0.053987652
251	0xbd50bb28	-0.050959736
252	0x3d7ffd75	0.062497575
253	0xbdd0ba18	-0.101917446
254	0xbd93ecf6	-0.07222931
255	0xbd95a015	-0.07305924

convs.2.bias f4 [200]
0	0xbd735323	-0.059405457
1	0xbd0b0146	-0.03393676
2	0xbd642d5f	-0.05570733
3	0xbc358c05	-0.011080747
4	0xbd8008d7	-0.06251686
5	0xbdd88048	-0.10571343
6	0xbd90bee3	-0.07067659
7	0xbd60c640	-0.054876566
8	0xbcca488e	-0.0246928
9	0xbcdc754e	-0.026911404
10	0xbdc89798	-0.09794539
11	0xbd800f96	-0.06252973
12	0xbd3fa8be	-0.046791784
13	0xbde296d3	-0.11063924
14	0xbcb0c493	-0.021578109
15	0xbd3e0d77	-0.04639956
16	0xbd5d7e40	-0.05407548
17	0xbdba9366	-0.09110145
18	0xbd22cc12	-0.039745398
19	0xbd52e1a9	-0.051484738
20	0xbd0fec01	-0.03513718
21	0xbdcbed24	-0.0995734
22	0xbe0b5b96	-0.13609156
23	0xbd7833c2	-0.060596235
24	0xbcb9dcb5	-0.02268825
25	0xbd677cad	-0.056515384
26	0xbd9f9634	-0.07792321
27	0xbd649e0b	-0.055814784
28	0xbbd4597a	-0.006480393
29	0xbd95ce0c	-0.07314691
30	0xbd3225b3	-0.043492984
31	0xbd48875d	-0.048957217
32	0xbc9e7156	-0.019341152
33	0xbd36542b	-0.044513863
34	0xbdd2f459	-0.10300512
35	0xbdc083ac	-0.094001144
36	0xbd9125b2	-0.07087268
37	0xbda60bf2	-0.08107747
38	0xbde85110	-0.113435864
39	0xbdab228f	-0.08356201
40	0xbd415b1b	-0.047206026
41	0xbcee07f8	-0.029056534
42	0xbddbfd8c	-0.107417196
43	0xbdd59630	-0.104290366
44	0xbdfa9c7a	-0.12236877
45	0xbda9babb	-0.08287569
46	0xbc6bdc25	-0.014395748
47	0xbd10be5a	-0.035337783
48	0xbd431aaf	-0.04763287
49	0xbd5a9ce0	-0.053372264
50	0xbdf8d595	-0.121501125
51	0xbdf0a123	-0.117494844
52	0xbd40c6b8	-0.047064513
53	0xbcca0ad4	-0.024663366
54	0xbdd107d4	-0.10206571
55	0xbd813020	-0.06308007
56	0xbd51e6e8	-0.0512456
57	0xbdaaffe5	-0.08349589
58	0xbd32787f	-0.043571945
59	0xbd92a9d0	-0.071612954
60	0xbdf6f4b1	-0.1205839
61	0xbd933177	-0.07187169
62	0xbd242c23	-0.040081155
63	0xbdbcf95e	-0.092272505
64	0xbde29631	-0.11063803
65	0xbd500673	-0.0507874
66	0xbd1720ce	-0.03689652
67	0xbd5f33fe	-0.054492943
68	0xbd13e669	-0.036108408
69	0xbdb2e505	-0.08735088
70	0xbce578af	-0.028011648
71	0xbc8573af	-0.016290514
72	0xbe115081	-0.14190866
73	0xbe03bc6d	-0.12864847
74	0xbdee03d1	-0.11621822
75	0xbdfd3c18	-0.123649776
76	0xbd73b316	-0.05949696
77	0xbcbd69d0	-0.023121744
78	0xbcb33c03	-0.021879202
79	0xbdb8d509	-0.09025008
80	0xbccc75c3	-0.024958497
81	0xbd1e2d17	-0.03861722
82	0xbd80aa31	-0.062824614
83	0xbd3cea4b	-0.046121877
84	0xbc9a9c2f	-0.018873302
85	0xbddc5b21	-0.10759569
86	0xbdaec658	-0.08533925
87	0xbd8d26e5	-0.06892184
88	0xbdef9205	-0.11697773
89	0xbda71673	-0.08158579
90	0xbd0e4785	-0.034736175
91	0xbd086f9c	-0.033309564
92	0xbdda0917	-0.10646265
93	0xbd6ff12f	-0.05857962
94	0xbcd0555f	-0.025431333
95	0xbda7ff65	-0.082030095
96	0xbcb9d61f	-0.022685109
97	0xbd4befc5	-0.04978921
98	0xbd9d94e7	-0.076944165
99	0xbd8390e8	-0.06424123
100	0xbd1d72bc	-0.038439497
101	0xbcd53298	-0.026025102
102	0xbdc9a062	-0.09845044
103	0xbd3752e9	-0.044756804
104	0xbcc36841	-0.023853423
105	0xbdd2443c	-0.10266921
106	0xbd5ac3f1	-0.05340952
107	0xbd5aef9c	-0.053451166
108	0xbd1f4644	-0.03888537
109	0xbd857953	-0.065172814
110	0xbcca17be	-0.024669524
111	0xbd50104d	-0.050796796
112	0xbdf286dc	-0.11842129
113	0xbd6e503a	-0.05818198
114	0xbc9e50ce	-0.01932564
115	0xbd7ec239	-0.062196944
116	0xbc58ceac	-0.013232868
117	0xbd647a88	-0.055780917
118	0xbd32ed0d	-0.0436831
119	0xbd8d434c	-0.068976015
120	0xbd683dda	-0.05669961
121	0xbca7d0aa	-0.020485241
122	0xbd73757b	-0.05943821
123	0xbd0b09fa	-0.03394506
124	0xbd3d0e23	-0.04615606
125	0xbc4cf2be	-0.012509046
126	0xbd3fb265	-0.04680099
127	0xbd1d1150	-0.03834659
128	0xbd11c609	-0.03558925
129	0xbcd37248	-0.02581133
130	0xbd8c7163	-0.06857564
131	0xbcbcaf56	-0.023032825
132	0xbd3bb6dd	-0.04582869
133	0xbde8ec2e	-0.11373173
134	0xbd88fb0a	-0.06688507
135	0xbc4dfbb6	-0.01257222
136	0xbd3d861b	-0.04627047
137	0xbc7d88b5	-0.015474488
138	0xbdd602c6	-0.10449748
139	0xbe063bdb	-0.1310877
140	0xbd2836d8	-0.041067928
141	0xbc7b326d	-0.015331847
142	0xbdd0818d	-0.1018096
143	0xbdd3e74a	-0.10346849
144	0xbda22b39	-0.079184
145	0xbc6588b4	-0.014009643
146	0xbd852c7c	-0.06502625
147	0xbdea399b	-0.114367686
148	0xbdf7232d	-0.12067256
149	0xbcc86f45	-0.02446712
150	0xbe0836d0	-0.1330216
151	0xbcdef3cf	-0.027215866
152	0xbca38ba1	-0.019964041
153	0xbd00238a	-0.031283893
154	0xbca00fcb	-0.01953878
155	0xbdd1fc1e	-0.10253166
156	0xbd2a6242	-0.041597612
157	0xbd5fd6e0	-0.05464828
158	0xbdc7ece3	-0.097619794
159	0xbd1207c6	-0.035651945
160	0xbcf79138	-0.030220613
161	0xbd3f1d8b	-0.046659034
162	0xbdabd519	-0.083902545
163	0xbd6b4e2f	-0.05744761
164	0xbddf454a	-0.10901888
165	0xbcd49e5f	-0.025954423
166	0xbe0be058	-0.13659799
167	0xbd83d19f	-0.064364664
168	0xbdc2fa76	-0.09520428
169	0xbdd19537	-0.102335386
170	0xbde00f88	-0.10940462
171	0xbd09f282	-0.03367854
172	0xbdca503d	-0.098785855
173	0xbd6174c0	-0.055042982
174	0xbd1e6cbd	-0.03867792
175	0xbd555686	-0.05208447
176	0xbcc0c199	-0.023529815
177	0xbc43b624	-0.011945281
178	0xbdeccc81	-0.115624435
179	0xbdb74aee	-0.089498386
180	0xbc9e134a	-0.019296307
181	0xbcc2bad3	-0.023770725
182	0xbd6bbe1e	-0.057554357
183	0xbe226c6b	-0.1586167
184	0xbe1013c1	-0.14070036
185	0xbcab7078	-0.020927653
186	0xbcca0fb5	-0.024665693
187	0xbd0b60bc	-0.0340278
188	0xbcde08ee	-0.027103867
189	0xbd93bc7d	-0.07213686
190	0xbce4cd8d	-0.027930046
191	0xbd8f45b8	-0.0699572
192	0xbcc8d7fd	-0.024517054
193	0xbd03ae24	-0.032148495
194	0xbd3a1388	-0.045428783
195	0xbd2ca1ac	-0.04214637
196	0xbdcfbbb7	-0.10143226
197	0xbd239c9b	-0.039944272
198	0xbd038ac3	-0.032114755
199	0xbd38703b	-0.045028906

fc.weight f4 [2, 600]
0	0x3d695b70	0.056971967
1	0xbdc5905c	-0.09646675
2	0x3e19cc32	0.150193
3	0xbe02055f	-0.12697361
4	0xbdfc0f79	-0.12307639
5	0x3d9d0d7c	0.076685876
6	0xbe355f67	-0.17712174
7	0x3dd86f64	0.10568121
8	0x3dd5fa7b	0.10448166
9	0xbdd842b4	-0.105595976
10	0x3dc6902e	0.09695469
11	0xbe05bbab	-0.13059871
12	0x3e100fac	0.14068478
13	0xbe461512	-0.19343975
14	0xbdc4b9f2	-0.09605779
15	0x3ddbb9c4	0.10728791
16	0xbdb52193	-0.088442944
17	0xbdcac6a1	-0.09901167
18	0xbe1bc7ed	-0.15212984
19	0x3e02aff9	0.1276244
20	0x3d7a3de0	0.061094165
21	0x3df25c28	0.11833984
22	0xbd8f868b	-0.07008084
23	0xbdb3ef3f	-0.08785867
24	0x3e0668b9	0.13125886
25	0x3dcb7ed9	0.09936304
26	0xbdc26ce0	-0.094934225
27	0x3da7675d	0.08174012
28	0xbe0cb2f0	-0.13740134
29	0x3de88074	0.113526255
30	0x3dfaeb76	0.12251942
31	0xbdb4e064	-0.088318616
32	0x3de245b1	0.11048449
33	0xbdccecc9	-0.10006101
34	0x3da2b2d5	0.07944266
35	0xbd278c0d	-0.040905047
36	0xbdd1d44e	-0.10245572
37	0xbdc55c05	-0.09636692
38	0x3e169351	0.14704634
39	0x3e038b9c	0.12846226
40	0xbdf9eaf6	-0.12203018
41	0xbd4af5a6	-0.049550675
42	0xbe313f58	-0.1730932
43	0x3dadb12a	0.08481057
44	0xbe2db42c	-0.16963261
45	0x3de05d64	0.10955313
46	0x3e0399af	0.12851594
47	0xbd8dc992	-0.06923212
48	0xbe1e361c	-0.15450329
49	0x3d9ac867	0.07557755
50	0xbda44d0f	-0.0802251
51	0x3e2bcf9f	0.1677842
52	0xbe04574a	-0.12923923
53	0x3e243842	0.16037086
54	0x3e12b3df	0.14326428
55	0xbdd94b8f	-0.10610115
56	0xbe0d60ef	-0.13806508
57	0xbd624122	-0.055237897
58	0x3dc32c61	0.09529949
59	0xbe00b8e4	-0.1257053
60	0xbe6f88bc	-0.23392004
61	0xbdfed5b5	-0.12443105
62	0xbdc69ce5	-0.09697894
63	0x3e45b34d	0.19306679
64	0x3de94657	0.113903694
65	0xbe064479	-0.13112058
66	0xbd8dc164	-0.06921652
67	0xbd704378	-0.058658093
68	0xbd5e092b	-0.054207962
69	0x3dd7624c	0.105167955
70	0x3df37788	0.11888033
71	0xbe0bd5ae	-0.13655731
72	0xbe167d02	-0.14696124
73	0x3dced6dc	0.10099575
74	0x3d5a68aa	0.05332247
75	0xbdb00469	-0.08594591
76	0xbde2bbf2	-0.11071004
77	0x3dd98a46	0.10622077
78	0x3de70d36	0.11281817
79	0x3e135e67	0.1439148
80	0x3da34ec1	0.079740055
81	0x3d935d56	0.07195537
82	0xbdf3e672	-0.11909188
83	0x3ddf47e3	0.10902383
84	0x3d8858d4	0.066575676
85	0xbdb6801e	-0.08911155
86	0x3e03a663	0.1285644
87	0xbdbca850	-0.092117906
88	0x3dea3e5a	0.11437674
89	0x3d971f7a	0.073790506
90	0x3da5996a	0.08085902
91	0x3e2ebee5	0.17065008
92	0x3d964a20	0.07338357
93	0xbdec7c70	-0.11547172
94	0x3dd49ce3	0.10381486
95	0x3de09b68	0.109671414
96	0x3dca5d40	0.09881067
97	0x3d8bb5d5	0.06821791
98	0x3dbc235d	0.091864325
99	0xbde4a6ad	-0.111646034
100	0x3d752170	0.05984634
101	0x3e174d95	0.14775689
102	0xbdddbf03	-0.10827448
103	0xbe459de5	-0.19298513
104	0x3d7fe94e	0.062478356
105	0xbdb5209c	-0.0884411
106	0x3df2b411	0.11850751
107	0x3d9aa61c	0.07551214
108	0xbe26e462	-0.16298059
109	0x3de9567f	0.11393451
110	0x3db4740b	0.08811196
111	0x3e0b6bf5	0.13615401
112	0x3de36e31	0.11105002
113	0xbdf38b4c	-0.11891803
114	0xbde69e2c	-0.11260638
115	0xbde7a481	-0.113106735
116	0x3dc3b846	0.09556632
117	0xbd8b6696	-0.06806676
118	0xbe77b986	-0.24191865
119	0xbe2809f9	-0.16410054
120	0x3d74acde	0.05973517
121	0xbe10a59e	-0.14125678
122	0x3d9bf5d4	0.07615247
123	0xbdd7f437	-0.10544627
124	0x3e0be427	0.13661252
125	0x3daa6d83	0.08321669
126	0xbe7287e2	-0.23684648
127	0xbe432e72	-0.19060686
128	0x3d888994	0.06666866
129	0x3e02f2a4	0.12787873
130	0xbdb26859	-0.08711309
131	0x3e718954	0.23587543
132	0x3e16f08a	0.14740196
133	0xbdf83d5d	-0.12121079
134	0xbd5ba228	-0.05362144
135	0xbdb2d9d4	-0.08732954
136	0xbdadd74e	-0.08488332
137	0xbe1a697d	-0.15079303
138	0x3d360bdf	0.044444915
139	0xbe56ddf2	-0.20983103
140	0xbdbca83c	-0.09211776
141	0x3e067bc2	0.13133147
142	0x3dff15d0	0.12455332
143	0x3ddee401	0.10883332
144	0xbdddead0	-0.108358026
145	0x3dce7950	0.10081732
146	0x3da32406	0.07965855
147	0xbda215c9	-0.079143114
148	0xbe06e8fd	-0.13174815
149	0x3e016da5	0.12639482
150	0xbdb9752e	-0.090555534
151	0x3dc8901d	0.097931124
152	0xbddaa660	-0.10676265
153	0xbd14ef1b	-0.03636084
154	0xbdc33d5f	-0.0953319
155	0x3e03e332	0.12879637
156	0x3dd42242	0.10358097
157	0x3dbcea9c	0.09224436
158	0xbe1c0629	-0.15236725
159	0xbdedd13d	-0.11612175
160	0x3e06133c	0.13093275
161	0x3dbe55d4	0.09293714
162	0x3d9c1e69	0.07622988
163	0xbddeb3b0	-0.108741164
164	0xbdb52bec	-0.08846268
165	0x3df6224a	0.12018259
166	0x3dd472e1	0.10373474
167	0x3d79d37d	0.060992707
168	0xbdced7b4	-0.10099736
169	0x3da94a2f	0.082661025
170	0x3e44fd39	0.19237222
171	0x3e18d472	0.14924791
172	0x3daf5da4	0.085627824
173	0xbe18e520	-0.14931154
174	0x3e21ba48	0.15793717
175	0x3e435870	0.19076705
176	0x3dbbc534	0.09168473
177	0x3dbc123e	0.09183167
178	0xbd99db0d	-0.07512484
179	0x3d8efdc4	0.06981996
180	0x3df0d12e	0.11758648
181	0x3dfcd418	0.12345141
182	0xbe0e7c21	-0.13914539
183	0x3da11c5d	0.07866738
184	0xbddea7f9	-0.10871882
185	0xbe104c60	-0.14091635
186	0xbe04f19a	-0.12982789
187	0xbd88118b	-0.06643971
188	0xbdb7e5b5	-0.0897936
189	0xbd98320a	-0.07431419
190	0x3e297abe	0.16550729
191	0x3ddf618c	0.109072775
192	0x3d773d28	0.060361058
193	0xbe307df5	-0.17235549
194	0x3dac8fbc	0.08425853
195	0xbdcace20	-0.099025965
196	0x3d78b8df	0.06072318
197	0x3dede76e	0.11616407
198	0x3e18c738	0.14919746
199	0xbe5a0312	-0.21290234
200	0x3e10b125	0.14130075
201	0x3e273acc	0.16331023
202	0x3e0055d5	0.12532742
203	0xbe11303c	-0.14178556
204	0xbdde2d35	-0.10848466
205	0x3df4511c	0.11929533
206	0x3d262f1a	0.040572263
207	0x3e1df98c	0.15427226
208	0x3ddc60c5	0.10760645
209	0x3dd186e2	0.10230805
210	0x3dfa63c8	0.12226063
211	0x3e2eca31	0.17069317
212	0xbe0a76e7	-0.1352192
213	0xbde04904	-0.109514266
214	0xbe4e3e57	-0.20140968
215	0xbdf1d21d	-0.11807654
216	0xbe3bfd1b	-0.18358271
217	0x3e1f4e95	0.1555732
218	0x3e2ae29d	0.16688009
219	0x3e16fd35	0.14745028
220	0x3da1f9dd	0.07908986
221	0xbdbe10d0	-0.092805505
222	0x3ddc060c	0.10743341
223	0x3dd5d921	0.10441805
224	0xbddcb76d	-0.10777173
225	0x3d820af7	0.06349748
226	0x3dfa072f	0.122084014
227	0x3e17623a	0.14783564
228	0x3e0f5091	0.13995577
229	0xbddff322	-0.10935046
230	0x3c1f2502	0.009713413
231	0xbdd8b0f0	-0.10580623
232	0x3e165b86	0.14683351
233	0xbe20425a	-0.15650311
234	0x3dfe0a30	0.12404287
235	0x3db33aaa	0.08751424
236	0x3de0e60e	0.109813794
237	0xbe59302e	-0.21209785
238	0xbe26a04d	-0.16272087
239	0xbe0169c3	-0.12638001
240	0x3df39919	0.118944354
241	0xbe032224	-0.12805992
242	0xbd9db704	-0.07700923
243	0xbddda4b9	-0.10822434
244	0xbe1207d3	-0.14260797
245	0x3e47917d	0.19489093
246	0xbde486b4	-0.11158505
247	0xbdffacaa	-0.12484105
248	0x3d26e964	0.040749922
249	0xbdc0ab38	-0.094076574
250	0xbd442dc3	-0.047895204
251	0x3dd8ea15	0.105915226
252	0x3dda09d3	0.10646405
253	0x3e16eab9	0.14737977
254	0x3e148474	0.14503652
255	0x3de7df20	0.113218546

fc.bias f4 [2]
0	0x3d29314c	0.04130678
1	0xbd61dacc	-0.0551403
