results/cnn/cnn_filters_150x[2, 3, 4]_length_64_batch_64_lr_0.001.pth (torch, 279528 bytes, 8 tensors)

convs.0.weight f4 [150, 1, 2, 50]
0.13548574 -0.10560193 -0.14054424 0.04666098 0.122830816 -0.12883317 -0.035975415 0.10906511
0.08253977 0.045468543 -0.029107522 0.046528824 0.0168137 -0.038532052 -0.13405043 0.13916102
0.029023299 0.009378778 -0.011193652 -0.12096995 -0.12282517 -0.10430062 -0.0055875625 0.09060763
-0.06022462 -0.14560278 0.18630986 -0.044462424 -0.1325029 -0.034557074 0.15734689 -0.04714484
0.058163732 -0.1211053 -0.073820986 -0.060967255 0.057817522 0.2090267 -0.13220885 -0.00071265624
0.11013989 0.0074999356 -0.121100694 -0.15768862 0.11884619 -0.027451072 -0.04275924 0.11793889
-0.088995636 0.09047283 -0.1084521 -0.043525465 -0.050272185 0.0765658 -0.05759422 -0.104469314
0.0018086743 -0.029996052 -0.082631506 -0.031381566 0.01773436 0.062312033 -0.13284016 -0.0003137145
0.014649199 0.0047388524 0.031795382 -0.12915187 0.102163486 -0.13422829 0.0329543 -0.010648712
-0.040787 -0.072473444 -0.11759602 0.059718 0.06664735 0.116944775 0.11217314 -0.19503456
-0.14890744 0.0010976886 0.023118863 -0.04206591 0.039818007 0.10663138 0.082155965 -0.19092168
-0.06855837 -0.01682031 0.10180814 0.037951495 0.17645147 0.11113996 0.09701949 -0.06486618
-0.014548093 0.0553731 -0.09633163 -0.050938305 0.0902082 0.065046474 -0.10768873 0.036535326
0.1125102 -0.13311315 0.05010845 -0.18541425 -0.001139632 0.011665581 -0.021219654 -0.07831378
-0.25448304 -0.0031909323 0.012559349 -0.07343998 -0.09426614 0.1552103 -0.27343354 -0.03011853
-0.16828668 -0.07193522 -0.022528205 0.09430977 -0.017174779 -0.12424211 0.07140984 0.15461618
0.05779488 0.08917504 -0.15221593 -0.008932521 -0.10494768 0.101446055 -0.031841327 0.15428749
-0.04170471 0.054200392 0.059552692 0.11973669 -0.017503992 -0.004703076 -0.034785256 -0.013793972
-0.083357744 -0.033998847 0.034536537 0.08486857 -0.21928868 0.052201875 -0.057592575 0.018422352
0.03518599 0.14495312 -0.010949937 0.08053877 0.01701069 -0.063399956 0.006383392 -0.056120202
0.08982587 -0.049121644 0.030890163 -0.1363316 -0.21480097 0.05199763 -0.030342866 0.056296825
-0.066448815 -0.0038940264 0.114395104 0.030538939 0.071992464 0.0089823315 0.037527125 -0.050467193
-0.027520623 0.09593519 -0.06830581 -0.2502519 -0.13484608 -0.06637098 0.016127642 0.0049061948
-0.08564107 -0.010706595 -0.019696383 -0.042571787 -0.0037499068 -0.038661685 -0.08420638 0.017005906
-0.059583887 -0.08064534 -0.117346555 0.055815242 -0.052877508 0.024267068 -0.22943592 0.026923642
-0.06638347 0.05103694 -0.22016442 0.03883162 0.005738653 -0.23202483 0.002705341 -0.055015016
-0.026104026 -0.03139357 -0.032725643 0.004408965 -0.024107905 -0.07843027 -0.012839353 -0.05411122
-0.11986243 -0.02261619 0.1528879 -0.25164464 -0.037201613 0.15996084 -0.018037211 0.13131876
0.030132964 0.14306289 0.011781417 0.08026021 0.060852665 -0.087193675 -0.11210505 -0.08826106
-0.055991188 -0.014062551 0.0045851395 -0.075033486 -0.17444599 0.015511126 -0.03380997 0.114102826
0.22426713 -0.03575331 0.16840002 -0.0059075584 -0.13685964 -0.026419064 -0.10913253 -0.012828723
-0.07644139 0.08150044 0.04391296 -0.0049922867 -0.06714809 0.021596124 -0.20215112 -0.04688891
00000000: c6bc 0a3e d345 d8bd d4ea 0fbe 951f 3f3d
00000010: b98e fb3d d8ec 03be f55a 13bd 875d df3d
00000020: 9c0a a93d 393d 3a3d e672 eebc 0295 3e3d
00000030: e2bc 893c c9d3 1dbd 8444 09be 3a80 0e3e
00000040: 45c2 ed3c 72a9 193c 9465 37bc 18bf f7bd
00000050: c38b fbbd 909b d5bd df17 b7bb 7e90 b93d
00000060: 17ae 76bd e518 15be 03c8 3e3e 3b1e 36bd
00000070: d7ae 07be b88b 0dbd 8b1f 213e f31a 41bd
00000080: 183d 6e3d 0e06 f8bd 752f 97bd cdb8 79bd
00000090: 11d2 6c3d 180b 563e c261 07be 8dd1 3aba
000000a0: 0691 e13d 05c2 f53b a403 f8bd 2079 21be
000000b0: a265 f33d 12e1 e0bc 5024 2fbd f289 f13d
000000c0: 5843 b6bd d249 b93d 221c debd c247 32bd
000000d0: 35ea 4dbd 88ce 9c3d ebe7 6bbd 02f4 d5bd
000000e0: 0a11 ed3a 48ba f5bc b53a a9bd f589 00bd
000000f0: a647 913c e73a 7f3d 4007 08be 0c7a a4b9
00000100: 3203 703c 6048 9b3b e03b 023d 6340 04be
00000110: 173b d13d 2473 09be 17fb 063d ef77 2ebc
00000120: 4510 27bd f56c 94bd 2fd6 f0bd dd9a 743d
00000130: 687e 883d be80 ef3d 08bb e53d 24b7 47be
00000140: 317b 18be 51e0 8f3a c563 bd3c 4e4d 2cbd
00000150: 3518 233d 8e61 da3d 6341 a83d f980 43be
00000160: 5568 8cbd bfca 89bc c980 d03d 0773 1b3d
00000170: b2af 343e 599d e33d 28b2 c63d 8fd8 84bd
00000180: 205b 6ebc e7ce 623d 8549 c5bd afa4 50bd
00000190: 14bf b83d 1637 853d e98b dcbd 11a6 153d
000001a0: bf6b e63d d04e 08be 853e 4d3d 3cdd 3dbe
000001b0: b45f 95ba fe20 3f3c d7d4 adbc fa62 a0bd
000001c0: 9a4b 82be f61e 51bb bac5 4d3c b367 96bd
000001d0: 9b0e c1bd 73ef 1e3e 7bff 8bbe 23bb f6bc
000001e0: 5853 2cbe c652 93bd 128d b8bc 7b25 c13d
000001f0: 1fb2 8cbc a672 febd 523f 923d b453 1e3e
00000200: 53ba 6c3d 67a1 b63d 7ede 1bbe b559 12bc
00000210: cfee d6bd f3c2 cf3d 0d6c 02bd 8afd 1d3e
00000220: 8fd2 2abd 3b01 5e3d 86ed 733d 8238 f53d
00000230: 8864 8fbc 431c 9abb fc7a 0ebd 1d00 62bc
00000240: 77b7 aabd 6042 0bbd 2f76 0d3d 93cf ad3d
00000250: 368d 60be a2d1 553d 31e6 6bbd 79ea 963c
00000260: 2f1f 103d 976e 143e 5d67 33bc 83f1 a43d
00000270: 015a 8b3c d6d7 81bd c62b d13b 4cde 65bd
00000280: a0f6 b73d c733 49bd 5e0d fd3c 839a 0bbe
00000290: c9f4 5bbe 78fb 543d 9a91 f8bc 8097 663d
000002a0: 5116 88bd ec32 7fbb fb47 ea3d cc2c fa3c
000002b0: c970 933d a12a 133c 0bb6 193d b0b6 4ebd
000002c0: ee72 e1bc ab79 c43d ebe3 8bbd 0421 80be
000002d0: 1715 0abe 82ed 87bd 1e1e 843c 25c4 a03b
000002e0: 9664 afbd b76a 2fbc 4f5a a1bc c15f 2ebd
000002f0: ffc0 75bb b75b 1ebd 6574 acbd f84f 8b3c
00000300: 3c0e 74bd 6229 a5bd 6453 f0bd 869e 643d
00000310: 1696 58bd bbcb c63c 40f1 6abe f88e dc3c
00000320: 0ff4 87bd 1c0c 513d c872 61be e80d 1f3d
00000330: 4f0b bc3b eb97 6dbe 174c 313b 6d57 61bd
00000340: 1cd8 d5bc 8b96 00bd 530b 06bd 1479 903b
00000350: f17d c5bc 0da0 a0bd 265c 52bc baa3 5dbd
00000360: 6f7a f5bd 9745 b9bc a58e 1c3e 91d7 80be
00000370: b860 18bd c6cc 233e c6c2 93bc 6d78 063e
00000380: 68d9 f63c 147f 123e d806 413c 775f a43d
00000390: a540 793d 9992 b2bd 5597 e5bd 37c2 b4bd
000003a0: 0457 65bd 9d66 66bc f03e 963b 28ab 99bd
000003b0: f8a1 32be 6122 7e3c 537c 0abd beae e93d
000003c0: 48a6 653e 1072 12bd 0e71 2c3e 3194 c1bb
000003d0: ef24 0cbe cb6c d8bc e080 dfbd 902f 52bc
000003e0: 4e8d 9cbd b4e9 a63d 13de 333d 5696 a3bb
000003f0: f084 89bd 5bea b03c b400 4fbe 960e 40bd

convs.0.bias f4 [150]
-0.12819599 -0.16243124 -0.07457242 -0.08679775 -0.07359402 -0.08564697 -0.09479477 -0.12966576
-0.1264671 -0.09919502 -0.062582664 -0.08647928 -0.064978145 -0.054903924 -0.11708297 -0.10364855
0.017009158 -0.1314861 -0.11962558 -0.0681288 -0.044582542 -0.07901091 -0.06021777 -0.08167989
-0.19768481 -0.090895616 -0.025553754 -0.053081617 -0.079879984 -0.14005594 -0.044754386 -0.15795292
-0.08118624 -0.15520203 -0.023655463 -0.12738164 -0.12366327 -0.012294524 -0.11529398 -0.11903257
-0.04918465 -0.03599361 -0.11855413 0.0017442061 -0.028254237 -0.15317126 -0.011582436 -0.05879188
-0.096269816 -0.06784216 -0.05307693 -0.14247121 -0.055675782 -0.14724131 -0.028122488 -0.012217602
-0.08082637 -0.034769285 -0.12632917 -0.029086772 -0.024656203 -0.105358936 -0.11024726 -0.06564949
-0.12559943 -0.09683605 -0.037917435 -0.035541557 -0.14610274 -0.053449865 -0.008923542 -0.10371254
-0.10081255 -0.06818008 -0.14423974 -0.036910594 -0.015843637 -0.02194171 -0.05999272 -0.069794714
-0.02711449 -0.14490943 -0.048574224 -0.114127085 -0.12601244 -0.047400035 -0.026965186 -0.047230624
-0.070205204 -0.05796436 -0.14189097 -0.13887163 -0.015344708 -0.028030384 -0.13501611 -0.111899436
-0.022576898 -0.11151821 -0.0538189 -0.07652117 0.0062903133 -0.026542742 -0.091096275 -0.16970918
-0.004896205 -0.09090143 -0.009564548 -0.14693218 -0.081424825 -0.029502802 -0.100818925 -0.004442363
-0.10543632 -0.038374327 -0.041589223 -0.025488503 -0.089971416 -0.06615853 -0.018408822 -0.03260261
0.0029308992 -0.011637049 -0.08690363 -0.05828373 -0.00931396 -0.006509469 -0.03810245 -0.020242658
-0.025273198 -0.097517274 -0.02124768 -0.053005885 -0.07363352 -0.024434414 -0.002267373 -0.005176465
-0.10190389 -0.08328947 -0.063454166 -0.039825838 -0.08984172 -0.035809256 -0.029306592 -0.14056203
-0.05737206 -0.057435036 -0.02444112 0.041478302 -0.055013563 -0.039676864
00000000: cf45 03be 6054 26be 6db9 98bd 05c3 b1bd
00000010: 76b8 96bd ae67 afbd c323 c2bd 1ac7 04be
00000020: 9780 01be c226 cbbd 572b 80bd 0c1c b1bd
00000030: 4313 85bd f0e2 60bd 32c9 efbd b145 d4bd
00000040: ca56 8b3c 4ba4 06be 42fe f4bd 1d87 8bbd
00000050: 2f9c 36bd 79d0 a1bd e9a6 76bd c947 a7bd
00000060: e36d 4abe 7b27 babd 1b56 d1bc 1c6c 59bd
00000070: 1e98 a3bd d36a 0fbe 6050 37bd 69be 21be
00000080: f944 a6bd 48ed 1ebe 1ac9 c1bc 5570 02be
00000090: 2b43 fdbd f96e 49bc 401f ecbd 59c7 f3bd
000000a0: d875 49bd 096e 13bd 82cc f2bd d89d e43a
000000b0: 6e75 e7bc edd8 1cbe 42c4 3dbc c1cf 70bd
000000c0: 1c29 c5bd d5f0 8abd 3267 59bd f9e3 11be
000000d0: 4a0c 64bd 6dc6 16be 2261 e6bc 562c 48bc
000000e0: 4c88 a5bd 3d6a 0ebd 6f5c 01be 6247 eebc
000000f0: cefb c9bc 6dc6 d7bd 51c9 e1bd 3d73 86bd
00000100: 239d 00be fb51 c6bd 504f 1bbd 0694 11bd
00000110: f59b 15be 3fee 5abd 0c34 12bc 3d67 d4bd
00000120: cf76 cebd ffa1 8bbd 95b3 13be 902f 17bd
00000130: 84ca 81bc 1abf b3bc edba 75bd 88f0 8ebd
00000140: 351f debc 2363 14be c4f5 46bd 76bb e9bd
00000150: 6809 01be 8a26 42bd 18e6 dcbc e674 41bd
00000160: bfc7 8fbd 096c 6dbd de4b 11be 5d34 0ebe
00000170: 5f68 7bbc fa9f e5bc aa41 0abe 882b e5bd
00000180: 30f3 b8bc a963 e4bd 3571 5cbd 22b7 9cbd
00000190: f91e ce3b 2a70 d9bc af90 babd 3ec8 2dbe
000001a0: 5870 a0bb 872a babd 9fb4 1cbc 6475 16be
000001b0: 0fc2 a6bd dcaf f1bc 277a cebd 3e91 91bb
000001c0: ffee d7bd 662e 1dbd 7659 2abd 44cd d0bc
000001d0: ef42 b8bd 207e 87bd 19ce 96bc 508a 05bd
000001e0: 5414 403b 52a9 3ebc 88fa b1bd ecba 6ebd
000001f0: 9499 18bc 624d d5bb 5111 1cbd eed3 a5bc
00000200: bd09 cfbc 23b7 c7bd 9d0f aebc b31c 59bd
00000210: 2ccd 96bd ae2a c8bc 3598 14bb 569f a9bb
00000220: fdb2 d0bd ab93 aabd 42f4 81bd 6b20 23bd
00000230: f0fe b7bd baac 12bd 6114 f0bc 7eef 0fbe
00000240: f7fe 6abd 0041 6bbd be38 c8bc 27e5 293d
00000250: e755 61bd 3584 22bd

convs.1.weight f4 [150, 1, 3, 50]
-0.14221463 0.094366595 -0.05691781 0.09716218 -0.03344437 -0.009577082 -0.066544786 -0.17440802
-0.09663211 -0.09691523 0.07677467 -0.08922418 -0.08484922 -0.0128600765 0.0053250357 -0.03249068
-0.0323686 -0.031493466 0.07192057 0.03171934 0.044067986 -0.008443787 0.0272409 -0.030920086
-0.046496205 0.03167009 0.13138896 -0.1339292 -0.08616452 0.18067467 -0.003996755 -0.0347192
0.08121808 0.004384612 0.033436775 -0.077664874 0.014744037 0.052054536 0.04419441 -0.031980794
0.08158112 -0.022376563 -0.03396853 -0.09844731 -0.006672398 0.008473952 -0.19079995 -0.02112493
-0.08761985 -0.08756153 0.19220679 0.0021057024 0.04069782 0.093215264 -0.10739794 -0.12765005
0.011687846 0.06778369 -0.12868273 0.029255223 -0.060367 0.14073293 0.02385374 -0.072464496
-0.1014429 0.0078447135 -0.038639754 0.038432542 0.03420142 0.004265513 -0.06436371 0.0027801164
0.16955449 -0.053682357 0.119384184 -0.06185382 -0.05593795 -0.023601409 -0.02983762 -0.23723683
-0.07274458 -0.012329121 0.009370443 -0.12503752 -0.12224225 -0.06282838 -0.09849363 0.068122566
-0.10853477 0.09763802 0.19243635 -0.05741202 0.055241182 0.016920246 0.088559434 -0.13525091
-0.048596967 -0.017271928 -0.021211836 0.15422267 -0.14432861 0.003030921 -0.07836197 -0.098443456
0.111790955 0.04261242 -0.035537764 -0.08364208 -0.07063118 -0.19106449 0.13614582 -0.08926698
0.1407315 -0.08864643 0.038723294 0.04355808 -0.2055582 -0.09714892 0.1417222 -0.26935187
0.08627854 -0.11800571 0.034054007 -0.02060473 0.066107996 0.019843722 -0.098276034 0.26830888
-0.0022951388 0.082401514 -0.14158496 -0.08080215 0.032779712 0.029944727 -0.046140544 0.07805769
0.071754314 0.009331803 0.012131331 0.020798333 -0.080498815 0.22879744 -0.16131774 -0.12119662
-0.121938914 0.19531702 0.09681505 -0.048712745 -0.092903376 0.0018989388 0.044598885 0.00198492
0.044562586 -0.010071501 0.08700598 -0.030381028 0.14255881 0.10114626 -0.17095274 0.13520552
-0.023187254 -0.059506275 0.015050449 -0.12950039 0.0792498 0.104656436 0.14008263 0.10297417
-0.1858038 0.009124511 0.20452496 0.007610363 0.08435825 0.006724168 -0.050577268 0.19477561
-0.025744481 -0.0065804687 0.081217565 -0.11364171 -0.08724423 0.011270702 -0.049727697 -0.014737246
-0.034112826 -0.05251293 -0.041480012 -0.23615617 0.041845493 -0.03044568 -0.009957148 0.044890072
0.026338493 -0.008106658 0.21189563 -0.04375876 -0.21305408 0.09517607 0.033341154 -0.06112227
-0.069684215 -0.13492061 -0.10100692 0.0052462933 -0.15496285 -0.020119118 -0.01575516 -0.001931724
-0.06262175 -0.27434137 -0.054738782 0.0805641 -0.058371328 0.037086766 -0.17016834 -0.011785847
-0.18735032 0.04781484 -0.04705339 0.0030358522 -0.09302202 0.008918865 0.01962725 -0.033759285
0.06366311 0.12455371 0.107179195 0.029977206 0.036001857 -0.07445216 0.13634235 0.017667808
-0.07011811 0.0046312837 -0.135666 -0.036617655 0.06999424 -0.12094812 0.053176347 0.027259912
-0.095571645 -0.014619144 0.05359647 -0.10926005 0.008130583 0.22816527 0.028014375 -0.08974165
0.031259753 -0.087739766 0.023570757 0.07517723 0.1140522 0.07025563 0.12793744 -0.023161924
00000000: b6a0 11be 4643 c13d a622 69bd f7fc c63d
00000010: f7fc 08bd 31e9 1cbc a248 88bd 0498 32be
00000020: 0ee7 c5bd 7e7b c6bd 0a3c 9d3d 2bbb b6bd
00000030: 6ec5 adbd 12b3 52bc a37d ae3b f314 05bd
00000040: f094 04bd 4bff 00bd 184b 933d 23ec 013d
00000050: a280 343d cf57 0abc 4f28 df3c 1f4c fdbc
00000060: ce72 3ebd 7fb8 013d d48a 063e bc24 09be
00000070: 0677 b0bd c802 393e 36f7 82bb b835 0ebd
00000080: aa55 a63d cbac 8f3b 00f5 083d c30e 9fbd
00000090: f990 713c 2337 553d 3305 353d 4bfe 02bd
000000a0: 0114 a73d 0e4f b7bc 9622 0bbd be9e c9bd
000000b0: 22a4 dabb 55d6 0a3c 1061 43be 300e adbc
000000c0: 0972 b3bd 7653 b3bd dbd1 443e d3ff 093b
000000d0: c2b2 263d a5e7 be3d 73f3 dbbd b2b6 02be
000000e0: 617e 3f3c 2dd2 8a3d 68c5 03be a6a8 ef3c
000000f0: 6343 77bd 4b1c 103e eb68 c33c 4468 94bd
00000100: 4cc1 cfbd 1d87 003c b844 1ebd 716b 1d3d
00000110: ca16 0c3d b7c5 8b3b 1fd1 83bd 9d32 363b
00000120: b19f 2d3e 08e2 5bbd b27f f43d 6e5a 7dbd
00000130: 311f 65bd be57 c1bc 066e f4bc 36ee 72be
00000140: 1cfb 94bd 1500 4abc 7d86 193c d609 00be
00000150: 255a fabd 2aac 80bd 07b7 c9bd d883 8b3d
00000160: 7a47 debd 71f6 c73d 090e 453e de28 6bbd
00000170: 9444 623d 549c 8a3c a65e b53d 377f 0abe
00000180: 9d0d 47bd dc7d 8dbc 72c4 adbc 8cec 1d3e
00000190: e1ca 13be 6ba2 463b 3e7c a0bd b99c c9bd
000001a0: a8f2 e43d 5c8a 2e3d 0c90 11bd 8a4c abbd
000001b0: 15a7 90bd 69a6 43be cf69 0b3e 9bd1 b6bd
000001c0: eb1b 103e 428c b5bd 519c 1e3d f569 323d
000001d0: d97d 52be 03f6 c6bd a01f 113e 7de8 89be
000001e0: ceb2 b03d faac f1bd 377c 0b3d 40cb a8bc
000001f0: a163 873d 4d8f a23c f244 c9bd c85f 893e
00000200: 0a6a 16bb 20c2 a83d a6fb 10be 997b a5bd
00000210: 0544 063d a54e f53c defd 3cbd b6dc 9f3d
00000220: edf3 923d 6be4 183c 7dc2 463c 4461 aa3c
00000230: 90dc a4bd e049 6a3e 7a30 25be ef35 f8bd
00000240: 1cbb f9bd 2f01 483e f846 c63d 0487 47bd
00000250: 2044 bebd d0e5 f83a 52ad 363d 6e15 023b
00000260: 4287 363d f002 25bc 3130 b23d a2e1 f8bc
00000270: f0fa 113e c525 cf3d 3c0e 2fbe 5173 0a3e
00000280: 32f3 bdbc dabc 73bd 2996 763c c09b 04be
00000290: b84d a23d 1d56 d63d d271 0f3e 1fe4 d23d
000002a0: 5a43 3ebe f97e 153c fe6e 513e 5a60 f93b
000002b0: 05c4 ac3d 6956 dc3b 1c2a 4fbd 4273 473e
000002c0: 17e6 d2bc f9a0 d7bb 6555 a63d fcbc e8bd
000002d0: 1aad b2bd c0a8 383c 45af 4bbd 7d74 71bc
000002e0: e4b9 0bbd cc17 57bd f2e6 29bd ecd2 71be
000002f0: 2e66 2b3d 3869 f9bc 4e23 23bc a7de 373d
00000300: d3c3 d73c cad1 04bc 2bfb 583e 633c 33bd
00000310: d92a 5abe aceb c23d bc90 083d 585b 7abd
00000320: 99b6 8ebd a128 0abe b7dc cebd 19e9 ab3b
00000330: 95ae 1ebe d9d0 a4bc f710 81bc e731 fdba
00000340: d53f 80bd 7976 8cbe c635 60bd cafe a43d
00000350: c616 6fbd 4be8 173d 9c40 2ebe 6d19 41bc
00000360: c3d8 3fbe 7ed9 433d 0ebb 40bd 26f5 463b
00000370: 5482 bebd 6e20 123c 54c9 a03c 2d47 0abd
00000380: ce61 823d 0416 ff3d c480 db3d c292 f53c
00000390: af76 133d 607a 98bd 549d 0b3e 14bc 903c
000003a0: 159a 8fbd 06c2 973b 07ec 0abe 65fc 15bd
000003b0: 2459 8f3d a6b3 f7bd 71cf 593d 2e50 df3c
000003c0: 11bb c3bd 2285 6fbc f987 5b3d bcc3 dfbd
000003d0: 2336 053c 28a4 693e 677e e53c 78ca b7bd
000003e0: 3a0a 003d e8b0 b3bd 7617 c13c 85f6 993d
000003f0: 3394 e93d 2fe2 8f3d 0802 033e 13be bdbc

convs.1.bias f4 [150]
-0.0053822594 -0.076335475 -0.016503273 -0.13310069 -0.06056082 -0.06216523 -0.021207212 -0.08529408
-0.1066743 -0.04319339 -0.03229308 -0.1083144 -0.15233548 -0.058348533 -0.016812716 -0.056116894
-0.09185498 -0.116682835 -0.1182312 -0.07958926 -0.03622092 -0.07771645 -0.06376943 -0.05664457
-0.025106674 -0.12184905 -0.03260336 -0.027473036 -0.07811099 -0.079675846 -0.055175904 -0.0382163
-0.025369264 -0.10028556 -0.04058956 -0.10949932 -0.03199777 -0.036960814 -0.09638699 -0.022477183
-0.016893297 -0.038920816 -0.025484003 0.004941663 -0.05490907 -0.01811222 -0.10827674 -0.020084979
-0.039442714 -0.120253764 -0.1542359 -0.08730219 -0.024526048 -0.10301842 -0.090333425 -0.015993733
-0.071714595 -0.09096171 -0.034622 -0.0068409415 -0.11453683 -0.012976956 -0.094512954 -0.10158252
-0.13917023 -0.08460352 -0.105331235 -0.060463503 -0.029695997 -0.13225526 -0.100564964 -0.0039584823
-0.10496758 -0.09110459 -0.08626062 -0.030176112 -0.103564374 -0.12091792 -0.047801446 -0.018304566
-0.034161996 -0.10924112 -0.045712557 -0.10877478 -0.0214849 -0.044044435 -0.010808966 -0.076318525
-0.06034672 -0.13999213 -0.03141708 -0.023071952 -0.034498744 -0.026100527 -0.115389176 -0.10011714
-0.011045663 -0.08887341 -0.017372433 -0.028653618 -0.120996386 -0.05898964 -0.11798422 -0.037626114
-0.033516258 -0.039836034 -0.054445922 -0.044265676 -0.12263212 -0.031001227 -0.04516345 -0.14644663
-0.027324684 -0.019245857 -0.052237045 -0.027681485 -0.049991447 -0.050301705 -0.10485791 -0.022899982
-0.013998075 -0.01732446 -0.08499589 -0.049488716 -0.02716102 -0.017850718 -0.07693461 -0.105124906
-0.109130286 -0.1294363 -0.0833529 -0.03479858 -0.03276894 -0.1312404 -0.099352464 -0.11401222
-0.063289255 -0.018062131 -0.02862104 -0.025132475 -0.055700377 -0.13357663 -0.10730425 -0.009777672
-0.044001002 -0.06944441 -0.07190216 -0.04553086 -0.066001244 -0.07469133
00000000: aa5d b0bb c655 9cbd df31 87bc 8c4b 08be
00000010: 9f0e 78bd f8a0 7ebd bfba adbc aaae aebd
00000020: 0e78 dabd 8deb 30bd c045 04bd f1d3 ddbd
00000030: d5fd 1bbe dffe 6ebd d2ba 89bc d4da 65bd
00000040: 771e bcbd 69f7 eebd 3323 f2bd b2ff a2bd
00000050: 635c 14bd cd29 9fbd 8c99 82bd 2304 68bd
00000060: 83ac cdbc ff8b f9bd 1a8b 05bd 220f e1bc
00000070: a8f8 9fbd 172d a3bd 2100 62bd b288 1cbd
00000080: 34d3 cfbc 8462 cdbd 3d41 26bd 2e41 e0bd
00000090: 1810 03bd 3964 17bd 8b66 c5bd 1222 b8bc
000000a0: d063 8abc 6f6b 1fbd d4c3 d0bc aced a13b
000000b0: 55e8 60bd 1460 94bc 32c0 ddbd 4189 a4bc
000000c0: af8e 21bd 9b47 f6bd 04f0 1dbe 7ecb b2bd
000000d0: daea c8bc 52fb d2bd bb00 b9bd 4a05 83bc
000000e0: 1adf 92bd 224a babd cccf 0dbd fa29 e0bb
000000f0: 4992 eabd 4c9d 54bc 0290 c1bd 7f0a d0bd
00000100: a482 0ebe 9c44 adbd e7b7 d7bd 94a8 77bd
00000110: 0545 f3bc ec6d 07be 01f5 cdbd 28b6 81bb
00000120: 3ef9 d6bd 0b95 babd 68a9 b0bd e533 f7bc
00000130: 8f19 d4bd d0a3 f7bd 73cb 43bd 75f3 95bc
00000140: 73ed 0bbd cfb9 dfbd 173d 3bbd 50c5 debd
00000150: 1a01 b0bc f067 34bd 1718 31bc e34c 9cbd
00000160: 1f2e 77bd 195a 0fbe 32af 00bd 6401 bdbc
00000170: 8e4e 0dbd c6d0 d5bc 2951 ecbd 370a cdbd
00000180: def8 34bc 4303 b6bd a250 8ebc feba eabc
00000190: f4cc f7bd 1f9f 71bd b6a1 f1bd d71d 1abd
000001a0: 5848 09bd 1c2b 23bd b002 5fbd ed4f 35bd
000001b0: 8d26 fbbd 49f6 fdbc 4ffd 38bd 1bf6 15be
000001c0: 04d8 dfbc 7da9 9dbc 83f6 55bd 48c4 e2bc
000001d0: d5c3 4cbd 2909 4ebd bebf d6bd be98 bbbc
000001e0: 2f58 65bc 07ec 8dbc 5312 aebd aeb4 4abd
000001f0: ca80 debc ab3b 92bc e58f 9dbd ba4b d7bd
00000200: b37f dfbd f38a 04be edb4 aabd f588 0ebd
00000210: b938 06bd e263 06be 4e79 cbbd 3d7f e9bd
00000220: cc9d 81bd 09f7 93bc ac76 eabc 9fe2 cdbc
00000230: 1426 64bd 50c8 08be 55c2 dbbd 8732 20bc
00000240: 653a 34bd df38 8ebd 7141 93bd 917e 3abd
00000250: a92b 87bd c5f7 98bd

convs.2.weight f4 [150, 1, 4, 50]
-0.09926291 -0.11044907 0.044746365 -0.15145788 0.14369035 -0.036746923 0.14187947 -0.089128464
-0.03622936 0.026780646 -0.055947114 0.077680364 0.040904384 -0.06916192 -0.014094432 0.100095995
-0.08766675 -0.029925097 -0.08314222 0.051624943 -0.090373375 -0.016142584 0.20528316 0.070874594
-0.033956446 -0.118418075 -0.07844409 0.126217 0.03932848 0.15165761 -0.22173838 -0.09147316
-0.03866257 -0.11656319 0.12156705 -0.02059997 -0.024094908 -0.00049760373 0.021280022 -0.112684935
0.0788799 -0.09692865 -0.06708639 -0.04746686 0.16556062 0.058703877 -0.014648343 0.074626476
-0.030886667 0.07336317 0.012901095 0.0040261527 -0.072490044 0.053048164 0.047274012 0.017271118
0.21366067 -0.14693508 0.035177406 -0.06615109 -0.013137505 -0.08796612 0.19572921 -0.049378578
-0.12450084 -0.025978683 -0.091034256 -0.12893903 -0.16453868 0.07041516 -0.101575464 -0.016114306
0.057982534 -0.004686197 -0.050512124 -0.081093855 0.054103673 -0.008501475 -0.07183109 0.2759297
0.044365346 -0.04236859 -0.034571435 -0.18646388 0.034840662 0.0023695421 0.08241202 0.030838918
-0.1045595 -0.062075626 0.06068086 -0.011030695 -0.03792286 0.03261031 0.103599824 -0.046105612
0.0013156382 0.06326055 0.0018755228 -0.0948648 -0.13002491 -0.101096295 -0.02064657 -0.06570306
-0.07186313 0.26326552 0.14665374 0.07935595 0.0440181 -0.14210168 -0.23241457 0.01704639
0.0049905027 0.2018592 -0.1301781 0.03873312 0.10623655 0.022927038 -0.25064012 -0.04775967
0.024652373 -0.003991803 0.060758397 -0.03941456 -0.06447712 -0.052308522 -0.055871688 -0.037849013
-0.22067688 0.19543858 -0.07379074 -0.10177549 0.048607416 0.002203632 -0.1823588 -0.12608403
0.120383605 0.049945585 -0.11632254 0.0534219 0.058496486 0.15841521 -0.16845962 0.019608699
0.06258528 0.20139483 0.11495955 -0.08999574 -0.17919718 -0.18382724 6.7224195e-05 -0.11327371
0.03444277 0.18027191 -0.15238753 -0.11073727 -0.26058486 -0.07633407 -0.13304725 -0.20978811
-0.07672513 0.03391606 -0.0072210548 -0.13011475 -0.024528075 0.12799734 0.09433292 0.09087643
0.021511482 -0.031482466 -0.014592766 -0.06748311 -0.062145624 -0.1624249 0.008348494 0.0036448133
-0.045465928 0.0065300283 -0.09194676 -0.17706612 -0.0023133412 0.012301006 -0.12852243 -0.07673823
-0.20621419 0.101262905 -0.07378477 0.052970283 -0.11264348 -0.053292893 -0.004321169 0.0030183485
0.09997632 0.07157904 0.10036064 -0.015028634 0.006418125 -0.076613106 -0.07210366 -0.08051252
-0.13170326 -0.006786237 0.071183875 0.08381543 -0.026065348 -0.039828997 -0.16678037 -0.023237262
-0.07134612 -0.031223139 -0.06995061 0.04722032 -0.07982798 -0.21540828 -0.024548655 0.01025213
0.11810947 -0.057194524 0.11488931 -0.08920698 0.02102318 0.0066653346 0.102342136 0.08817825
0.07273792 0.095367506 -0.020079263 0.044298567 0.056924846 0.007806119 0.036797892 -0.15034725
-0.011874946 0.03398759 -0.089013524 -0.034165096 0.07260257 -0.026357748 -0.08296655 -0.03131734
0.024878317 -0.01379536 -0.05542862 0.011005818 0.091963165 0.057768364 -0.019165687 0.010543327
-0.12357309 0.013070663 -0.111537464 -0.008869149 -0.13477461 0.14547284 0.0694959 -0.07674626
00000000: 5a4a cbbd 1f33 e2bd f747 373d c617 1bbe
00000010: 9023 133e f183 16bd da48 113e fc88 b6bd
00000020: 3d65 14bd 1663 db3c cd28 65bd e216 9f3d
00000030: 5b8b 273d c4a4 8dbd 55ec 66bc 21ff cc3d
00000040: a08a b3bd 7a25 f5bc 7846 aabd ad74 533d
00000050: ad15 b9bd 743d 84bc c035 523e b326 913d
00000060: ea15 0bbd 2d85 f2bd 4ca7 a0bd 073f 013e
00000070: e616 213d 224c 1b3e 630f 63be 4856 bbbd
00000080: a55c 1ebd afb8 eebd 25f8 f83d 45c1 a8bc
00000090: af62 c5bc 9f71 02ba 7153 ae3c 5cc7 e6bd
000000a0: c98b a13d 8782 c6bd 9764 89bd 9c6c 42bd
000000b0: b988 293e 7a73 703d 9bff 6fbc c4d5 983d
000000c0: 0906 fdbc 6e3f 963d 1d5f 533c d1ed 833b
000000d0: a975 94bd 0849 593d 65a2 413d 297c 8d3c
000000e0: ddc9 5a3e 2676 16be 2f16 103d 397a 87bd
000000f0: b13e 57bc 9527 b4bd 3d6d 483e 3141 4abd
00000100: 4cfa febd 3fd1 d4bc 2b70 babd 9808 04be
00000110: d47c 28be d335 903d cc06 d0bd 2602 84bc
00000120: 187f 6d3d ab8e 99bb cde5 4ebd 8914 a6bd
00000130: d09b 5d3d c549 0bbc 2e1c 93bd a846 8d3e
00000140: 70b8 353d b08a 2dbd c79a 0dbd 63f0 3ebe
00000150: 15b5 0e3d 524a 1b3b a2c7 a83d e6a1 fc3c
00000160: 4b23 d6bd 0343 7ebd 7e8c 783d 17ba 34bc
00000170: 0055 1bbd 6392 053d 252c d43d 3dd9 3cbd
00000180: 7e71 ac3a bf8e 813d 1ad4 f53a 7a48 c2bd
00000190: 4025 05be 930b cfbd ff22 a9bc 538f 86bd
000001a0: fa2c 93bd bdca 863e 662c 163e 5f85 a23d
000001b0: 534c 343d 1a83 11be 16fe 6dbe dfa4 8b3c
000001c0: 5f87 a33b 2eb4 4e3e 684d 05be 9fa6 1e3d
000001d0: 8c92 d93d 7cd1 bb3c e753 80be a59f 43bd
000001e0: c6f3 c93c accd 82bb ccdd 783d 2971 21bd
000001f0: 950c 84bd 7641 56bd b6d9 64bd 9107 1bbd
00000200: 1ff9 61be 0d21 483e 991f 97bd ab6f d0bd
00000210: 9218 473d cf6a 103b 44bc 3abe 2c1c 01be
00000220: ae8b f63d be93 4c3d 833a eebd ecd0 5a3d
00000230: 039a 6f3d 9937 223e ae80 2cbe 6ca2 a03c
00000240: b62c 803d 723a 4e3e ea6f eb3d b04f b8bd
00000250: 777f 37be 353d 3cbe b7fa 8c38 0cfc e7bd
00000260: dd13 0d3d 3399 383e 7a0b 1cbe 39ca e2bd
00000270: 616b 85be 0955 9cbd 8a3d 08be b2d2 56be
00000280: 1122 9dbd 91eb 0a3d 999e ecbb cd3c 05be
00000290: 1aef c8bc bc11 033e 9e31 c13d 6c1d ba3d
000002a0: d938 b03c c2f3 00bd 7f16 6fbc 9634 8abd
000002b0: 698c 7ebd b752 26be 1fc8 083c d2dd 6e3b
000002c0: 7b3a 3abd d9f9 d53b 954e bcbd d250 35be
000002d0: 6d9b 17bb 298a 493c 629b 03be ef28 9dbd
000002e0: d029 53be ed62 cf3d 781c 97bd 5ef7 583d
000002f0: a0b1 e6bd a649 5abd 9898 8dbb 7ccf 453b
00000300: 63c0 cc3d 0898 923d e189 cd3d a93a 76bc
00000310: 224f d23b 55e7 9cbd 15ab 93bd c0e3 a4bd
00000320: 38dd 06be 155f debb dac8 913d 6da7 ab3d
00000330: ff86 d5bc bb23 23bd 79c8 2abe 125c bebc
00000340: ea1d 92bd abc7 ffbc 4442 8fbd 186a 413d
00000350: da7c a3bd fd93 5cbe 431a c9bc 8df8 273c
00000360: 61e3 f13d ce44 6abd 164b eb3d 26b2 b6bd
00000370: ce38 ac3c e168 da3b c198 d13d cc96 b43d
00000380: 9ef7 943d 0a50 c33d 447d a4bc 6a72 353d
00000390: 072a 693d 79ca ff3b 63b9 163d a1f4 19be
000003a0: 228f 42bc 9236 0b3d b94c b6bd b3f0 0bbd
000003b0: a8b0 943d 34ec d7bc 5eea a9bd 9c46 00bd
000003c0: 9dcd cb3c ef05 62bc 1f09 63bd bf51 343c
000003d0: 2f57 bc3d 859e 6c3d 5c01 9dbc ebbd 2c3c
000003e0: e313 fdbd 5626 563c c16d e4bd e84f 11bc
000003f0: 5b02 0abe d5f6 143e de53 8e3d 252d 9dbd

convs.2.bias f4 [150]
-0.118244365 -0.07551987 -0.114883184 -0.07238748 -0.04762973 -0.08989477 -0.10728017 -0.030773548
-0.10723688 -0.06273622 -0.043724574 -0.037017357 -0.040680885 -0.062900186 -0.03789451 -0.09853166
-0.076559834 -0.015851112 -0.025003292 -0.027655799 -0.04517469 -0.07232829 -0.038384154 -0.052820303
-0.04116914 -0.043789737 -0.0802346 -0.09828259 -0.05220315 -0.011347132 -0.09552393 -0.11471905
-0.061147492 -0.050332174 -0.07723442 -0.10268795 -0.09379275 -0.07083358 -0.09907615 -0.010560163
-0.1252872 -0.02451278 -0.105500646 -0.056853406 -0.09802046 -0.10921247 -0.10875287 -0.10321444
-0.06857234 -0.024327423 -0.102621734 -0.10086149 -0.09459971 -0.05551187 -0.10713932 -0.013570786
-0.04707985 -0.04024875 -0.026833646 -0.018825926 -0.06428061 -0.045108385 -0.105825216 -0.035162162
-0.0603718 -0.11169254 -0.042565394 -0.026244009 -0.05908284 -0.08938224 -0.03968827 -0.05282215
-0.12507659 -0.045225006 -0.08910195 -0.07843449 -0.051709376 -0.024991889 -0.109560326 -0.040927332
-0.019790597 -0.041987654 -0.12926352 -0.059590735 -0.026884643 -0.100646764 -0.052983847 -0.080739014
-0.06880794 -0.13153006 -0.013044305 -0.06360382 -0.042234913 -0.037117027 -0.026076606 -0.062592804
-0.066563 -0.13464785 -0.054311253 -0.04100999 -0.15597585 -0.02210419 -0.07477906 -0.10237934
-0.0896859 -0.042590514 -0.028644636 -0.03368672 -0.11476108 -0.08110001 -0.036950015 -0.08132204
-0.06567299 -0.117739625 -0.121700145 -0.09892057 -0.08398125 -0.051651858 -0.05066062 -0.1337772
-0.0266974 -0.04228579 -0.103244394 -0.032169294 -0.051263306 -0.018281793 -0.07440925 -0.11295255
-0.042091172 -0.016745722 -0.050569445 -0.037614454 -0.02525358 -0.036922198 -0.10679321 -0.07782635
-0.04676485 -0.03247782 -0.047208026 -0.09717683 -0.05950076 -0.058834817 -0.01492775 -0.07728952
-0.13584484 -0.02964462 -0.101905234 -0.086445786 -0.056231257 -0.10047589
00000000: 1a2a f2bd 29aa 9abd e047 ebbd e33f 94bd
00000010: 6417 43bd c01a b8bd b5b5 dbbd cf18 fcbc
00000020: 029f dbbd d97b 80bd 8a18 33bd 839f 17bd
00000030: 00a1 26bd d0d1 80bd 4637 1bbd f8ca c9bd
00000040: 67cb 9cbd 31da 81bc b4d3 ccbc 6a8e e2bc
00000050: 1909 39bd db20 94bd b438 1dbd 1a5a 58bd
00000060: f9a0 28bd de5c 33bd 0a52 a4bd 6248 c9bd
00000070: f8d2 55bd 52e9 39bc 0da2 c3bd d2f1 eabd
00000080: cb75 7abd 1c29 4ebd 142d 9ebd 0f4e d2bd
00000090: 6a16 c0bd 3211 91bd 70e8 cabd 8904 2dbc
000000a0: 4a4b 00be 07cf c8bc b910 d8bd 1edf 68bd
000000b0: f3be c8bd caaa dfbd d3b9 debd 1862 d3bd
000000c0: a86f 8cbd 4e4a c7bc 582b d2bd 7890 cebd
000000d0: 7ebd c1bd 6a60 63bd dc6b dbbd 0158 5ebc
000000e0: cdd6 40bd e0db 24bd 3cd2 dbbc d438 9abc
000000f0: 8da5 83bd 92c3 38bd e4ba d8bd 3306 10bd
00000100: 6c48 77bd 0fbf e4bd 0d59 2ebd adfd d6bc
00000110: d900 72bd 090e b7bd 2b90 22bd 0a5c 58bd
00000120: 1414 00be db3d 39bd 157b b6bd 43a2 a0bd
00000130: 36cd 53bd cabb ccbc 2a61 e0bd 6ba3 27bd
00000140: e41f a2bc 3ffb 2bbd a85d 04be 6a15 74bd
00000150: 2f3d dcbc e41f cebd 9705 59bd 7f5a a5bd
00000160: 2deb 8cbd d1af 06be c8b7 55bc b842 82bd
00000170: 84fe 2cbd 0608 18bd 9b9e d5bc a830 80bd
00000180: 2f52 88bd 20e1 09be 7a75 5ebd 17fa 27bd
00000190: 22b8 1fbe d913 b5bc c425 99bd 42ac d1bd
000001a0: 3ead b7bd 6473 2ebd 28a8 eabc 16fb 09bd
000001b0: db07 ebbd c317 a6bd e658 17bd 2b8c a6bd
000001c0: 907f 86bd 7921 f1bd ed3d f9bd de96 cabd
000001d0: 5dfe abbd e690 53bd 8381 4fbd e4fc 08be
000001e0: 81b4 dabc dd33 2dbd cc71 d3bd f3c3 03bd
000001f0: 79f9 51bd b3c3 95bc e063 98bd ab53 e7bd
00000200: cb67 2cbd 532e 89bc e821 4fbd 9d11 1abd
00000210: 99e0 cebc bb3b 17bd 66b6 dabd 6c63 9fbd
00000220: 808c 3fbd 7607 05bd 345d 41bd a504 c7bd
00000230: 12b7 73bd c7fc 70bd 8693 74bc f849 9ebd
00000240: e91a 0bbe 46d9 f2bc b1b3 d0bd 7d0a b1bd
00000250: bf52 66bd 4ec6 cdbd

fc.weight f4 [2, 450]
0.13566318 -0.09402164 0.122355245 0.055531282 -0.072832316 -0.07506938 0.1737265 -0.14299609
-0.08536435 0.08682844 0.06339181 -0.15283278 -0.12791635 0.11903632 0.079375766 -0.06260011
0.062301096 -0.08081756 -0.16571173 0.06575617 -0.08584478 -0.07521349 -0.16299339 -0.13985907
-0.1843599 -0.10420676 -0.0920355 0.13887408 -0.1910462 0.11280859 -0.14104442 0.07574049
0.104011156 -0.19743569 0.06527047 -0.10741022 0.11792966 0.12953965 -0.16524307 -0.1717715
-0.14615007 0.064763665 0.15442635 0.13056472 0.061822094 0.1047119 0.12918851 0.10992216
0.14022076 -0.16268875 0.019500472 -0.12637784 -0.14837053 0.12196683 0.118246414 -0.09548177
0.10108593 0.07068067 -0.1288432 -0.05168037 -0.08269827 0.107813016 -0.079019494 -0.1981567
0.20255688 0.15857778 -0.11013272 -0.13079083 -0.05262604 0.121900015 0.051297102 -0.109301336
-0.059717283 0.09693189 -0.11001426 -0.16898009 0.08730715 0.099902675 -0.14945894 -0.10862273
-0.124901675 0.103667356 0.12122054 -0.10875382 -0.10797076 0.08894464 0.14112286 0.11184932
-0.1109265 0.082507715 0.09769471 -0.10809002 -0.09608414 0.10643792 -0.055524454 -0.090909034
-0.087742485 0.14743045 0.111152574 0.097604305 0.10689409 0.11936901 0.16543677 -0.01024485
0.121908106 0.12178535 -0.17048758 -0.07738985 0.124306515 -0.11905004 -0.082496956 0.11718697
0.076972015 -0.124056295 -0.14602073 0.04900635 -0.1624586 -0.25365552 -0.11268015 -0.13334759
0.09187875 -0.1055677 -0.11098569 -0.12944284 0.13890037 0.11930462 -0.16180004 0.07290797
0.108011454 -0.15552743 0.074043766 -0.12734112 -0.03812315 -0.094035186 0.018217413 -0.12944473
-0.1930725 -0.11224392 0.12121537 0.12408471 0.11471153 -0.088349655 -0.07931815 -0.22092164
-0.04902729 0.07684905 0.10058758 0.032302853 -0.08153656 -0.073366895 0.19520602 -0.0944792
-0.19310123 -0.19710107 -0.12546174 0.08730654 0.1064399 0.08842372 -0.14836076 0.12959976
-0.1886736 -0.1546143 0.1272426 0.10646413 0.13709117 -0.14535864 0.137691 0.14117716
-0.12744726 -0.15365629 0.049747787 -0.09723456 0.10192428 0.15138036 0.06419666 0.14282921
0.07964285 0.13551141 -0.09853751 -0.08798319 -0.08924898 0.12060454 -0.24166544 -0.07286562
-0.085952945 -0.17302287 0.13217913 0.13131648 -0.18022858 -0.11621248 -0.21487813 0.16855453
-0.15845902 0.08205139 0.13855062 -0.16655314 0.09263083 -0.16873085 -0.09553816 -0.14982076
-0.25590286 0.18543285 0.10361252 0.09180613 -0.118148915 0.13277042 -0.10383141 -0.12345824
0.14335625 0.10152125 0.07123757 0.16125317 -0.12167902 -0.14019047 -0.10100464 0.052645486
-0.12164042 -0.08523799 0.12630412 -0.14320879 0.15292922 0.09892416 0.16028006 -0.13477145
0.11169555 -0.16286461 -0.1829967 -0.10344996 -0.13966288 0.06904275 -0.105378255 -0.038515467
-0.18694459 0.13143758 0.12088167 -0.16337734 -0.15840591 -0.089571774 0.062915236 -0.12843968
-0.102534056 0.121855274 0.12522161 -0.13560322 -0.068869464 -0.15728249 0.10234515 -0.215914
0.118570685 0.13877745 -0.14956094 -0.11147547 0.14722231 -0.10694624 -0.11371013 -0.121583536
00000000: 4aeb 0a3e 6b8e c0bd 6395 fa3d c574 633d
00000010: 1c29 95bd fabd 99bd 5ce5 313e 916d 12be
00000020: 81d3 aebd 1cd3 b13d 91d3 813d 3280 1cbe
00000030: 81fc 02be 50c9 f33d c38f a23d 7d34 80bd
00000040: 6f2f 7f3d ad83 a5bd 56b0 29be 2cab 863d
00000050: 63cf afbd 8809 9abd bde7 26be 3737 0fbe
00000060: d7c8 3cbe 5b6a d5bd 1c7d bcbd 0235 0e3e
00000070: 9da1 43be 3108 e73d f36d 10be d41d 9b3d
00000080: cd03 d53d 952c 4abe 86ac 853d e4f9 dbbd
00000090: 1b85 f13d 0ba6 043e 7b35 29be dee4 2fbe
000000a0: 5da8 15be d0a2 843d f121 1e3e c2b2 053e
000000b0: 2a39 7d3d 3173 d63d fe49 043e df1e e13d
000000c0: 0896 0f3e e197 26be 74bf 9f3c 3169 01be
000000d0: 72ee 17be bfc9 f93d 2d2b f23d f28b c3bd
000000e0: 2406 cf3d 07c1 903d 79ef 03be ccae 53bd
000000f0: b65d a9bd 12cd dc3d f9d4 a1bd 97e9 4abe
00000100: 126b 4f3e 3762 223e 438d e1bd 08ee 05be
00000110: 678e 57bd b7a6 f93d e91c 523d 61d9 dfbd
00000120: 1c9a 74bd 3a84 c63d 284f e1bd 1e09 2dbe
00000130: 17ce b23d c699 cc3d c40b 19be 9875 debd
00000140: 73cc ffbd 8d4f d43d 7942 f83d 53ba debd
00000150: c61f ddbd 9b28 b63d 8382 103e 4211 e53d
00000160: 6f2d e3bd cef9 a83d 2a14 c83d 4d5e ddbd
00000170: c3c7 c4bd 20fc d93d 9c6d 63bd 842e babd
00000180: 55b2 b3bd 02f8 163e f6a3 e33d c4e4 c73d
00000190: 4aeb da3d bd77 f43d 4268 293e 04da 27bc
000001a0: f5aa f93d 996a f93d 4c94 2ebe 927e 9ebd
000001b0: 6a94 fe3d 82d0 f3bd 2af4 a8bd b9ff ef3d
000001c0: 81a3 9d3d 3a11 febd 7586 15be e2ba 483d
000001d0: 8c5b 26be 23df 81be dac4 e6bd 458c 08be
000001e0: ed2a bc3d e133 d8bd 774c e3bd aa8c 04be
000001f0: e63b 0e3e fb55 f43d e9ae 25be c650 953d
00000200: 1c35 dd3d 9542 1fbe 42a4 973d b665 02be
00000210: 0527 1cbd 8595 c0bd af3c 953c 298d 04be
00000220: ccb4 45be 24e0 e5bd c43f f83d 2020 fe3d
00000230: e1ed ea3d aaf0 b4bd 8e71 a2bd 4839 62be
00000240: d7d0 48bd 0963 9d3d dc00 ce3d ff4f 043d
00000250: a4fc a6bd 6241 96bd 16e4 473e 507e c1bd
00000260: 54bc 45be ddd4 49be 0b79 00be c5cd b23d
00000270: 2afd d93d 7f17 b53d e2eb 17be cdb5 043e
00000280: a733 41be 3653 1ebe e24b 023e de09 da3d
00000290: a161 0c3e e5d8 14be dffe 0c3e bf90 103e
000002a0: 8981 02be 1358 1dbe 56c4 4b3d ea22 c7bd
000002b0: adbd d03d 7403 1b3e 8a79 833d d241 123e
000002c0: ca1b a33d 81c3 0a3e 09ce c9bd 8830 b4bd
000002d0: 2bc8 b6bd 83ff f63d 2577 77be 923a 95bd
000002e0: 1908 b0bd e82c 31be f759 073e d477 063e
000002f0: d78d 38be cf00 eebd 0309 5cbe 8f99 2c3e
00000300: 1543 22be 8f0a a83d 37e0 0d3e e88c 2abe
00000310: 3cb5 bd3d c8c7 2cbe 83a9 c3bd 9d6a 19be
00000320: b305 83be 1ce2 3d3e cd32 d43d da04 bc3d
00000330: 0ff8 f1bd f8f4 073e 90a5 d4bd acd7 fcbd
00000340: fbcb 123e 60ea cf3d 01e5 913d 8d1f 253e
00000350: da32 f9bd 178e 0fbe 85db cebd cba2 573d
00000360: 9d1e f9bd 4191 aebd de55 013e 53a5 12be
00000370: 7a99 1c3e c098 ca3d 7520 243e 8701 0abe
00000380: a3c0 e43d fbc5 26be 7d63 3bbe 93dd d3bd
00000390: c903 0fbe 4966 8d3d 8ed0 d7bd 65c2 1dbd
000003a0: 676e 3fbe 9397 063e cf90 f73d 644c 27be
000003b0: 2935 22be 6871 b7bd b4d9 803d b185 03be
000003c0: 60fd d1bd 428f f93d 183a 003e 92db 0abe
000003d0: 6f0b 8dbd a90e 21be 569a d13d 8f18 5dbe
000003e0: 30d5 f23d ad1b 0e3e 8126 19be 404d e4bd
000003f0: 72c1 163e a106 dbbd dbe0 e8bd ca00 f9bd

fc.bias f4 [2]
0.01004844 -0.0886492
00000000: 36a2 243c b68d b5bd
