results/cnn/cnn_filters_150x[3, 4, 5]_length_50_batch_64_lr_0.001.pth (torch, 369448 bytes, 8 tensors)

convs.0.weight f4 [150, 1, 3, 50]
00000000: 20ea c8bc fa51 553d 2400 67bd 5d15 e8bd
00000010: 35a6 de3d 686f 43bd 2da4 27bd 0aeb 333d
00000020: 899f 0ebd ef0d f0bd 83d9 81bc c6fa b23c
00000030: dada 29bd fb47 8ebd 0fdc f4bd 5566 a23c
00000040: caec a1bd 7b4d 51bd 20f4 57be 7561 91bc
00000050: 7cee 14bd 0f5c 2cbd a9a9 333e 1c5d f8bc
00000060: c298 b6bd 3ecd cebc d7bb 93bd 33f7 973d
00000070: df4a 65bd ba4f 313e 4802 13be 1147 4e3c
00000080: 4d2a d6bd 92ad f4bc f069 e0bd 8d88 3d3d
00000090: f388 04be 1206 9dbd a8b1 c7bd b78d f6bd
000000a0: 101f 39bd a3be 703c b779 dc3d 0c23 abbd
000000b0: 84b6 0e3d 7d13 163d 1ff3 bcbd 459a 7c3d
000000c0: 7255 edbd ebbd 0d3d e916 d43d 2c21 f1bd
000000d0: 1505 4a3c 4d58 743e aaab 3dbe 3adf c03d
000000e0: 0b3a 483d 4812 19bd 24b7 2dbd 398f d63d
000000f0: 163a 01bd c57f 54bd e1c1 583d 1e35 c7bd
00000100: 552e f6bb c279 18bc 4e23 983d ae21 7fbd
00000110: bb2a 8dbc bd03 a63c 8a81 d03d 77df f53c
00000120: 20e1 d1bc 4ad9 103e a11e 4e3c be6d 22bd
00000130: 827d 143e 348f 2bbc a33f 08be e789 dc3d
00000140: cfb3 7b3d 9b8a cb3d 5b24 42be bd14 b1be
00000150: f4f4 b0bd 2960 48bd 5f25 ceba aa34 c9bc
00000160: 87ec 8fbb acd1 dd3d c764 b4bd 7034 b3bd
00000170: a340 eabd e6a8 21be ca40 d0bd c88d cc3d
00000180: f02a bbbc 353b 4a3d 4bac 91bd 576c 90bd
00000190: 94dd 133d 07d1 35bd 0e50 21bd c143 dcbc
000001a0: daaf 77bd f159 973d 3f70 78bd 002a 153e
000001b0: d41e 9ebd fd92 98be 82f6 1abe 7176 90bd
000001c0: 659c 653d eefc 2dbc 2a88 ddbd 2488 133e
000001d0: 4577 2c3e d604 30bd 7064 febd 4c8c 7e3d
000001e0: 766a 81bb 27c2 28bc 64e7 933d ee3d 883b
000001f0: d234 973c 7df2 29be 3871 b53d 1073 2f3c
00000200: ce7a 80be 61bc 293e 529e b73c 1ef2 9f3a
00000210: 9b04 cbbb 3e5f ab3a 4b99 4bbb f866 c43c
00000220: 40fd a53e 1959 6d3e 638c 44be 4f14 293d
00000230: 7f14 ea3c 5c32 7cbd ea36 c1bd 8111 2a3c
00000240: 66f1 9a3d 8144 c8bb 8aaf cb3c 92e4 6ebd
00000250: a1fd 893d a20c 2cbd c037 493d 2316 09be
00000260: 21d2 30bd 4570 a33d c384 983d dd2a 2e3d
00000270: 82ab a3bd dcd2 afbd 6079 63bd cfb2 a8bd
00000280: e21b f4bd 17f2 8a3c 152d 853c f8ac 8e3c
00000290: 305b 05bc 6f78 babd f3ea c63d 0645 4ebd
000002a0: 4b85 89bd 6034 f83c aa92 bdbd cf4f e83c
000002b0: 720a f9bc 252b 00bd 282d 893d 6283 a4bd
000002c0: 5a42 efbd 11f2 8cbb 7ff2 d83c a05a 923d
000002d0: ba4e 0a3e 1805 abbd 5d84 4d3d 05cc 08be
000002e0: a943 2abe 3447 833d 4f95 b0bd 0da3 f3bd
000002f0: abdb 123e a13c 313c 78f4 f43a 7874 f23d
00000300: 718a 223e ae9f bcbc 9e8e 93bd d6cb f93d
00000310: ef25 9abd b33a d33d 9002 d13d f96a 0ebe
00000320: bd69 c73d dc35 f33d b3d2 20bd 3a3b 423e
00000330: 2d7f 253c f467 72bd dfaa 1b3d 3a05 11bb
00000340: b0cb 16be 29f0 b03b 4e23 03be 9f41 143e
00000350: d5a2 28bd 315d 9fbd a88f 8cbd a2ce f8bd
00000360: bbd1 bfbc 0097 b43c 7c0b 3bbd e8dd 863d
00000370: 9f91 b13b 97e5 62bd 699f 4b3c eed0 a5bd
00000380: 1875 d5bd dfb7 c1bd 5c49 1ebe 54cd bdbd
00000390: 42f7 15bb aadb 3cbd 6191 963b f33d a4bb
000003a0: 2353 d1bd 092c e3bd 4290 95bd c824 9bbd
000003b0: aadb dd3c 4fdd 86bc eb3a 11bc a768 973b
000003c0: 46c0 e1bd 3a0d 293c ff3a 4dbc 8502 58bd
000003d0: 3d83 aabc 3cb6 933d 9119 0a3e 9a23 963d
000003e0: 3fb0 58bd 45fb 2abd d5da 773d 6e20 20be
000003f0: 22aa fb3c 93db d7bd 118d 0abe 4291 24be
-0.024525702 0.052080132 -0.05639662 -0.113322 0.10871545 -0.047713667 -0.040928055 0.043925323
-0.034820113 -0.117214076 -0.015850788 0.021848094 -0.04146848 -0.06947323 -0.11956035 0.019824186
-0.07906492 -0.05109928 -0.2108922 -0.017746666 -0.03636025 -0.04207998 0.17545189 -0.030317836
-0.08915855 -0.025244351 -0.07213562 0.074201964 -0.055979606 0.1731557 -0.14356339 0.012590186
-0.10457287 -0.029867921 -0.10957706 0.046272803 -0.12942867 -0.076671734 -0.09750682 -0.12038749
-0.04519564 0.014693889 0.10765403 -0.08356294 0.03484203 0.03663968 -0.09226059 0.06167056
-0.11588563 0.034604948 0.10355932 -0.11773905 0.012330313 0.23861809 -0.18522516 0.09417577
0.04888348 -0.03737095 -0.042410985 0.10476536 -0.031549536 -0.051879663 0.052919272 -0.09726928
-0.0075128474 -0.009306373 0.07428609 -0.06228798 -0.01723229 0.020265454 0.101809576 0.030013783
-0.025620043 0.14145389 0.012580545 -0.03965544 0.14501002 -0.010471154 -0.13305525 0.1076849
0.061450776 0.09938546 -0.18959181 -0.34586135 -0.08640471 -0.04891983 -0.001572769 -0.024561245
-0.00439221 0.10831007 -0.08808284 -0.08750236 -0.1143811 -0.15787086 -0.101686075 0.0998798
-0.022847623 0.04937287 -0.071129404 -0.07051914 0.036099985 -0.044388797 -0.039382987 -0.026887776
-0.06047044 0.07390202 -0.06065392 0.14566803 -0.07720724 -0.29799643 -0.15133098 -0.07053841
0.056057353 -0.010619385 -0.10816987 0.14407402 0.16842373 -0.042973362 -0.12421501 0.062145516
-0.0039494587 -0.010300196 0.07221869 0.004157773 0.018457804 -0.16596408 0.088594854 0.010708585
-0.25093693 0.16575767 0.02241436 0.0012202894 -0.0061956174 0.0013074649 -0.0031066712 0.02397488
0.32419777 0.2317852 -0.19194178 0.041279133 0.028574226 -0.061571464 -0.09434302 0.01038015
0.07565574 -0.006111682 0.024863977 -0.05832345 0.06737829 -0.042004235 0.049125433 -0.1338735
-0.043169145 0.07980398 0.07447197 0.042521346 -0.07991697 -0.0858514 -0.055535674 -0.0823723
-0.11919381 0.01696114 0.016256848 0.017416462 -0.008139417 -0.09105002 0.09712782 -0.050358795
-0.06714877 0.030298412 -0.092564896 0.028358368 -0.030400489 -0.031291146 0.06698066 -0.08032872
-0.116825774 -0.0043013175 0.026482819 0.071461916 0.13506594 -0.08350581 0.05017506 -0.13359077
-0.16627373 0.06410065 -0.08622228 -0.11896334 0.14341609 0.010817678 0.001868858 0.11838621
0.15873124 -0.02302536 -0.072049364 0.12197082 -0.075267665 0.1031393 0.10205567 -0.13907994
0.09736965 0.11875507 -0.03926344 0.18967906 0.010101122 -0.05918117 0.038004752 -0.002212836
-0.14726138 0.005399723 -0.12806436 0.14478157 -0.041170914 -0.07781447 -0.06863338 -0.12148787
-0.023415437 0.022044659 -0.04566525 0.06585294 0.0054189707 -0.055394735 0.012428143 -0.08096491
-0.104227245 -0.09458899 -0.15457672 -0.09267679 -0.0022882973 -0.046107925 0.0045949672 -0.0050122677
-0.10220935 -0.110923834 -0.073029056 -0.07575375 0.027082283 -0.01646295 -0.008864145 0.00462063
-0.110230014 0.010318095 -0.012526273 -0.052736778 -0.020814532 0.07212493 0.13486315 0.07331009
-0.052902456 -0.041743536 0.06051143 -0.15637371 0.030720774 -0.10539927 -0.13530375 -0.16071036

convs.0.bias f4 [150]
00000000: c7bc 46bc e0b4 52bb d0a7 05be dd3e 4cbd
00000010: 3c86 e0bc c253 26bc bd6c 5cbd 6e00 b4bd
00000020: 1e99 7ebd f510 d3bd 3985 0abe 63b6 00bd
00000030: d27b 97bd 02af 03bd 38c2 c6bd aaa5 50bd
00000040: d93e 08bd 0e06 f6bc 5d9b 9bbd 33d5 c2bd
00000050: 3700 67bd f77e 1fbe a86f 24be 1584 f4bc
00000060: 6c11 a2bd 3398 75bd 5462 3ebc 7158 b0bd
00000070: ee14 58bc abb5 3dbc e43f c2bd cee1 c2bd
00000080: 4468 aebd 61c5 f6bd 0241 58bd 572b 93bc
00000090: 3393 ffbc 52ff 55bd 1f46 0dbd 661a b3bd
000000a0: a80d 13be 606c 04bd 23b4 1dbd 060f 4cbc
000000b0: 30f4 e5bc 8636 edbd 1b60 a7bd 5ad6 28bd
000000c0: 1da8 fcbd 4d2e b5bc 0444 01be 4ee6 c7bd
000000d0: e8bb 48bd b887 e8bd 7d1d 9bbd 52e6 1abd
000000e0: e8a5 07bd 4753 e7bc dec4 0fbd 78b4 21bd
000000f0: 2122 e6bd 8ecf c7bd 1712 1dbd 7ce0 34bd
00000100: 4057 d4bc 91ad b6bd 9945 a2bc 2187 84bd
00000110: 2dbd bebb 48ee d2bd 7035 cbbd edbc 02be
00000120: d6ed 47bd 7ac4 3dbd 61a7 9ebd a76b 8bbd
00000130: aca7 cabd aa15 d2bd 5a37 afbd dc04 5bbd
00000140: faac 92bd 1073 3abd 0dc1 82bd 3a96 bcbd
00000150: d8ed 16bd f606 0bbe 888f bcbd 00f3 8abd
00000160: 7634 28bd f505 5bbd a22e 2ebd ee68 a8bc
00000170: f937 50bd aa66 eabc 85d0 7dbd fe52 53bd
00000180: a839 84bd e0fc 1cbe 91ad 6abd 65e6 a2bc
00000190: f738 cdbc 1fae 76bd 8440 3fbd da6d 14bc
000001a0: 80c4 45bc f17b 5dbd 1a26 d1bd 8c31 31bc
000001b0: 4d10 96bc 443b d2bd 04f1 5bbd 3ce3 b3bd
000001c0: 5e2f 8ebd 0b43 bbbd 6152 c3bd 827d 8bbc
000001d0: 9073 c1bc 42d9 cebd 0fe0 7cbd 1377 8abd
000001e0: 6014 e7bd 74d0 9ebc d748 9bbd 4762 f7bd
000001f0: 42ba 06bd ecb2 aabd c8ec eabc 7c6e a6bd
00000200: c3c2 cfbd 0ba0 9bbc aa00 bbbd 3bad 2dbd
00000210: ac8e ecbc 270c d1bd 9aec 94bd 90a4 edbd
00000220: 1e34 8ebd 2a1d 95bd cd8b aebc 227f f5bd
00000230: 47d4 84bd d40e d6bd efff 0ebd 849d 9fbd
00000240: 46b2 b0bd e7a0 90bd 5d7b 27bd ce2e 30bd
00000250: 2178 cdbd 612c 0bbe
-0.012129969 -0.0032151267 -0.13052297 -0.04986464 -0.027407758 -0.010151805 -0.05381464 -0.087891445
-0.062157743 -0.10305969 -0.13527383 -0.031423938 -0.07396664 -0.032149322 -0.09705013 -0.05093924
-0.03326306 -0.030032184 -0.075979926 -0.09513321 -0.05639669 -0.15575777 -0.16058218 -0.029848138
-0.07913479 -0.0599596 -0.011620123 -0.08610619 -0.013188584 -0.011578958 -0.094848424 -0.09515725
-0.08515981 -0.12049366 -0.05279637 -0.017965002 -0.03119812 -0.052245446 -0.0344907 -0.087452695
-0.14360678 -0.032329917 -0.03850187 -0.012454754 -0.02807054 -0.11582665 -0.081726275 -0.041220047
-0.123367526 -0.022116804 -0.12623602 -0.09760724 -0.049007326 -0.11354011 -0.07573984 -0.037817307
-0.033117205 -0.028237952 -0.035099857 -0.03947875 -0.11236978 -0.09756385 -0.03834733 -0.044159397
-0.02592051 -0.08919824 -0.019808577 -0.06471086 -0.0058208914 -0.10299355 -0.09922302 -0.12767382
-0.048810802 -0.046329953 -0.07746769 -0.068076424 -0.09895262 -0.10258038 -0.08555479 -0.05347143
-0.07161899 -0.04551989 -0.06384478 -0.09208341 -0.03684792 -0.13576874 -0.09207064 -0.0678463
-0.041065656 -0.053472478 -0.04252494 -0.020557847 -0.05083463 -0.028613407 -0.061966438 -0.05159282
-0.064563096 -0.15330839 -0.057294432 -0.019885251 -0.025051577 -0.06022465 -0.046692386 -0.009059394
-0.012070775 -0.054073278 -0.102123454 -0.010815036 -0.01831832 -0.1026521 -0.053696647 -0.08783576
-0.06942628 -0.09143647 -0.09537197 -0.01702762 -0.023614675 -0.101000324 -0.061737116 -0.06760993
-0.11283183 -0.019386508 -0.075822525 -0.12079292 -0.032892473 -0.08334908 -0.02867736 -0.08126542
-0.1014457 -0.018997213 -0.09130986 -0.042401534 -0.028876625 -0.10207396 -0.07271691 -0.116036534
-0.06943534 -0.07280953 -0.021306897 -0.11987139 -0.06485801 -0.10452047 -0.034912046 -0.077937156
-0.08627753 -0.0706194 -0.040889133 -0.043013386 -0.100326784 -0.13591148

convs.1.weight f4 [150, 1, 4, 50]
00000000: af6f 3cbb 829c 2cbe 87dd edbd d045 aebc
00000010: 8624 d7bd 55f0 67bc 9b7f 8f3d 0544 efbd
00000020: d187 08bd 4103 e13c ce38 e83d e500 da3d
00000030: 61fd 0abe a079 fc3d 91d6 68bd cd65 1a3e
00000040: ed2e 3bbd b58b d8bc 835d 9dbe 99ee 453d
00000050: 8b22 92bd b933 92bd c26b 853c e8e3 5ebb
00000060: fc54 123e 9c18 2f3d 3924 f1bd eb10 8cbc
00000070: 8a01 c23c 4621 83bd 4561 14be 9ac0 b73c
00000080: 615a 5ebe 2e27 9fbd 7756 063d c65a 8fbd
00000090: 2cf0 793d a1f4 83be 4e50 953d e4a9 42bd
000000a0: 024c 3f3e 0662 3b3d 991b 91bd 5875 043d
000000b0: 8d19 193e 6f68 643b 0fe8 5ebe 52a4 cfbd
000000c0: a9c4 5dbd bb5a 033d e327 043d d57b cd3d
000000d0: 0a39 fc3b bb51 e73d 16ff 4f3d 46b8 b3bd
000000e0: de05 cdbc 6fbf 3e3c 3b30 84be 2d47 b73d
000000f0: ddcf 4abc 0cbb afbc 3732 db3d abe5 af3c
00000100: 484b 5dbe 2d2a 9b3b 6687 3abe 5a3c a2bd
00000110: 4d4b 153d da4a 88bd fd97 0c3e 1b53 e6bd
00000120: cffb a6bd 949c 143d 498a d83d f245 813b
00000130: 8d39 c03c 3620 603e 1453 adbd 8256 16be
00000140: ade6 573d ac07 1c3d f7ec 77bd f7bc c63d
00000150: 7da4 dbbd 0c0a d23c 833f bebd b358 7ebe
00000160: 1f0f 5abd 5012 473c d5a9 4abd e1b9 fa3c
00000170: 39a1 eebc 0835 a13b 7c38 7ebd d256 a1bd
00000180: 5bd1 cfbd 46a7 873d 8249 88bd 09dc d5ba
00000190: c675 e63c 254c b8bd 0b97 adbc 8288 a9bc
000001a0: 1ddf 97bd 6da0 a3bd 1761 c13c f426 d2bb
000001b0: 005c 7bbe 4010 a83e 9703 b83c 3ad8 823d
000001c0: 8119 8c3d 4575 aebc f0c1 973d 34bd 083e
000001d0: af37 9bbd 0ef3 873d 49a5 50be 67ef dfbc
000001e0: 8a57 103d 2696 db3d 61c1 bcbd 8843 d3bc
000001f0: cc30 fcbd c043 f8bd 4729 123e 7a43 90ba
00000200: 9ea9 e5bc 4743 393d 3fa8 ab3d 8e3b aabd
00000210: 807b 6a3c 4d63 00bc d6a3 ed3b b73f 3a3d
00000220: 2f04 43bd c848 e33d f776 f0bd 5754 b2bc
00000230: 1db0 633d 53b0 d43d c60d 8b3d cf9a 433d
00000240: 4142 893c 0181 8fbd 3737 9cbd f0be c63d
00000250: 57f9 12bd 5195 0fbe 2c6a 8c3d 7c3b fcbd
00000260: d554 89bd ff69 b93c 4e40 933b caa2 393e
00000270: 42e1 373c aa6c 773d 4860 ea3d c0ac 5cbc
00000280: cda5 f2bd 5208 f2bc bfa1 30be 216d 62be
00000290: e26e 32bc 464b c63d 318a da3d f1d9 bd3d
000002a0: 45b1 7c3e 6b42 543c 7a9d 2f3d 36e8 a03d
000002b0: 9f74 383d 2414 e8bc 336b 15be 7b4f 023e
000002c0: 36f3 b9bc ea6d 96bb 2a13 b7bd 0a90 353d
000002d0: f60d c23d aeeb 56be 5f56 a43d 777d 13be
000002e0: c0dc 83bd cbab efbc 381f 85bd b241 a43d
000002f0: da92 30be 8c3a 523d ee94 96bd da69 6fbd
00000300: 0602 83bd affe 7ebc 782b b3bb ffc5 b83d
00000310: facd 33bd 1cd2 693c 6ba7 12be c6cb b5bd
00000320: e6d4 f1bd 1b30 e2bd c8d9 58bd f504 7dbd
00000330: c3d6 9e3d cdbe 683e 16e7 c4bd 66c4 8d3d
00000340: 8067 273c 7c78 273d fe20 77bd 3514 c4bd
00000350: 9184 ea3b 6063 e93d c18e d9bc 0e84 a63c
00000360: 3237 47bb ad49 26be 4499 2fbb 134c 063c
00000370: f3fd a0bd 5559 20bc 0cad 113e 0bf1 85bd
00000380: c8e9 23bd c7d2 693c 3c64 6f3d 6f92 b73d
00000390: aa61 5cbb ab1c adbd debb 7f3d 37de f7bc
000003a0: 9529 aabd 3a9d 043e f886 cbbd 2418 76bd
000003b0: 26c0 bc3d 962e d7bd 63a8 383c 1e0e 13bd
000003c0: 7d34 083d a8d2 c3bd c914 483b cc95 043e
000003d0: 1618 f2bb d772 263e ed44 e0bd c532 763e
000003e0: 23ed 9b3d 36d4 89b9 2918 7bbd e294 763d
000003f0: 8f8e c9bb 9d38 423d 79ea 09bd a143 4e3b
-0.0028753092 -0.16856578 -0.116145186 -0.021273524 -0.10505013 -0.014156421 0.07006761 -0.116828956
-0.03333265 0.027467372 0.1133896 0.10644702 -0.13573219 0.12327886 -0.05684525 0.15077896
-0.04569905 -0.026433805 -0.30735406 0.048323248 -0.07135495 -0.071387716 0.016286734 -0.0034010354
0.14290231 0.04274808 -0.11774487 -0.01709791 0.023682375 -0.06402831 -0.1449023 0.022430707
-0.21714164 -0.07771145 0.032797303 -0.069997355 0.06102006 -0.25772575 0.072907075 -0.0475253
0.18681338 0.04574778 -0.07085342 0.03233847 0.14951153 0.0034852286 -0.21768211 -0.101387635
-0.054142628 0.03206895 0.0322646 0.10033385 0.0076972293 0.11294886 0.05078038 -0.08775382
-0.025027212 0.011642321 -0.25818047 0.089491226 -0.01237866 -0.021451496 0.10702937 0.021471819
-0.21610749 0.0047352524 -0.18215713 -0.079216674 0.036448766 -0.06654902 0.13729854 -0.1124632
-0.081534974 0.036282137 0.10573251 0.0039451057 0.023464942 0.21887287 -0.084631115 -0.14681438
0.052710224 0.038093254 -0.06052872 0.09704011 -0.10724733 0.025639556 -0.09289458 -0.24838524
-0.053237077 0.012150362 -0.04947837 0.030606212 -0.029129611 0.004919652 -0.062065586 -0.07877888
-0.10147353 0.06623702 -0.066546455 -0.0016316186 0.02813233 -0.089988984 -0.021190187 -0.020694975
-0.07415602 -0.07989583 0.023605866 -0.006413335 -0.24546814 0.32824898 0.02246265 0.06388898
0.06840802 -0.021296153 0.074100375 0.13353425 -0.0757898 0.06638156 -0.20375551 -0.027335836
0.035239734 0.10721998 -0.092165716 -0.025789037 -0.12313995 -0.12122297 0.14273559 -0.0011006438
-0.028034981 0.045230176 0.083817 -0.083121404 0.014311671 -0.007836175 0.007252197 0.04547092
-0.04761141 0.11097866 -0.11741441 -0.021768732 0.055587877 0.10385194 0.067897364 0.04775506
0.016755225 -0.070070274 -0.07627719 0.09704387 -0.03588232 -0.14021803 0.06856188 -0.12316033
-0.067056336 0.02263355 0.0044937497 0.18128505 0.011223139 0.060406365 0.114441454 -0.013468921
-0.1184803 -0.029544983 -0.17249201 -0.22111942 -0.010890694 0.09682326 0.10670889 0.09270085
0.24676998 0.012955288 0.04287479 0.07856791 0.045033094 -0.028329916 -0.14591675 0.12725632
-0.02269898 -0.0045907395 -0.08939202 0.04432682 0.09475319 -0.20988342 0.080242865 -0.1440333
-0.06438589 -0.029256722 -0.06500095 0.08020343 -0.1724352 0.051325366 -0.07352625 -0.058450557
-0.0639687 -0.015563651 -0.0054678284 0.0902214 -0.043897606 0.014271285 -0.14321677 -0.08876757
-0.11808185 -0.11044332 -0.052942067 -0.061772306 0.07755806 0.22729035 -0.09614389 0.06922226
0.010217547 0.040886387 -0.0603342 -0.09574167 0.0071569164 0.113959074 -0.026557328 0.02032664
-0.003039789 -0.16239043 -0.0026794234 0.008196848 -0.07860937 -0.009786923 0.14226168 -0.06540116
-0.040017873 0.014271445 0.0584452 0.08963477 -0.0033627548 -0.084527336 0.062435023 -0.030257327
-0.083087124 0.12950602 -0.099378526 -0.060081616 0.09216337 -0.105069324 0.011270615 -0.035902135
0.03325318 -0.09561664 0.0030529967 0.12947768 -0.007388125 0.16254745 -0.109506465 0.24042805
0.076135896 -0.00026288786 -0.061302338 0.06020058 -0.0061510275 0.047417272 -0.033670876 0.0031473415

convs.1.bias f4 [150]
00000000: 3f1e 80bd 8823 76bc 4e56 26bd 5e33 9cbc
00000010: a742 b9bd 0735 4abd 4499 9cbd 197a adbd
00000020: 8562 1fbe 2752 88bc 3feb e9bd ed12 4cbd
00000030: d42f 07be b2d9 1fbd 2d0f 48bd 2c50 26bd
00000040: eed3 03be 7749 92bd 1262 9bbd d0e3 2fbd
00000050: cb96 3ebd 6f2f 95bd 1262 9fbd 42ef 77bd
00000060: f885 fabd 203e 83bd 05c4 98bd ac47 d0bc
00000070: 6c7c 88bd f8a2 dcbc ee56 36bd f36c 9fbd
00000080: 480e bdbd 4d91 09bd 3150 29bd f31f 27bd
00000090: 2748 83bd 5905 cebd 1f15 8dbd bd3c fcbc
000000a0: 08a6 44bd 2d59 78bd 5ffd fdbd 1d66 bdbd
000000b0: 09e6 1abe 71ab 2dbd c32a 4ebd 6b13 1ebd
000000c0: c041 03be adf9 55bd a300 1abd 4a90 dfbd
000000d0: 8d60 bcbc 92ab 3fbd 3655 dfbd cd56 5ebd
000000e0: 2cc6 1abd 6c27 90bd 8ec8 19bd 9e08 8fbd
000000f0: d956 58bd dd0b b4bd 63ed 56bd f233 b7bd
00000100: 8283 d6bc 1ecc a8bd 6145 88bd 1c1c b0bd
00000110: a7b9 51bd 823e dcbd 590c 4cbd 6141 cbbd
00000120: d349 74bd e0df 54bd b17e f0bd ca16 94bd
00000130: 3a1f e2bd 35d3 e3bc 6adc 56bd 648d b2bc
00000140: 8962 57bd 5ee9 95bd 67e8 5fbc 2e73 6abd
00000150: 2d66 88bd b144 84bd 2ca9 f3bc 45c9 c8bc
00000160: 623a dbbc c037 cabd dfde c4bd 582b 02be
00000170: a38e 15bd 14de dfbc aaf4 0cbe b934 d6bc
00000180: fd8e b2bd 81b4 a4bc 04d8 b1bd 0342 08be
00000190: 8e2a 9dbd 1b03 3abd 4367 cbbd f7ad 78bd
000001a0: c08b 94bd 5d1a abbd d222 13bd b061 27bd
000001b0: 974a d7bd bc94 bebd 3162 d9bd 593a 9bbd
000001c0: cf3a 20bd 5f7c 4cbd 48ac 01be 220f 96bd
000001d0: 94b3 55bc 7611 7bbd 53ac 81bd 25b3 44bd
000001e0: 1898 e0bd 9ee9 80bd 86cb 9fbd cbc1 84bc
000001f0: 8306 bebd 6e58 e7bd 2c03 efbc 6ed9 3abd
00000200: 351c 04bd e04f 8dbd 105d 60bd 1296 a7bd
00000210: 81a8 b1bd da52 babc 0ea5 a9bd 04f8 9abc
00000220: 8618 9fbd 37f2 f2bd b069 a6bc cea0 aebd
00000230: 37f5 30bd 06d4 4cbd ec5d 88bd ba2d 8fbc
00000240: b4e6 16be 454e 6dbd d79a 15bd f3ea 88bd
00000250: 3e74 fcbd e0e7 07bd
-0.06255769 -0.01502312 -0.04060965 -0.019067463 -0.09045916 -0.049366977 -0.076464206 -0.08470554
-0.15564926 -0.016640736 -0.11421823 -0.049822737 -0.13201839 -0.03902597 -0.048842598 -0.0406038
-0.12873814 -0.071429186 -0.07587065 -0.04294187 -0.046530526 -0.07284438 -0.07782377 -0.06053091
-0.12232584 -0.06408334 -0.07459263 -0.0254248 -0.066643566 -0.026933178 -0.044516496 -0.07784452
-0.092312396 -0.033585835 -0.041336242 -0.040801954 -0.06410246 -0.10059614 -0.06888794 -0.030790681
-0.048009902 -0.06063192 -0.12401842 -0.09247992 -0.15126814 -0.042399827 -0.05033375 -0.038592737
-0.1281805 -0.052240063 -0.037598263 -0.10916193 -0.022995258 -0.04679448 -0.109049246 -0.054282
-0.037786648 -0.07038769 -0.03754478 -0.069840655 -0.0528172 -0.08791325 -0.052472483 -0.08945455
-0.026185755 -0.08242057 -0.06653858 -0.085991114 -0.051202442 -0.1075411 -0.049816463 -0.099245794
-0.059640717 -0.051971316 -0.117429145 -0.07230909 -0.11041112 -0.027810672 -0.052456297 -0.021795936
-0.052584205 -0.07319902 -0.013666249 -0.05723875 -0.066601135 -0.06458414 -0.029743753 -0.024510035
-0.026761238 -0.09873915 -0.09612822 -0.12711847 -0.036512982 -0.027327575 -0.13765207 -0.026148187
-0.08718679 -0.020105602 -0.0868378 -0.13306431 -0.07674132 -0.045413118 -0.09931805 -0.06071278
-0.07253218 -0.08354638 -0.03592188 -0.040864646 -0.10512274 -0.093057126 -0.10614432 -0.07579488
-0.039118584 -0.049923297 -0.12663376 -0.07327105 -0.013043303 -0.06129595 -0.06331696 -0.048022408
-0.109665096 -0.06294559 -0.07802491 -0.016205689 -0.09278586 -0.112961635 -0.029176317 -0.045617513
-0.032253463 -0.069000006 -0.05477625 -0.081829205 -0.08674718 -0.022744585 -0.08283435 -0.018917091
-0.07768349 -0.11862605 -0.020314068 -0.08526765 -0.043202605 -0.05000689 -0.06658539 -0.017477859
-0.14736444 -0.05793597 -0.03652462 -0.06685438 -0.12326859 -0.033180118

convs.2.weight f4 [150, 1, 5, 50]
00000000: e407 27be 4ff2 ae3d ea5c e8bc b039 403e
00000010: a21c 7ebd 138f 5abe f295 0fbd f63e 42be
00000020: e3ac 553d dbed 08be 66f1 133e adc7 6b3e
00000030: 82c0 3dbe abce 08be 2bfe 7d3d beb3 45bc
00000040: b58e 833d 4568 4fbd 9b2e 46be f850 18bd
00000050: 0d8a 853d 1e7c 22be a557 ae3c 18c6 3dbe
00000060: 7743 4e3e bfe6 5e3e d197 05bd 9b43 a33c
00000070: a365 8ebc a318 523d 2fde 833d f38a f9bd
00000080: ed25 73bd 5203 24be 20ea 0abe 0f67 163d
00000090: 5e8a fbbc 0225 c53c ad41 74bd fb2e 873d
000000a0: 0e38 293e 02bd f43c 79da 303b 7f67 843d
000000b0: efb1 7ebd 93b8 cf3d 2a4f b03b f7db ab3d
000000c0: eb40 c63d 7e3a 203d c902 a0bc ce77 d3bd
000000d0: b4d5 843d 7fb3 1ebd bc17 f53d f6e1 a83d
000000e0: 191e 8bbd 273b 1e3d 8783 e9bb 29b8 f43c
000000f0: 4cbf 2fbe cae5 1bbe 2d59 d5bd 0d9b 9f3d
00000100: f109 bb3b 3ddc 1d3e 4d82 d3bc c928 793d
00000110: 86ec babd 3aa1 3b3d ca5d efbd b3df d43c
00000120: 9ee1 0bbe 5ea9 423e 7d77 b0bd f70d db3c
00000130: 5680 b13d 1528 60be e503 b73d e0c6 f63d
00000140: 79c8 98bd 7d55 8fbd 0e9c a3bd e62f 4cbe
00000150: df36 303c f4d1 043d ee9e 0c3c b9df ac3d
00000160: 240b cb3c 78d6 0b3e bac0 1ebe 9a1e 203e
00000170: 4eeb 0bbe a06e b23d 0a17 7a3e c8dc 263e
00000180: 791d 23bc ccbe b3bc c7b9 d4ba 9276 80bd
00000190: 23e2 0f3d a6d6 2fbc a07f 83bd f5df b33d
000001a0: b5d1 0b3d 5265 253e 594a 2c3d f2ca d6bd
000001b0: 4fe3 023d b73a 46bd af6d 31bd b2b3 a93d
000001c0: 14e9 853d c2ae d33c 6276 adbd 429c ba3b
000001d0: c5dc c6bc 36be 8ebc 5173 983c 00d9 e63c
000001e0: 8008 233c 55e4 1bbd 4406 b13d 8021 283d
000001f0: 908f e63d 7dd0 21b7 45bd 843e 04a4 06bd
00000200: a55c 80bd 3918 11be 5b6e aebd bf1f 353d
00000210: 73f4 c13d da31 393d a7a8 9fbd ece2 24be
00000220: 503e 0cbe a3cb 16bd c200 3a3d b68f c0bd
00000230: b2a0 1c3d 382f 95bc 9a65 61bc 3710 9e3d
00000240: 102b abbd 4c05 99bc a983 a53d 1062 a3bc
00000250: 0ea8 66bd c45f ebbc 3f45 e6b9 b0af 993d
00000260: 4688 113c 39cb 17be 9b68 4a3d c9b8 7fbd
00000270: fa36 a1bc 81aa 7cbd 9865 c9bc eb2a 8bbd
00000280: b660 03be 076e 023d 1f67 1c3d d62c 08bd
00000290: 2fc9 9bbb d5d9 e4bc 65bb 913d cb26 4b3c
000002a0: b4bd 173d 57ce 03be 0de2 cb3c c562 063d
000002b0: 6f29 b73b 240e f23c e017 bfbd 851f a4bd
000002c0: e0f8 9cbd d0b4 6b3e 1497 49bd f84a 023e
000002d0: b1cc e73c 6a7d 373d 17b5 f83c 6e88 f4bd
000002e0: 43f3 193c 3a39 a0bd 0eff 313c 0c0f cebc
000002f0: 6fe8 15bd 5a64 b9bd 92db ebbd 3f0d 33bd
00000300: 1211 c5bd f7de 3dbb aebc 5dbd a008 ab3d
00000310: 3a6c 823d d307 663d fe50 77be f168 a63d
00000320: a329 08bd 2b15 78be e0fa 393d 1258 8b3d
00000330: 147d babd 1eb4 253d 10f0 463d 8f5e 1dbd
00000340: 388a 1ebd 1be2 013e 7a44 903c bd79 e6bd
00000350: eb50 9fbd 3d3f 5a3d e962 0c3d 54a5 d1ba
00000360: 15e8 f5bd 8db1 63be d32a c23c bf67 873e
00000370: 3aea 41ba 51fe 11be 4a80 8abd a146 94bc
00000380: 6964 123e 3306 003e a6df 1bbd 1d7d fabd
00000390: 1867 d63d 530a 31be 2d3f 96bc 01ee c53c
000003a0: e05c 8dbd f5a1 01be 9d12 a2bc 86a2 b0bc
000003b0: 4219 16be bcb0 b03d eddc 32bd f9ba 0dbe
000003c0: d536 a93d 0351 723d 42a2 4f3d de0d cd3d
000003d0: 23ef 453d 94c9 103d c696 2a3d 87e4 15bc
000003e0: c94d 87bb 7b45 a33c fc84 02be b16b 413d
000003f0: f4df 0abd 1495 d5bd 2c0c 883d 0967 27be
-0.16311604 0.085423104 -0.028364617 0.18772006 -0.062039025 -0.21343641 -0.03505511 -0.1896933
0.05216683 -0.13371985 0.14447555 0.23025389 -0.18530467 -0.13360088 0.06200997 -0.01206678
0.064237036 -0.05063655 -0.19353716 -0.037186593 0.06520472 -0.1586766 0.021282027 -0.18532598
0.20142923 0.2176771 -0.032615487 0.019929698 -0.017382449 0.051293027 0.064388625 -0.121847056
-0.05936234 -0.16016892 -0.13565874 0.036719378 -0.030705627 0.024065498 -0.059632946 0.06600758
0.1652529 0.029875282 0.0026985689 0.06465053 -0.06218141 0.101426266 0.005380531 0.08391564
0.09680351 0.039118282 -0.019532578 -0.10325585 0.06486073 -0.0387454 0.119674176 0.08246224
-0.0679285 0.03863063 -0.007126275 0.02987297 -0.17162818 -0.15224376 -0.104173996 0.077932455
0.005707972 0.15416045 -0.025818968 0.06082991 -0.091271445 0.045808055 -0.11687811 0.025985574
-0.13660285 0.19009921 -0.086165406 0.026740057 0.08667056 -0.2189029 0.0893629 0.12049651
-0.07460112 -0.069987275 -0.079887494 -0.19940147 0.01075527 0.03242679 0.008582814 0.08441109
0.024785586 0.13656032 -0.15503207 0.15636674 -0.1366398 0.08712506 0.24422851 0.16295159
-0.009955757 -0.021941565 -0.0016229682 -0.062726155 0.03512777 -0.0107323285 -0.06420827 0.08782951
0.03413554 0.16151932 0.04206309 -0.104879275 0.03195506 -0.04839584 -0.043317493 0.08286227
0.06538597 0.025840167 -0.08469845 0.005694897 -0.024275193 -0.017424684 0.018609675 0.028179646
0.009950757 -0.03805955 0.08643773 0.041047573 0.11257851 -9.64489e-06 0.2592565 -0.03287126
-0.062676705 -0.14169396 -0.085171424 0.04421973 0.09470453 0.045213558 -0.0779584 -0.16102189
-0.13695645 -0.036815297 0.04541088 -0.09402411 0.03823919 -0.018210992 -0.013757134 0.077179365
-0.08357823 -0.018679284 0.08081753 -0.01994422 -0.056312613 -0.028732188 -0.0004392061 0.07504213
0.008882588 -0.14823617 0.049416166 -0.062432084 -0.019679535 -0.061686043 -0.024584576 -0.06795295
-0.12829861 0.03184321 0.03818428 -0.033245884 -0.0047542076 -0.027935902 0.07115821 0.012399386
0.03704615 -0.12871681 0.024888063 0.032809038 0.005589656 0.029547758 -0.09330726 -0.080138244
-0.07664657 0.23018193 -0.049216345 0.12723911 0.028295847 0.04479734 0.030359788 -0.119400844
0.009396377 -0.07823415 0.010864032 -0.02515366 -0.03659862 -0.09052344 -0.11516489 -0.043713804
-0.096223965 -0.0028972009 -0.054135017 0.083512545 0.06368299 0.056159806 -0.2415199 0.08125485
-0.033242833 -0.24226825 0.04540527 0.068039075 -0.09105888 0.040454976 0.048568785 -0.038420256
-0.038706034 0.12683909 0.017610777 -0.112536885 -0.07779106 0.053282965 0.034274016 -0.0015994706
-0.12007157 -0.22235699 0.02370206 0.2644634 -0.0007397268 -0.1425717 -0.067627504 -0.018100085
0.14296116 0.12502365 -0.038055085 -0.12230895 0.10468882 -0.17289095 -0.018340671 0.02416134
-0.0690248 -0.12659438 -0.019784266 -0.021561872 -0.14658073 0.086274594 -0.043667722 -0.13840856
0.082624115 0.05915929 0.05069185 0.100124106 0.04832376 0.03534849 0.041647695 -0.009148723
-0.0041291458 0.019930592 -0.12746042 0.047221843 -0.033904985 -0.10428825 0.066429466 -0.16347899

convs.2.bias f4 [150]
00000000: 9ef5 00bd 0e0f b1bd 657b e6bd 645e cabd
00000010: f99f c9bd e567 d5bd 5ab3 2dbd 1dab d5bd
00000020: 99db 3abd 433c 88bd e167 c1bd 9d4e aebd
00000030: f64e a6bc 27a2 aabd 46c8 3dbd 4abb f4bd
00000040: 063c 97bd 3249 04be c8d3 90bd d01f 8dbc
00000050: 3edb cabd 957b 09bd de2e 00be c2fb c0bc
00000060: 0e2a a9bd 8f4c 2dbd 5c56 01be 783e bdbc
00000070: e752 a1bd 1cc6 c7bd 2dc4 77bd 3c4e 91bd
00000080: 28dc 9fbd 67bf 39bd 2bf2 81bd f5d6 c5bc
00000090: 8068 42bd a58d 84bd e0dc 04be eddb aebd
000000a0: de06 63bd 218e 4fbd 3760 32bd ce20 13bb
000000b0: 4c17 cebd 04f6 85bd 88f9 0bbe 4f46 12be
000000c0: f53a 0abc fda1 b9bd cbfc 01bd 4088 01be
000000d0: 7675 05be a8dc 91bd 0453 bdbc e34b dfbd
000000e0: 72eb e1bc 4cb6 8abd 31cc 6abd 4672 22bd
000000f0: 141d c6bd 2d4d 27bd 6970 89bd 30df a1bd
00000100: 0cbf 84bd b639 87bd 3302 bfbd 024a 09be
00000110: dc5b 30bd eb94 80bd de6a a7bd f419 11be
00000120: e745 20bd cd6f b3bd cb9f 7ebd d79d 8cbd
00000130: 5399 d8bd 9b28 74bd 664a ccbd cf5d 57bd
00000140: 520d f3bd 5acf b8bc 0ff4 bcbd c72f 13bd
00000150: 5756 89bd b859 a4bd cdda fabc 23f0 26bd
00000160: cd3e 5fbd f707 b3bd 4018 dabd 03fa d0bd
00000170: 85ed 1bbd 706e bbbc 9b60 52bd e27a c2bd
00000180: efce f9bc 4da5 dabd 9ed3 64bd 6963 09bd
00000190: 0522 77bd e5f5 2ebd 58cd ccbd d86b 57bd
000001a0: aca2 fbbd 744c e2bd fc53 b5bd b7df 81bd
000001b0: f8c4 11bd 82ea 8abc 89e7 fbbd 673a 90bd
000001c0: 24b2 cebc 2c12 34bd 78de 06be b986 89bd
000001d0: 103c acbd aaad 99bd efc9 9abd bdce 09bd
000001e0: 16ac afbd e424 1bbd dcb5 40bd 1ffc ddbc
000001f0: 6fda c2bd 1823 08bd ec21 4fbd 1fc6 92bd
00000200: fe57 8cbc 6e7f 23bd c96e d9bc bac6 c9bd
00000210: a37e 92bd 2f6b 8dbd 396b 89bd 0914 bcbd
00000220: c419 4fbd f063 19bd 6183 7cbd c3b4 79bd
00000230: 2904 9bbd 8761 a5bc a0bf c2bd 8322 eabc
00000240: b1e9 e4bd 5d20 17bd 6797 4ebd 60b9 0ebd
00000250: 3882 b2bd 1c65 e5bc
-0.03148424 -0.086454496 -0.112540044 -0.09881285 -0.098449655 -0.10420207 -0.04240737 -0.10433028
-0.04561958 -0.06652119 -0.094436415 -0.08511088 -0.020301323 -0.08331709 -0.046333574 -0.11949785
-0.073844954 -0.12918547 -0.07071644 -0.017227083 -0.099050984 -0.033565123 -0.12517878 -0.023557547
-0.082599744 -0.04230934 -0.126306 -0.023101076 -0.078771405 -0.09754583 -0.060489822 -0.07095
-0.07805663 -0.04534855 -0.06345018 -0.024150351 -0.04746294 -0.06472329 -0.12974882 -0.08538041
-0.05542647 -0.050672654 -0.04354879 -0.0022449973 -0.10063037 -0.065410644 -0.13669407 -0.14284633
-0.008436908 -0.090641 -0.031735223 -0.12649632 -0.13033089 -0.07122165 -0.023110874 -0.10903146
-0.02757809 -0.067730516 -0.05732364 -0.03965976 -0.09673515 -0.040845085 -0.06710894 -0.07903898
-0.06481752 -0.06602804 -0.09326591 -0.13407138 -0.043056354 -0.06278404 -0.0817468 -0.14170057
-0.039129164 -0.08761559 -0.06216411 -0.06866043 -0.10576119 -0.059609037 -0.09975128 -0.052579697
-0.11867775 -0.02255981 -0.09226238 -0.035934236 -0.06705921 -0.08024925 -0.03062191 -0.040756356
-0.05450325 -0.087417535 -0.106491566 -0.10203936 -0.038068313 -0.02287981 -0.05136166 -0.09496094
-0.030494181 -0.1067606 -0.055865876 -0.03354207 -0.060335178 -0.042714972 -0.10000104 -0.052593082
-0.122868866 -0.110497385 -0.088539094 -0.06341498 -0.035588235 -0.016957525 -0.12300021 -0.07042389
-0.025231428 -0.043962643 -0.13170803 -0.067151494 -0.084098935 -0.07503827 -0.07558047 -0.033644427
-0.08577745 -0.03787698 -0.047048435 -0.02709776 -0.09514319 -0.033236593 -0.05056946 -0.07166695
-0.017131802 -0.03991645 -0.026542084 -0.09852357 -0.0715306 -0.06905209 -0.06709904 -0.09183509
-0.05056168 -0.037448823 -0.06164873 -0.060963403 -0.07569153 -0.020188106 -0.09509206 -0.02858091
-0.111773856 -0.0368961 -0.050437357 -0.034844756 -0.087162435 -0.028002314

fc.weight f4 [2, 450]
00000000: 1e80 133e d4b6 113e 11f9 38be a0fb 6ebe
00000010: 7343 0f3e 78bc 3e3e 4c43 7f3e b073 8abe
00000020: 4474 7fbe d0b7 1b3e 4b96 76be eb73 24be
00000030: 7dce 3fbe 168c 833e bf78 0d3e 3584 7ebe
00000040: 459e 57be 96ff 63be 121f 303e d4a9 4cbe
00000050: f2d5 50be 9d1c a5be 2e90 393e 2fc3 533e
00000060: 7ebe 3cbe 346a 3f3e 8c69 543e fde1 02be
00000070: 3b8f 72be a182 1c3e 21de 64be ede4 7c3e
00000080: 7815 52be 7512 363e 6d38 8bbe 54f7 343e
00000090: 8958 30be 14f2 21be acbf 643e 6f76 43be
000000a0: 4f53 64be 41fa 35be 085c 5a3e 04d5 3d3e
000000b0: 7b7a 663e e43b 84be 4667 49be df75 283e
000000c0: 00cd a7be 575b 653e 8331 84be cbf7 8ebe
000000d0: 03ba 1f3e 97ff 2e3e 9306 643e 54d8 3cbe
000000e0: 8abe 653e 667a 6bbe d649 4a3e 136e 6abe
000000f0: be76 7b3e 79bd 3f3e 4533 2dbe 6778 90be
00000100: 0ac0 083e 731e 57be 29c8 5c3e 6410 4bbe
00000110: 7f16 373e 96fa 2fbe df12 6dbe 750d 6a3e
00000120: 25d1 43be 14eb 7dbe ad64 503e 78d8 7a3e
00000130: 53a6 373e 6115 82be 62ef 68be 1b03 2dbe
00000140: cd6b 91be 6233 1c3e e8f6 203e 1847 323e
00000150: d7b2 333e bee8 873e b5fb 573e 6bf9 16be
00000160: fd50 5b3e 3918 9b3e 5dcd 7fbe 7dfc 693e
00000170: fd04 f03d b363 31be 8f78 4e3e 8ffd 4a3e
00000180: dd6c 663e 395c 5cbe 4b4b 49be e44f 35be
00000190: 1541 363e 69d3 5ebe 0bac ec3d 6b8c f43d
000001a0: 7ac7 8b3e 5c80 343e d660 4ebe 5fdf 46be
000001b0: 602d 503e 4d6d 74be e351 3bbe 0643 4abe
000001c0: 9d01 8a3e 5517 99be 764c 44be 5200 603e
000001d0: e43f 02be 8c96 6e3e ac61 4f3e 64aa 4b3e
000001e0: b4bb 88be e659 483e 05d8 7abe 8efe 46be
000001f0: 089e 683e dbbf 50be 34c7 553e ce80 51be
00000200: 8111 07be 291f 423e c9e5 523e 10d8 7abe
00000210: 94d3 3b3e 2b03 76be f716 613e 09c4 8abe
00000220: b1d0 333e c5d3 85be 2ef4 483e 92f2 573e
00000230: 67f4 56be b852 4b3e 41f7 9cbe 4ef6 56be
00000240: b1d0 6cbe f3f9 61be c674 663e f845 4fbe
00000250: b0cd 433e 445d 60be 81aa 3bbe 30cd 6abe
00000260: ac43 743e a861 68be 58ce 533e 54cf 803e
00000270: 85de 3d3e bb53 233e 96f9 6fbe 70f4 523e
00000280: 0108 6f3e 6c9f 9bbe f37d 79be c05b 553e
00000290: a841 813e ce3a 6cbe 93d6 303e 9530 90be
000002a0: 0606 4c3e 199f 573e 424d 5ebe cc0c a23e
000002b0: c622 6dbe b88c 8bbe 1191 7d3e b828 67be
000002c0: 6a45 8f3e 012e 823e ba92 89be 26e7 953e
000002d0: d33b 9ebe c0d3 513e 4e89 a03e 9f58 5c3e
000002e0: 7b3f 59be 33c2 7dbe 3dbc 903e 0d53 8bbe
000002f0: 45b3 6c3e 5727 3b3e e2e8 713e 3afe 6abe
00000300: 3ada 563e 319d 63be d22b 94be 069c 58be
00000310: 9d4a 9a3e 6a3f 423e b62d 3f3e b9f8 97be
00000320: 606f 5cbe ba24 9f3e b150 633e dc6b 98be
00000330: 3d42 793e ed75 823e 8e2b 8fbe 2dfd 553e
00000340: f42f 78be 58b4 90be 15d4 603e b341 5bbe
00000350: 1e38 0e3e f9cf a23e 9ebd 473e beb3 733e
00000360: 5252 3cbe 551d 66be cde1 5a3e 167d 303e
00000370: 7be3 47be 65a2 3b3e 2d09 8bbe 858c 97be
00000380: 473f 4a3e 595b 63be 5e2c 4e3e 75d2 69be
00000390: 3794 853e 9844 96be c2fc 36be 1306 733e
000003a0: 7dd9 673e a7fd 8b3e 034d a7be 7ccd 83be
000003b0: 4335 3c3e 28fb 66be a6a1 2d3e ad63 3a3e
000003c0: e688 393e 1e5a 813e 8128 85be 0b6f 683e
000003d0: 29ea 9cbe 715c 8b3e 535c 5ebe 097c 82be
000003e0: 1690 91be e066 91be 377b 0d3e 3476 58be
000003f0: 1c7d 10be e46e 94be 0775 6e3e ba89 69be
0.14404342 0.142299 -0.18063761 -0.23338175 0.13990574 0.18626583 0.24928015 -0.27041388
-0.24946696 0.15206838 -0.2408077 -0.16059844 -0.18731113 0.25692815 0.13815592 -0.2485512
-0.21056469 -0.22265467 0.17199352 -0.1998666 -0.20394114 -0.32248393 0.18121406 0.20679925
-0.18432042 0.18692857 0.20743388 -0.1278152 -0.2368745 0.15284206 -0.2235036 0.24696703
-0.20516002 0.17780478 -0.27191487 0.17672473 -0.17221273 -0.15815002 0.22338742 -0.19088148
-0.22297405 -0.17771246 0.2132417 0.1853829 0.2250766 -0.25826943 -0.19668302 0.16451214
-0.3277359 0.22398125 -0.25819024 -0.27923426 0.15598302 0.17089687 0.22268133 -0.18441898
0.22435966 -0.2299591 0.19754729 -0.22893552 0.24557015 0.18724622 -0.16914089 -0.2821686
0.13354507 -0.21007709 0.2156073 -0.19830471 0.17879675 -0.17185435 -0.2315173 0.22856696
-0.19122751 -0.24796706 0.20350905 0.24496639 0.17934541 -0.25406936 -0.22747567 -0.16895716
-0.28402558 0.15253976 0.15719187 0.17409933 0.1754869 0.26544756 0.21092112 -0.14743583
0.21417613 0.30291918 -0.24980684 0.22850223 0.117197014 -0.17323188 0.20163177 0.19823287
0.22502466 -0.21519555 -0.19657628 -0.17706257 0.17798264 -0.21760334 0.11556252 0.11940845
0.27300626 0.1762709 -0.20154127 -0.19421147 0.20329809 -0.2386982 -0.18292956 -0.1975213
0.26954356 -0.29900613 -0.19169793 0.21875122 -0.12719685 0.23299617 0.20252103 0.19889218
-0.26705706 0.19565544 -0.24496467 -0.19433042 0.22716534 -0.20385687 0.20876771 -0.20459291
-0.13190271 0.18957199 0.20595469 -0.24496484 0.1834243 -0.24024646 0.21981417 -0.27102688
0.17560078 -0.2613813 0.19624397 0.21088627 -0.2099167 0.19855773 -0.3065739 -0.20992395
-0.23126484 -0.22068004 0.22505483 -0.20241535 0.19121432 -0.21910578 -0.18326761 -0.22929835
0.2385394 -0.22693503 0.20684183 0.2515818 0.18541916 0.1594991 -0.23435053 0.20601058
0.23342897 -0.30395067 -0.24364452 0.20835781 0.25245404 -0.23069307 0.17269354 -0.28162065
0.19924173 0.21056785 -0.21709159 0.31650388 -0.23157796 -0.27255797 0.2476237 -0.22574127
0.27982646 0.25425723 -0.26869756 0.29277915 -0.30905017 0.20490932 0.31354755 0.21518181
-0.21215622 -0.24781112 0.28268614 -0.272118 0.23115261 0.18276726 0.23623994 -0.22948542
0.20981684 -0.22227933 -0.28939682 -0.21153268 0.3013505 0.18969503 0.18669781 -0.29681948
-0.21526861 0.31082708 0.2219875 -0.2976979 0.24341674 0.25480595 -0.27962917 0.2089736
-0.24237043 -0.2826259 0.21955903 -0.21411781 0.13888595 0.31799296 0.19505927 0.23799035
-0.18390778 -0.22472127 0.21375199 0.17235216 -0.1952037 0.18323667 -0.27155438 -0.29599395
0.19750701 -0.22202815 0.20134112 -0.22834189 0.2608964 -0.29349208 -0.17869857 0.23732786
0.22641559 0.2734196 -0.32675943 -0.2574271 0.18379693 -0.22556746 0.16956195 0.18202086
0.18118629 0.25264066 -0.26007465 0.2269861 -0.306474 0.27218965 -0.21714906 -0.25485256
-0.2843024 -0.283988 0.13816534 -0.21138841 -0.14110225 -0.28990853 0.2328683 -0.22806445

fc.bias f4 [2]
00000000: 0684 d63c f3a9 b7bd
0.026186 -0.08967962
