results/cnn/cnn_filters_150x[2, 3, 4]_length_50_batch_64_lr_0.001.pth (torch, 279464 bytes, 8 tensors)

convs.0.weight f4 [150, 1, 2, 50]
0	0xbd99e15e	-0.075136885
1	0xbcb8f8b7	-0.022579534
2	0x3d8541a9	0.06506664
3	0x3dc75de9	0.09734709
4	0xbdbee802	-0.09321596
5	0x3e073fd8	0.13207948
6	0xbd3d7530	-0.046254337
7	0xbe504210	-0.20337701
8	0xbca4422f	-0.02005109
9	0x3d788901	0.060677532
10	0xbdc6e599	-0.09711761
11	0x3cb1f0dc	0.021721296
12	0xbd39400c	-0.045227095
13	0xbd6c552f	-0.057698425
14	0x3d38d939	0.045129035
15	0xbda6c668	-0.08143312
16	0x3d4cef3f	0.05003285
17	0x3d95928c	0.07303342
18	0x3db89f14	0.09014717
19	0x3e644e7d	0.22295566
20	0xbc23f97e	-0.010008214
21	0xbd155a1a	-0.03646288
22	0x3d3ced03	0.04612447
23	0x3c3f31cf	0.01166959
24	0x3d9f6911	0.07783712
25	0xbccad910	-0.024761707
26	0xbe3cb0b6	-0.18426785
27	0xbda28e27	-0.0793727
28	0xbde2c6e5	-0.11073092
29	0xbc342303	-0.010994676
30	0xbd92f8e4	-0.07176378
31	0xbe9193da	-0.28433114
32	0x3d920c60	0.071312666
33	0xbd436774	-0.047706082
34	0xbdbeda30	-0.0931896
35	0xbcab7d05	-0.020933637
36	0xbdb532d8	-0.08847588
37	0x3d35b5b8	0.044362754
38	0x3d629628	0.05531898
39	0x3bcbdb60	0.00622122
40	0x3cdfaacb	0.02730312
41	0xba584e67	-0.0008251429
42	0x3d3ac4d8	0.04559788
43	0x3d9585ad	0.07300887
44	0x3c223800	0.009901047
45	0x3c9613f6	0.018320065
46	0xbe19e6a5	-0.1502939
47	0x3d77fe65	0.060545344
48	0xbca638f6	-0.020290833
49	0x3da1d836	0.07902567
50	0x3d1d7bde	0.038448207
51	0x3d8bdbcb	0.068290316
52	0x3b636ad6	0.003470113
53	0x3defb5cc	0.11704597
54	0x3baf4ac0	0.005349487
55	0xbe263d40	-0.16234303
56	0xbcf474c1	-0.029840829
57	0xbd7922d9	-0.06082425
58	0xbe355d97	-0.17711483
59	0x3d01dedf	0.031706687
60	0x3d86ce87	0.06582361
61	0xbcad25d8	-0.02113621
62	0xbd1a55b8	-0.037679404
63	0xbe51b3ba	-0.20478716
64	0xbcba5987	-0.022747768
65	0xbd2199c7	-0.039453294
66	0x3dfcef22	0.123502985
67	0xbc8abe64	-0.016936488
68	0xbd5f731b	-0.054553133
69	0x3cffa7c2	0.031207923
70	0x3d874420	0.06604791
71	0x3dbf3a92	0.09337343
72	0x3dc07c10	0.09398663
73	0x3d8d5baa	0.06902249
74	0x3ceeca2a	0.029149134
75	0x3de21b18	0.11040324
76	0x3c3629b0	0.0111183375
77	0xb9dadbf6	-0.00041744084
78	0xbc867f1a	-0.016418029
79	0xbdef0ea7	-0.116727166
80	0xbde29db2	-0.11065234
81	0x3d126304	0.03573896
82	0xbe06f212	-0.1317828
83	0x3d5d5e04	0.05404474
84	0xbe3099c2	-0.17246154
85	0x3d538d08	0.05164817
86	0xbd004fdc	-0.03132616
87	0x3cc009e9	0.023442226
88	0x3d20d9a9	0.039270077
89	0x3cbec561	0.023287477
90	0xbcfe1543	-0.031015998
91	0xbd8750cc	-0.06607208
92	0x3e04f50b	0.12984101
93	0xbe305a8d	-0.17222042
94	0xbe390137	-0.1806687
95	0xbe009674	-0.12557393
96	0xbd8c2b38	-0.06844181
97	0xbd6c9b93	-0.057765555
98	0xbdbfc970	-0.09364593
99	0x3e253144	0.16132075
100	0xbcd17063	-0.025566285
101	0x3e1f1de2	0.15538743
102	0xbe4c825b	-0.19971602
103	0xbd8ea0db	-0.069642745
104	0xbe0030d9	-0.12518634
105	0x3e9a7e08	0.3017428
106	0xbca29745	-0.019847522
107	0x3df725f3	0.12067785
108	0xbe46f9a3	-0.19431166
109	0xbcc674c4	-0.0242256
110	0xbe11b0f6	-0.14227661
111	0x3dbb857e	0.09156321
112	0xbd95257d	-0.07282541
113	0xbdbbc84f	-0.09169065
114	0xbdcaeed8	-0.09908837
115	0xbd9e17a3	-0.07719352
116	0xbde8042e	-0.11328922
117	0xbb98c99f	-0.004662707
118	0x3d11708f	0.035507735
119	0xbdabc928	-0.08387977
120	0xbcc7321c	-0.024315886
121	0x3d76fc22	0.060299046
122	0x3e1805b8	0.14845932
123	0x3d63a5a0	0.055577874
124	0xbcd87d9e	-0.026427086
125	0x3dd30ccb	0.103051744
126	0x3dd08cfd	0.101831414
127	0x3d84fe85	0.06493858
128	0x3d451606	0.048116706
129	0xbdd1a99c	-0.102374285
130	0xbeac894c	-0.336985
131	0x3dc37102	0.09543039
132	0x3d24ec8d	0.040264655
133	0xbd490057	-0.04907259
134	0xbd420d00	-0.04737568
135	0x3ea1dd28	0.3161404
136	0x3e0f7f37	0.14013372
137	0xbd22f598	-0.039784998
138	0xbd505d60	-0.0508703
139	0x3d389d68	0.04507199
140	0x3ea4aa02	0.32160956
141	0x3e394b67	0.1809517
142	0x3de840b7	0.113404684
143	0x3e48324c	0.19550437
144	0xbc58b5a6	-0.013226902
145	0xbd224247	-0.03961399
146	0x3d2c56b1	0.042074863
147	0x3c9028ea	0.017597634
148	0xbd7b37b5	-0.061332423
149	0x3d9e6087	0.07733255
150	0x3dc9b28e	0.0984851
151	0xbcddcd94	-0.027075566
152	0xbd3b272f	-0.045691665
153	0x3e01cf87	0.12676822
154	0x3c5e90b6	0.013584306
155	0xbe257bd9	-0.16160525
156	0x3b3129be	0.0027032937
157	0x3bc8d72b	0.0061291656
158	0xbdb06f8f	-0.08615028
159	0x3e33e1bd	0.17566581
160	0xbd3bd0ed	-0.045853544
161	0xbd839a07	-0.06425863
162	0xbe02dc20	-0.12779284
163	0x3cd2b4b6	0.025720935
164	0xbd8a1f48	-0.06744248
165	0x3e0d8acd	0.1382248
166	0xbe24a140	-0.16077137
167	0x3d196dfd	0.03745841
168	0x3d214792	0.039374895
169	0xbde162f2	-0.110052004
170	0xbd2c6630	-0.04208964
171	0x3ce57db1	0.028014036
172	0x3a3e7ef0	0.000726684
173	0x3e271fd3	0.16320734
174	0x3c5dfdce	0.013549281
175	0xbda13751	-0.07871879
176	0x3e035393	0.1282485
177	0x3d6868af	0.05674046
178	0x3e026ade	0.12736079
179	0xbde8710f	-0.11349689
180	0xbc40bb9f	-0.011763482
181	0xbdebc5a4	-0.11512306
182	0xbe179b55	-0.14805348
183	0xbbb4b44a	-0.005514656
184	0x3d63c85f	0.05561101
185	0xbd80117b	-0.06253334
186	0x3ce38abe	0.027776118
187	0x3daa3939	0.083116956
188	0xbd4bb055	-0.04972871
189	0x3e5804ad	0.21095534
190	0x3de63fb2	0.11242618
191	0x3d207845	0.039177198
192	0x3d55f41a	0.052234747
193	0x3daddce9	0.08489401
194	0x3a9afcae	0.0011824572
195	0xbddc948f	-0.10770523
196	0xbe6981e9	-0.22803463
197	0x3e01c914	0.12674361
198	0x3d1b5210	0.037920058
199	0xba8d9d26	-0.001080428
200	0xbd8fc57b	-0.07020088
201	0xbe058d75	-0.13042243
202	0xbe75c571	-0.24001099
203	0xbd0d33d7	-0.034473266
204	0xbdcfb9d8	-0.10142869
205	0x3dcbb1a2	0.0994599
206	0xbe1fc820	-0.15603685
207	0xbe23cd14	-0.159962
208	0xbc9de21b	-0.019272855
209	0x3d2d4c7e	0.042309277
210	0xbd1dab9f	-0.03849375
211	0x3dd936d0	0.10606158
212	0xbd98f107	-0.07467847
213	0x3c639265	0.013889884
214	0xbde6ccaa	-0.11269505
215	0x3dfcdf66	0.12347297
216	0xbe1996dc	-0.14998955
217	0xbdb0aaec	-0.08626351
218	0xbe04893a	-0.12942973
219	0xbd8fa18d	-0.07013235
220	0xbe4b4ad0	-0.19852757
221	0x3da7bacb	0.08189925
222	0x3bc1d51f	0.0059152986
223	0xbda08578	-0.07837957
224	0xbdfbade4	-0.122890264
225	0xbd296a79	-0.041361306
226	0x3da62539	0.081125684
227	0xbc84d6fd	-0.016215796
228	0xbaa1fa48	-0.0012357915
229	0xbd429d1b	-0.04751311
230	0xbda9ecf8	-0.08297151
231	0x3d1c4990	0.038156092
232	0xbdb32e82	-0.08749105
233	0xbdaadb73	-0.08342638
234	0xbcae1b44	-0.021253236
235	0x3d07b468	0.033131033
236	0x3ddcdb8a	0.10784061
237	0xbda68a5a	-0.08131857
238	0x3d2703b8	0.04077503
239	0x3bbc49b2	0.00574609
240	0x3dc55966	0.09636192
241	0x3d9590af	0.07302987
242	0xbde98231	-0.11401785
243	0x3d56af96	0.052413546
244	0x3cbdd491	0.023172649
245	0x3d8d0ad1	0.06886829
246	0xbd46c4b6	-0.048527442
247	0xbd1d77cd	-0.03844433
248	0x3d819568	0.06327325
249	0xbd29df80	-0.04147291
250	0x3d086798	0.03330192
251	0x3cc8c4eb	0.02450796
252	0xbc4d05e3	-0.012513611
253	0x3b24a169	0.0025120622
254	0xbd290d1c	-0.041272268
255	0xbe97ab50	-0.2962289

convs.0.bias f4 [150]
0	0xbd3f06f4	-0.04663749
1	0xbcdd1c9d	-0.026991183
2	0xbd6258d0	-0.05526048
3	0xbaa2c1c3	-0.0012417365
4	0xbd129156	-0.035783134
5	0xbdadfbc0	-0.08495283
6	0xbdcba2ff	-0.099431984
7	0xbd955ca8	-0.072930634
8	0xbd061baa	-0.032741226
9	0xbdc30efc	-0.095243424
10	0xbe0a253d	-0.13490768
11	0xbd07604d	-0.033050824
12	0xbe2620a1	-0.16223384
13	0xbc5f9a2f	-0.0136476
14	0xbdb09cd9	-0.08623666
15	0xbe12866f	-0.14309095
16	0xbe09e327	-0.13465558
17	0xbc237744	-0.009977166
18	0xbdca7a9d	-0.09886668
19	0xbc504940	-0.012712777
20	0xbdc247a6	-0.09486322
21	0xbe101bf0	-0.14073157
22	0xbe100efb	-0.14068215
23	0xbdbe45d2	-0.09290661
24	0xbd72b1dd	-0.059251655
25	0xbdf6b537	-0.12046283
26	0xbbf7833a	-0.007553485
27	0xbc059cdb	-0.008155073
28	0xbe21a11e	-0.15784118
29	0xbce82a24	-0.028340407
30	0xbe129704	-0.1431542
31	0xbe10966e	-0.14119884
32	0xbdf414d8	-0.11918038
33	0xbe06de65	-0.13170774
34	0xbc073ec2	-0.008254709
35	0xbc8f9736	-0.017528158
36	0xbd435515	-0.047688562
37	0xbd456d96	-0.048200212
38	0xbd70258b	-0.058629554
39	0xbc9f5a91	-0.019452365
40	0xbe0642d4	-0.1311143
41	0xbdfeb86f	-0.12437522
42	0xbd098bcb	-0.033580583
43	0xbcc54c9e	-0.024084385
44	0xbc9adec1	-0.018905045
45	0xbc42df81	-0.011894108
46	0xbc696414	-0.014245052
47	0xbd54295b	-0.051797252
48	0x3da33497	0.07969015
49	0xbd071376	-0.032977544
50	0xbc2e02ba	-0.010620767
51	0xbcc5211d	-0.024063641
52	0xbd4fe191	-0.050752226
53	0xbdf6dd4a	-0.12053926
54	0xbd2a260c	-0.04154019
55	0xbdbcf1ad	-0.092257835
56	0xbdb36bb8	-0.0876078
57	0xbd9b009d	-0.07568476
58	0xbd167864	-0.036735907
59	0xbe0f5b74	-0.1399973
60	0xbcff8cac	-0.031195007
61	0xbdb0c528	-0.086313546
62	0xbdd97ccc	-0.10619506
63	0xbe058818	-0.13040197
64	0xbd04c511	-0.0324145
65	0xbbba51dc	-0.005686028
66	0xbdc2b5a9	-0.09507305
67	0xbd3850b9	-0.044998858
68	0xbe07d97b	-0.13266556
69	0xbe102131	-0.14075162
70	0xbd80ee13	-0.06295409
71	0xbd40dc11	-0.04708487
72	0xbc26de0a	-0.010184774
73	0xbdd2a3fa	-0.10285182
74	0xbcdbd47b	-0.026834717
75	0xbda09cd0	-0.078424096
76	0xbdf5473e	-0.11976479
77	0xbe142fb0	-0.14471316
78	0xbde27975	-0.11058322
79	0xbbec3a9f	-0.0072091366
80	0xbe2ab998	-0.16672361
81	0xbc38c94c	-0.011278462
82	0xbe100475	-0.140642
83	0xbdca2e7f	-0.0987215
84	0xbe2058aa	-0.15658823
85	0xbdc42f2d	-0.095793106
86	0xbd279777	-0.040915933
87	0xbe0af27a	-0.1356906
88	0xbe40f5fa	-0.18843833
89	0xbd5c7182	-0.053819187
90	0xbe27d015	-0.16387971
91	0xbc8ed980	-0.017437696
92	0xbd8e0558	-0.06934613
93	0xbb39a26a	-0.0028325566
94	0xbdd2230a	-0.102605894
95	0xbdebd68b	-0.1151553
96	0xbc58d5a5	-0.013234531
97	0xbda9ce4e	-0.082913026
98	0xbc38929c	-0.011265423
99	0xbd46d5c8	-0.04854372
100	0xbda29b0b	-0.07939728
101	0x3ccabd53	0.02474848
102	0xbc9fb44e	-0.019495156
103	0xbca3c7b8	-0.019992694
104	0xbb6ab853	-0.0035815432
105	0xbcf1cddc	-0.029517107
106	0xbe0024f0	-0.1251409
107	0xbcbe0f1a	-0.02320056
108	0xbd2dfecf	-0.042479333
109	0xbd82479d	-0.063613154
110	0xbdd264fd	-0.10273168
111	0xbb81fe3e	-0.0039670756
112	0xbcef48d1	-0.029209526
113	0xbb1e28e1	-0.0024133252
114	0xbe1bbef8	-0.15209568
115	0xbd4fa86a	-0.05069772
116	0xbd64fd02	-0.05590535
117	0xbd568ade	-0.052378528
118	0xbdfa677b	-0.122267686
119	0xbcbff991	-0.023434432
120	0x3ca766f5	0.020434836
121	0xbc81c64b	-0.015841624
122	0xbdc157f7	-0.09440606
123	0xbb688215	-0.0035477926
124	0xbcd644d7	-0.026155872
125	0xbcc0f84c	-0.023555897
126	0xbd44f877	-0.048088517
127	0xbd1d8f81	-0.038466934
128	0xbd2b1d27	-0.04177585
129	0xbc9d0583	-0.019167667
130	0xbdec6019	-0.11541767
131	0xbc98f38a	-0.018670816
132	0xbda0251f	-0.0781958
133	0xbd791845	-0.06081416
134	0xbdc0aeaa	-0.094083145
135	0xbcb71903	-0.022350794
136	0xbcd12896	-0.025532048
137	0xbd9cf55a	-0.076639846
138	0xbdd7dd28	-0.10540229
139	0xbe1ad23d	-0.15119262
140	0xbcc9210e	-0.024551895
141	0xbdef841d	-0.116951205
142	0xbccb14e9	-0.024790244
143	0xbc719367	-0.014744616
144	0xbcd4bc74	-0.025968768
145	0xbdfad5f0	-0.122478366
146	0xbcca9224	-0.024727888
147	0xbdf55dcb	-0.1198078
148	0xbde6a5f7	-0.11262124
149	0xbc9e9389	-0.01935746

convs.1.weight f4 [150, 1, 3, 50]
0	0x3e0ce475	0.13759024
1	0x3d875166	0.066073224
2	0xbe206956	-0.15665182
3	0xbdfc2b31	-0.123129256
4	0xbe60aaab	-0.21940105
5	0xbd9a49a9	-0.07533581
6	0x3d047fe3	0.032348525
7	0xbdfa7ea3	-0.12231185
8	0xbdb8b55f	-0.09018969
9	0x3d37d251	0.044878308
10	0xbd89141d	-0.066932894
11	0x3c833759	0.016017603
12	0xbe04a3bf	-0.12953089
13	0x3e28c8a3	0.16482787
14	0x3c42bc45	0.011885707
15	0x3e0ad02a	0.13555971
16	0x3d80c2d4	0.062871605
17	0xbd12bf8c	-0.035827205
18	0x3da97b99	0.082755275
19	0x3d09a5b6	0.0336053
20	0xbd9ea08b	-0.07745465
21	0xbe03d93a	-0.12875834
22	0x3d498b60	0.049205184
23	0x3e18c4fc	0.14918894
24	0x3e05834e	0.1303837
25	0x3dc5abfb	0.09651943
26	0x3d1d95bb	0.038472872
27	0xbddd88a7	-0.1081708
28	0xbd7fa188	-0.062409908
29	0xbd8f5069	-0.06997759
30	0xbe595ba6	-0.21226367
31	0x3b97ddf4	0.004634613
32	0x3d03e42d	0.032200027
33	0x3d149abb	0.036280375
34	0xbde281b8	-0.11059898
35	0xbcfd5bf1	-0.03092763
36	0xbd84021e	-0.06445716
37	0x3db85d4a	0.090021685
38	0xbcb12661	-0.021624746
39	0xbd8927b4	-0.06697026
40	0x3d987b71	0.074454196
41	0x3d576ae5	0.052592177
42	0x3e31c9a9	0.17362083
43	0xbe234f2b	-0.15948169
44	0xbce37758	-0.027766868
45	0xbd9f123a	-0.07767148
46	0xbdc78d30	-0.09743726
47	0x3d90bd1f	0.07067322
48	0xbd86dbfe	-0.06584929
49	0xbdb3ed7d	-0.08785532
50	0xbd353582	-0.044240482
51	0x3cb55570	0.022135466
52	0xbe482090	-0.19543672
53	0x3d89f0fc	0.06735417
54	0x3ccb302f	0.02480325
55	0xbe429c6f	-0.19004987
56	0xbd681aab	-0.056666058
57	0xbdcd2a76	-0.100178644
58	0x3d91f149	0.071260996
59	0x3e34d387	0.17658816
60	0xbd703626	-0.05864539
61	0xbbbc64f9	-0.0057493416
62	0xbe0de667	-0.13857423
63	0x3c5158a8	0.012777485
64	0xbdcecf9a	-0.100981906
65	0xbbe64c42	-0.0070281336
66	0x3ddeb7fe	0.108749375
67	0x3d6c0039	0.0576174
68	0x3c956dd9	0.018240856
69	0xbe3e5d6e	-0.18590328
70	0x3d7c6825	0.061622757
71	0x3dc7deae	0.0975927
72	0xbda54f45	-0.0807176
73	0x3c824b01	0.015904905
74	0x3e3fc9e1	0.18729354
75	0x3dd8a4ee	0.10578333
76	0x3de6008d	0.11230574
77	0xbe199a19	-0.1500019
78	0xbe2d3681	-0.16915323
79	0xbd148e33	-0.036268424
80	0xbbe2e28d	-0.0069239796
81	0xbc99a5f0	-0.018755883
82	0x3db78a4a	0.089619234
83	0xbdd111fe	-0.1020851
84	0xbe013b96	-0.12620386
85	0x3d657a21	0.056024674
86	0x3d487ad2	0.048945256
87	0x3e9e18a3	0.3087817
88	0xbd6040ef	-0.054749426
89	0xbcff056d	-0.031130517
90	0x3e556d90	0.20842576
91	0x3b52b5ce	0.003215182
92	0xbd15c4d4	-0.036564663
93	0xbddb7c0d	-0.1071702
94	0xbe0ea6b5	-0.13930781
95	0x3d0b99e2	0.0340823
96	0x3c8e0687	0.017337097
97	0x3bfc337d	0.0076965676
98	0xbdc4ad29	-0.0960334
99	0x3e2d278c	0.16909617
100	0x3dce4dce	0.10073434
101	0x3dab2073	0.083557986
102	0xbce691e8	-0.028145745
103	0xbdbe5282	-0.09293081
104	0x3d21d2c1	0.03950763
105	0x3d3a7cb8	0.045529097
106	0x3cfb7ece	0.030700114
107	0xbe3c2dec	-0.18376893
108	0xbe1b3ac9	-0.15159144
109	0x3cb99405	0.022653589
110	0x3d561822	0.05226911
111	0x3cd7a9f0	0.02632615
112	0xbcfcb4f5	-0.030848006
113	0x3b93dbf5	0.004512305
114	0x3cb28d74	0.021795966
115	0x3e001119	0.12506522
116	0xbe658e25	-0.22417505
117	0x3d69b1c2	0.05705429
118	0x3e4b180a	0.19833389
119	0xbe2be43f	-0.16786288
120	0x3d0db135	0.034592826
121	0xbe451346	-0.19245633
122	0xbd1e5d88	-0.038663417
123	0x3da5419c	0.080691546
124	0xbd322237	-0.04348966
125	0x3dea56c4	0.114423305
126	0x3e03509b	0.12823717
127	0x3e42442f	0.18971322
128	0x3db152c3	0.08658364
129	0xbd275f04	-0.0408621
130	0xbdbb38ae	-0.0914167
131	0x3e0ea62c	0.13930577
132	0xbdc0da02	-0.09416582
133	0x3cac5ce2	0.021040384
134	0xbc2de7fe	-0.010614393
135	0x3de98a35	0.11403314
136	0x3dde9e3b	0.10870024
137	0xbe141f71	-0.14465119
138	0x3de6c7ff	0.11268615
139	0xbd054fff	-0.032546993
140	0x3e955e64	0.29173577
141	0x3dd70166	0.104983136
142	0x3d462503	0.04837514
143	0xbd6c36c9	-0.057669435
144	0x3d7fa19f	0.062409993
145	0x3d90ed2d	0.07076488
146	0xbda04283	-0.07825186
147	0xbdf35157	-0.11880749
148	0xbdfc5e17	-0.12322634
149	0xbd9b363b	-0.07578703
150	0x3d465948	0.04842499
151	0xbd1aed47	-0.03782394
152	0x3c991e19	0.01869111
153	0xbde05884	-0.10954383
154	0xbe49a6bb	-0.19692509
155	0xbdeb2bb2	-0.114829436
156	0x3d055b1f	0.032557603
157	0x3d0fedba	0.035138823
158	0xbd14bc51	-0.036312405
159	0x3dc5b678	0.09653944
160	0xbce551b9	-0.02799307
161	0x3dc4b76f	0.096053
162	0xbe48f374	-0.1962412
163	0xbd3abd6b	-0.0455908
164	0xbd221839	-0.03957388
165	0x3deec6e3	0.116590284
166	0x3dabb83b	0.083847485
167	0x3db4b0ca	0.08822782
168	0xbca7e897	-0.02049665
169	0xbda079f4	-0.07835761
170	0xbc9cd3e8	-0.019144014
171	0xbce7ae51	-0.028281363
172	0x3dcfcced	0.10146508
173	0x3db62bcd	0.08895073
174	0xbc48e1eb	-0.012260894
175	0x3d879f99	0.06622238
176	0xbc56b635	-0.013104965
177	0xbd880172	-0.06640901
178	0xbceda171	-0.029007645
179	0xbe11491b	-0.14188044
180	0xbcae93ae	-0.021310654
181	0x3d424910	0.04743296
182	0xbd9a5d30	-0.07537305
183	0xbd6f5a2f	-0.058435615
184	0xbe438590	-0.19093919
185	0x3dd48798	0.10377425
186	0x3c67258a	0.014108071
187	0x3c2faa88	0.01072181
188	0xbd23e44e	-0.04001265
189	0xbc2a8364	-0.0104073025
190	0x3bc92783	0.0061387434
191	0x3d40cbab	0.047069233
192	0x3e7350e0	0.2376132
193	0x3cfca518	0.030840442
194	0x3e3ec55c	0.18629974
195	0xbdd5459a	-0.10413666
196	0xbd7e74df	-0.062123176
197	0x3cdddabe	0.027081843
198	0xbd173d9a	-0.036923982
199	0x3dbbbe6b	0.09167179
200	0x3d8a3cd8	0.06749886
201	0x3d6c07e3	0.05762471
202	0xbe7c66ac	-0.24648541
203	0xbda9ffd2	-0.08300747
204	0xbdfab5da	-0.12241717
205	0xbe2d7be3	-0.1694179
206	0xbebf9690	-0.37419558
207	0xbdd7f23b	-0.10544249
208	0xbd97e845	-0.07417349
209	0xbc993364	-0.018701263
210	0x3d17c750	0.037055314
211	0x3d53b006	0.05168154
212	0xbcec7d83	-0.028868442
213	0x3b2ba5bd	0.0026191317
214	0x3d116972	0.03550095
215	0x3d26673c	0.040625796
216	0xbd5e62c5	-0.054293413
217	0xbd4d1932	-0.050072856
218	0xbd5cdbcf	-0.053920563
219	0xbd88dc02	-0.06682588
220	0x3dba8fcc	0.09109458
221	0x3d29c690	0.04144913
222	0x3d2d5524	0.042317525
223	0xbe15d624	-0.1463247
224	0x3e424325	0.18970926
225	0x3daef995	0.08543698
226	0x3d306a51	0.04307014
227	0xbceccdd6	-0.028906744
228	0xbd0736db	-0.0330113
229	0xbd01d019	-0.031692598
230	0x3d74374d	0.05962305
231	0xbe022b07	-0.12711726
232	0xbda86fe2	-0.08224465
233	0xbdf4beb8	-0.11950439
234	0xbd299004	-0.04139711
235	0xbcfed22e	-0.03110608
236	0x3c7ff1a9	0.015621581
237	0x3e5a363b	0.2130975
238	0x3da5eed6	0.08102195
239	0x3df7f256	0.12106769
240	0x3e52a0df	0.2056918
241	0x3d3b806e	0.045776777
242	0xbceaeffb	-0.028678885
243	0xbe37474d	-0.17898293
244	0xbe35bd52	-0.17748001
245	0xbd3d7eb3	-0.046263408
246	0x3da601c6	0.08105807
247	0x3db104a6	0.08643465
248	0xbdeb0d5c	-0.114771575
249	0x3e561c33	0.20909195
250	0x3bb236fd	0.005438684
251	0xbd487884	-0.048943058
252	0xbe0d74e0	-0.13814116
253	0xbe1cb441	-0.15303136
254	0xbe3452d9	-0.17609729
255	0x3cbeb41b	0.02327924

convs.1.bias f4 [150]
0	0xbd120865	-0.035652537
1	0xbc824431	-0.015901657
2	0xbe076052	-0.13220337
3	0xbc87c680	-0.016574144
4	0xbc935965	-0.017986963
5	0xbd644c2e	-0.055736713
6	0xbdf79d8a	-0.12090595
7	0xbddefd62	-0.10888173
8	0xbcdef5e3	-0.027216857
9	0xbcf141ab	-0.029450258
10	0xbda47100	-0.080293655
11	0xbdc58c13	-0.09645858
12	0xbd28a241	-0.041170362
13	0xbddb5b73	-0.10710802
14	0xbde047cc	-0.10951194
15	0xbdbbc0b4	-0.091676146
16	0xbdc6152e	-0.096720085
17	0xbd643d12	-0.055722304
18	0xbd6e7729	-0.05821911
19	0xbbe0353c	-0.0068422835
20	0xbdfa7946	-0.12230162
21	0xbe23715f	-0.15961216
22	0xbcd24835	-0.025669197
23	0xbc5a6689	-0.01333011
24	0xbd868bf9	-0.065696664
25	0xbcc5277e	-0.024066683
26	0xbbac5087	-0.005258623
27	0xbe0efa3a	-0.13962641
28	0x3cb68a99	0.022282885
29	0xbd1616ef	-0.036642965
30	0xbc974c74	-0.018469073
31	0xbd647e68	-0.055784613
32	0xbdb29e50	-0.08721602
33	0xbd261a93	-0.040552687
34	0xbda00c90	-0.07814896
35	0xbda4a962	-0.0804012
36	0xbdcec4c1	-0.100961216
37	0xbd435be7	-0.047695067
38	0xbbf33979	-0.0074226228
39	0xbdb68de3	-0.089137815
40	0xbd88720f	-0.0666238
41	0xbd8c892d	-0.06862102
42	0xbde307b1	-0.110854514
43	0xbce5beb6	-0.02804504
44	0xbddcc447	-0.107796244
45	0xbca5455d	-0.020174677
46	0xbd0d2995	-0.034463484
47	0xbd8c6343	-0.0685487
48	0xbdf38667	-0.118908696
49	0xbcf5aef0	-0.029990643
50	0xbdd12c58	-0.10213536
51	0xbca8c9a5	-0.020603964
52	0xbd271918	-0.040795416
53	0xbd13d587	-0.036092307
54	0xbc94cec9	-0.01816501
55	0xbdc6d8a9	-0.097092934
56	0xbdbc4082	-0.091919914
57	0xbde8d1fd	-0.11368177
58	0xbdbfd6cc	-0.09367141
59	0xbd776cf8	-0.060406655
60	0xbc1cffcf	-0.009582474
61	0xbde93972	-0.1138791
62	0xbd9de7a1	-0.07710195
63	0xbb8b5226	-0.004251736
64	0xbe0280e9	-0.12744488
65	0xbd8b18e4	-0.06791857
66	0xbd822661	-0.063549764
67	0xbcb50c7e	-0.022100683
68	0xbd4c096c	-0.049813673
69	0xbd88a5a0	-0.066722155
70	0xbe053f3f	-0.13012408
71	0xbded091e	-0.115740046
72	0xbcaebbd6	-0.021329802
73	0xbd5a5467	-0.05330315
74	0xbd6f6576	-0.05844637
75	0xbdcc2e10	-0.09969723
76	0xbcfb49ce	-0.030674841
77	0xbce4ae30	-0.02791509
78	0xbce9f9ea	-0.028561551
79	0xbde36075	-0.11102382
80	0xbe0aabfa	-0.13542166
81	0xbc4920a1	-0.012275846
82	0xbdfe7642	-0.124249
83	0xbd2443e8	-0.040103823
84	0xbd4ff98b	-0.050775092
85	0xbd91dc0d	-0.071220495
86	0xbdce26f9	-0.10066027
87	0xbd1e2b46	-0.038615488
88	0xbda77b01	-0.08177758
89	0xbd22af43	-0.039717924
90	0xbd129e76	-0.03579565
91	0xbd89423f	-0.067020886
92	0xbd25dc2f	-0.040493187
93	0xbe08e53a	-0.13368693
94	0xbdabf5f2	-0.0839652
95	0xbd96c57e	-0.073618874
96	0xbddf2272	-0.10895242
97	0xbd38c8ce	-0.045113377
98	0xbe11abdd	-0.14225717
99	0xbc847d50	-0.016173035
100	0xbd8c9d8f	-0.068659894
101	0xbc9d0a6b	-0.019170007
102	0xbc0537f7	-0.008131019
103	0xbd61c566	-0.055119894
104	0xbdabac5d	-0.08382485
105	0xbd52990d	-0.05141549
106	0xbe161487	-0.14656268
107	0xbbb0518f	-0.0053808163
108	0xbd65adc9	-0.056073938
109	0xbd6965d0	-0.05698186
110	0xbd58b7f1	-0.052909795
111	0xbd392f3a	-0.045211054
112	0xbdc08551	-0.09400428
113	0xbdf18951	-0.11793769
114	0xbdb52d5e	-0.08846544
115	0xbdc28fee	-0.09500109
116	0xbdbb2978	-0.09138769
117	0xbdee9e21	-0.116512544
118	0xbdd9e0b1	-0.106385596
119	0xbda13f2f	-0.078733794
120	0xbc90abb5	-0.017660001
121	0xbd0a1105	-0.033707637
122	0xbd4c4c89	-0.049877677
123	0xbd3248db	-0.04352651
124	0xbcd66347	-0.026170386
125	0xbd303ef9	-0.043028805
126	0xbe3a0032	-0.18164137
127	0xbd02b5e0	-0.03191173
128	0xbda18a3b	-0.078876935
129	0xbdd534ba	-0.104104474
130	0xbddf0560	-0.10889697
131	0xbd6c8052	-0.057739563
132	0xbd0df5e3	-0.034658324
133	0xbddfd36c	-0.109289974
134	0xbdb2e0ce	-0.08734284
135	0xbd7e9e63	-0.062162768
136	0xbdf71ca9	-0.12066013
137	0xbd2b57c4	-0.041831747
138	0xbdb0fe60	-0.08642268
139	0xbde69a7f	-0.112599365
140	0xbcd088ac	-0.025455795
141	0xbdea38b1	-0.11436594
142	0xbd1e763c	-0.038686976
143	0xbd32eabb	-0.043680888
144	0xbc2165c9	-0.009850928
145	0xbde49d66	-0.11162834
146	0xbd863cd4	-0.06554571
147	0xbde4f351	-0.111792214
148	0xbd6fc3aa	-0.05853621
149	0xbc70142f	-0.01465325

convs.2.weight f4 [150, 1, 4, 50]
0	0xbda0e50b	-0.078561865
1	0x3b517a71	0.003196385
2	0xbd7734d5	-0.06035312
3	0xbd8f8caa	-0.070092514
4	0xbd887ed9	-0.06664819
5	0xbdc08ab2	-0.09401454
6	0xbda1603b	-0.07879683
7	0xbc491d18	-0.012275003
8	0xbe038a91	-0.12845828
9	0x3db1b3c1	0.086768635
10	0xbe040324	-0.12891823
11	0x3d74898e	0.059701495
12	0x3c2f1baf	0.010687753
13	0xbd7936e8	-0.06084338
14	0xbcf2df38	-0.029647455
15	0xbdc8c207	-0.09802633
16	0xbe16b4d1	-0.14717413
17	0xbd020765	-0.031745333
18	0x3dd15ef8	0.10223192
19	0x3d6b4e64	0.057447806
20	0xbd493e06	-0.049131416
21	0x3bd734f1	0.0065675904
22	0x3e22787c	0.15866274
23	0xbddfe655	-0.10932604
24	0xbe44d896	-0.19223246
25	0x3d4f9e3e	0.05068802
26	0x3e28436e	0.16431972
27	0x3dfc15ec	0.12308869
28	0x3d74e579	0.059789155
29	0xbe361d5c	-0.17784637
30	0x3cb0f9bb	0.021603456
31	0xbe3c2a6e	-0.1837556
32	0x3e2a0f0e	0.16607305
33	0xbc10edc1	-0.008845747
34	0xbd7b31d3	-0.061326813
35	0x3d8acb46	0.067770526
36	0x3aa2b575	0.0012413698
37	0xbd8d2a5c	-0.06892845
38	0xbd4f4974	-0.05060716
39	0xbc399a1a	-0.011328245
40	0x3d7e2212	0.06204421
41	0xbc32892f	-0.010896965
42	0x3bf3d176	0.007440741
43	0xbe86dc07	-0.26339743
44	0xbc3a382d	-0.011365932
45	0xbde54fac	-0.11196837
46	0xbdef34aa	-0.11679967
47	0x3dccbabf	0.099965565
48	0xbcfc6094	-0.03080777
49	0x3e003c21	0.12522937
50	0x3db55d2c	0.08855662
51	0xbdf1c5e0	-0.1180532
52	0x3d83584e	0.06413327
53	0x3da81c5e	0.082085356
54	0xbdd63af1	-0.10460461
55	0x3e33a1b6	0.17542157
56	0x3e4c4f83	0.19952206
57	0xbda17f00	-0.078855515
58	0x3d2a7fd1	0.0416258
59	0x3e3d9fa4	0.1851793
60	0xbd6a1df6	-0.05715748
61	0x3e539fd5	0.2066644
62	0xbd652fbd	-0.05595373
63	0xbe1a2342	-0.15052512
64	0xbcf8dee2	-0.030379716
65	0xbd714c5e	-0.05891072
66	0x3c982c47	0.0185758
67	0x3d816f2a	0.06320031
68	0xbcabbd40	-0.020964265
69	0xbd3e97ea	-0.046531595
70	0xbd0405e0	-0.032232165
71	0xbdb18de3	-0.08669641
72	0xbd3439a1	-0.04400027
73	0x3dd416bd	0.103558995
74	0x3be58764	0.007004665
75	0x3dfe8973	0.1242856
76	0xbd89b4aa	-0.06723912
77	0x3d34896a	0.04407636
78	0xbd935deb	-0.07195648
79	0xbd587b19	-0.05285177
80	0x3da5a8d6	0.080888435
81	0x3e00aea6	0.12566623
82	0xbce265a5	-0.027636359
83	0xbdd8589d	-0.10563777
84	0x3c14d8c0	0.00908488
85	0x3b95cbad	0.004571399
86	0x3be57ec6	0.007003638
87	0x3d297602	0.041372307
88	0x3e31ea4e	0.17374536
89	0xbd51e1a5	-0.051240582
90	0xbd977c32	-0.07396735
91	0xbd0914b8	-0.033467025
92	0x3d57d2c2	0.05269123
93	0x3e6a0165	0.22852094
94	0x3e6d7a4a	0.23191181
95	0xbce7e8d8	-0.02830927
96	0x3d915af9	0.0709743
97	0x3c381d85	0.011237507
98	0xbdef30b0	-0.11679208
99	0x3e75e907	0.24014674
100	0xbd48c9f2	-0.049020715
101	0xbde8f514	-0.1137487
102	0x3dbd3fb7	0.09240668
103	0xbd846108	-0.0646382
104	0xbdde1d1f	-0.10845398
105	0x3e17f98f	0.14841293
106	0x3d383e92	0.044981547
107	0x3d190d79	0.037366364
108	0xbd915398	-0.07096022
109	0x3c972798	0.018451497
110	0xbdac6f06	-0.084196135
111	0xbc2eb53c	-0.010663327
112	0x3cc8b336	0.024499517
113	0xbd67f7a7	-0.056632664
114	0xbd58529b	-0.052813154
115	0xbd4a0411	-0.049320284
116	0xbe0290fb	-0.12750618
117	0x3dd7373a	0.105085805
118	0xbe9fcd77	-0.31211445
119	0x3c944270	0.018098086
120	0x3d7f7bd7	0.062373962
121	0xbcb2c182	-0.021820787
122	0xbd8d8ce7	-0.069116406
123	0x3dc83eb2	0.09777583
124	0xbd6f3a65	-0.0584053
125	0xbdc065ec	-0.0939444
126	0x3e012e5c	0.12615341
127	0xbd441e65	-0.04788055
128	0xbe129ae0	-0.14316893
129	0x3e156ad6	0.14591536
130	0xbc912d6a	-0.01772185
131	0xbdb7a735	-0.08967439
132	0xbba6254c	-0.005070364
133	0xbe53c792	-0.20681599
134	0xbca9af98	-0.020713612
135	0x3d947b68	0.072501004
136	0x3c5c85c9	0.013459631
137	0xbc6800e9	-0.014160373
138	0xbd9dbf22	-0.07702471
139	0x3dc30fb6	0.09524481
140	0xbd6a2d43	-0.05717207
141	0xbdbcc7bf	-0.09217786
142	0xbd919369	-0.071081944
143	0xbe4d87f4	-0.20071393
144	0xbd8f77c9	-0.07005269
145	0x3db62d7a	0.08895393
146	0xbda2708a	-0.079316214
147	0xbc819f02	-0.015822891
148	0x3c6815af	0.014165326
149	0x3de17e0b	0.11010369
150	0xbc08a859	-0.008340918
151	0xbdaa9847	-0.08329826
152	0x3ccea6bc	0.02522599
153	0xbd693155	-0.056931812
154	0x3d2445e0	0.0401057
155	0xbd89ff81	-0.06738187
156	0x3dced3a4	0.10098961
157	0xbc90f677	-0.017695649
158	0x3d5064f7	0.050877538
159	0x3e2c3218	0.16815984
160	0xbd69c098	-0.057068437
161	0x3dbe7588	0.09299761
162	0x3d9ebc0e	0.07750712
163	0x3dc6c9ff	0.097064964
164	0x3c16f143	0.009212795
165	0x3e614b85	0.22001465
166	0x3e077508	0.13228238
167	0xbdc2e346	-0.09516005
168	0x3db263c2	0.087104335
169	0x3dc81c80	0.09771061
170	0x3d85ce0f	0.06533443
171	0xbcfc89d8	-0.030827448
172	0xbdf6f1e5	-0.120578565
173	0xbd63b849	-0.05559567
174	0xbd132379	-0.0359225
175	0xbd4158da	-0.047203876
176	0x3d44c2c3	0.0480373
177	0xbde9cde4	-0.11416224
178	0xbe3a23f2	-0.18177775
179	0x3d77aa7b	0.060465317
180	0xbb8b660b	-0.004254108
181	0x3ce3299f	0.027729807
182	0x3e01fb8b	0.12693612
183	0xbc8fdd0a	-0.017561454
184	0xbe4e437b	-0.2014293
185	0xbd0230c0	-0.031784773
186	0x3d8355cd	0.064128496
187	0x3d4ee683	0.0505128
188	0xbd0de7cf	-0.034644898
189	0x3d64baee	0.055842333
190	0x3bddb4a1	0.0067659174
191	0x3d27f2c6	0.04100301
192	0xbd59ac9b	-0.053143125
193	0xbd0c87d5	-0.034309227
194	0xbe3f217e	-0.1866512
195	0xb959f98e	-0.00020787699
196	0xbcdb362d	-0.026759231
197	0xbd5b2425	-0.053501267
198	0xbd8a8c2e	-0.067650184
199	0xbb16839a	-0.0022966624
200	0xbdb38d8e	-0.08767234
201	0xbc932969	-0.017964082
202	0xbb98771f	-0.004652872
203	0x3cd0e6db	0.025500705
204	0xbdba8eeb	-0.09109291
205	0x3da36c92	0.079796925
206	0x3ccf1f8d	0.0252836
207	0xbd4c3aae	-0.04986065
208	0xbce8c74c	-0.028415345
209	0x3d1cff5b	0.038329463
210	0xbdc9cce4	-0.09853533
211	0xbd1d4675	-0.03839727
212	0xbe13503c	-0.14386076
213	0x3d77f827	0.06053939
214	0x3daf35de	0.08555196
215	0xbceea1a5	-0.029129812
216	0xbd08f962	-0.033440955
217	0x3c810167	0.015747739
218	0x3dd790e5	0.10525683
219	0xbcc54f58	-0.024085686
220	0x3e8f313e	0.27967256
221	0xbe320f83	-0.1738873
222	0x3aba299a	0.0014203072
223	0xbbfd8483	-0.007736744
224	0xbdfb77a4	-0.12278679
225	0xbd90b9fe	-0.07066725
226	0xbc917627	-0.017756535
227	0x3d03ddd1	0.032193962
228	0xbe8b7a18	-0.27241588
229	0xbda64c14	-0.081199795
230	0x3d8f4201	0.06995011
231	0xbd9a8e82	-0.075467125
232	0x3d2d73e5	0.042346854
233	0x3c962d78	0.018332228
234	0xbe075cc8	-0.13218987
235	0x3d8d6436	0.06903879
236	0xbdcb67d1	-0.09931911
237	0x3e208b7a	0.15678206
238	0xbe07de2e	-0.13268349
239	0x3d433828	0.047660977
240	0xbde6abbb	-0.11263224
241	0xbcb69d38	-0.022291765
242	0xbdc4453c	-0.09583518
243	0x3c6d4e0e	0.014483942
244	0xbdb11f60	-0.086485624
245	0xbb183e5d	-0.002323053
246	0x3d8e5806	0.06950383
247	0xbd55c094	-0.05218561
248	0xbd78e600	-0.06076622
249	0x3d091ca3	0.033474576
250	0x3c1b01e0	0.009460896
251	0xbd44afc5	-0.04801919
252	0xbd555f39	-0.052092765
253	0xbceedffd	-0.02915954
254	0xbe3f01c5	-0.18653019
255	0xbc76be22	-0.01505998

convs.2.bias f4 [150]
0	0xbdb440fe	-0.08801459
1	0xbcf64ffb	-0.030067435
2	0xbd803478	-0.062600076
3	0xbd81de50	-0.06341231
4	0xbd9c15b8	-0.0762133
5	0xbd0d7164	-0.034531966
6	0xbd24e21c	-0.040254697
7	0xbd7ad99d	-0.06124269
8	0xbdbcca6c	-0.092182964
9	0xbd8b17ef	-0.06791674
10	0xbcb3f853	-0.021968996
11	0xbd4c4ed8	-0.04987988
12	0xbd68be35	-0.05682202
13	0xbd17c636	-0.037054263
14	0xbd93bdf9	-0.07213969
15	0xbd13a127	-0.03604236
16	0xbdb95ded	-0.09051118
17	0xbcd3871c	-0.025821261
18	0xbde670d7	-0.11251991
19	0xbd00ac4d	-0.03141432
20	0xbd9267e4	-0.07148722
21	0xbcc864e6	-0.024462175
22	0xbdc216b5	-0.09476987
23	0xbe170724	-0.14748818
24	0xbdcfcde3	-0.10146692
25	0xbc68287c	-0.0141698085
26	0xbd8d56d5	-0.069013275
27	0xbd08bdc7	-0.03338411
28	0xbe049fab	-0.12951533
29	0xbddf7c75	-0.1091241
30	0xbde89e97	-0.113583736
31	0xbcbf2091	-0.023330959
32	0xbced8904	-0.028995998
33	0xbdbdd57f	-0.09269237
34	0xbc4866b6	-0.012231519
35	0xbd497e38	-0.049192637
36	0xbcc7bba9	-0.024381476
37	0xbd995390	-0.074866414
38	0xbde05086	-0.109528586
39	0xbd56cc06	-0.052440666
40	0xbdca2ff2	-0.09872426
41	0xbdf2fc9a	-0.11864586
42	0xbdad9a18	-0.08476657
43	0xbde0ae7a	-0.10970779
44	0xbe0cd003	-0.13751225
45	0xbcd439ee	-0.02590653
46	0xbd269fd1	-0.040679757
47	0xbd2aa5a8	-0.04166189
48	0xbd122bdf	-0.03568637
49	0xbdc2e56b	-0.09516414
50	0xbd6e55b4	-0.0581872
51	0xbd9808e4	-0.07423571
52	0xbdea7e7f	-0.114499085
53	0xbdb547ca	-0.08851583
54	0xbd40803f	-0.046997305
55	0xbe02e9bc	-0.12784475
56	0xbc625058	-0.013813101
57	0xbdce51f5	-0.10074226
58	0xbddf52a2	-0.10904433
59	0xbca4b4a4	-0.020105667
60	0xbd871c40	-0.06597185
61	0xbce14b72	-0.027501795
62	0xbd0654a4	-0.032795563
63	0xbd966f09	-0.07345397
64	0xbd5bd167	-0.0536665
65	0xbd6cb716	-0.05779179
66	0xbe158773	-0.14602451
67	0xbd589772	-0.052878805
68	0xbda07510	-0.07834828
69	0xbad87608	-0.0016514668
70	0xbc8301c0	-0.015992045
71	0xbd50155a	-0.050801612
72	0xbd9b3b2c	-0.075796455
73	0xbd616358	-0.055026382
74	0xbcacb1b9	-0.021080839
75	0xbdc295ac	-0.09501204
76	0xbcd5671a	-0.02605014
77	0xbda90ca1	-0.08254362
78	0xbd22e7b4	-0.03977175
79	0xbc785651	-0.015157298
80	0xbd658fd9	-0.056045387
81	0xbd20b393	-0.039233755
82	0xbdc33059	-0.09530706
83	0xbdf88d5d	-0.12136338
84	0xbd4a044e	-0.04932051
85	0xbdb8f8d0	-0.09031832
86	0xbd4acf13	-0.049513888
87	0xbd7cb271	-0.061693612
88	0xbd669d89	-0.05630258
89	0xbdbbfedc	-0.0917947
90	0xbdd3625d	-0.10321496
91	0xbd80e32b	-0.06293329
92	0xbd0e66c7	-0.034765985
93	0xbda67766	-0.08128242
94	0xbcefe180	-0.029282331
95	0xbe0e1c32	-0.13877943
96	0xbd752f84	-0.059859768
97	0xbcd72ed1	-0.026267441
98	0xbd9066ae	-0.070508346
99	0xbd36ee59	-0.0446609
100	0xbe138e22	-0.14409688
101	0xbe00c819	-0.12576331
102	0xbe03ab0a	-0.12858215
103	0xbcbfe6a6	-0.023425411
104	0xbce72d22	-0.028219763
105	0xbd2c709a	-0.042099573
106	0xbd0ee44e	-0.034885697
107	0xbdedff39	-0.116209455
108	0xbd1d98b7	-0.03847572
109	0xbd1cc734	-0.038275912
110	0xbd7925db	-0.060827117
111	0xbcf2f019	-0.029655503
112	0xbdd42ce4	-0.10360125
113	0xbd8adacd	-0.06780014
114	0xbd40681c	-0.046974286
115	0xbd14d111	-0.036332194
116	0xbd825f44	-0.06365827
117	0xbdb41cf8	-0.08794588
118	0xbcccbb3b	-0.024991622
119	0xbe09c008	-0.1345216
120	0xbe0430ba	-0.12909213
121	0xbcbe270c	-0.023211978
122	0xbd507874	-0.050896123
123	0xbda9a63a	-0.08283658
124	0xbe1bf1c9	-0.15228952
125	0xbe082977	-0.13297068
126	0xbd89d6d3	-0.067304276
127	0xbd223762	-0.0396036
128	0xbd06e656	-0.03293451
129	0xbddfe356	-0.10932033
130	0xbdc256f7	-0.094892435
131	0xbcbd5763	-0.023112958
132	0xbcab529c	-0.020913415
133	0xbd93c0b2	-0.07214488
134	0xbd690483	-0.05688907
135	0xbe0d6fd1	-0.13812186
136	0xbdeb0eb3	-0.11477413
137	0xbdc905cf	-0.09815561
138	0xbd594ad8	-0.053049892
139	0xbd023d57	-0.03179678
140	0xbd3af686	-0.04564526
141	0xbd5e7235	-0.054308135
142	0xbd1a3bce	-0.03765469
143	0xbd243fbc	-0.040099844
144	0xbd0b7365	-0.034045596
145	0xbde80a56	-0.113300964
146	0xbde6d082	-0.112702385
147	0xbdc0dd97	-0.09417265
148	0xbd020290	-0.031740725
149	0xbd8c7efc	-0.06860158

fc.weight f4 [2, 450]
0	0x3db02ef8	0.086027086
1	0x3e241ef7	0.16027437
2	0xbde9c461	-0.114144094
3	0x3da1f896	0.07908742
4	0xbe23098b	-0.15921609
5	0xbe5fe689	-0.21865286
6	0x3e4e225c	0.20130295
7	0x3e3ea1db	0.1861643
8	0x3e49ae78	0.19695461
9	0x3df96076	0.121766016
10	0xbe395c31	-0.18101574
11	0x3e3ca7a3	0.18423323
12	0xbe6ebb1e	-0.23313567
13	0x3d313c0f	0.043270167
14	0xbd92b703	-0.07163813
15	0x3e2a16fb	0.16610329
16	0xbe029450	-0.12751889
17	0x3e0c2882	0.13687328
18	0x3dc9de8f	0.09856903
19	0xbd8a4d3b	-0.06753012
20	0xbe888a5e	-0.26668066
21	0x3dec14d3	0.115274094
22	0xbe4ae3dc	-0.19813484
23	0x3db1f9cc	0.08690223
24	0xbe46f2de	-0.19428584
25	0xbe671b1c	-0.22568935
26	0x3df21ade	0.11821531
27	0x3de34827	0.11097746
28	0xbe277f0e	-0.16357061
29	0x3dd4bd4b	0.10387667
30	0xbe4130b8	-0.18866241
31	0xbe113d47	-0.14183532
32	0x3e1d4e5b	0.15361921
33	0x3e233254	0.15937167
34	0x3e03d178	0.12872875
35	0xbd9c6c47	-0.0763784
36	0x3e1c4bbd	0.15263267
37	0x3dfe908e	0.12429915
38	0x3e188df1	0.14897896
39	0xbe14346b	-0.14473121
40	0xbe6c27e9	-0.230621
41	0xbe14d5ed	-0.14534731
42	0xbdec0edc	-0.11526272
43	0x3d4714e4	0.048603907
44	0xbe2a5f32	-0.16637877
45	0xbe211292	-0.1572974
46	0xbddc5024	-0.10757473
47	0x3e316988	0.17325413
48	0x3c9d4685	0.019198665
49	0xbdf19a10	-0.11796963
50	0x3d8ec211	0.06970609
51	0xbdb8ab5f	-0.090170614
52	0xbe18a036	-0.14904866
53	0x3e0ade36	0.13561329
54	0xbd85e87c	-0.065384835
55	0x3e16b1d1	0.14716269
56	0xbe48d199	-0.19611205
57	0x3de4b4af	0.11167275
58	0x3d860ef7	0.06545823
59	0xbe2730d7	-0.16327225
60	0xbe412469	-0.18861546
61	0x3dcad9d9	0.099048324
62	0xbe175e5e	-0.14782092
63	0xbdccab28	-0.09993583
64	0xbe32214f	-0.17395519
65	0x3db2d847	0.08732658
66	0xbe009f61	-0.12560798
67	0xbe7866e7	-0.24258004
68	0x3e0e1126	0.13873729
69	0xbe0eaa61	-0.13932182
70	0x3e1fa1ce	0.15589067
71	0x3e03432d	0.12818594
72	0x3df56aa1	0.119832285
73	0xbe5d82f7	-0.2163199
74	0xbdf427ef	-0.11921679
75	0x3df3eda1	0.119105585
76	0xbe4c112f	-0.1992843
77	0x3ddce83d	0.107864834
78	0xbe4aaeab	-0.19793193
79	0x3e0351e6	0.1282421
80	0xbdc0611a	-0.09393521
81	0x3dc06b90	0.09395516
82	0xbe49bbd9	-0.19700564
83	0xbd827672	-0.06370248
84	0xbe04654b	-0.12929265
85	0xbe160000	-0.14648438
86	0xbe25d771	-0.16195466
87	0x3da95cd4	0.08269659
88	0xbe361823	-0.17782645
89	0xbd4d5d3c	-0.050137743
90	0x3e19f005	0.15032966
91	0x3dd1ad06	0.1023808
92	0xbdad83bd	-0.08472393
93	0x3df5b720	0.11997819
94	0xbe879d94	-0.2648741
95	0xbe34f17a	-0.17670241
96	0x3e1b7f79	0.15185346
97	0xbe5dcbe6	-0.21659812
98	0x3e0c4511	0.13698222
99	0xbdb0d122	-0.08633639
100	0x3e3cd00c	0.18438739
101	0x3c8f1916	0.017468017
102	0xbe084a92	-0.13309696
103	0xbd8d7f12	-0.06909002
104	0x3e0a7fc5	0.13525303
105	0xbe233481	-0.15937997
106	0xbde2eb2a	-0.1108001
107	0xbd8d8acd	-0.0691124
108	0xbddf4345	-0.109015025
109	0x3e450626	0.19240627
110	0xbe32343e	-0.17402741
111	0xbd71c664	-0.05902709
112	0xbdd25368	-0.10269815
113	0x3d819c84	0.06328681
114	0x3e08db01	0.13364793
115	0xbdb77c7e	-0.08959292
116	0xbdd2ee83	-0.10299399
117	0x3dc143d0	0.09436762
118	0x3daadeee	0.08343302
119	0xbe2321d8	-0.15930879
120	0x3cc7e548	0.024401322
121	0x3df95e33	0.1217617
122	0xbdbdf899	-0.09275932
123	0x3e0aeb6f	0.13566373
124	0x3dbfdb49	0.09367997
125	0xbe01d173	-0.12677555
126	0xbe2f240c	-0.17103595
127	0xbdcf475c	-0.101210326
128	0x3d998c6e	0.07497488
129	0xbd9b6c00	-0.07588959
130	0x3cda734e	0.02666631
131	0xbdeaa495	-0.11457173
132	0xbdd4c6d9	-0.1038949
133	0xbd6745e1	-0.056463126
134	0xbe5b0265	-0.21387632
135	0x3dc4258d	0.09577475
136	0x3de29325	0.11063222
137	0x3de646f5	0.11244003
138	0xbe5b15d2	-0.21395043
139	0xbe6d4df1	-0.23174264
140	0xbd969708	-0.07353026
141	0xbe38f6d6	-0.1806291
142	0xbd8fc9c0	-0.07020903
143	0xbdb82eae	-0.089932784
144	0x3ddf7c7f	0.109124176
145	0xbe0f030e	-0.13966009
146	0x3df6fd9a	0.120600894
147	0xbe2206c8	-0.158229
148	0x3e694a62	0.22782281
149	0xbde72ae9	-0.11287481
150	0x3e5a37d9	0.21310367
151	0x3e682017	0.22668491
152	0x3e099fe9	0.13439907
153	0x3df6f9c6	0.12059359
154	0x3e0b2374	0.13587743
155	0x3e46c2e3	0.19410281
156	0x3e60c375	0.21949561
157	0xbe49828a	-0.19678703
158	0x3d282bff	0.041057583
159	0x3e2e7bdb	0.17039435
160	0x3e20cf5f	0.15704106
161	0x3e0812a4	0.13288361
162	0x3e35eb23	0.17765479
163	0xbe3aa82a	-0.18228212
164	0x3e0d5614	0.13802367
165	0x3e2a84a5	0.16652162
166	0x3de37bed	0.11107621
167	0xbe5397c6	-0.20663366
168	0xbe1e9a02	-0.15488437
169	0x3de17edd	0.110105254
170	0x3dc496d7	0.09599083
171	0xbe316cb6	-0.17326626
172	0xbe255dc0	-0.16149044
173	0x3e167de3	0.1469646
174	0x3e501d08	0.20323575
175	0x3e46ac1a	0.19401589
176	0x3d537273	0.05162282
177	0xbe2571fd	-0.16156764
178	0x3e0336fb	0.12813942
179	0x3da55013	0.080719136
180	0x3e431df9	0.19054402
181	0xbe3ce88d	-0.18448086
182	0xbde8253b	-0.11335226
183	0x3dfd86ce	0.123792276
184	0xbe20ea55	-0.1571439
185	0xbdec5867	-0.11540299
186	0xbd0b37b3	-0.033988666
187	0x3e490831	0.19632031
188	0x3e2d66d2	0.16933754
189	0x3dfbbb39	0.12291569
190	0x3e5e84fc	0.21730417
191	0xbe500308	-0.20313656
192	0x3e38beec	0.18041581
193	0x3e0f8f9d	0.14019628
194	0x3da6cd46	0.081446216
195	0xbe50da07	-0.20395671
196	0xbe3325b6	-0.17494854
197	0xbe5c560f	-0.21517204
198	0xbddd1e66	-0.10796814
199	0x3e5cc8cf	0.21560977
200	0xbe1a8f7a	-0.15093794
201	0xbe0606c4	-0.13088518
202	0xbe3c10f0	-0.18365836
203	0xbe645629	-0.22298492
204	0x3e0522cf	0.1300156
205	0xbded0350	-0.115728974
206	0x3e0b5de5	0.13610037
207	0xbdc9a937	-0.09846728
208	0x3e255e17	0.16149174
209	0x3e2e9c58	0.17051828
210	0x3dc58554	0.09644571
211	0xbe0ad94c	-0.13559455
212	0xbe202cef	-0.15642141
213	0x3dc94cfe	0.09829138
214	0xbe246d1e	-0.1605725
215	0x3e1dd042	0.15411475
216	0xbdae8757	-0.08521908
217	0x3e10bc65	0.14134367
218	0xbe0a5c90	-0.13511872
219	0xbe059eab	-0.13048808
220	0xbe125cdd	-0.14293237
221	0xbe14c844	-0.1452952
222	0x3e239c03	0.15977482
223	0xbe25a75b	-0.16177122
224	0xbe1617e5	-0.14657553
225	0x3e1dc499	0.15407027
226	0x3e49a96f	0.1969354
227	0xbdc78076	-0.09741299
228	0x3e08b393	0.13349752
229	0xbe2b2cc0	-0.1671629
230	0xbe3b5e4a	-0.18297687
231	0x3dcd0b4c	0.1001192
232	0x3deb6297	0.11493414
233	0xbe281e22	-0.16417745
234	0xbe1cded7	-0.15319382
235	0x3e11df23	0.14245276
236	0x3de237af	0.11045777
237	0xbdf3c8ae	-0.11903511
238	0xbe4b2ae8	-0.19840586
239	0xbd905282	-0.07046987
240	0xbe07f04c	-0.1327526
241	0xbde118da	-0.10991068
242	0xbdd4d05d	-0.10391305
243	0xbe0d093c	-0.13773054
244	0x3e074c47	0.13212691
245	0xbe0c55fc	-0.13704675
246	0x3e00c1be	0.12573907
247	0x3e1f7bbc	0.15574545
248	0xbde6d2c1	-0.11270667
249	0x3db2eae4	0.08736208
250	0xbe28d578	-0.16487682
251	0x3e1ac269	0.15113224
252	0x3db2018b	0.086917005
253	0x3dedea70	0.11616981
254	0x3dda9ac5	0.10674051
255	0xbdf16f92	-0.117888585

fc.bias f4 [2]
0	0x3d5d2564	0.053990737
1	0xbcfff696	-0.031245511
