results/cnn/cnn_filters_100x[2, 3, 4]_length_64_batch_128_lr_0.001.pth (torch, 187700 bytes, 8 tensors)

convs.0.weight f4 [100, 1, 2, 50]
000000 fc 8b 01 3e 17 8d c7 bd 05 38 c0 3b c0 04 67 bd
       0.12651056 -0.097437076 0.005866053 -0.056401014
000010 92 9b 82 bd ea 9b 1e 3e 9f 11 28 bd c2 c8 a4 3d
       -0.06377329 0.15489164 -0.04103243 0.08046104
000020 f1 b4 7d bd 19 64 f3 bd e9 0f 91 be 9a 67 de bd
       -0.061940137 -0.118843265 -0.2833245 -0.10859604
000030 15 c8 02 bd 4d 3b 2e bc 54 7d 88 be 83 70 f4 bc
       -0.031929094 -0.010634256 -0.26658118 -0.029838806
000040 4f de d0 bc ab 6e 90 bd cc f5 c3 3d b8 40 c7 3b
       -0.02549663 -0.07052358 0.095683664 0.006080713
000050 00 1d cd bd f4 51 5e bc 19 38 b4 3e 0e 64 4b bd
       -0.10015297 -0.013569344 0.3519905 -0.049655966
000060 19 a7 c7 3d e2 14 4e bd 79 5a 13 3e c2 2a 85 be
       0.09748668 -0.050312884 0.14389981 -0.26009184
000070 a0 87 a1 be 64 3a 45 3e 39 90 e8 bc 60 df 99 3d
       -0.31548786 0.19260556 -0.028389083 0.075133085
000080 c8 00 47 3d f5 ea 9b bd f5 0c cc bd 36 68 ad bc
       0.04858473 -0.07613174 -0.09963409 -0.021167856
000090 6f 35 be 3d 16 82 2c 3d 48 90 41 be 5b 22 0f 3d
       0.092875354 0.042116247 -0.18902695 0.034944873
0000a0 29 1d de 3d 41 2f 98 3d f4 42 cd bd 26 7b ab 3d
       0.108454056 0.07430888 -0.10022536 0.08373098
0000b0 ab 0b 88 bd 64 5c bd bc 73 13 4c bd cf 7a a3 3d
       -0.066428505 -0.023115344 -0.049823236 0.07982408
0000c0 c1 ba 18 be 93 be 62 bd fd fa 75 bd b4 ab f1 3c
       -0.14914991 -0.055357527 -0.060053814 0.02950082
0000d0 2f 37 33 3d 36 ef 82 bd ae 73 09 be 9f 75 d1 bd
       0.0437538 -0.06393282 -0.13423035 -0.102275126
0000e0 88 3b 2b 3e 37 0c 0e 3d d4 85 f3 bd f0 ec 82 bd
       0.16721928 0.034679618 -0.1189076 -0.063928485
0000f0 b7 e0 cb bd 51 a1 a1 3d 6b ce be 3d 79 d2 f0 bd
       -0.0995497 0.07892097 0.09316715 -0.117588945
000100 c8 d7 2b 3c ce 7e cf 3d 69 cc 28 be 3b 2d 99 bb
       0.010488458 0.10131608 -0.16484226 -0.0046745813
000110 06 7c a7 3d ce 38 b6 bd 4f 15 44 3d f1 1b 88 bc
       0.081779525 -0.088975534 0.047871884 -0.016614886
000120 ea dd 0c 3e 30 16 d1 3d cf e5 33 3d 9d 60 01 bc
       0.13756528 0.1020931 0.043920334 -0.00789657
000130 f0 d7 df 3d d3 76 17 3e 00 75 14 be 31 76 e7 bd
       0.10929859 0.14791422 -0.14497757 -0.1130184
000140 b4 7a 09 be a9 e8 a6 bd d9 4f 12 bd 34 68 34 be
       -0.13425714 -0.08149845 -0.03572068 -0.17617875
000150 49 0a 0d 3e 00 28 86 3e d7 c7 43 3d 62 70 ff bd
       0.13773455 0.26202393 0.047798004 -0.12472607
000160 1a ed 54 3e f7 4a e6 bc 96 31 9f bc 4e 2b d2 bd
       0.20793572 -0.028111918 -0.019432824 -0.10262166
000170 6d b1 2d bd 12 49 bc 3d d9 2e db 3d 19 c4 d5 3c
       -0.042405535 0.091936246 0.10702295 0.026094483
000180 5b 0c af bb 0d f6 b5 ba 50 76 a1 bd f4 37 0c 3c
       -0.005342049 -0.0013882533 -0.078838944 0.008558262
000190 77 e7 dc bd 15 f1 35 3d da 8c 18 be 24 1a 05 bd
       -0.10786336 0.044419367 -0.1489748 -0.032495633
0001a0 4b 79 0c be 4d 71 76 be 78 65 a0 bd bb 07 fd bd
       -0.13718145 -0.24066658 -0.07831854 -0.1235499
0001b0 7f e6 c9 bd 76 f8 e3 bd ba d2 96 bb 95 8a 33 3c
       -0.09858417 -0.111313745 -0.0046027573 0.0109583335
0001c0 77 df d5 bc 75 2f 8b 3d 1a b4 1a bc cc 0f e5 bd
       -0.026107533 0.06796161 -0.009442354 -0.11184654
0001d0 5a ae 0a 3d 67 18 a6 bd 6e 31 0b 3d 76 43 8c 3d
       0.03385768 -0.08110123 0.033982687 0.06848805
0001e0 cb a7 d3 bc 86 10 d1 3d 54 6f 4f bd 46 3f a5 bd
       -0.025836846 0.1020823 -0.05064328 -0.08068709
0001f0 6a 4b 0e be 20 8c 0a 3d 7a b5 e4 3c 5b 9d 49 3c
       -0.13895956 0.03382504 0.027918566 0.012305583
000200 0d b6 0a be f8 da 80 bd 2d 86 1e bd bc be 0a 3d
       -0.1354601 -0.06291765 -0.03870218 0.033873305
000210 e0 3d 4f 3c 2d 9a 4c be 57 b5 36 bd a3 85 6d bd
       0.0126490295 -0.19980688 -0.044606533 -0.057988774
000220 a5 7d 10 bd 15 41 9e bc 82 32 c1 3d 7f e7 06 3e
       -0.035276074 -0.019318143 0.09433462 0.13174246
000230 6e c6 04 3d 99 61 72 bd 66 75 c7 3d 41 bd 14 be
       0.0324158 -0.059175108 0.09739189 -0.1452532
000240 bf 96 bf bd 86 4d 87 bd 7a 21 cf bd 10 20 46 3d
       -0.093549244 -0.06606583 -0.10113807 0.04837042
000250 0c d4 89 3a 76 d9 a2 ba 35 fc 1a bd de ff 68 3e
       0.0010515465 -0.0012424428 -0.03783818 0.22753856
000260 74 39 9d 3d e0 10 00 bd 2f 52 2c be 42 2c 03 be
       0.07676974 -0.031266093 -0.16828226 -0.12809852
000270 74 98 2f bc 89 9b 20 be c8 67 f3 bd 84 7e a1 bd
       -0.0107175 -0.15684332 -0.11885029 -0.07885459
000280 d2 ed 15 3d 6c a7 eb 3d a8 5f 74 bd eb cd eb 3b
       0.036603756 0.115065426 -0.059661537 0.007196178
000290 19 b7 8b bd 7b 7c 21 bd e5 35 a5 be 83 05 d4 bd
       -0.068220325 -0.039425354 -0.3226768 -0.10352614
0002a0 f5 1d 20 be 2f 80 80 bc a7 54 d9 3d 91 32 8a bd
       -0.15636428 -0.015686123 0.10611849 -0.06747926
0002b0 80 a4 1c 3e a5 8d fe 3d 94 9e 48 be 42 2f e3 3d
       0.15297127 0.1242936 -0.19591743 0.11092998
0002c0 69 55 0b be 49 50 f3 bc 78 0b 2c 3d d2 2e 6a bd
       -0.136068 -0.029701369 0.042003125 -0.057173558
0002d0 89 58 02 3e 5b 10 2a be 77 bb 04 3c cb 00 e9 bc
       0.12729086 -0.16607802 0.008101336 -0.02844276
0002e0 05 a9 76 3d ab dc c0 3d 5b be f1 bc f2 4d 26 3e
       0.060219783 0.09417089 -0.029509714 0.16240671
0002f0 d0 17 48 3e e3 49 bb bd c9 19 ad bc 28 f1 81 b8
       0.19540334 -0.09144952 -0.02113046 -6.196118e-05
000300 97 0f e7 3d 13 f9 d3 bd ec a2 4e bb 93 98 88 bd
       0.112822704 -0.103502415 -0.0031530214 -0.06669726
000310 f3 57 0a bd 08 c3 e7 bc ca cc b2 bc f9 9f d6 bd
       -0.03377528 -0.02829124 -0.021826167 -0.10479731
000320 cd 1a 9e 3d ff 25 24 3d c3 45 67 3d bf 39 70 3e
       0.077199556 0.0400753 0.056463014 0.23459528
000330 15 61 a3 bd cc 66 1b be 23 48 00 bd d3 1a ad bd
       -0.07977501 -0.15175933 -0.031318795 -0.08452382
000340 63 85 7e be d5 76 63 3d 07 7d 9b bd dd 65 9c 3d
       -0.2485557 0.05553325 -0.075922064 0.076366164
000350 32 93 bf bc 98 df 03 3d 11 2a 3a be 73 36 f5 bd
       -0.023385618 0.032195657 -0.1818011 -0.11973276
000360 80 df 62 bd 05 dc f0 bc c0 53 2e be 9a 50 3d 3d
       -0.055388927 -0.029401788 -0.17024136 0.046219446
000370 64 d6 de 3d de 6c f6 3b f1 63 f9 3d cb e6 bd bd
       0.108807355 0.007520302 0.121772654 -0.09272536
000380 e4 d9 be 3d b1 82 d8 3d 02 b1 f8 bb ee 13 d3 bc
       0.09318903 0.105718024 -0.0075894604 -0.02576634
000390 9b 86 a2 3a 2a 18 b1 bd 05 57 1d 3e a1 14 f4 bd
       0.0012399735 -0.08647187 0.15365227 -0.11917997
0003a0 f1 bf a5 3d 38 e7 4e 3c 68 0f d0 3d ca 33 6d 3e
       0.080932505 0.012628369 0.101591885 0.23164287
0003b0 08 34 d7 3d 2b 1c d5 bd 52 2c 1b be 7b 52 68 3d
       0.10507971 -0.10405763 -0.15153626 0.056719285
0003c0 99 4d b1 3d 4c 4f 67 3e b7 5d 0f bd 2a 1f 16 3e
       0.08657379 0.22588843 -0.035001483 0.14660326
0003d0 b3 a3 fe bd ab 9e f7 3d 04 9b 30 bd 66 77 dd 3d
       -0.12433567 0.120908104 -0.043116584 0.10813789
0003e0 ab ff 42 3c 39 3f 34 3d 86 18 03 3c e8 42 54 be
       0.011901776 0.044005606 0.008001452 -0.20728648
0003f0 1d 75 22 be c0 88 84 3c 80 3c e1 bd 43 aa 12 3d
       -0.15864988 0.016178489 -0.109978676 0.035806905

convs.0.bias f4 [100]
000000 82 30 83 bc 0f 70 3f bc c2 fa ef bc 86 c0 8c bc
       -0.016014341 -0.011684432 -0.029294375 -0.017181646
000010 c5 cc 8b bd d7 f4 7c bc 97 ed 5e bd 5d 92 45 bd
       -0.06826166 -0.015439234 -0.054425802 -0.048235286
000020 d7 d3 8c bd 00 22 03 bd d6 6a 8b bd 75 a1 08 be
       -0.06876343 -0.032014847 -0.06807487 -0.13342841
000030 9d c7 e8 bc 59 ed 6a bd 83 e5 d2 bd a3 c2 2a bd
       -0.028415496 -0.05735526 -0.10297682 -0.041689526
000040 bb a6 aa bd 54 85 46 bd 27 9a 0d be e7 3d 8c bd
       -0.083325826 -0.048466995 -0.13828336 -0.068477444
000050 b2 cf b1 bc 9e 1b bd bd 11 91 40 bd b0 72 ae bd
       -0.021705482 -0.09233783 -0.047013346 -0.08517969
000060 96 5e 82 bc 7a 38 b8 bc 0d a5 82 bd 88 4c 21 bd
       -0.015914243 -0.022487868 -0.06379137 -0.039379627
000070 3c c1 fd bd fa b5 dc bd ae dd 19 bd 6c 50 0c bd
       -0.12390372 -0.10776897 -0.037564926 -0.034256384
000080 07 3a 24 bd 89 4c e6 bd d6 6f 51 bd 34 b5 b6 bd
       -0.0400944 -0.11245067 -0.051132046 -0.089212805
000090 95 b1 14 bc f8 45 fe bd 57 c6 d3 bc aa ea ac bd
       -0.009075542 -0.12415689 -0.025851412 -0.08443196
0000a0 c7 da bf bd 32 0f ee bd 1e 97 4b bd 58 97 fd bd
       -0.093679 -0.11623992 -0.049704663 -0.12382382
0000b0 17 b7 8d bc 4d a1 9b bd 91 cd 0d bc d5 3b 06 be
       -0.017299218 -0.07599125 -0.008654968 -0.13108762
0000c0 2c c4 dd bd 78 4a 5a bd 6d 83 94 bd 9b 9b 82 bd
       -0.108284324 -0.053293675 -0.0725163 -0.06377336
0000d0 a4 2d 13 be 51 28 f6 bc 1e 25 2b bd d6 2f c0 bd
       -0.1437288 -0.030048521 -0.041783445 -0.09384124
0000e0 72 ed 97 bd a9 34 ea bd 6c ff a0 bd 9b 8b b9 bc
       -0.07418336 -0.114358254 -0.07861218 -0.022649577
0000f0 b6 ff 94 bd 63 57 cc bc 30 d7 f0 bd f2 ef 02 be
       -0.072753355 -0.024944013 -0.11759794 -0.12786844
000100 05 82 d3 bc d5 1d c7 bd ae cf 89 bd 25 0d 22 be
       -0.025818834 -0.09722487 -0.06729065 -0.15825327
000110 e8 fb d7 bd 67 69 08 be 48 70 a1 bd ae 63 1e bd
       -0.10546094 -0.13321458 -0.07882744 -0.03866928
000120 63 67 16 bd a8 8a 5d bd 4a 0c 07 be f7 72 d7 bc
       -0.03671969 -0.05408731 -0.13188282 -0.026299937
000130 46 b8 07 be 96 0b b8 bd 61 4a 45 bc 0d f4 a0 bc
       -0.13253888 -0.08986585 -0.012041659 -0.019647622
000140 72 44 d8 bc a2 dc d5 bd 7b a7 fb bc 43 47 b0 bd
       -0.026399825 -0.10442473 -0.03071951 -0.08607342
000150 fa 4a 60 bd 36 05 c8 bc 90 1f a5 bd 26 bb 82 bd
       -0.054759003 -0.024416547 -0.08062661 -0.06383352
000160 cf d9 6f bd 5c a0 04 be fb d4 95 bd 68 65 0d be
       -0.058557328 -0.12951797 -0.073160134 -0.13808215
000170 05 fb 08 be f0 5d 6b bc c6 b4 f4 bd 9c 89 11 bd
       -0.13377006 -0.014365658 -0.11948542 -0.035531625
000180 c6 c7 11 be c9 b3 c0 bd e1 7c f6 bd 1d 9f ed bd
       -0.14236364 -0.09409291 -0.120355375 -0.11602614

convs.1.weight f4 [100, 1, 3, 50]
000000 5e 38 3f 3d 30 81 ee 3c 41 9e 45 bd 0c 44 3c bd
       0.046684615 0.029114336 -0.048246626 -0.045963332
000010 2e 44 96 3d ee 81 ad bb 0e 20 80 bd de df ad bd
       0.07337223 -0.00529503 -0.06256114 -0.08489965
000020 d2 a8 6a 3c 96 fc 27 be 4a e8 98 3d a7 21 c0 3b
       0.014322476 -0.16404948 0.074661806 0.0058633867
000030 d4 07 5d 3c 68 3c bf bd fc 7e c1 bc 2b 1b 08 3d
       0.013490636 -0.093376935 -0.023620121 0.033229034
000040 5a 91 10 be e8 b9 98 bd 08 63 1c be 4a 7e 0f be
       -0.14117947 -0.07457334 -0.15272152 -0.14013019
000050 2c c9 3a bd 66 aa 0c bd ba 0b de bc 53 db 40 3c
       -0.04560201 -0.034342192 -0.027105201 0.011771041
000060 f7 47 0d 3e b2 02 9b 3d 59 f7 27 3e 39 3c 27 3d
       0.13796984 0.075688735 0.1640295 0.040828917
000070 f6 57 82 3d 30 a8 06 3e 3d a2 36 be 16 14 f3 bd
       0.063644335 0.13150096 -0.17835326 -0.118690655
000080 2e ee 15 be a5 d8 c0 3c 02 3f 8b 3d 4a 42 42 3e
       -0.1464164 0.023540804 0.06799127 0.189706
000090 65 a9 bc 3d ac 17 d3 bd 23 34 27 bd ac 9f 05 be
       0.09211997 -0.103072494 -0.040821206 -0.13049191
0000a0 a8 68 87 3d cf 18 f3 3d 7c cf fd 3d e1 80 d0 3d
       0.066117585 0.11869966 0.1239309 0.10180832
0000b0 f2 78 5c bc 16 2d 3c 3d 40 f6 c3 bb f5 1d 5e 3c
       -0.01345657 0.045941435 -0.005980283 0.013556947
0000c0 1e 5b 12 be 04 78 46 bd c1 f6 a2 3d a4 bc 48 bc
       -0.14292571 -0.0484543 0.07957221 -0.012252007
0000d0 d2 01 1f bd 6c a8 df 3b 4b d1 2c be 0e 86 3d 3c
       -0.038820095 0.0068254974 -0.16876714 0.011567606
0000e0 e8 c7 2e bd 56 7c 8d be df 0d 0a be 1d 78 0e 3d
       -0.042671114 -0.27633923 -0.13481854 0.034782518
0000f0 d9 ae 91 bd 3a 77 f4 bb 72 f3 04 be 3b fe c3 3d
       -0.07113428 -0.007460502 -0.12983492 0.09569975
000100 bd a4 42 bd 52 c0 d2 3c 5e c2 32 3b 39 9f ba 3d
       -0.047520388 0.025726471 0.0027276496 0.091124006
000110 e5 b6 bd 3d 2a 12 e4 bd 95 62 ae bd 75 a9 f4 bd
       0.092634 -0.11136277 -0.08514897 -0.11946384
000120 39 49 06 be f8 91 0d 3e 5f 31 09 3d 6f 3a 27 3d
       -0.1311387 0.13825214 0.03349435 0.04082721
000130 80 59 ab bd 9a a6 ee bc 9b d8 45 3d 7a 16 80 bd
       -0.0836668 -0.029132176 0.048302274 -0.06254287
000140 a5 8a 17 3d f5 2e a1 3d 9d ef d3 bd 54 bd a7 3d
       0.036997456 0.078702845 -0.10348437 0.08190408
000150 b6 f7 be 3d 70 76 58 bc bf c1 bf 3b 19 51 cb 3c
       0.09324591 -0.013211831 0.0058519538 0.024818944
000160 cf 65 08 3e 5d 1d 9b 3d 23 c4 03 3e 43 41 f2 3d
       0.13320087 0.0757396 0.12867789 0.11828854
000170 37 76 c7 bd 6f 79 e1 bd 1d 51 2d 3e 99 ad 8f bd
       -0.097393446 -0.1100949 0.16925474 -0.07015533
000180 3d 74 03 3d 2e f5 36 bd c4 35 98 bd f0 31 b9 3d
       0.032093275 -0.044667415 -0.0743213 0.09042728
000190 75 85 1f 3c 91 0a cd bb 94 2e 7b bd 1c 21 ac bd
       0.0097364085 -0.006257363 -0.061323717 -0.084047526
0001a0 b4 36 96 3c dc 9a 16 be 42 80 e2 bd db bb 7a 3c
       0.018336631 -0.14707512 -0.110596195 0.015303577
0001b0 33 60 d1 bd e7 2d 16 3e 62 80 b9 bb 4b 28 9e 3d
       -0.10223427 0.14665948 -0.0056610564 0.07722529
0001c0 d1 98 86 3c 63 91 08 3e e3 e0 d6 bd 4b b2 58 bd
       0.01643029 0.1333671 -0.104921125 -0.05290441
0001d0 89 c4 b6 3d 2f 14 c6 3d 47 cd 3c bd 72 fd dc bd
       0.08924205 0.096718185 -0.046094205 -0.10790528
0001e0 d3 21 70 bd ae d7 e8 bc a8 62 0c 3e ce 12 a6 3c
       -0.058626007 -0.028423157 0.1370951 0.020272639
0001f0 05 17 8a 3c 4e 95 08 3e d6 f0 95 3d a1 bd 11 be
       0.01685668 0.13338205 0.073213264 -0.14232494
000200 aa 4b 9f 3d df 23 b4 bd f5 4d 80 bd 63 b8 2a bd
       0.07778104 -0.08795904 -0.06264869 -0.04167975
000210 39 b7 80 bc 4b 0f 06 be 08 c8 06 bd 14 60 dc bd
       -0.015712367 -0.13091771 -0.03290561 -0.10760513
000220 ed 23 5e 3b 11 79 05 3e fc cf b8 bd 16 0a e3 bd
       0.0033895925 0.13034464 -0.09024045 -0.11085908
000230 ff 05 13 3e ca 5f 91 bd db ff 29 3e 3e b7 07 3d
       0.14357756 -0.070983484 0.16601507 0.033133738
000240 47 e9 d5 3d 1c 71 31 bd 43 df d9 bb fe 3d 9a 3d
       0.10444885 -0.04332076 -0.0066489293 0.07531355
000250 83 10 7b bc c1 c1 64 3d 92 31 3c 3d ef aa 13 3d
       -0.015323761 0.05584884 0.04594571 0.036051687
000260 30 cb a9 be be 9a cc 3d 27 15 0f bd cc 16 7c bd
       -0.33162832 0.09990452 -0.03493228 -0.06154518
000270 5f 75 cd bc 91 74 bc bd e8 4d 33 be 81 dc 08 bc
       -0.025080381 -0.09201921 -0.17510188 -0.0083533535
000280 8d 63 44 bc 38 85 7b bd 6e c7 61 bd 88 47 04 3b
       -0.011986625 -0.061406344 -0.05512183 0.0020184238
000290 20 04 4d 3d 8f 6c de bd dc 34 94 bd 5c 16 17 be
       0.050052762 -0.1086055 -0.072366446 -0.14754623
0002a0 2e 81 f8 3d 8a 2e cc bd ee d1 e4 3d bd d8 74 bd
       0.12134014 -0.09969814 0.111728534 -0.05977701
0002b0 f3 e2 fb bc 12 87 35 3d f0 d7 21 be 12 09 c9 3d
       -0.030747866 0.044318266 -0.1580503 0.09816183
0002c0 a6 f1 35 3d 81 56 5d ba a6 a5 33 be 6d 7c a6 3d
       0.044419907 -0.0008443371 -0.17543659 0.08129201
0002d0 c6 37 22 be 0f 6e 17 bd fd a6 48 bd 73 77 92 bd
       -0.15841588 -0.036970194 -0.048987377 -0.071516894
0002e0 6e e0 51 bd 87 f5 89 3e 22 31 a9 3d d9 69 74 3c
       -0.051239423 0.26945135 0.082613245 0.014917814
0002f0 31 2b a8 3d 7f 07 3f 3d 4f 9b 24 3c 93 d6 48 bd
       0.08211363 0.04663801 0.010046794 -0.04903276
000300 2b 84 ab ba 9a 49 d3 bd a2 b8 91 bd a3 2e 36 3c
       -0.0013085654 -0.10316773 -0.07115294 0.0111195175
000310 6f 85 d1 bc 3a 3e b8 3d 86 71 c2 3d 13 dd 09 be
       -0.025576321 0.08996244 0.09494309 -0.1346324
000320 a3 6a b1 3c c0 c8 5a 3d cb 7b d0 bd 1c 24 42 3e
       0.021657294 0.053414106 -0.10179862 0.18959087
000330 05 fc fb bc 62 90 7e be 13 78 9a bd d6 ea 61 bd
       -0.03075982 -0.24859765 -0.075424336 -0.055155598
000340 bb 49 e9 bd b3 aa d0 bd fe df c1 bd 33 15 44 bd
       -0.11391016 -0.10188808 -0.09466551 -0.04787178
000350 a7 db aa bd 54 d7 3a bd 91 f5 f8 3c 33 85 a7 3c
       -0.083426766 -0.04561551 0.030390533 0.020449257
000360 5e be 4b 3e f5 b9 1d be 6e d2 32 3d 92 0f 4d 3d
       0.19896838 -0.15402968 0.043657713 0.050063677
000370 a8 86 27 3e 33 76 9e bc 49 04 b5 ba 40 97 0a be
       0.16359961 -0.019343471 -0.0013810481 -0.1353426
000380 7b b0 76 3c c4 ef 0e bd a7 4a 62 bd e0 d3 2c 3e
       0.015056725 -0.034896627 -0.055246975 0.16877699
000390 7a 41 63 bd ff f9 4c bc 1f a4 af bc c1 b6 2e 3d
       -0.055482365 -0.012510776 -0.021440564 0.042654756
0003a0 68 7a 88 bd e9 3f 00 3e 0c 4f 22 3e 44 87 ca 3d
       -0.06663972 0.1252438 0.15850466 0.09889081
0003b0 1d 31 99 3d 64 88 78 3d b2 7b 94 3e 4d 34 b5 39
       0.07480071 0.060676947 0.29000622 0.00034561977
0003c0 44 64 62 bc 2a d2 95 bd e1 7c 87 3d c8 0d 87 bc
       -0.0138178505 -0.07315476 0.06615616 -0.016486064
0003d0 9d e8 b8 bd 82 f6 47 3e 92 db 05 bc 81 36 86 bc
       -0.090287425 0.19527629 -0.008170025 -0.016383411
0003e0 22 6e a4 3d d0 80 ad bc 0f b8 01 3c 0a 8f 6e bd
       0.08028819 -0.021179587 0.007917418 -0.05824188
0003f0 97 30 f6 bd 73 a4 3a bd 1d cf 04 3e 63 5d e7 bd
       -0.120209865 -0.045566987 0.12969632 -0.11297109

convs.1.bias f4 [100]
000000 83 ac ae bd 67 7f c1 bc fc 6e 01 bd a3 b6 62 bc
       -0.08528998 -0.02362032 -0.031599984 -0.013837489
000010 e9 24 58 bd 08 85 4a bd 7b 0b a2 bd 56 1e cc bd
       -0.052769575 -0.049443275 -0.07912346 -0.099667236
000020 cb 7d a4 bc b9 90 d0 bd 54 83 cd bc 47 35 b0 bc
       -0.020079514 -0.10183854 -0.025087036 -0.02150978
000030 fb 3c 40 bd 88 4b fd bd 33 af 90 bd b5 17 ed bd
       -0.046933156 -0.12367922 -0.070646666 -0.115767874
000040 14 e1 c2 bd 90 03 7c bc bd 1d 66 bd 0c 9b dd bd
       -0.095155865 -0.015381709 -0.056180704 -0.108205885
000050 e9 cd 0f be eb 07 1d be 68 6a ee bd 7d 08 ab bc
       -0.14043392 -0.15335052 -0.11641389 -0.020878071
000060 a7 bd a9 bd 6a 19 07 be 05 15 c4 bd 15 06 98 bd
       -0.082881264 -0.13193288 -0.09574322 -0.07423035
000070 6f b4 81 bd f1 9a b3 bc 15 86 d6 bd c2 17 6e bd
       -0.06333243 -0.021924468 -0.10474793 -0.058128126
000080 4e 9f 16 bd ba 7b 40 bd 62 09 a9 bc 9d ac 8e bc
       -0.03677302 -0.046992995 -0.020634357 -0.017416293
000090 63 ff 9e bc 23 62 9f bd 04 83 1a bd 23 d8 27 bd
       -0.019408887 -0.0778239 -0.037722602 -0.04097761
0000a0 4a de 05 bd 34 4b 4c bc 5a fa 57 bd 10 ed 8e bd
       -0.032682694 -0.012469102 -0.05272899 -0.0697881
0000b0 0c 36 a8 bd f3 56 20 be 21 f8 04 be 31 be b9 bc
       -0.082134336 -0.15658168 -0.12985279 -0.022673698
0000c0 3a 38 1c bd 9b 9d 40 bd 7e 2a da bd a0 20 ea bd
       -0.03813956 -0.047025304 -0.10652636 -0.11432004
0000d0 68 da d5 bd 4f 81 14 bd cc 7a 89 bd b2 e4 87 bd
       -0.10442048 -0.03625613 -0.06712875 -0.06635417
0000e0 4a 26 c9 bc 04 05 44 bc c2 bc 09 be 4a c7 61 bd
       -0.02455439 -0.011964086 -0.13450912 -0.055121697
0000f0 7e 48 38 bd 4e 5b ad bc e8 33 96 bd e8 76 dd bd
       -0.04499101 -0.021161702 -0.07334119 -0.10813695
000100 8c 9d 12 be 13 4c e3 bd 1f 02 c1 bd 92 e4 2a bd
       -0.14317912 -0.110984944 -0.09424233 -0.041721888
000110 18 11 10 bc 13 ba 06 be 83 70 96 bd 54 94 1a be
       -0.008793138 -0.13156919 -0.07345679 -0.15095645
000120 a4 14 b2 bd 98 b3 15 bd ef bd 9a bc 6a 55 a2 bc
       -0.08695343 -0.036548227 -0.018889396 -0.01981612
000130 53 43 f8 bc 8e 46 10 bc 41 ce 13 bd a4 f7 ab bd
       -0.03030554 -0.008805884 -0.03608537 -0.08396843
000140 b9 2c ae bd 2c 7b c9 bd b4 b0 71 bd 36 e0 9b bd
       -0.08504624 -0.09837946 -0.059006408 -0.07611124
000150 79 c2 ef bc 9f 79 9c bd f6 ea 92 bd db a0 f1 bd
       -0.029267536 -0.07640385 -0.071737215 -0.11798259
000160 5a e0 19 be fb 60 06 bd 06 e5 f9 bd 63 50 61 bd
       -0.1502699 -0.03280733 -0.12201886 -0.055008303
000170 17 93 bc bc 4d 71 a9 bd 52 a4 72 bd 09 9a f7 bd
       -0.023019357 -0.082735635 -0.05923874 -0.12089927
000180 96 66 f2 bd 0b ff 0b bd 9e 5a f7 bc 44 d0 59 bd
       -0.11835973 -0.034178775 -0.030194577 -0.053177133

convs.2.weight f4 [100, 1, 4, 50]
000000 8b 4d a1 3d 4d 8a b4 3d d0 b8 34 3c cc d5 46 bd
       0.07876118 0.08815441 0.011030391 -0.048543736
000010 5b 9c 3b 3e ac 8a fe bd bf 4c 27 3e 57 62 1b 3d
       0.18321364 -0.12428793 0.1633787 0.03793558
000020 ec 9a de bd 8f 4a 22 bd b2 aa 5c bd f1 af 03 be
       -0.10869393 -0.039621886 -0.053873725 -0.12860085
000030 ab 30 b9 bd 98 e0 e2 bd 09 b4 82 3d c9 0c d5 bc
       -0.09042486 -0.11077994 0.06381995 -0.026007073
000040 26 71 58 bd bc ee 4c 3d 14 27 42 be 37 99 ef 3d
       -0.05284228 0.050032362 -0.1896022 0.11699145
000050 7c bc 81 3d 3e cb df bc 04 26 ab 3b 2e d4 40 bd
       0.06334779 -0.027318593 0.0052230377 -0.04707735
000060 94 49 4a bd cd 95 e2 3d d9 00 86 3d f7 3e 85 bc
       -0.049386576 0.110637285 0.065431304 -0.016265376
000070 84 7e 4d bc 3e c0 1f bd d3 f7 a9 ba a8 c5 cd bd
       -0.012542371 -0.039001696 -0.0012967534 -0.100474656
000080 76 aa e7 bd 48 86 19 bd 44 bd 11 be bd f9 0b 3e
       -0.1131181 -0.037481576 -0.14232355 0.13669486
000090 f1 bf 00 be dc 33 6a 3c c1 a9 be bd fc 71 b0 bd
       -0.1257322 0.014294591 -0.09309722 -0.08615491
0000a0 4b 4a b0 3b 60 62 41 3e 24 27 8e bd bf 7c 9a 3b
       0.00537995 0.18885183 -0.06941059 0.004714578
0000b0 1a c5 0a bd 9d a7 25 3d 0d 35 86 be 16 a8 1a 3e
       -0.033879377 0.04044305 -0.2621235 0.15103182
0000c0 bc 18 90 bd 00 4e eb 3d fa d1 be bd f0 b4 84 3c
       -0.07035968 0.11489487 -0.093173936 0.016199559
0000d0 94 b2 8c bc a5 96 1a 3e 0f 2f 0b bd f8 d9 6d 3d
       -0.017174996 0.15096529 -0.033980425 0.0580692
0000e0 84 26 09 3d 99 2d aa bd 1c a5 80 bd 38 24 0d be
       0.033483997 -0.08309478 -0.06281492 -0.13783348
0000f0 53 6d 24 bd 63 49 e3 3c 0d 3e 90 3d bd ad 7c bd
       -0.040143322 0.027744954 0.07043085 -0.061689127
000100 15 6d 64 3d 26 db cc bd b7 c5 c3 3b 4f dc c7 bd
       0.05576809 -0.10002737 0.005974497 -0.097588174
000110 0b 4a ad 3c aa b7 df 3d 5b 3d d9 3d 21 b0 b7 bd
       0.02115347 0.10923703 0.10607406 -0.08969141
000120 4f 0f f9 3c 9f 7f 03 3e 06 b1 30 bd 39 20 c0 bd
       0.030402808 0.12841652 -0.043137573 -0.09381146
000130 48 84 d3 bd 0e b2 ff 3c e7 fd a6 bd 65 a2 4b be
       -0.10327965 0.031212833 -0.08153897 -0.19886167
000140 ef 1b da bd c4 ac 68 3d c8 fc d8 bd e2 aa 07 3e
       -0.10649859 0.056805387 -0.10595089 0.1324878
000150 e6 62 1e 3d 26 96 eb bb 74 aa 63 3d d5 5e a7 3d
       0.038668536 -0.00718953 0.05558248 0.08172385
000160 d5 b5 d7 3a 1d 80 8c 3d 9a 1e a5 bd e7 27 3b bd
       0.0016457388 0.06860373 -0.080624774 -0.04569235
000170 92 12 44 3d c0 7d 25 be a4 c4 36 bd fd a0 a7 3c
       0.047869273 -0.16161251 -0.044621125 0.020462507
000180 a6 e1 f3 bc 62 7d dd bc 5c 76 91 bd d6 54 a0 bc
       -0.029770683 -0.027037326 -0.071026534 -0.019571703
000190 64 bd 01 be 38 d4 38 be af 97 60 3c 8f 34 1c 3e
       -0.12669903 -0.18049705 0.013708039 0.15254425
0001a0 58 30 66 bb bb e5 dd 3d 92 45 0e be 36 bc 04 be
       -0.003512403 0.10834833 -0.13893726 -0.12962422
0001b0 89 4f bf bd 77 8c b2 bd 80 68 df 3c 96 23 18 be
       -0.09341342 -0.08718198 0.02727151 -0.14857325
0001c0 78 c2 24 bd b2 97 89 3d ba 4d 62 be 55 78 94 bc
       -0.040224522 0.06718387 -0.22099963 -0.018123785
0001d0 e4 28 1d be 6b fa a1 bb 95 80 a3 3c 7e 14 6a 3d
       -0.1534763 -0.004943182 0.019958774 0.05714845
0001e0 2f 8f 52 3d cf 9f 73 bd e1 23 ff bb 65 a0 e9 3d
       0.05140608 -0.059478577 -0.0077862595 0.11407546
0001f0 f3 00 75 bc a0 cb 74 3b 75 64 75 bc 7e e0 de 3d
       -0.01495384 0.0037352815 -0.014977564 0.10882662
000200 d4 d0 56 bd c3 ab eb 3d 52 33 cf bd 89 ca b4 3d
       -0.052445248 0.1150737 -0.101172104 0.08827693
000210 ed 59 a2 3d c9 74 79 3d b5 42 16 be c6 dd 63 bd
       0.07927308 0.06090239 -0.14673884 -0.05563142
000220 aa ac b9 bd 4f 0f a6 bd d0 fb 31 3d 79 ae 29 bd
       -0.09066136 -0.08108389 0.043453038 -0.041426156
000230 45 81 c7 bd fa 39 98 bd 09 7e 3e 3d f5 4e 44 3d
       -0.09741453 -0.07432933 0.046506915 0.04792686
000240 02 9b ac bd 7b 92 9c bd 74 d9 0e 3d 93 00 5e bd
       -0.08428003 -0.076451264 0.03487535 -0.054199766
000250 d9 64 56 bd dc f1 82 3d 02 93 8a 3d 73 41 0a be
       -0.05234227 0.06393787 0.06766321 -0.1350153
000260 cd 6c 1b 3d e6 57 e5 bd 17 a0 8e bd 48 53 75 3c
       0.037945557 -0.11198406 -0.069641285 0.014973469
000270 ba 39 85 bd 38 94 0d be 37 6d 45 bd 8e 5d c3 3d
       -0.06505151 -0.13826072 -0.04819986 0.095393285
000280 c1 15 c8 3d d8 dd b7 3d 27 f8 60 3d 3c ac 2b 3e
       0.09769774 0.0897786 0.054924157 0.16764921
000290 c2 31 b0 bd 6f 9b 44 3d 23 a5 88 3d 9b e4 d1 bd
       -0.086032405 0.047999796 0.06672122 -0.10248681
0002a0 a4 9c 47 bd e3 c6 2d be d9 2a 0e 3c 4c a6 a6 3b
       -0.04873337 -0.169704 0.008677208 0.005085742
0002b0 08 46 8b bb 87 c3 33 3e 79 a0 65 be 8e 60 27 3e
       -0.0042502917 0.17555057 -0.22424497 0.16345426
0002c0 58 7a c7 bd 7c f0 57 3d ce 8f 50 bb 45 99 d1 3d
       -0.09740132 0.05271958 -0.0031823996 0.10234312
0002d0 83 11 85 bd b1 d6 1d bd 5e 98 7a 3d 70 56 08 3d
       -0.06497481 -0.038534824 0.061180465 0.03328556
0002e0 dc 07 e5 3d 3a e5 6c 3d 63 df a3 3d f9 f1 98 bd
       0.1118314 0.057835795 0.08001592 -0.074680276
0002f0 aa 4e 53 bd 68 5c 83 3d 51 d1 3d 3d 9f 4d b5 3d
       -0.05158869 0.064141095 0.046342198 0.08852696
000300 58 3b ea bd 58 b0 8d bd 49 bb fa bd bd c9 3d 3e
       -0.114371 -0.069184005 -0.12242753 0.18533988
000310 43 f1 42 be 95 4a 25 3e 26 9e 90 3d d6 39 e4 3d
       -0.19037347 0.16141732 0.070614144 0.11143844
000320 58 a3 47 bd eb ab 0d be b4 2c 23 be b9 ce c4 bd
       -0.04873976 -0.13835113 -0.15935022 -0.09609742
000330 d6 e0 14 bd 83 a0 b8 3d 4f 7a e6 3a 97 31 3b be
       -0.036347233 0.0901499 0.0017584058 -0.18280636
000340 68 01 b5 bc e0 18 c7 bd 3c ff 74 3c 2a 8e e9 3d
       -0.022095397 -0.097215414 0.014953431 0.11404069
000350 41 f3 a9 bd 64 cd 7a bc ee 50 4d be c4 6a 6b bd
       -0.0829835 -0.015307758 -0.20050403 -0.057474867
000360 c3 de 14 bd d0 48 4d be 51 fc 52 bd 8d fb e6 bd
       -0.036345255 -0.20047307 -0.05151016 -0.11278448
000370 76 4b 18 be 10 2a 14 3e 0e 4e cb 3d 3d 86 8b 3d
       -0.14872536 0.1446917 0.09926997 0.06812713
000380 b6 15 a1 bc 13 51 e9 3c 32 97 cc bd bb 4e 8f bd
       -0.019663673 0.028481042 -0.09989776 -0.069974385
000390 3f a7 88 3d 65 4d 34 be b5 ac 1a be 87 fb b7 bd
       0.06672525 -0.17607649 -0.15104945 -0.08983522
0003a0 ff 3c 9a bd 92 95 84 bd 6d ee c6 bd cb c6 ea bb
       -0.07531165 -0.06473841 -0.09713445 -0.0071648112
0003b0 c6 63 ac 3d b6 07 3e be 7f 5b af 3d 81 23 c3 bd
       0.08417468 -0.18557629 0.08562373 -0.09528256
0003c0 68 ee 15 3e 6b 4f 9c 3d 3c c9 41 be 3e e8 36 bd
       0.14641726 0.07632335 -0.18924421 -0.044655077
0003d0 49 d4 c9 bc 29 67 08 3e 81 62 c3 bd 0e 56 95 bd
       -0.024637358 0.13320602 -0.095402725 -0.07291804
0003e0 d7 6b bc bd 7f 3b 8e bc 74 a7 77 3d 55 03 3b bd
       -0.09200256 -0.017362354 0.06046243 -0.045657475
0003f0 09 6e 0d 3d 1a 5b cc bb 90 77 fd 3d 22 8e 69 bd
       0.034528766 -0.006236446 0.1237632 -0.057020314

convs.2.bias f4 [100]
000000 fe 79 3f bd 43 92 81 bd 47 f0 3b bd 14 e2 92 bd
       -0.0467472 -0.06326725 -0.045883443 -0.07172027
000010 6f 87 25 bd 1a 9a f0 bd 8f 4b 13 be 92 af dc bd
       -0.040412363 -0.117481425 -0.14384292 -0.10775675
000020 5a 31 96 bd b9 c5 04 be e7 09 b7 bc 81 48 a1 bd
       -0.07333632 -0.1296605 -0.022343589 -0.07875157
000030 e8 73 da bd 53 1f 90 bd 0b cd 82 bd bd c7 9f bd
       -0.106666386 -0.070372246 -0.06386765 -0.07801769
000040 31 59 96 bd 3c 7f c8 bd d1 f3 04 bd 26 22 f7 bd
       -0.07341231 -0.09789893 -0.032459084 -0.1206706
000050 88 78 3d bd 17 09 70 bd 71 e1 a6 bd 08 6a 03 bd
       -0.046257526 -0.05860242 -0.08148468 -0.03208354
000060 71 7f 14 bd 43 2b 8f bd 2b fe d6 bd 0a 29 a9 bc
       -0.03625435 -0.069906734 -0.104976974 -0.020649452
000070 93 29 f0 bc a5 c6 e7 bd cc 02 9c bd f8 23 a6 bd
       -0.0293167 -0.11317185 -0.07617721 -0.08112329
000080 7f dd be bd ed de 9d bd 52 24 f5 bd 30 d0 ee bd
       -0.09319591 -0.07708535 -0.11969818 -0.11660802
000090 2c d1 02 be 9d e6 e6 bd ad 2f e2 bd e2 9e fb bd
       -0.12775105 -0.11274455 -0.1104425 -0.12286164
0000a0 51 6c 0e bd ec ee 02 be 3a 21 77 bd 72 01 e0 bd
       -0.034771267 -0.12786454 -0.06033442 -0.10937776
0000b0 13 42 80 bd a5 1a cf bd 04 76 75 bd 58 b6 20 bd
       -0.06262603 -0.10112504 -0.059927 -0.039236397
0000c0 83 94 2e bd 4f 42 61 bd e1 d3 d9 bd b4 fd ac bd
       -0.0426221 -0.054994877 -0.10636116 -0.084468275
0000d0 62 ac c0 bd 09 16 97 bd 2f 92 b8 bd 68 1d 9a bd
       -0.094078794 -0.0737725 -0.09012257 -0.0752514
0000e0 64 52 db bd 3a 22 c7 bd f8 cc 97 bd b2 f4 21 bd
       -0.10709074 -0.09723325 -0.074121416 -0.03954
0000f0 ad 10 b4 bd 89 86 dc bd 77 1f d3 bd f6 25 85 bd
       -0.08792243 -0.10767848 -0.10308736 -0.06501381
000100 80 4e 4d bd 6f 85 69 bd 01 91 47 bd b4 f7 e4 bd
       -0.05012369 -0.057012018 -0.04872227 -0.11180058
000110 33 7d 9c bd 73 f7 93 bd 2f bb 31 bd ba 38 7e bd
       -0.07641067 -0.072249316 -0.043391403 -0.062065817
000120 5a a0 e7 bd 64 32 11 be 18 57 95 bd 23 6e 30 bd
       -0.113098815 -0.14179379 -0.072920024 -0.043073785
000130 4a 22 d1 bd 47 28 c9 bd 7d aa 6d bd 53 cd 5b bd
       -0.10211618 -0.098221354 -0.05802392 -0.05366261
000140 1b a5 2d bd fa c4 09 be 72 c9 b9 bd a8 d3 d2 bc
       -0.042393785 -0.13454047 -0.09071626 -0.025735691
000150 98 37 dd bc ee 1a 73 bd 42 59 ca bc 04 b2 8a bd
       -0.027004048 -0.059351854 -0.024700765 -0.06772235
000160 16 19 10 bd 57 e9 53 bd 97 ff e2 bd db de af bd
       -0.035180174 -0.051736202 -0.11083906 -0.08587428
000170 bb ca 23 bd 56 b3 fd bd d5 f4 c3 bd 68 93 e9 bd
       -0.03998826 -0.12387721 -0.095681824 -0.11405069
000180 54 eb 90 bd 3e 5f 12 be 35 40 25 be c1 e7 32 bd
       -0.07076135 -0.14294145 -0.16137774 -0.04367805

fc.weight f4 [2, 300]
000000 93 77 3e 3e 5e f9 3b 3e f7 60 92 be 26 d3 05 be
       0.18600301 0.18356845 -0.28589603 -0.13068828
000010 89 66 22 be f5 ad e3 3d cc 15 15 be 46 18 5f be
       -0.15859427 0.11117164 -0.14559096 -0.21786603
000020 a4 2c 80 be 56 53 98 bd f3 73 2d be d2 d7 4a 3e
       -0.25034058 -0.0743777 -0.16938762 0.19808891
000030 19 8b 50 be 24 0d 59 be fe b0 6a be 3e 41 7c 3e
       -0.20365562 -0.21196419 -0.2291908 0.24634263
000040 1a ad 3b 3e ed e9 1c be aa 49 2d be 5e 30 4f be
       0.18327752 -0.1532361 -0.16922632 -0.20233294
000050 80 9f 12 3e c1 60 38 3e 3d 42 48 be 29 d3 2e 3e
       0.14318657 0.18005659 -0.19556518 0.17072739
000060 db 43 df 3d fc a0 ce 3d bc b8 2b be 6e 90 16 be
       0.10901614 0.10089299 -0.1676969 -0.14703533
000070 bf 08 1d 3e b4 42 c3 3d 5a 97 e7 bd 02 52 29 be
       0.15335368 0.09534207 -0.11308165 -0.1653519
000080 bc 22 44 3e 85 25 29 be 1a d3 4e 3e 6c 38 f6 3d
       0.19153875 -0.16518219 0.20197716 0.1202248
000090 05 09 23 3e 0e 8a 05 3e 1b 99 3f be f6 68 10 3e
       0.1592141 0.13040945 -0.18710749 0.1410254
0000a0 3c f2 20 be 61 d8 3d be 5a dd 51 be f5 06 21 3e
       -0.15717405 -0.18539573 -0.20494595 0.1572531
0000b0 7f 30 2a 3e e4 a5 64 3e d8 46 13 3e 5e 1a 63 be
       0.16620062 0.22328907 0.14382493 -0.22178027
0000c0 0c aa 1b 3e 47 b6 6c be 6a 3c 0e be 78 fd cc 3d
       0.15201586 -0.23116408 -0.13890234 0.10009283
0000d0 00 1e 65 be 0b ce 12 3e ca 05 13 be 6c 3b 3c 3e
       -0.22374725 0.14336412 -0.14357677 0.18382043
0000e0 ff 20 7e be cd 7c 62 3e 5b 83 62 3e b5 a5 2e be
       -0.24817275 0.2211792 0.2212042 -0.170554
0000f0 70 49 19 be 37 5d 87 3e 2b 66 4f be 92 78 48 be
       -0.1496942 0.26438305 -0.20253818 -0.19577244
000100 f1 2b 32 be 77 8e 62 3e fc 17 58 3e 11 98 35 be
       -0.17399575 0.22124659 0.211029 -0.1773379
000110 52 1f 03 be 19 db 75 be 87 b6 80 3e 94 54 51 be
       -0.12804917 -0.2400936 0.25139257 -0.2044242
000120 81 b7 6e be a0 43 31 be 4e 41 5b be ef 36 31 be
       -0.23312189 -0.17310953 -0.2141163 -0.17306112
000130 15 25 d0 3d 0f c6 3e 3e 4f 39 2c 3e b6 72 63 be
       0.10163323 0.18630241 0.16818736 -0.22211727
000140 21 14 b2 bd 49 6a 4c 3e 67 1e 84 3e 7d c1 43 be
       -0.086952455 0.1996242 0.25804445 -0.19116779
000150 74 7c 71 be 75 57 28 3e e9 11 0e 3e 5c b2 51 be
       -0.23582631 0.16439612 0.1387402 -0.20478195
000160 e8 86 e8 bd ec af 7b be 42 16 35 be d0 3b 5d 3e
       -0.11353856 -0.24578828 -0.17684272 0.21604848
000170 19 c0 5a be 2b 76 50 3e 23 e5 2c 3e af 04 57 be
       -0.21362342 0.20357578 0.16884284 -0.2099788
000180 e0 ce 88 be 44 07 fe bd 2a f0 38 3e ca 54 87 be
       -0.26720333 -0.124037296 0.18060365 -0.26431876
000190 21 a9 5e 3e 6c 88 72 3e d0 d7 66 3e 78 1a 2d 3e
       0.21744205 0.23684853 0.22543263 0.16904628
0001a0 61 7f 90 be 92 e8 12 3e 99 2c 77 be b5 ee 65 3e
       -0.28222182 0.14346531 -0.24138106 0.22454341
0001b0 82 b0 59 3e 49 10 3b 3e 84 61 81 be 37 cc 80 be
       0.21258739 0.18267931 -0.2526971 -0.25155804
0001c0 c8 4e 32 3e d6 7d 7b 3e 11 b2 92 be 7c 0f a8 3e
       0.17412865 0.24559721 -0.2865148 0.32824314
0001d0 c6 e2 8f 3e b4 df 58 3e 2c de 31 3e aa f3 5e be
       0.28102702 0.21179086 0.17369908 -0.21772638
0001e0 81 c9 86 be 2b 54 17 be f0 6a 76 3e 73 f0 75 3e
       -0.2632561 -0.14778201 0.24064231 0.24017505
0001f0 75 ff 76 be 86 c2 86 be b6 5d 88 3e 3c 76 8a be
       -0.24120887 -0.26320285 0.26633996 -0.2704333
000200 76 9b 86 be bb 65 5a be a1 6c 7d be 15 51 3a 3e
       -0.26290482 -0.2132787 -0.2474847 0.18194993
000210 fb e2 7a be dc cf 4b 3e e6 ec 84 3e 68 c0 42 3e
       -0.24500649 0.19903511 0.2596199 0.1901871
000220 5e 06 68 3e 74 52 14 3e d8 c0 9b be 21 22 8c be
       0.22658679 0.14484578 -0.30420566 -0.27369788
000230 91 44 55 3e 48 a3 64 3e 59 dc 2d be 56 4f 3d be
       0.20826937 0.22327912 -0.16978587 -0.18487296
000240 d8 da 73 be 81 db a2 be f3 26 77 3e eb 0b 75 3e
       -0.23813951 -0.31808093 0.24135952 0.23930328
000250 7f 19 08 be a3 b8 e8 3d 30 55 47 be d0 78 63 3e
       -0.13290976 0.11363342 -0.1946609 0.22214055
000260 82 d0 8d be 06 37 7c be d4 a3 f4 3d 3f 8d c6 bd
       -0.2769814 -0.24630365 0.1194531 -0.09694909
000270 93 70 45 3e 0e 0f 68 3e db 12 80 be c7 75 6c be
       0.19281225 0.22661993 -0.25014386 -0.23091803
000280 69 56 8a be 0c 14 86 3e f8 54 69 3e aa 37 ac be
       -0.2701905 0.2618717 0.2278632 -0.33636218
000290 b9 6f 4e be 6d 4c 24 be cc ce 5b 3e 7d 74 8f 3e
       -0.20159806 -0.16044779 0.21465605 0.2801856
0002a0 b3 12 52 3e ac 14 97 3e 12 3f 37 3e dd f6 43 be
       0.20514946 0.2950796 0.17895153 -0.1913714
0002b0 5e 95 67 be 8e c9 78 3e 77 33 7c 3e cc a3 46 3e
       -0.22615573 0.24295637 0.24629007 0.19398421
0002c0 bf aa 6d be 60 71 ff 3d 96 08 7f be dc f7 a7 be
       -0.23209666 0.124727964 -0.24905619 -0.3280629
0002d0 3d af 97 be 00 d8 98 be 29 9f 58 be b3 6b 85 be
       -0.29625884 -0.29852295 -0.21154465 -0.2605873
0002e0 51 4b 84 be 05 e0 b1 be 10 85 66 be f7 2f 8c be
       -0.25838712 -0.34741226 -0.22511697 -0.27380344
0002f0 f4 62 a8 be 4f 70 3c 3e 3f bd 46 3e c4 dd 9b 3e
       -0.32887995 0.18402217 0.19408129 0.3044263
000300 f9 0f 4c 3e b0 0a 6c 3e b3 3e 85 be 94 a7 95 be
       0.19927968 0.23050952 -0.26024398 -0.29229414
000310 c0 e2 5f 3e 02 9d 04 3e 74 a8 43 3e bf 06 7e 3e
       0.21863842 0.12950519 0.19107229 0.24807261
000320 72 29 3c be f8 c3 5f be 09 78 84 3e 6a f3 67 3e
       -0.18375185 -0.218521 0.2587283 0.22651449
000330 20 84 83 3e be f1 78 3e b5 a2 5e be f4 5f 95 3e
       0.2568674 0.24310967 -0.21741755 0.2917477
000340 e7 6b 74 be 75 1f 6b 3e 1f e1 90 3e 59 eb 8a 3e
       -0.23869286 0.22961219 0.28296754 0.2713268
000350 d1 11 72 3e 6c 06 85 be fc be 69 be eb bb 6b be
       0.23639609 -0.25981462 -0.22826761 -0.23020904
000360 de 5c 8c 3e 0b 12 a2 be fd 20 90 3e 55 65 76 3e
       0.27414602 -0.3165439 0.28150168 0.24062093
000370 37 35 9f be b3 cd a4 be 32 2c 60 3e e8 cf 69 3e
       -0.31095287 -0.32188186 0.21891859 0.22833216
000380 d0 b6 74 3e c8 af a1 3e 61 34 88 3e 52 2d 26 3e
       0.23897862 0.31579423 0.26602462 0.16228226
000390 ac ad 54 3e e0 6e 91 3e e6 62 90 3e a1 22 aa be
       0.20769376 0.28404903 0.28200454 -0.33229545
0003a0 34 74 6d 3e 8a f2 a1 be f4 9f 86 be af 5a a8 be
       0.23188859 -0.31630355 -0.2629391 -0.32881686
0003b0 6e 45 aa be d6 75 8b 3e f6 b8 7b be 20 60 47 be
       -0.33256096 0.2723834 -0.24582276 -0.19470263
0003c0 e1 f3 71 be b9 20 57 be 23 1f 73 3e 15 e7 8a 3e
       -0.23628189 -0.21008576 0.23742346 0.27129427
0003d0 92 49 78 3e 4a 1c 75 3e ad 33 a0 be c9 5e 86 3e
       0.24246815 0.23936573 -0.31289425 0.2624419
0003e0 08 99 95 3e c8 86 89 3e 7b a1 5e be dc 61 50 3e
       0.29218316 0.26860642 -0.21741287 0.2034983
0003f0 88 6f 82 be 1d 78 7c be 84 76 9b 3e 46 e7 43 be
       -0.25475717 -0.24655195 0.30363858 -0.19131193

fc.bias f4 [2]
000000 e0 2f 47 3d 91 81 eb bc
       0.04862964 -0.028748306
