results/cnn/cnn_filters_10x[2, 3, 4]_length_64_batch_64_lr_0.001.pth (torch, 22492 bytes, 8 tensors)

convs.0.weight f4 [10, 1, 2, 50]
-0.10140114 -0.24073239 -0.35168332 0.05549048 -0.12786597 -0.0673604 -0.28251466 -0.39519143
-0.08240461 -0.1402207 -0.08118578 0.27375564 0.028055137 -0.26901945 -0.23963073 0.040219404
0.19300209 -0.046394665 -0.2141072 -0.20581186 -0.116524205 0.20104825 -0.03194385 0.2085048
-0.16697784 0.12141311 0.13907097 -0.12819195 0.057413626 -0.044456933 -0.027662542 0.29917833
-0.3626622 0.020289728 0.001687177 0.17241155 -0.030330695 -0.30204636 0.20806755 0.01283705
0.101099 -0.08455169 -0.19684641 0.21045133 -0.15241833 0.1218248 -0.19092876 0.19419609
-0.09113068 -0.085290305 0.042172186 -0.18199256 0.07130346 0.13732158 -0.12001548 -0.061418567
-0.059626494 0.10455995 0.056100916 -0.016329788 -0.13951318 -0.12036375 -0.07583672 0.11206027
-0.0031752745 0.1430738 -0.07664303 -0.13141178 0.07928184 0.044766277 0.030931316 -0.04509298
0.11631556 0.051172752 -0.1985082 0.07543241 -0.023552421 0.10127097 0.10326766 -0.025199536
0.062316563 -0.20006841 -0.1422562 0.23840259 -0.18922178 0.028625755 0.14383493 -0.118185975
0.24438748 0.08026449 0.030034354 0.09989329 -0.08346777 -0.039207023 -0.13829093 -0.0675526
-0.039994616 0.11530345 -0.09351628 0.18406239 -0.00096637337 -0.3830393 -0.38444474 -0.01954422
-0.24533853 -0.017869947 -0.21488765 -0.06256318 -0.065951236 -0.11376519 0.12629884 0.18952447
-0.12736233 -0.12060831 -0.17229675 -0.085195124 -0.23869444 -0.2649059 -0.21702191 0.0039002693
-0.22445776 0.054296404 -0.011075161 0.009703357 0.0048732916 0.08927801 -0.06576212 -0.14773147
-0.16489972 -0.20325321 -0.079554714 0.013399747 -0.24392077 0.040964127 0.022698788 0.09550978
0.030226195 -0.08512362 0.175354 -0.13375476 0.10901426 0.07192879 0.018491006 0.018531997
0.04509204 0.032382548 0.065750025 -0.0088833915 -0.11098585 -0.16699272 0.09227077 -0.11972353
0.0398744 -0.018931624 0.19530894 0.036333542 -0.023267534 -0.037046615 -0.060864452 -0.105337694
-0.46801668 -0.06651833 -0.26270288 -0.16693288 0.19274999 0.035490558 -0.23842296 -0.0017995362
0.024902288 -0.25825664 0.04431892 -0.1401628 0.12320015 -0.03791345 -0.1258123 0.0026160392
0.01882264 0.07953154 -0.025633385 0.09905815 -0.08203819 0.095642366 -0.080536336 0.14791913
-0.068375 0.045270275 -0.17097972 0.16903353 0.21043284 0.22396956 0.026760174 0.07941634
0.057008892 0.02225276 -0.26811975 -0.15420063 0.030721 0.06833664 -0.08903131 -0.11950541
-0.07524136 -0.05498111 -0.08101512 0.0472889 0.055498663 0.06292411 -0.15487339 -0.14807296
-0.054721322 0.048928887 -0.06876985 -0.014003426 0.17356946 0.004525517 -0.27250513 0.21713546
-0.16912498 -0.08436549 -0.19790047 -0.086672455 -0.11046122 -0.09932083 -0.014905247 -0.0955659
-0.11638289 0.1311357 -0.08405477 0.035537954 -0.14447513 -0.06744621 0.15050496 -0.053580903
-0.089787334 -0.02521465 0.14362425 -0.0025584886 0.009258466 -0.08762564 0.076558754 0.05308426
-0.027501885 -0.053366076 -0.12656768 -0.0489134 -0.056436196 0.10183802 -0.07490843 0.03373424
-0.02957691 0.17057465 -0.0056822347 0.0114023285 -0.27330047 -0.07817952 -0.037734356 -0.14589871
00000000: 67ab cfbd 8d82 76be d60f b4be fc49 633d
00000010: 4cef 02be 40f4 89bd c3a5 90be 8856 cabe
00000020: c0c3 a8bd 0496 0fbe bb44 a6bd b329 8c3e
00000030: e3d3 e53c ebbc 89be c261 75be 1abd 243d
00000040: 57a2 453e 5508 3ebd eb3e 5bbe 58c0 52be
00000050: 3ea4 eebd 98df 4d3e 8ed7 02bd 4882 553e
00000060: 3dfc 2abe 70a7 f83d 9f68 0e3e c044 03be
00000070: 8d2a 6b3d 7918 36bd 8e9c e2bc e72d 993e
00000080: dcae b9be a536 a63c 4424 dd3a a78c 303e
00000090: 1478 f8bc d2a5 9abe a90f 553e 7d52 523c
000000a0: fe0c cf3d 7029 adbd 1b92 49be 8e80 573e
000000b0: 8d13 1cbe 487f f93d d482 43be 57db 463e
000000c0: b9a2 babd afac aebd bebc 2c3d 425c 3abe
000000d0: 8c07 923d 079e 0c3e adca f5bd 0992 7bbd
000000e0: e93a 74bd 8723 d63d 13ca 653d 0cc6 85bc
000000f0: 8bdc 0ebe 4581 f6bd 4850 9bbd db7f e53d
00000100: 4418 50bb f081 123e 05f7 9cbd cf90 06be
00000110: 845e a23d d85c 373d ac63 fd3c 6bb3 38bd
00000120: da36 ee3d 859a 513d bc45 4bbe 4f7c 9a3d
00000130: 02f1 c0bc 2867 cf3d ff7d d33d 426f cebc
00000140: a73f 7f3d bcde 4cbe 9cab 11be cf1f 743e
00000150: 5bc3 41be 8f80 ea3c 7749 133e 7d0b f2bd
00000160: b640 7a3e b561 a43d 9b0a f63c da94 cc3d
00000170: 26f1 aabd 8b97 20bd 239c 0dbe 0459 8abd
00000180: 65d1 23bd 3724 ec3d 7785 bfbd da7a 3c3e
00000190: 3854 7dba ba1d c4be f1d5 c4be 331b a0bc
000001a0: 063a 7bbe ff63 92bc 820b 5cbe 2021 80bd
000001b0: 7111 87bd b9fd e8bd 7c54 013e b412 423e
000001c0: 456b 02be 7d01 f7bd 8f6e 30be c87a aebd
000001d0: 516c 74be bfa1 87be fe3a 5ebe a99b 7f3b
000001e0: 41d8 65be e865 5e3d 9874 35bc d4fa 1e3c
000001f0: 22b0 9f3b 64d7 b63d 4aae 86bd eb46 17be
00000200: 79db 28be 9c21 50be 95ed a2bd 9d8a 5b3c
00000210: 5ec6 79be 00ca 273d cff2 b93c a29a c33d
00000220: ed9c f73c 4b55 aebd 0090 333e 02f7 08be
00000230: de42 df3d 674f 933d 737a 973c 6ad0 973c
00000240: 6eb2 383d 90a3 043d f3a7 863d a58b 11bc
00000250: 8d4c e3bd 2400 2bbe 75f8 bc3d 9c31 f5bd
00000260: 5753 233d 7e16 9bbc 11ff 473e 7bd2 143d
00000270: 8e9b bebc 31be 17bd 014d 79bd 4abb d7bd
00000280: e29f efbe c33a 88bd fe80 86be 74f0 2abe
00000290: 4160 453e 8c5e 113d 2625 74be 6ade ebba
000002a0: e2ff cb3c 373a 84be c187 353d d686 0fbe
000002b0: 5c50 fc3d 224b 1bbd f1d4 00be db71 2b3b
000002c0: f031 9a3c 6fe1 a23d 1bfd d1bc 00df ca3d
000002d0: a303 a8bd 25e0 c33d 3cf0 a4bd 1d78 173e
000002e0: 3108 8cbd 536d 393d 4f15 2fbe 2017 2d3e
000002f0: b57b 573e 4758 653e 2738 db3c 09a5 a23d
00000300: 2882 693d 6c4b b63c fe46 89be c5e6 1dbe
00000310: 9baa fb3c 15f4 8b3d 0c56 b6bd 41bf f4bd
00000320: 2418 9abd df33 61bd 41eb a5bd 01b2 413d
00000330: 9152 633d 5bde 803d 2197 1ebe 70a0 17be
00000340: 7723 60bd a869 483d 35d7 8cbd a06e 65bc
00000350: 31bc 313e ca4a 943b cb85 8bbe c258 5e3e
00000360: 192f 2dbe d0c7 acbd 6ca6 4abe 5481 b1bd
00000370: 7e39 e2bd b868 cbbd 2335 74bc 0eb8 c3bd
00000380: 275a eebd 7048 063e e824 acbd 3f90 113d
00000390: 4af1 13be 3d21 8abd f91d 1a3e a677 5bbd
000003a0: 6ce2 b7bd f48e cebc 3c12 133e 51ac 27bb
000003b0: d2b0 173c 1275 b3bd d6ca 9c3d e26e 593d
000003c0: a24b e1bc 6396 5abd f59a 01be 6b59 48bd
000003d0: a429 67bd 7490 d03d 9769 99bd ea2c 0a3d
000003e0: 474b f2bc 1fab 2e3e 0a32 babb d5d0 3a3c
000003f0: 0aee 8bbe 961c a0bd 578f 1abd 7966 15be

convs.0.bias f4 [10]
-0.16658749 -0.07309374 -0.11394306 -0.08972096 -0.15515184 -0.14659818 -0.14353316 -0.1177977
-0.022866104 -0.10231823
00000000: e995 2abe 2cb2 95bd fb5a e9bd 9fbf b7bd
00000010: 20e0 1ebe d51d 16be 5bfa 12be ec3f f1bd
00000020: b251 bbbc 388c d1bd

convs.1.weight f4 [10, 1, 3, 50]
-0.08929037 -0.18478073 -0.090473086 0.1327992 0.13555509 0.12154032 -0.026626417 -0.06250805
-0.065768614 -0.04003452 0.1142115 0.17055851 -0.09136124 -0.07943776 -0.17900136 -0.17451642
-0.25312027 0.006817245 -0.3209854 -0.10359323 -0.07162383 -0.028274788 0.11642344 0.07573105
0.021073822 -0.047813464 -0.049378455 0.07873869 -0.046143826 0.04300913 0.0058431407 0.110972516
-0.010550546 0.045236927 -0.14382084 -0.0005686892 0.08802706 -0.23065723 -0.09656071 0.03975863
-0.020434653 0.12068766 -0.023464788 -0.12824878 0.206864 -0.060634024 -0.17319295 -0.08519116
-0.03667549 0.16511883 0.015930943 -0.036199845 -0.03265797 -0.049484108 0.118057914 -0.04620872
-0.00025421716 0.13638395 -0.13486661 0.008350819 -0.124252945 0.13475305 -0.040890373 0.057630133
0.1419396 -0.068177834 0.096466094 0.020881874 -0.28075117 0.12696297 -0.065464176 -0.027817817
0.13872336 0.028966365 -0.035436235 0.11903276 -0.048000336 0.28426394 -0.058828145 -0.14989553
-0.06405885 0.1122015 -0.090588525 0.018045703 -0.020771565 0.14131491 -0.027599534 -0.15112883
0.22929636 0.1764089 0.18247512 0.03959688 -0.041018154 -0.046585806 -0.2967444 -0.120996915
-0.01604872 0.007625078 -0.035418887 -0.21481287 -0.0051390436 -0.23669052 -0.11363535 -0.13552436
-0.12331052 -0.09843848 0.057516515 -0.30546802 0.13141188 0.17460914 -0.07677111 0.27614775
0.09284279 0.10992543 -0.17244825 0.061978545 -0.08358372 -0.009566819 -0.18724012 -0.22518137
0.08062997 0.10770544 0.053550348 -0.14444606 -0.0790597 -0.15668194 -0.06404962 0.15528873
0.05031641 -0.23891558 -0.09227665 -0.11311793 -0.1815482 -0.09903381 -0.103494965 0.028181767
0.041496824 0.0086213825 0.31952593 -0.019429771 0.15350491 0.029540498 -0.25258672 -0.15954946
0.0014230582 0.003155086 -0.15615325 -0.048226338 -0.18163115 -0.13534358 -0.043585725 0.30570182
-0.32762626 -0.045294464 -0.0008948819 0.078070864 -0.120006956 -0.11760527 -0.09899007 0.010215304
0.037306365 -0.19594942 -0.26779965 -0.24496837 -0.08670713 -0.25235373 -0.103867956 -0.0312621
0.030435292 -0.17149316 0.19087492 0.037352152 0.23430644 0.23503116 -0.0051453603 -0.046586517
0.105292894 0.2542951 0.021959137 -0.085664034 -0.1168597 0.04158406 -0.0075916545 0.040110014
-0.2799744 0.2957144 0.04508695 0.13967308 0.2712417 -0.12868199 0.090714306 0.048705276
0.1590439 0.08008989 0.013435994 -0.027792891 -0.017436514 -0.022139996 0.07703623 -0.010261371
-0.029841753 0.023288906 -0.1819452 0.110513836 -0.094696276 0.010598206 -0.15445662 0.05506822
-0.3753541 -0.06734687 -0.05423176 0.101551406 -0.118766464 0.10604848 -0.13523878 -0.029394582
0.18722415 0.17125614 -0.033365298 -0.0922537 -0.109845355 -0.2597561 0.04555597 0.11235947
-0.040558144 -0.05404363 0.06653438 0.009772834 0.2351008 -0.19594541 -0.18922529 -0.061553206
0.070949964 -0.09115758 -0.17640108 0.082977384 0.21911983 -0.0052573145 -0.07887944 0.040959105
0.010152856 -0.19535021 0.084793136 -0.06441035 -0.03946825 -0.19737913 0.039828517 -0.15628831
0.08542685 0.30331793 0.09862168 0.11103481 -0.13198304 0.019168153 -0.13456373 -0.42161608
00000000: dfdd b6bd 2937 3dbe f449 b9bd 83fc 073e
00000010: f4ce 0a3e 22ea f83d a51f dabc 3804 80bd
00000020: b2b1 86bd 3dfb 23bd b8e7 e93d e4a6 2e3e
00000030: 9a1b bbbd 44b0 a2bd 224c 37be 6fb4 32be
00000040: fb98 81be 3263 df3b 3358 a4be b028 d4bd
00000050: 84af 92bd 87a0 e7bc 6a6f ee3d e118 9b3d
00000060: 02a3 ac3c 0dd8 43bd 1041 4abd c041 a13d
00000070: 4f01 3dbd 572a 303d d177 bf3b 8f45 e33d
00000080: 33dc 2cbc 5b4a 393d c545 13be 1614 15ba
00000090: 8847 b43d 6931 6cbe 9fc1 c5bd f2d9 223d
000000a0: 9366 a7bc 182b f73d 3a39 c0bc a653 03be
000000b0: 28d4 533e 625b 78bd 7e59 31be b478 aebd
000000c0: 0a39 16bd e914 293e 9c81 823c 4a46 14bd
000000d0: 5dc4 05bd d9af 4abd 59c8 f13d 5b45 3dbd
000000e0: 7348 85b9 3ca8 0b3e 791a 0abe e0d1 083c
000000f0: 5478 febd b4fc 093e aa7c 27bd 930d 6c3d
00000100: 9d58 113e d2a0 8bbd 0490 c53d 7710 ab3c
00000110: 9ebe 8fbe 9502 023e 1512 86bd 31e2 e3bc
00000120: 7f0d 0e3e df4a ed3c 9625 11bd 73c7 f33d
00000130: 009c 44bd 0b8b 913e c8f5 70bd 377e 19be
00000140: 4931 83bd e6c9 e53d 7a86 b9bd 95d4 933c
00000150: 2129 aabc dbb4 103e 6b18 e2bc 84c1 1abe
00000160: aacc 6a3e 89a4 343e c2da 3a3e 5730 223d
00000170: a702 28bd c2d0 3ebd e2ee 97be 3bcd f7bd
00000180: 9b78 83bc cadb f93b 6513 11bd e8f7 5bbe
00000190: 6c65 a8bb 005f 72be a6b9 e8bd e6c6 0abe
000001a0: 3a8a fcbd 1d9a c9bd 7096 6b3d 4e66 9cbe
000001b0: d690 063e bdcc 323e 2c3a 9dbd 3d63 8d3e
000001c0: 5c24 be3d 9520 e13d 4696 30be 37dd 7d3d
000001d0: f12d abbd 26be 1cbc e0bb 3fbe f295 66be
000001e0: 5321 a53d ab94 dc3d 9c57 5b3d abe9 13be
000001f0: 0dea a1bd 3b71 20be 722c 83bd 0204 1f3e
00000200: 9418 4e3d 49a6 74be 8afb bcbd 60aa e7bd
00000210: c5e7 39be 3dd2 cabd 2bf5 d3bd 73dd e63c
00000220: 93f8 293d b340 0d3c e798 a33e 2f2b 9fbc
00000230: 6430 1d3e eafe f13c 0c53 81be ef60 23be
00000240: e985 ba3a 8fc5 4e3b a3e6 1fbe fb88 45bd
00000250: 84fd 39be 8297 0abe f286 32bd f384 9c3e
00000260: a1be a7be b086 39bd 8296 6aba 9ee3 9f3d
00000270: 35c6 f5bd 08db f0bd 4ebb cabd 175e 273c
00000280: 8fce 183d f7a6 48be 091d 89be fdd8 7abe
00000290: 8293 b1bd 8234 81be b9b8 d4bd b00c 00bd
000002a0: 6f53 f93c e79b 2fbe b774 433e 92fe 183d
000002b0: 07ee 6f3e 02ac 703e 699a a8bb 81d1 3ebd
000002c0: cda3 d73d f832 823e a6e3 b33c a070 afbd
000002d0: 2354 efbd 0c54 2a3d 6ac3 f8bb 664a 243d
000002e0: ce58 8fbe e167 973e 18ad 383d 7606 0f3e
000002f0: 31e0 8a3e 36c5 03be 6cc8 b93d 2f7f 473d
00000300: 67dc 223e 2b06 a43d a522 5c3c ebad e3bc
00000310: 05d7 8ebc f05e b5bc 2cc5 9d3d 4f1f 28bc
00000320: b176 f4bc 60c8 be3c d84f 3abe 1455 e23d
00000330: 1ff0 c1bd 19a4 2d3c e029 1ebe 378f 613d
00000340: 6a2e c0be 28ed 89bd 1f22 5ebd 2ffa cf3d
00000350: d53b f3bd f22f d93d 097c 0abe e8cc f0bc
00000360: b0b7 3f3e c55d 2f3e 0daa 08bd 82ef bcbd
00000370: 9af6 e0bd c0fe 84be e698 3a3d b91c e63d
00000380: 4c20 26bd da5c 5dbd 2d43 883d 3d1e 203c
00000390: 44be 703e eaa5 48be 46c4 41be 371f 7cbd
000003a0: 374e 913d d3b0 babd 7ca2 34be 0cf0 a93d
000003b0: f360 603e 8d45 acbb 8b8b a1bd bcc4 273d
000003c0: 2a58 263c e309 48be 06a8 ad3d 93e9 83bd
000003d0: 76a9 21bd c11d 4abe 3a23 233d 0b0a 20be
000003e0: 46f4 ae3d 7d4c 9b3e 2afa c93d 3866 e33d
000003f0: 9026 07be 8806 9d3c 13cb 09be 10de d7be

convs.1.bias f4 [10]
-0.09310189 -0.16820583 -0.10200158 -0.09153773 -0.18295908 -0.044194296 -0.03210022 -0.075735934
-0.0551092 -0.18857332
00000000: 34ac bebd 263e 2cbe 34e6 d0bd 2278 bbbd
00000010: a059 3bbe 1405 35bd 857b 03bd 711b 9bbd
00000020: 2fba 61bd 5d19 41be

convs.2.weight f4 [10, 1, 4, 50]
0.09440661 0.11219192 -0.18378352 -0.0110939685 0.13928725 -0.029645838 -0.3537795 -0.2748271
-0.056329135 0.014617576 -0.17562059 -0.020767337 -0.08984849 -0.06641626 -0.04961492 -0.1097185
-0.022378808 -0.049024723 -0.032928776 -0.20150238 0.15420976 -0.15236904 -0.033448137 0.11319604
-0.14270222 0.030188981 0.07668324 0.10441491 0.02312685 -0.0381709 -0.10304151 -0.17621268
-0.072286844 -0.15581001 -0.15386838 -0.053633608 -0.17019896 0.051042747 -0.16497801 -0.08470039
0.1648536 0.23060016 0.2745927 -0.18519945 -0.13459724 0.10662806 0.04346833 0.13813716
0.14787719 0.14596267 0.25890797 0.16682324 -0.189395 0.35080957 -0.10400345 -0.13700007
-0.17493391 0.03771387 -0.25179592 -0.13274239 0.12218181 -0.1518122 0.002924217 -0.21948493
-0.020891638 0.044673387 0.12045776 -0.109535165 0.3053003 0.0004553806 0.27862296 -0.026742956
0.23593596 -0.048508484 0.035048008 0.15004525 -0.040554415 0.17730688 -0.03953552 -0.058258116
-0.02492766 0.09331609 -0.10468027 0.012511642 -0.11251879 0.20133674 0.14573321 0.11275657
-0.026540924 -0.12207276 0.16894832 0.134222 0.0618905 -0.18374383 -0.16078524 -0.07190717
0.042274155 -0.036548786 -0.009799489 0.015289362 0.014324389 0.22103569 0.08431381 0.016538883
0.06830751 -0.050770365 -4.817404e-05 -0.012234134 -0.014891078 -0.053434134 -0.039109457 0.07113636
0.14463937 -0.29690072 -0.20083961 0.07845096 0.059716813 -0.21336356 0.29585984 -0.010303105
0.0998215 -0.07145802 0.26971963 -0.116933025 -0.13700502 0.13892992 0.0395499 0.12885216
-0.06439924 0.08827324 -0.088030584 0.2814167 0.15122177 -0.1579697 -0.059071574 -0.1260286
0.04777275 0.029924383 0.06631744 0.026500579 -0.044370845 -0.12002432 0.041038133 0.12404521
0.03301482 0.15831521 0.082755886 -0.020903908 -0.06077479 0.12922871 0.119139306 -0.0718865
-0.057589386 0.0445473 0.128823 -0.053310625 -0.13823834 -0.021258034 0.051429946 0.004929804
0.12408602 -0.05917418 -0.109988466 -0.15332368 0.07184469 -0.084881864 0.055280797 -0.009732101
0.12167649 0.33045515 -0.16931789 -0.009920324 -0.13515562 -0.09793046 0.08486381 0.06593252
0.07510796 -0.0048448597 -0.06320481 0.014865886 -0.0035423483 -0.038523093 0.10430915 -0.17176886
-0.08144884 -0.008923955 -0.20183629 0.013015823 -0.05313697 0.056438114 0.08531609 0.048530478
0.15825382 -0.012249065 -0.05050629 -0.028673274 -0.12075421 -0.054049972 0.0293982 0.23021272
0.017688615 -0.042089526 -0.04110661 0.07960314 0.038233243 -0.24137834 -0.08476637 -0.20718597
0.075470954 -0.08842304 0.033901144 0.024500476 -0.05728166 0.035407614 -0.13016675 0.085752636
-0.33104688 -0.07814483 -0.3899039 -0.25728756 -0.05038326 -0.13333382 -0.013332722 -0.06692973
0.0019680844 -0.09428738 -0.13378079 0.14597769 -0.14855987 -0.082117386 -0.09844612 0.09705444
0.12617964 0.1148344 -0.14290608 0.06384253 0.014895147 0.035247326 -0.0258183 0.06495659
-0.08158851 0.0797996 -0.22662196 -0.1334678 0.011954237 -0.034282397 -0.1725367 0.15608606
-0.046499778 0.03773075 0.010801473 0.054208707 0.08163955 0.004174501 -0.16004261 0.003256829
00000000: 4158 c13d e1c4 e53d bf31 3cbe 7ac3 35bc
00000010: 51a1 0e3e d4db f2bc 9622 b5be 23b6 8cbe
00000020: 61b9 66bd 8f7e 6f3c e2d5 33be 4320 aabc
00000030: 7c02 b8bd 4005 88bd 0439 4bbd 18b4 e0bd
00000040: c353 b7bc 26ce 48bd 53e0 06bd a456 4ebe
00000050: 2ae9 1d3e a106 1cbe ea00 09bd 53d3 e73d
00000060: 8820 12be e24e f73c 1a0c 9d3d 7cd7 d53d
00000070: 8574 bd3c 1759 1cbd 6d07 d3bd 1971 34be
00000080: 200b 94bd a98c 1fbe ac8f 1dbe eaae 5bbd
00000090: a348 2ebe 3312 513d ffef 28be 6677 adbd
000000a0: 62cf 283e 7322 6c3e 6a97 8c3e eda4 3dbe
000000b0: dcd3 09be d05f da3d d90b 323d d473 0d3e
000000c0: 1e6d 173e 3d77 153e 968f 843e b6d3 2a3e
000000d0: c3f0 41be 509d b33e c3ff d4bd bf49 0cbe
000000e0: e021 33be dc79 1a3d 65eb 80be 9fed 07be
000000f0: 753a fa3d a874 1bbe 38a4 3f3b a8c0 60be
00000100: f124 abbc 71fb 363d 8fb2 f63d f953 e0bd
00000110: 5250 9c3e 26c0 ee39 aba7 8e3e 0b14 dbbc
00000120: 3299 713e d5b0 46bd 808e 0f3d 76a5 193e
00000130: 631c 26bd ef8f 353e ffef 21bd 10a0 6ebd
00000140: 1835 ccbc 821c bf3d 9c62 d6bd a1fd 4c3c
00000150: 4070 e6bd 382b 4e3e 163b 153e ebec e63d
00000160: 5a6c d9bc 4801 fabd ca00 2d3e 7e71 093e
00000170: e580 7d3d 5827 3cbe e3a4 24be 1144 93bd
00000180: aa27 2d3d 2eb4 15bd 098e 20bc 3b80 7a3c
00000190: d8b0 6a3c 2e57 623e b8ac ac3d 8d7c 873c
000001a0: cfe4 8b3d 96f4 4fbd 7b0e 4ab8 ad71 48bc
000001b0: b5f9 73bc c0dd 5abd 3d31 20bd f1af 913d
000001c0: 581c 143e 5f03 98be e6a8 4dbe e6aa a03d
000001d0: 9e99 743d fa7b 5abe f17a 973e 5bce 28bc
000001e0: 376f cc3d 9558 92bd b118 8a3e 957a efbd
000001f0: 0b4b 0cbe a543 0e3e 13ff 213d d2f1 033e
00000200: c0e3 83bd 9ac8 b43d 6149 b4bd da15 903e
00000210: e1d9 1a3e cfc2 21be 09f5 71bd a40d 01be
00000220: 5cad 433d fb23 f53c 70d1 873d be17 d93c
00000230: 34be 35bd 50cf f5bd 9a17 283d 6a0b fe3d
00000240: 8c3a 073d 621d 223e eb7b a93d ac3e abbc
00000250: fcee 78bd 8854 043e 4fff f33d 3b39 93bd
00000260: d9e2 6bbd 3b77 363d 2dea 033e 3e5c 5abd
00000270: 5a8e 0dbe 5425 aebc 35a8 523d 318a a13b
00000280: d020 fe3d a060 72bd a241 e1bd e200 1dbe
00000290: 4f23 933d 8bd6 adbd 1e6e 623d 6473 1fbc
000002a0: 8631 f93d 6b31 a93e ab61 2dbe db88 22bc
000002b0: 3c66 0abe c48f c8bd 14cd ad3d a107 873d
000002c0: 34d2 993d a1c1 9ebb 8671 81bd 0c90 733c
000002d0: be26 68bb 64ca 1dbd 09a0 d53d 2de4 2fbe
000002e0: a6ce a6bd c835 12bc 2cae 4ebe 5240 553c
000002f0: 27a6 59bd a72b 673d 34ba ae3d e5c7 463d
00000300: 4a0d 223e 4db0 48bc afdf 4ebd 37e4 eabc
00000310: fc4d f7bd 8163 5dbd 7ed4 f03c e2bc 6b3e
00000320: b7e7 903c 1166 2cbd 685f 28bd f906 a33d
00000330: 769a 1c3d e22b 77be fe99 adbd 8f28 54be
00000340: 8490 9a3d 2417 b5bd eddb 0a3d 39b5 c83c
00000350: 2da0 6abd 9307 113d 6f4a 05be 149f af3d
00000360: fa7e a9be 660a a0bd 7ca1 c7be 32bb 83be
00000370: ad5e 4ebd a988 08be 7d71 5abc 7412 89bd
00000380: fafa 003b be19 c1bd d5fd 08be 2d7b 153e
00000390: 1420 18be 292d a8bd 1f9e c9bd 7ac4 c63d
000003a0: 3c35 013e 4c2e eb3d f955 12be dfbf 823d
000003b0: c60a 743c 805f 103d e680 d3bc f607 853d
000003c0: e017 a7bd f96d a33d 960f 68be c8ab 08be
000003d0: b4db 433c b36b 0cbd 76ad 30be 06d5 1f3e
000003e0: 8d76 3ebd 8f8b 1a3d a9f8 303c f309 5e3d
000003f0: a332 a73d 41ca 883b 36e2 23be 8670 553b

convs.2.bias f4 [10]
-0.09425527 -0.19744216 -0.059131894 -0.11955148 -0.14523923 -0.094836354 -0.039386902 -0.14218852
-0.09371773 -0.072845906
00000000: e808 c1bd 472e 4abe 4934 72bd 68d7 f4bd
00000010: 98b9 14be 9039 c2bd 2954 21bd de99 11be
00000020: 15ef bfbd 3c30 95bd

fc.weight f4 [2, 30]
-0.3680987 -0.48122436 -0.32861134 -0.4680328 0.41432226 -0.4544169 0.32104644 -0.34528005
0.4133082 -0.3400139 -0.44891545 0.50639784 0.599805 -0.53092974 -0.39844206 -0.38311368
0.33405837 0.41330495 0.42443213 0.53891194 0.4545565 -0.5145043 0.42768136 0.48045468
0.46951535 -0.53100294 0.30004206 -0.58246773 -0.38243005 -0.6098028 0.48671013 0.48605058
0.28774953 0.4196895 -0.48151648 0.4440483 -0.42796007 0.5191846 -0.48140538 0.41761503
0.519196 -0.379783 -0.59585005 0.44175157 0.34054005 0.63057667 -0.5137714 -0.5541963
-0.34168434 -0.6323453 -0.58098966 0.44084963 -0.47591025 -0.5723292 -0.48582992 0.5409686
-0.5348526 0.32426274 0.5906321 0.45592958
00000000: 6f77 bcbe 0a63 f6be bf3f a8be ffa1 efbe
00000010: 0c22 d43e 55a9 e8be 3360 a43e 8cc8 b0be
00000020: 229d d33e 4d16 aebe 3fd8 e5be 4aa3 013f
00000030: d28c 193f 03eb 07bf 9900 ccbe 7a27 c4be
00000040: b309 ab3e b59c d33e 2b4f d93e 22f6 093f
00000050: a1bb e83e 8eb6 03bf 0df9 da3e 28fe f53e
00000060: 5164 f03e cfef 07bf 1d9f 993e 9b1c 15bf
00000070: dfcd c3be 091c 1cbf 1232 f93e 9fdb f83e
00000080: e853 933e 8be1 d63e 5489 f6be 4c5a e33e
00000090: 951d dbbe 48e9 043f c47a f6be a3d1 d53e
000000a0: 07ea 043f eb72 c2be a189 18bf 432d e23e
000000b0: 445b ae3e 796d 213f 8686 03bf cfdf 0dbf
000000c0: 40f1 aebe 62e1 21bf bdbb 14bf 0bb7 e13e
000000d0: 82aa f3be 2b84 12bf b3be f8be eb7c 0a3f
000000e0: 1aec 08bf c405 a63e aa33 173f 9a6f e93e

fc.bias f4 [2]
0.26712978 -0.026529271
00000000: 3cc5 883e ea53 d9bc
