results/cnn/cnn_filters_100x[2, 3, 4]_length_64_batch_64_lr_0.0001.pth (torch, 187700 bytes, 8 tensors)

convs.0.weight f4 [100, 1, 2, 50]
0.033851955 0.06060602 -0.13038814 -0.046716914 -0.048055988 -0.018188065 -0.01894209 0.02870668
-0.18665616 0.02608308 -0.030570285 -0.028332548 0.0647747 -0.07215198 -0.08488317 -0.009972781
-0.030008122 -0.008883008 0.009667112 -0.07334334 0.03250067 -0.07667098 0.005258937 0.070867635
-0.011202657 0.009356949 -0.09855493 -0.04666115 0.077461705 -0.03906612 -0.1204789 0.066322856
0.013083993 -0.011116903 -0.0820331 0.042919826 -0.050007697 0.028574979 0.08590534 0.07375497
0.12181047 -0.02773782 0.07419238 -0.055897042 -0.058965057 0.051314164 -0.043902673 0.051554777
0.08068715 0.11411756 0.056274902 0.12320288 0.010028053 -0.047786206 0.115332134 -0.05434644
-0.13017538 -0.025223091 -0.16181315 -0.07315761 0.09861685 0.038733 -0.06527928 0.023914872
0.03128567 -0.019367011 0.044022083 -0.053924177 -0.005376706 0.052444566 -0.042682286 -0.12914188
-0.0010732948 -0.075441375 0.035407845 -0.0064662257 -0.053023104 -0.010830399 0.0072877486 -0.12985773
0.046873756 -0.023521129 -0.07432171 -0.03088187 0.014329918 -0.10173556 -0.019000132 -0.013313741
0.19224434 -0.039705254 0.0877931 -0.031661883 -0.009255147 0.057131723 0.12360599 0.020651072
0.042581894 0.006041657 0.033364948 0.0059251534 -0.035027537 -0.10664865 -0.026639463 -0.049245086
0.10315462 -0.036692094 -0.085120484 0.0394771 0.0020403326 0.0926238 -0.10500289 0.03510219
-0.18282594 0.02448643 0.10099446 0.006129501 0.030417873 0.07898067 -0.0068646297 0.0096429195
0.15794523 -0.070747115 0.022589851 -0.011479382 0.028692491 -0.06508827 0.11016431 0.02492974
0.003254725 0.108025916 0.010483325 -0.050244454 -0.060218394 0.008860244 0.008062769 0.1506894
-0.067695856 0.030843787 -0.12882277 0.017330913 -0.03243818 0.007818244 0.03788047 -0.07575658
-0.026743084 -0.0336365 -0.15890445 0.09328818 -0.049917266 -0.08698668 -0.03630877 -0.0032890288
-0.1646804 -0.015839504 0.02560489 0.024170568 -0.022762166 0.013489083 -0.03367461 -0.011651292
0.086472854 0.0692088 0.051089108 -0.10917057 0.0012101561 0.023185777 -0.008968779 0.045089506
-0.17658423 0.13465135 -0.022829771 0.06229389 -0.0031484673 0.13282157 0.030931817 0.08576832
-0.06648484 0.07424416 -0.058776803 0.019351617 -0.06493804 -0.020903252 0.023587452 -0.008172841
0.009138703 -0.021805253 -0.05875062 0.00010612356 -0.0370367 -0.07776224 -0.06771875 0.015658906
0.0440036 -0.056774963 -0.052518364 0.023142872 -0.051728282 0.028809782 -0.15220773 0.09588631
-0.00033383694 0.040776744 -0.08152339 0.07386856 -0.02767399 -0.12636016 -0.119290665 -0.03202138
0.004737352 0.06461461 -0.032147188 -0.02924306 0.06962634 0.05776946 -0.017794516 -0.0068434672
0.04771448 0.029873464 0.0589849 0.00657354 -0.029121155 -0.0753764 0.034427576 0.022184134
0.024575008 0.06695557 -0.03657035 -0.005351038 0.06354934 0.124257706 0.00925247 0.038226265
-0.07327423 -0.1017964 -0.13688648 0.08810966 -0.019329162 -0.007751859 0.14526814 -0.059627727
0.038720783 -0.044250693 0.015114942 -0.057300515 0.002728674 -0.01758754 0.039692983 0.019900452
0.07067871 0.016504757 -0.032689244 0.03555182 -0.0832666 0.13027889 -0.05583738 -0.15191528
00000000: 59a8 0a3d 053e 783d 7884 05be 3c5a 3fbd
00000010: 5bd6 44bd 23ff 94bc 712c 9bbc 452a eb3c
00000020: cb22 3fbe 2fac d53c 896e fabc a919 e8bc
00000030: 99a8 843d 6bc4 93bd 3ad7 adbd e064 23bc
00000040: 98d3 f5bc 098a 11bc ce62 1e3c 0835 96bd
00000050: 6c1f 053d ad05 9dbd 2953 ac3b 0d23 913d
00000060: 598b 37bc e34d 193c 2bd7 c9bd c31f 3fbd
00000070: 3ea4 9e3d cc03 20bd a4bd f6bd 47d4 873d
00000080: 3f5e 563c ac23 36bc f800 a8bd b3cc 2f3d
00000090: dfd4 4cbd 1316 ea3c 24ef af3d d90c 973d
000000a0: c577 f93d 6d3a e3bc 2df2 973d 4cf4 64bd
000000b0: 5885 71bd cd2e 523d 4ad3 33bd 1a2b 533d
000000c0: 4e3f a53d 78b6 e93d 8380 663d cb51 fc3d
000000d0: b44c 243c 78bb 43bd 4133 ec3d 5f9a 5ebd
000000e0: b24c 05be a8a0 cebc 59b2 25be a8d3 95bd
000000f0: a2f7 c93d 7fa6 1e3d 25b1 85bd 1fe9 c33c
00000100: 6725 003d 91a7 9ebc 8050 343d 99df 5cbd
00000110: 142f b0bb 1dd0 563d 9fd3 2ebd c53d 04be
00000120: ccad 8cba 0281 9abd d107 113d a2e2 d3bb
00000130: c12e 59bd fc71 31bc 11ce ee3b 6df9 04be
00000140: b2fe 3f3d 62af c0bc fb35 98bd fafb fcbc
00000150: 08c8 6a3c bc5a d0bd 2aa6 9bbc e121 5abc
00000160: b3db 443e faa1 22bd decc b33d e4af 01bd
00000170: e6a2 17bc f402 6a3d 2325 fd3d 702c a93c
00000180: 5a6a 2e3d 18f9 c53b afa9 083d ca27 c23b
00000190: 0979 0fbd 9b6a dabd 013b dabc 37b5 49bd
000001a0: bb42 d33d 734a 16bd a653 aebd bdb2 213d
000001b0: 1ab7 053b 8cb1 bd3d c10b d7bd 50c7 0f3d
000001c0: b936 3bbe c497 c83c 2fd6 ce3d fbd9 c83b
000001d0: e72e f93c 9ec0 a13d b0f0 e0bb 56fd 1d3c
000001e0: 65bc 213e dde3 90bd 5a0e b93c 0514 3cbc
000001f0: 840c eb3c 004d 85bd d39d e13d 7439 cc3c
00000200: 394d 553b b13c dd3d 41c2 2b3c 21cd 4dbd
00000210: 90a7 76bd 8f2a 113c b419 043c 524e 1a3e
00000220: 20a4 8abd 1cac fc3c 1eea 03be 8ff9 8d3c
00000230: e6dd 04bd 1818 003c 8d28 1b3d 4426 9bbd
00000240: 5014 dbbc 6dc6 09bd d9b7 22be e00d bf3d
00000250: 0c76 4cbd 1326 b2bd 81b8 14bd bf8c 57bb
00000260: fba1 28be d9c1 81bc 59c1 d13c 5b01 c63c
00000270: b977 babc 5101 5d3c 63ee 09bd 10e5 3ebc
00000280: ae18 b13d 58bd 8d3d d042 513d d294 dfbd
00000290: 1a9e 9e3a 19f0 bd3c c9f1 12bc c6af 383d
000002a0: 7fd2 34be 0be2 093e 8005 bbbc e127 7f3d
000002b0: 8456 4ebb 6102 083e b964 fd3c 4da7 af3d
000002c0: 3429 88bd 520d 983d f2bf 70bd 4887 9e3c
000002d0: 3cfe 84bd 4c3d abbc 793a c13c 61e7 05bc
000002e0: 80ba 153c eea0 b2bc 7da4 70bd a78e de38
000002f0: cbb3 17bd cf41 9fbd 21b0 8abd 1b47 803c
00000300: 1e3d 343d dd8c 68bd 7f1d 57bd 1f96 bd3c
00000310: 09e1 53bd 7e02 ec3c 58dc 1bbe 0b60 c43d
00000320: d606 afb9 8405 273d bcf5 a6bd 6648 973d
00000330: 90b4 e2bc 8f64 01be aa4e f4bd da28 03bd
00000340: ca3b 9b3b aa54 843d c5ac 03bd 248f efbc
00000350: 4198 8e3d ab9f 6c3d cec5 91bc 2a3f e0bb
00000360: 4270 433d 32b9 f43c 279a 713d da66 d73b
00000370: 7d8f eebc f15e 9abd ee03 0d3d 80bb b53c
00000380: 8751 c93c 0020 893d cbca 15bd c357 afbb
00000390: 2826 823d d37a fe3d ac97 173c 2593 1c3d
000003a0: cd10 96bd a27a d0bd f82b 0cbe d672 b43d
000003b0: 3158 9ebc 4e03 febb 2cc1 143e 343c 74bd
000003c0: af99 1e3d 3740 35bd a9a4 773c f2b3 6abd
000003d0: 8ed3 323b bf13 90bc 1c95 223d 4606 a33c
000003e0: 00c0 903d fc34 873c 28e5 05bd c99e 113d
000003f0: ae87 aabd d467 053e bdb5 64bd ae8f 1bbe

convs.0.bias f4 [100]
-0.026954634 -0.00025709876 0.023656042 -0.09092902 -0.017808322 -0.008804575 -0.050737724 -0.04401334
-0.07471476 -0.13196468 -0.0063011954 -0.09284049 -0.09166803 -0.12970404 -0.07749866 -0.0065240315
-0.093007006 -0.046540815 -0.12210125 -0.060245126 -0.07891665 -0.027381845 -0.034833245 -0.09606606
-0.0047517326 -0.070052095 -0.080792345 -0.0072841546 -0.0086852135 -0.005482512 -0.018184122 0.021909216
-0.04035415 -0.01134019 -0.0013153128 -0.012691676 -0.0057180407 -0.005151032 -0.0031684102 -0.12544659
-0.11620384 0.004892219 -0.0021122978 -0.13939974 -0.10583451 -0.10736788 -0.10723193 -0.005840633
-0.042789858 -0.116345644 -0.06509023 -0.10272142 -0.010442771 -0.005265799 -0.0038878778 -0.1340138
-0.007276966 -0.02554828 -0.005076632 -0.07708189 -0.057281222 -0.106126286 0.004888326 -0.029969322
-0.0056317076 -0.006761281 -0.091733865 -0.11923592 -0.06524995 -0.16527681 0.014149137 -0.09780246
-0.05394692 -0.0004847058 -0.11060647 -0.005059408 -0.07398234 -0.07570246 0.028950516 -0.01467973
-0.096004575 -0.024063416 -0.091258675 -0.00786665 -0.070360735 -0.0035012064 0.013419886 -0.08385521
-0.017853098 -0.004044547 -0.013294188 -0.09017114 -0.094936386 -0.078260355 -0.043181147 -0.018616373
-0.02844524 0.01117282 -0.03618105 -0.13833444
00000000: f7cf dcbc 36cb 86b9 51ca c13c fe38 babd
00000010: c2e2 91bc 1041 10bc 5cd2 4fbd 5547 34bd
00000020: 0d04 99bd c021 07be 427a cebb 2823 bebd
00000030: 73bc bbbd 23d1 04be 9eb7 9ebd 8bc7 d5bb
00000040: 757a bebd 95a1 3ebd 3810 fabd 98c3 76bd
00000050: 0d9f a1bd e44f e0bc 4ead 0ebd 48be c4bd
00000060: 6cb4 9bbb 7977 8fbd 7576 a5bd ebaf eebb
00000070: 6d4c 0ebc a5a6 b3bb def6 94bc f57a b33c
00000080: 654a 25bd 34cc 39bc 9366 acba bff0 4fbc
00000090: 675e bbbb fdc9 a8bb 1aa5 4fbb 1275 00be
000000a0: 47fc edbd e84e a03b 7a6e 0abb cebe 0ebe
000000b0: c3bf d8bd b1e3 dbbd 6a9c dbbd c862 bfbb
000000c0: 6b44 2fbd a046 eebd 074e 85bd 9c5f d2bd
000000d0: 2818 2bbc b98c acbb c4cb 7ebb ea3a 09be
000000e0: 9d73 eebb a04a d1bc e059 a6bb 1cdd 9dbd
000000f0: b79f 6abd bd58 d9bd 402e a03b 3982 f5bc
00000100: 308a b8bb bc8d ddbb f7de bbbd f631 f4bd
00000110: c4a1 85bd 533e 29be c8d1 673c a84c c8bd
00000120: 72f7 5cbd 1c20 feb9 a585 e2bd 64c9 a5bb
00000130: 0e84 97bd e409 9bbd a229 ed3c 4083 70bc
00000140: 0c9e c4bd a420 c5bc d4e5 babd 1fe3 00bc
00000150: 4a19 90bd 7f74 65bb 15df 5b3c 48bc abbd
00000160: a940 92bc 1f88 84bb decf 59bc a6ab b8bd
00000170: 026e c2bd f746 a0bd b7de 30bd 5d81 98bc
00000180: fe05 e9bc 340e 373c 9532 14bd 8ba7 0dbe

convs.1.weight f4 [100, 1, 3, 50]
-0.050905555 -0.029577665 0.023826124 0.0046735452 0.016649412 0.04778342 -0.07049292 -0.11026449
-0.1084452 -0.051625613 -0.057786822 0.041803077 0.012301598 -0.10834507 -0.023467181 -0.022320542
0.037356075 0.008396617 0.11290152 0.099291615 -0.08017051 0.008087306 0.06927985 -0.06391216
0.04333616 -0.00603308 -0.027783195 -0.028113237 0.057197154 0.0016042611 0.02748618 -0.05120705
0.0305447 0.04753373 -0.021647777 0.08820635 -0.07429189 0.026126916 -0.030041922 0.013478251
-0.013830174 -0.028401235 0.019645926 0.005541348 0.09454696 -0.021707665 0.043017436 -0.049495928
-0.01760943 0.13820615 -0.022188365 0.06281202 -0.09754772 0.08154394 0.010790116 -0.058124404
-0.08384583 -0.12845172 -0.036650766 -0.02347031 -0.02684623 -0.020768179 -0.07011465 -0.12013814
-0.014892763 -0.09157534 0.058905777 -0.094229884 0.10052444 0.065067805 0.020132868 -0.0017536083
0.07033154 0.022893887 0.02926797 0.018413175 0.052039288 0.04344488 0.054959394 -0.04648875
0.04519307 0.016398598 -0.033306297 0.010620549 -0.04776084 -0.020278877 0.08381506 0.077616096
0.120638594 -0.03659777 -0.00757314 -0.0024260683 -0.037961736 0.058465436 -0.11150952 0.014956192
0.057328757 -0.058930006 0.07225394 0.108118646 0.06792414 0.00840109 -0.050568234 0.11975204
-0.013396753 -0.12047133 -0.13809502 -0.012326495 0.032841705 0.115000494 0.0051982016 -0.012996614
0.016327303 -0.062936075 -0.096786365 -0.03011448 -0.02423781 -0.022738311 0.023363901 0.060099557
0.0051553575 0.020881431 -0.015733926 0.0002782307 -0.06684955 -0.006834258 -0.06959287 0.0027098707
-0.031155441 -0.06888837 0.021470357 0.0035209584 -0.02471478 -0.021791188 -0.107677214 0.01202975
0.029167738 0.0871262 0.11516228 0.011302965 -0.015479234 -0.036451697 0.11790649 -0.09449925
-0.011005595 0.051082477 -0.075406656 0.07106299 -0.051458564 0.11784047 0.0077475593 -0.09833458
-0.008029134 0.027278168 0.09015532 0.040818457 -0.085004695 -0.10879282 -0.0895956 -0.113077044
0.08798273 0.06995937 0.11187706 -0.029140769 0.023368314 0.0074991914 0.0023239297 -0.06785835
-0.15480943 0.010911246 -0.0548637 -0.054893974 -0.0003043025 -0.057397354 0.05944642 -0.008597218
-0.03539184 0.047935203 -0.070316374 -0.06826618 -0.07436103 0.017404607 -0.031174326 0.03897043
0.017894449 0.11969654 0.017637389 0.032459613 -0.0024680332 -0.038861543 0.037150603 0.05726165
0.020508097 -0.07941962 0.033815883 -0.0096512 -0.039185356 0.016668186 0.008820773 0.024249103
-0.048894886 0.01622385 0.060320742 0.044662338 -0.03398097 -0.0057518655 0.032465845 0.023183584
-0.048543826 0.12404523 -0.14281702 -0.062519506 -0.1689522 0.022621684 0.027800068 -0.068168424
0.024166277 -0.03207845 0.0083078025 0.026731653 -0.03992614 -0.066013314 0.030749533 -0.17896916
0.018069258 -0.0051738843 0.016789064 -0.013759827 -0.06903068 0.07433717 -0.047093216 0.032124646
-0.09254493 0.07394951 -0.07835589 0.069069125 -0.11454156 0.052717257 -0.07177995 0.0035465867
-0.08450147 0.013034761 -0.017906753 0.03956157 -0.11009394 0.046420712 -0.12716416 0.007986463
0.031598926 -0.13681756 -0.07383695 -0.045041155 -0.03388175 -0.027147505 -0.0152688855 0.058884412
00000000: 5882 50bd dc4c f2bc 012f c33c 8a24 993b
00000010: 5964 883c 8cb8 433d 985e 90bd 59d2 e1bd
00000020: 8418 debd 6175 53bd e0b1 6cbd b439 2b3d
00000030: a48c 493c 05e4 ddbd 3f3e c0bc 92d9 b6bc
00000040: af02 193d f791 093c ea38 e73d 6759 cb3d
00000050: 7030 a4bd 9f80 043c 98e2 8d3d 61e4 82bd
00000060: 4281 313d 25b1 c5bb 9599 e3bc bb4d e6bc
00000070: 9047 6a3d 1246 d23a b32a e13c 7cbe 51bd
00000080: e138 fa3c bab2 423d ae56 b1bc 88a5 b43d
00000090: 5926 98bd 1d08 d63c 7a1a f6bc e2d3 5c3c
000000a0: f497 62bc b5a9 e8bc 7ef0 a03c 3294 b53b
000000b0: d6a1 c13d 46d4 b1bc 0d33 303d 3ebc 4abd
000000c0: a741 90bc ea85 0d3e 60c4 b5bc 97a3 803d
000000d0: 19c7 c7bd 8200 a73d 07c9 303c db13 6ebd
000000e0: 5db7 abbd d988 03be 1d1f 16bd cf44 c0bc
000000f0: a0ec dbbc 0722 aabc 4598 8fbd fc0a f6bd
00000100: c700 74bc da8b bbbd 2f47 713d 99fb c0bd
00000110: c2df cd3d 4542 853d afed a43c 55d9 e5ba
00000120: fc09 903d f68b bb3c 62c3 ef3c 3ad7 963c
00000130: 2627 553d 42f3 313d 1a1d 613d fd6a 3ebd
00000140: 5e1c 393d 5a56 863c 2f6c 08bd d001 2e3c
00000150: dfa0 43bd e31f a6bc 3ba7 ab3d 30f5 9e3d
00000160: 5e11 f73d 8be7 15bd 1a28 f8bb acfe 1ebb
00000170: c47d 1bbd 7479 6f3d 1a5f e4bd d10a 753c
00000180: 8fd1 6a3d 9760 71bd e0f9 933d 4f6d dd3d
00000190: d01b 8b3d baa4 093c a320 4fbd 8f40 f53d
000001a0: 0e7e 5bbc acb9 f6bd c868 0dbe 11f5 49bc
000001b0: 0685 063d 6185 eb3d ad55 aa3b c0ef 54bc
000001c0: d6c0 853c a1e4 80bd ee37 c6bd a4b2 f6bc
000001d0: 5f8e c6bc b245 babc a765 bf3c f42a 763d
000001e0: 46ee a83b 890f ab3c 6fe4 80bc 7edf 9139
000001f0: 6be8 88bd e9f1 dfbb b586 8ebd 1698 313b
00000200: b239 ffbc 5915 8dbd 9ae2 af3c e1bf 663b
00000210: a676 cabc 6f83 b2bc df85 dcbd 6e18 453c
00000220: 2ef1 ee3c 396f b23d 34da eb3d 1230 393c
00000230: 9d9c 7dbc 604e 15bd f578 f13d d388 c1bd
00000240: d050 34bc dc3b 513d ce6e 9abd 7989 913d
00000250: 37c6 52bd 5856 f13d 3ddf fd3b a463 c9bd
00000260: a18c 03bc 7776 df3c 5aa3 b83d 4131 273d
00000270: f116 aebd c5ce debd e67d b7bd f094 e7bd
00000280: 4a30 b43d dc46 8f3d cd1f e53d 9fb8 eebc
00000290: e86e bf3c c7bb f53b 124d 183b 52f9 8abd
000002a0: 5d86 1ebe 15c5 323c c2b8 60bd 81d8 60bd
000002b0: ca8a 9fb9 7d19 6bbd 177e 733d 59db 0cbc
000002c0: 09f7 10bd b457 443d 0802 90bd 24cf 8bbd
000002d0: 984a 98bd 1b94 8e3c 4d61 ffbc 759f 1f3d
000002e0: 6197 923c 7623 f53d 497c 903c 5ff4 043d
000002f0: babe 21bb 482d 1fbd 3b2b 183d 318b 6a3d
00000300: 9900 a83c c1a6 a2bd 8682 0a3d 1120 1ebc
00000310: d380 20bd b88b 883c 0185 103c 0ea6 c63c
00000320: 0146 48bd e1e7 843c e212 773d dbef 363d
00000330: a12f 0bbd 257a bcbb e8fa 043d 80eb bd3c
00000340: e4d5 46bd 6d0b fe3d a03e 12be 3a0a 80bd
00000350: ce01 2dbe 1c51 b93c f8bc e33c e39b 8bbd
00000360: 5bf8 c53c b164 03bd 731d 083c 57fc da3c
00000370: 9889 23bd fd31 87bd 72e6 fb3c b143 37be
00000380: fb05 943c b089 a9bb 3889 893c e670 61bc
00000390: f55f 8dbd 163e 983d d1e4 40bd 2295 033d
000003a0: 3288 bdbd d772 973d 0e79 a0bd 1d74 8d3d
000003b0: c494 eabd 0dee 573d 5e01 93bd da6d 683b
000003c0: 1b0f adbd c08f 553c 2fb1 92bc 500b 223d
000003d0: ee78 e1bd a523 3e3d 5237 02be a7d9 023c
000003e0: e06d 013d e719 0cbe d437 97bd 137d 38bd
000003f0: 97c7 0abd 7264 debc 592a 7abc c830 713d

convs.1.bias f4 [100]
-0.0777916 -0.061055858 -0.086273134 -0.013720098 -0.049902994 -0.10901839 -0.11392302 0.0007279226
-0.023676537 -0.011325273 -0.02555623 -0.09691747 -0.014781231 -0.032691255 -0.0044627455 -0.010753899
-0.015334575 -0.013495088 -0.0548179 -0.069580674 -0.02903661 -0.088220306 -0.027535878 -0.055331543
-0.02492787 0.0019256051 -0.096676536 -0.060217626 -0.04108313 -0.072190896 -0.08821385 -0.075693786
-0.01802895 -0.06593166 -0.04157214 -0.02402139 -0.07624093 -0.062890895 -0.053601753 -0.09420053
-0.04956181 -0.055852614 -0.0015282391 -0.1023493 -0.010769886 -0.010995855 -0.06320549 -0.0033532379
-0.11533504 -0.06206478 -0.008182074 -0.04654193 -0.03646543 -0.096604206 -0.026476413 -0.012668799
-0.06128151 -0.02078149 -0.06980955 -0.014527612 -0.019118728 -0.09656679 -0.07158348 -0.09745104
-0.10000066 -0.04888351 -0.0089034615 -0.007903848 -0.11044191 -0.072976306 -0.09368584 -0.10917193
-0.08889456 -0.08033951 -0.0090475865 -0.0077082813 -0.007457836 -0.056571346 -0.0937076 -0.0067621684
-0.012018027 -0.009454771 -0.111967534 -0.07473986 -0.059465908 -0.10290081 -0.097532585 -0.06651165
-0.066073835 -0.01010731 -0.04061612 -0.061392922 -0.00799074 -0.10037628 -0.008761775 -0.06599884
-0.0025874937 -0.06390088 -0.016122423 -0.0025806222
00000000: 3451 9fbd b515 7abd f8af b0bd 43ca 60bc
00000010: 1567 4cbd 0945 dfbd 7950 e9bd 0fd2 3e3a
00000020: 4cf5 c1bc a38d 39bc 4d5b d1bc ab7c c6bd
00000030: fa2c 72bc 44e7 05bd 393c 92bb 1f31 30bc
00000040: df3d 7bbc 801a 5dbc bc88 60bd 5080 8ebd
00000050: 2fde edbc d9ac b4bd ec92 e1bc 54a3 62bd
00000060: 8835 ccbc 9664 fc3a 59fe c5bd c2a6 76bd
00000070: c946 28bd d2d8 93bd 77a9 b4bd 5805 9bbd
00000080: 73b1 93bc 2e07 87bd 8c47 2abd 82c8 c4bc
00000090: 3424 9cbd f1cc 80bd 838d 5bbd 35ec c0bd
000000a0: 5301 4bbd b6c5 64bd 324f c8ba 839c d1bd
000000b0: 2d74 30bc f527 34bc e171 81bd ffc1 5bbb
000000c0: c734 ecbd a437 7ebd 1b0e 06bc c0a2 3ebd
000000d0: c65c 15bd 6dd8 c5bd 10e5 d8bc cb90 4fbc
000000e0: 5202 7bbd f13d aabc 4ff8 8ebd 3905 6ebc
000000f0: e19e 9cbc cfc4 c5bd 5c9a 92bd 6994 c7bd
00000100: 25cd ccbd 133a 48bd d3df 11bc 247f 01bc
00000110: 5e2f e2bd 9a74 95bd 5dde bfbd 8895 dfbd
00000120: 5a0e b6bd 0b89 a4bd 543c 14bc c095 fcbb
00000130: dd60 f4bb 5bb7 67bd c5e9 bfbd 2e95 ddbb
00000140: 42e7 44bc 2fe8 1abc 3c4f e5bd 3611 99bd
00000150: 8692 73bd a9bd d2bd 2abf c7bd 4337 88bd
00000160: b851 87bd 2199 25bc 175d 26bd 2577 7bbd
00000170: 98eb 02bc 1492 cdbd 8c8d 0fbc 662a 87bd
00000180: f192 29bb 77de 82bd 2c13 84bc a81f 29bb

convs.2.weight f4 [100, 1, 4, 50]
-0.03933526 0.036646325 -0.14118728 -0.00014335236 0.060315564 -0.05677471 -0.07177398 0.0010614782
-0.042876817 -0.014244114 0.018639728 0.0046670344 -0.04243665 -0.05235753 -0.017478442 0.0621973
0.1033311 -0.038721297 -0.0935965 -0.050804015 0.026706558 0.048113726 -0.012052344 -0.012771578
0.0940157 0.017830918 0.09613595 -0.10976497 -0.11669949 -0.01821223 0.019555563 -0.027421214
-0.074178725 -0.14592855 -0.09292079 0.009363027 0.022659117 0.087810144 -0.046840575 0.018752828
0.018983264 0.06712285 0.00037137576 -0.044992983 -0.064064674 -0.09455817 0.05502858 -0.011286398
-0.073664 -0.025505133 0.007224418 -0.036106728 -0.005611826 0.030795744 0.040702086 -0.11301503
-0.12236952 -0.015223975 -0.03172639 -0.02674197 0.060902387 -0.07981669 -0.064732365 -0.0013887887
-0.009162318 0.022659516 0.0036871526 0.02345969 -0.0075941235 0.04384611 -0.015385123 0.009305491
-0.053240005 0.035385404 0.011818284 0.1175614 -0.0029674105 -0.08707907 0.0066891285 0.12258397
0.0090139555 -0.024268128 -0.1746629 0.033302464 -0.075404346 -0.0066040168 0.022376169 0.011516389
0.050301578 -0.013454431 0.11614766 0.018180855 0.085778005 -0.07433311 -0.09604735 -0.068657756
0.0128948735 -0.013395031 -0.023436401 -0.013612325 0.09577901 -0.055191845 -0.1241816 0.04622113
-0.0061072237 -0.03895709 -0.100355335 -0.114271544 0.052561235 0.13718185 0.027700093 0.030693864
-0.064819396 0.0277285 -0.025465736 0.04044541 0.08741903 0.03068319 0.07521938 -0.073642835
-0.044575546 0.021323154 -0.0034925893 0.09258402 0.023558106 -0.030866567 0.024450818 0.053223267
-0.035595413 0.06979759 -0.03617122 -5.0379593e-05 0.0075328066 -0.045507412 -0.08529586 -0.03520706
-0.114083976 0.037228983 0.028862825 0.0037253436 0.031972155 0.011869653 0.003450571 -0.17800957
-0.048875667 -0.047786947 -0.09203999 0.05740727 0.023098301 -0.064886086 0.059855554 0.009235237
-0.09823198 -0.020746892 0.007643261 -0.021528859 0.03779225 -0.0049999915 0.015976487 0.048045836
0.04644941 0.068274684 0.018253831 -0.012277774 -0.06737229 0.046121463 0.041331593 0.07794228
0.10039962 -0.0065171923 -0.09741129 -0.012184054 0.042787682 -0.14262868 0.03870329 0.046043333
-0.0023823061 -0.036827773 -0.11113499 -0.014842384 -0.050528284 -0.032013383 -0.031740323 -0.00056688866
0.047585383 0.055373702 -0.056922738 0.02162719 -0.051344953 0.033655062 0.007074015 -0.0018894791
0.010463786 0.07769236 0.0019820062 0.051755205 0.013574097 0.015045637 0.046851918 0.01602111
0.048056487 -0.1323996 -0.053652804 0.08861762 -0.019841805 -0.018821746 -0.11361634 -0.0013418943
-0.09263376 -0.020718377 -0.0010539591 0.122128665 0.018441973 0.013333164 0.004758756 0.04245242
0.010148872 0.0009805871 -0.08990892 -0.08358321 -0.05737925 0.017289516 0.009991159 -0.034016017
-0.0787712 0.05348929 -0.05572059 0.11459715 0.025163911 -0.021175297 -0.040084302 0.06588165
-0.024955785 -0.07372309 0.04880658 0.083239004 0.014228261 -0.05480285 0.047422945 -0.040415574
0.045986477 0.06669701 -0.009988194 0.043654133 -0.02390259 0.054441474 -0.0142649505 0.020310182
0.045050323 0.03275982 0.016575128 -0.15191984 -0.1215474 -0.03293565 -0.061919626 0.03299442
00000000: 021e 21bd 751a 163d 6693 10be db50 16b9
00000010: 740d 773d 998c 68bd 3dfe 92bd 4c21 8b3a
00000020: 9a9f 2fbd 2560 69bc 58b2 983c eced 983b
00000030: 0dd2 2dbd d974 56bd f32e 8fbc 99c2 7e3d
00000040: 419f d33d 399a 1ebd 86af bfbd df17 50bd
00000050: b6c7 da3c e612 453d 3277 45bc e13f 51bc
00000060: 4e8b c03d 2512 923c ede2 c43d 75cc e0bd
00000070: 2400 efbd d131 95bc fd32 a03c 74a2 e0bc
00000080: 04eb 97bd 4b6e 15be 414d bebd 6267 193c
00000090: 9d9f b93c ced5 b33d e7db 3fbd 889f 993c
000000a0: ca82 9b3c b477 893d 36b5 c239 904a 38bd
000000b0: 5734 83bd b7a7 c1bd a665 613d 96ea 38bc
000000c0: 27dd 96bd 24f0 d0bc d0ba ec3b a6e4 13bd
000000d0: 69e3 b7bb 5b47 fc3c 3bb7 263d 6d74 e7bd
000000e0: df9c fabd fb6d 79bc 88f3 01bd fa11 dbbc
000000f0: c874 793d ef76 a3bd 6792 84bd 0408 b6ba
00000100: 8c1d 16bc 73a0 b93c 28a4 713b 892e c03c
00000110: 20d8 f8bb fb97 333d e211 7cbc 0f76 183c
00000120: 3112 5abd 49f0 103d 7aa1 413c 08c4 f03d
00000130: e378 42bb 8356 b2bd 7a30 db3b 4e0d fb3d
00000140: 45af 133c f4cd c6bc d5da 32be 2a68 083d
00000150: 986d 9abd 8266 d8bb 3a4e b73c 3daf 3c3c
00000160: 0709 4e3d f96f 5cbc d3de ed3d 04f0 943c
00000170: 61ac af3d f53b 98bd 79b4 c4bd 709c 8cbd
00000180: 0545 533c d576 5bbc b2fd bfbc 3b06 5fbc
00000190: c927 c43d d810 62bd ec52 febd 5e52 3d3d
000001a0: 1b1f c8bb 7891 1fbd 1987 cdbd 3307 eabd
000001b0: 734a 573d 6679 0c3e 4eeb e23c b371 fb3c
000001c0: 08c0 84bd e126 e33c 859d d0bc 16aa 253d
000001d0: c008 b33d 505b fb3c 9e0c 9a3d 0ed2 96bd
000001e0: d994 36bd e5ad ae3c ede3 64bb b19c bd3d
000001f0: eefc c03c e2db fcbc 154d c83c a400 5a3d
00000200: 7fcc 11bd 0af2 8e3d 4628 14bd ad4e 53b8
00000210: c3d5 f63b fb65 3abd 99af aebd 4735 10bd
00000220: dca4 e9bd 6b7d 183d bb71 ec3c e524 743b
00000230: 3cf5 023d ef78 423c fa22 623b 2448 36be
00000240: da31 48bd 3fbc 43bd 767f bcbd e323 6b3d
00000250: a638 bd3c ffe2 84bd 192b 753d 644f 173c
00000260: d92d c9bd 63f5 a9bc 5274 fa3b 4a5d b0bc
00000270: 0ccc 1a3d f8d6 a3bb 1fe1 823c b6cb 443d
00000280: bd41 3e3d 99d3 8b3d 0f89 953c b728 49bc
00000290: 7cfa 89bd dce9 3c3d 514b 293d 34a0 9f3d
000002a0: 519e cd3d 2c8e d5bb 927f c7bd a09f 47bc
000002b0: 2342 2f3d 410d 12be 5787 1e3d ef97 3c3d
000002c0: 7720 1cbb b8d8 16bd be9a e3bd 782d 73bc
000002d0: bff6 4ebd 7720 03bd 2402 02bd 419b 14ba
000002e0: e4e8 423d 89cf 623d d127 69bd 812b b13c
000002f0: 164f 52bd e4d9 093d 24cd e73b 66a8 f7ba
00000300: 4d70 2b3c 2c1d 9f3d 8ce4 013b 44fd 533d
00000310: e465 5e3c fa81 763c cce7 3f3d b43e 833c
00000320: e1d6 443d c393 07be 0bc3 5bbd 287d b53d
00000330: 488b a2bc 1030 9abc afaf e8bd 80e2 afba
00000340: c5b6 bdbd 96b9 a9bc 0025 8aba 981e fa3d
00000350: 9f13 973c 5873 5a3c 57ef 9b3b 97e2 2d3d
00000360: 7447 263c 0b87 803a 2b22 b8bd ad2d abbd
00000370: 8106 6bbd bea2 8d3c f5b1 233c 6154 0bbd
00000380: cb52 a1bd 9617 5b3d 463b 64bd e9b1 ea3d
00000390: 8c24 ce3c d177 adbc 702f 24bd f5ec 863d
000003a0: 1370 ccbc 22fc 96bd 69e9 473d 3679 aa3d
000003b0: a71d 693c f478 60bd 903e 423d cd8a 25bd
000003c0: 515c 3c3d 7198 883d 86a5 23bc adce 323d
000003d0: 5dcf c3bc 06fe 5e3d 8ab7 69bc 8a61 a63c
000003e0: b086 383d 292f 063d 90c8 873c e090 1bbe
000003f0: d8ed f8bd 88e7 06bd 6f9f 7dbd 2825 073d

convs.2.bias f4 [100]
-0.027767751 -0.09454995 -0.088254645 -0.08863394 -0.0022894808 -0.031605676 -0.012290755 -0.057116996
-0.0063983924 -0.04445547 -0.030573294 -0.006479593 -0.086609155 -0.010810623 -0.04221788 -0.04405296
-0.08333209 -0.03375841 -0.004093318 -0.034029026 -0.018697426 -0.047580224 -0.036238685 -0.09200916
-0.011394195 -0.036720846 -0.055813555 -0.07211039 -0.053909015 -0.0059997938 -0.023674875 -0.0413365
-0.07548411 -0.09088221 -0.007492553 -0.07396018 -0.0650538 -0.05991639 -0.021724585 -0.06879962
-0.013677145 -0.040529087 -0.011979681 -0.06820187 -0.006273925 -0.0525426 -0.043912675 -0.030409083
-0.09338232 -0.103450425 -0.031916287 -0.1025882 -0.007804111 -0.084839985 -0.033588246 -0.004169735
-0.04780325 -0.033328604 -0.010743429 -0.046183925 -0.009256188 -0.08833373 -0.08305573 -0.05404676
-0.09044023 -0.08322742 -0.03982011 -0.0427544 -0.019897915 -0.044330906 -0.008960893 -0.00078624923
-0.029599752 -0.005971491 -0.0023773976 -0.0028457448 -0.06966295 -0.023924058 -0.024441235 -0.0926358
-0.008309501 -0.0045673116 -0.026035551 -0.0077816322 -0.027867407 -0.0023178067 -0.008246118 -0.037884094
-0.017265908 -0.0117218755 -0.10196314 -0.01178113 -0.087536275 -0.10343787 -0.044402286 -0.0406998
-0.026955249 -0.009765959 -0.06946144 -0.0051549897
00000000: 3279 e3bc 67a3 c1bd dabe b4bd b685 b5bd
00000010: 1d0b 16bb f474 01bd 2a5f 49bc 83f3 69bd
00000020: 9ba9 d1bb f016 36bd d874 fabc c452 d4bb
00000030: 2460 b1bd 0a1f 31bc a8ec 2cbd e070 34bd
00000040: 04aa aabd 4246 0abd 3d21 86bb 0562 0bbd
00000050: 582b 99bc 7be3 42bd 046f 14bd 4c6f bcbd
00000060: b8ae 3abc 9968 16bd c19c 64bd 9dae 93bd
00000070: b3cf 5cbd eb99 c4bb d0f1 c1bc 7650 29bd
00000080: 6a97 9abd 7420 babd 1784 f5bb 6f78 97bd
00000090: ed3a 85bd e36a 75bd c2f7 b1bc d1e6 8cbd
000000a0: 1b16 60bc d401 26bd 6d46 44bc 6cad 8bbd
000000b0: 7f95 cdbb e936 57bd c7dd 33bd 781c f9bc
000000c0: 3b3f bfbd d1dd d3bd a7ba 02bd c319 d2bd
000000d0: a1b9 ffbb 96c0 adbd d493 09bd 46a2 88bb
000000e0: 57cd 43bd 9383 08bd 3505 30bc 5b2b 3dbd
000000f0: 44a7 17bc 51e8 b4bd 1f19 aabd 2360 5dbd
00000100: ba38 b9bd 2373 aabd 691a 23bd 3d1f 2fbd
00000110: f400 a3bc 5394 35bd b6d0 12bc 4b1c 4eba
00000120: 2e7b f2bc 7fac c3bb 1dce 1bbb ad7f 3abb
00000130: 73ab 8ebd 63fc c3bc fc38 c8bc d7b7 bdbd
00000140: 9324 08bc 63a9 95bb 8248 d5bc 10fd febb
00000150: 304a e4bc 58e6 17bb ba1a 07bc 5a2c 1bbd
00000160: 3c71 8dbc 1c0d 40bc 0dd2 d0bd a405 41bc
00000170: 3846 b3bd 3cd7 d3bd 2cdf 35bd d5b4 26bd
00000180: 41d1 dcbc 6701 20bc cd41 8ebd 30eb a8bb

fc.weight f4 [2, 300]
0.047936 -0.019736687 -0.0005804439 0.15757713 -0.14175765 -0.07709146 -0.07625679 -0.03935682
0.10100901 -0.09831446 0.029610766 0.14060812 0.014775753 -0.10133936 -0.11050471 0.1304506
-0.14797992 0.029448375 -0.14162737 -0.101373754 -0.121586666 -0.17891334 -0.15155435 -0.106554165
0.09843586 -0.07566149 0.11447311 -0.17858472 0.17749116 0.018988365 0.18622309 0.08138574
0.1723588 0.100552894 -0.14831589 -0.14119177 -0.07114791 0.078332424 -0.07775575 -0.1301593
0.106200404 0.053400192 -0.10838996 -0.11919365 0.12897666 -0.1189462 0.1479934 0.19643071
-0.13375574 -0.1642681 0.10959819 0.1696058 -0.10069122 0.11865329 0.14381717 -0.12438765
0.13064282 -0.16207099 -0.14453949 -0.048713684 0.038665652 -0.33729926 0.09370079 -0.22898464
0.1341971 -0.1448249 -0.07894075 -0.17006506 -0.14815806 -0.09083716 0.13812907 -0.1485579
0.09945148 0.13277003 -0.10107062 -0.13260967 -0.15676978 0.059776492 0.08365161 -0.12629814
0.13685715 0.0867769 0.08445077 -0.06764443 0.08674163 -0.08522272 0.13720298 -0.17629041
-0.07647494 0.064647235 -0.05051962 -0.16059177 -0.20274214 -0.0587441 -0.11773647 -0.07346008
0.11731463 0.04602926 0.07099431 -0.11105809 0.14699441 -0.10790522 0.16565982 0.1645271
0.083654955 0.19674565 -0.15420197 0.1233504 -0.19146456 -0.19502252 0.14849971 0.118062325
-0.18406968 -0.19462748 -0.064176254 -0.1582772 0.19750522 -0.06428664 0.08954438 -0.17405921
-0.1408301 0.11258366 0.1273318 0.20381175 -0.18271258 0.081385665 -0.21319158 -0.18268283
0.13006456 -0.179949 -0.15609334 -0.21924008 -0.16625687 0.118074544 -0.22748877 -0.21268731
-0.16616647 0.11000947 -0.15429513 0.09376448 0.15159559 0.09161769 0.10635275 0.14559591
-0.1770838 0.19535524 -0.13683921 -0.18091051 -0.23767003 -0.17808208 -0.14860353 -0.15269959
-0.15176119 -0.16325563 0.12389754 -0.13877036 -0.13148428 0.16031589 0.19955276 0.11875679
-0.11654695 -0.1284682 0.14865015 -0.17661642 -0.22083305 -0.17106129 -0.17253599 -0.15072854
-0.09714178 -0.22768871 -0.22007023 -0.19443132 0.15512864 0.1382405 -0.11636751 -0.09539536
0.1036431 -0.19272181 0.18654333 0.17229459 -0.13528092 -0.15086763 -0.21920353 -0.10279043
0.09703701 -0.1370779 -0.1533497 0.12767535 0.11884075 -0.21827911 0.1335401 -0.117245294
0.14266501 -0.21356197 0.13478568 0.10554339 -0.1630991 0.059935827 -0.13716713 0.15815358
0.15599994 -0.1483044 0.18229382 0.1198993 0.18414311 0.11699558 0.120414324 -0.22918554
0.19458462 -0.26680845 -0.23179102 0.13058206 0.20584875 0.19370304 0.18318072 0.15943313
-0.22810546 0.18446289 0.1778392 0.22985433 -0.21765345 -0.21645804 0.14190814 -0.18794954
0.1630994 -0.1401517 -0.16777575 0.20352751 -0.15773594 0.15431567 0.13298178 0.16814904
0.17610306 0.2204227 0.14636296 0.21881647 -0.2471421 0.17321004 -0.22413711 0.2199504
0.22332665 0.12782724 0.11845684 -0.21429624 0.14752398 0.24263993 0.20621209 0.1951009
0.12019634 -0.15331881 0.17120394 -0.21648496 -0.16254017 0.16486034 0.113590755 0.18974829
00000000: 8a58 443d d5ae a1bc ee28 18ba e65b 213e
00000010: eb28 11be 21e2 9dbd 852c 9cbd 9e34 21bd
00000020: d0dd ce3d 1759 c9bd 4792 f23c 93fb 0f3e
00000030: 0016 723c 038b cfbd 4b50 e2bd d894 053e
00000040: 0c88 17be b83d f13c c406 11be 0b9d cfbd
00000050: 6e02 f9bd 0f35 37be 1031 1bbe 1239 dabd
00000060: bd98 c93d 69f4 9abd e170 ea3d eade 36be
00000070: 3ec0 353e 7d8d 9b3c 44b1 3e3e 91ad a63d
00000080: d37e 303e adee cd3d 1fe0 17be 9394 10be
00000090: ffb5 91bd c06c a03d 683e 9fbd 7b48 05be
000000a0: 997f d93d 29ba 5a3d 8efb ddbd cd1b f4bd
000000b0: 7512 043e 119a f3bd 958b 173e 2225 493e
000000c0: 44f7 08be e635 28be 0475 e03d 25ad 2d3e
000000d0: 3337 cebd 7f00 f33d cf44 133e f4be febd
000000e0: 3bc7 053e f0f5 25be 2902 14be 0088 47bd
000000f0: e05f 1e3d 7db2 acbe 33e6 bf3d f37a 6abe
00000100: f76a 093e fb4c 14be b0ab a1bd 8925 2ebe
00000110: bfb6 17be d508 babd b571 0d3e 901f 18be
00000120: 38ad cb3d def4 073e 1dfe cebd d4ca 07be
00000130: 4288 20be 32d8 743d 8951 ab3d 4d54 01be
00000140: 4824 0c3e 16b8 b13d 86f4 ac3d 2a89 8abd
00000150: 99a5 b13d 4089 aebd f07e 0c3e 7985 34be
00000160: e59e 9cbd c565 843d a9ed 4ebd 2b72 24be
00000170: a39b 4fbe a79d 70bd d21f f1bd 3d72 96bd
00000180: a742 f03d 2d89 3c3d 7765 913d 6d72 e3bd
00000190: b485 163e 69fd dcbd baa2 293e cb79 283e
000001a0: 4a53 ab3d b177 493e 1fe7 1dbe 229f fc3d
000001b0: 490f 44be fcb3 47be 4f10 183e a9ca f13d
000001c0: c37c 3cbe 6d4c 47be d76e 83bd 6b13 22be
000001d0: cf3e 4a3e b7a8 83bd 0b63 b73d 943c 32be
000001e0: c435 10be 4392 e63d 4463 023e 07b4 503e
000001f0: 0219 3bbe 87ad a63d e54e 5abe 3511 3bbe
00000200: a52f 053e 8d44 38be efd6 1fbe 7980 60be
00000210: 3e3f 2abe 11d1 f13d d1f2 68be b4ca 59be
00000220: 8b27 2abe a54c e13d 8bff 1dbe 9707 c03d
00000230: e03b 1b3e 0ea2 bb3d 78cf d93d 1817 153e
00000240: 7555 35be 340b 483e 941f 0cbe 9b40 39be
00000250: c65f 73be 265b 36be 862b 18be 485d 1cbe
00000260: 4967 1bbe 7c2c 27be febd fd3d d119 0ebe
00000270: d1a3 06be d929 243e 8f57 4c3e c336 f33d
00000280: 2bb0 eebd 2b8d 03be bf37 183e efda 34be
00000290: 0f22 62be b12a 2fbe 46ad 30be 9558 1abe
000002a0: 45f2 c6bd 3b27 69be 175a 61be 0119 47be
000002b0: 0bda 1e3e eb8e 0d3e 1752 eebd a45e c3bd
000002c0: d542 d43d de58 45be 3705 3f3e fe6d 303e
000002d0: 1587 0abe 0b7d 1abe e476 60be ca83 d2bd
000002e0: 57bb c63d 265e 0cbe b407 1dbe 54bd 023e
000002f0: c762 f33d 8f84 5fbe bcbe 083e 4d1e f0bd
00000300: c716 123e fdaf 5abe 4205 0a3e 2227 d83d
00000310: 7303 27be 457f 753d 8a75 0cbe 03f3 213e
00000320: 73be 1f3e 1cdd 17be 3bab 3a3e c48d f53d
00000330: 0390 3c3e 619b ef3d c99b f63d 9daf 6abe
00000340: 3141 473e 1e9b 88be a05a 6dbe 4eb7 053e
00000350: 04ca 523e 175a 463e ba93 3b3e 7042 233e
00000360: 7a94 69be d7e3 3c3e 7b1b 363e ef5e 6b3e
00000370: 8ce0 5ebe 2da7 5dbe 5e50 113e d875 40be
00000380: 8703 273e ed83 0fbe 68cd 2bbe 8469 503e
00000390: 8885 21be ed04 1e3e 602c 083e 432f 2c3e
000003a0: 5c54 343e 7db6 613e 2ce0 153e 6d11 603e
000003b0: d212 7dbe f95d 313e 3384 65be ad3a 613e
000003c0: beaf 643e 25e5 023e 8099 f23d 7970 5bbe
000003d0: 8710 173e 9a76 783e 4329 533e 88c8 473e
000003e0: 8029 f63d 9bff 1cbe 1650 2f3e 3cae 5dbe
000003f0: ee70 26be 26d1 283e 45a2 e83d 604d 423e

fc.bias f4 [2]
-0.023422446 -0.06874966
00000000: 6ee0 bfbc 9fcc 8cbd
