results/mlp/mlp_hidden_100_length_64_batch_128_lr_0.001.pth (torch, 74160 bytes, 4 tensors)

fc1.weight f4 [100, 50]
000000 d9 bb e2 3d 4d 3b 9e bd fe 9c 1e bd cf 3b e5 3c
       0.11070985 -0.077261545 -0.03872394 0.02798262
000010 76 f5 00 3d 9b 9f ed bd c1 32 be 3d 18 de d0 bd
       0.03148409 -0.11602708 0.09287024 -0.10198611
000020 7a 0f c4 3d 9c 96 3c 3d d8 3b ad 3d 08 13 a8 bd
       0.095732644 0.04604207 0.0845868 -0.08206755
000030 62 b9 65 bd f5 3f 01 3e 3b 02 1a 3e c1 fd 09 be
       -0.056084998 0.12622054 0.15039913 -0.13475706
000040 1a ac 38 3d 9d c8 9f 3d de 50 60 be 10 4a fb 3d
       0.045086004 0.07801936 -0.21905848 0.12269986
000050 96 cf bb 3d 77 a0 b6 bd ee 26 51 bd d8 52 08 be
       0.09170453 -0.08917325 -0.051062517 -0.13312852
000060 7b 2b 18 3e 70 eb 5e 3d cd 23 f4 bd 0e 7b d1 3d
       0.14860336 0.05442375 -0.11920891 0.10228549
000070 75 94 f5 bc 82 0c e7 bd 88 34 eb bd a2 5c 75 bd
       -0.029978016 -0.112816826 -0.11484629 -0.059902795
000080 4b 86 f1 bb e6 cb 55 bd 61 c5 96 bd 29 9f 0d 3e
       -0.0073707453 -0.052196406 -0.07361866 0.13830246
000090 e5 8d e7 ba 7f d3 bd 3d e1 e7 54 be ec b5 dd bc
       -0.0017666189 0.09268855 -0.2079158 -0.027064286
0000a0 53 89 bb bd 63 35 c6 bd f4 9e 3a be 27 27 8f bd
       -0.09157052 -0.096781515 -0.18224698 -0.069898896
0000b0 1d 35 e9 3d 2d 8e 1b bd b3 be d7 bd e0 ec 13 be
       0.11387084 -0.037977386 -0.1053442 -0.1444583
0000c0 e4 ce 36 be cd ff 1a be 20 da 2f 3e 71 0c 9d 3d
       -0.1785236 -0.15136643 0.17173052 0.07668389
0000d0 5f 89 b8 bd 31 80 f2 bd 7e 49 17 be e0 f2 2d 3d
       -0.090105765 -0.11840857 -0.14774129 0.04246795
0000e0 59 ac 05 3e 7c 91 fb 3d ea 5b 96 3b 6e ba 0b be
       0.13054027 0.12283608 0.0045885937 -0.13645336
0000f0 6f e0 e2 3c 07 d2 25 bd 18 4e f8 bd be 3f d5 3d
       0.027694909 -0.0404835 -0.1212427 0.104125485
000100 ab 80 22 3d cc a2 c0 3d 84 67 64 3d d7 e6 38 bd
       0.03967349 0.09406051 0.055762783 -0.04514202
000110 1f e4 a6 bd 99 8e 8f bb 38 e2 d3 3c 91 33 c8 3a
       -0.081489794 -0.0043810126 0.025864705 0.0015274157
000120 c3 2e f7 bd 4e f9 7d be e1 c9 28 3e 43 9d 5a bd
       -0.12069466 -0.24802133 0.1648326 -0.053372633
000130 7a a0 19 be d0 60 2f bd 0c 1f 03 be db c4 b1 bd
       -0.15002623 -0.042816937 -0.12804812 -0.08680125
000140 39 82 3b 3e ba 86 67 bc 2e ef ee bd 4e dc 79 3d
       0.18311395 -0.014131242 -0.11666714 0.061001115
000150 fd f1 ad bd 17 a7 09 be c8 94 dd 3d 2f 1d c1 3b
       -0.08493421 -0.13442646 0.108193934 0.0058933715
000160 65 c5 1f 3e 77 20 28 3d 97 d0 5d 3e 5d 61 5f 3e
       0.15602644 0.041046586 0.21661602 0.21814485
000170 14 e4 d7 bd 82 9a 62 3d 9d 7d e9 3d 17 63 44 be
       -0.10541549 0.05532313 0.11400912 -0.19178425
000180 0f 80 fd bd 25 93 bd 3d 34 c4 82 3c cf d1 e4 bd
       -0.12377941 0.09256581 0.015962698 -0.1117283
000190 cc d6 d2 3d 3d 3e e6 3d de 33 82 3d 28 97 2a 3e
       0.102948755 0.1124234 0.06357549 0.16659224
0001a0 04 13 68 3e b6 46 13 be 17 cb 95 bd bd f2 d8 bd
       0.22663504 -0.14382443 -0.07314127 -0.10593174
0001b0 10 5b fc 3c 7f 82 da bd e1 c0 ab bd af 77 58 bd
       0.03080514 -0.106694214 -0.08386398 -0.052848514
0001c0 d8 1a 9e bd 31 80 8e bc 6b 0a 31 3d ee 91 e8 3d
       -0.07719964 -0.01739511 0.043222826 0.11355959
0001d0 61 6b af 3d 20 b5 85 bd 73 6a 62 be 50 50 8a 3d
       0.08565403 -0.065286875 -0.2211092 0.067536
0001e0 9e db 85 be 2e 12 de bd 39 49 4a 3d f2 09 93 3d
       -0.26144117 -0.10843311 0.049386237 0.07179631
0001f0 fb e6 b5 bd 84 a0 7f bd 97 68 bd 3d ca f5 38 3c
       -0.08881947 -0.06240894 0.092484646 0.011289069
000200 ee 6d 16 bd a0 4e 79 3d 3c fd 18 3e 96 5e 6b 3d
       -0.03672593 0.060866 0.14940351 0.05746325
000210 f9 6e 09 be a1 c6 63 3c 4c 08 d3 3d 1d 36 b0 3c
       -0.13421239 0.013902337 0.10304317 0.021510178
000220 c0 07 06 3d 71 9a 9e bd 1e 7b b4 3a cc 11 e0 bd
       0.032722235 -0.07744301 0.0013769602 -0.109408945
000230 92 7b e9 3d f2 74 e3 bd e9 df 98 bd 11 10 33 3e
       0.11400522 -0.1110629 -0.074645825 0.17486598
000240 e8 36 59 3e bc 87 c7 bd ee cf fd 3b 3c 4d 24 bc
       0.21212351 -0.09742686 0.0077457344 -0.01002818
000250 87 22 51 be c6 43 2e bd 96 07 47 3d f2 8e 52 be
       -0.20423327 -0.042545103 0.04859122 -0.20562342
000260 8d 90 9a 3d db 4f 3e bd 92 0c 5c 3e 3f de 30 be
       0.07547102 -0.046462875 0.2148917 -0.1727228
000270 cb 41 b2 bd 89 6d 0e 3e a9 99 b6 bd d9 04 35 3d
       -0.08703955 0.13908972 -0.08916027 0.044194076
000280 4f a0 db bd fa 57 eb 3d 9f b8 90 3d e9 e3 a4 3d
       -0.10723936 0.114913896 0.07066464 0.08051283
000290 0b 97 ca 3b fe 23 83 bc f4 82 b4 bd e5 2b d5 3d
       0.0061825565 -0.016008373 -0.0881404 0.10408763
0002a0 5d 31 33 3e 90 4a e8 b9 9b 42 c6 3a 21 3f cf bd
       0.174993 -0.00044306042 0.0015126051 -0.10119463
0002b0 c0 97 49 bd d8 a5 58 3e 22 ef b3 3d 22 f7 72 3d
       -0.049216986 0.21157014 0.08785845 0.059317715
0002c0 3e e7 46 bd ba 97 8e 3d b0 53 2f bd 06 8e 1c 3e
       -0.048560373 0.06962533 -0.04280442 0.15288553
0002d0 8d cc 02 3e cd c1 f4 bc c3 f2 09 3e b6 c8 a8 bc
       0.12773342 -0.029877568 0.13471512 -0.020603519
0002e0 40 72 2f be 19 45 4a 3e 51 4a b4 bd 25 fd 2a 3d
       -0.17133427 0.19752921 -0.08803237 0.041745324
0002f0 32 1b d5 bd 5c 90 59 3d fd 87 b2 bd ef 90 e1 bd
       -0.10405578 0.053116187 -0.08717344 -0.11013972
000300 49 38 8b 3e be 9f 33 3d b5 10 87 3d 43 22 9c 3d
       0.2719138 0.043853514 0.065949835 0.076237224
000310 55 b9 05 be c1 7d 03 be 93 f3 2b be 27 ce 80 bd
       -0.1305898 -0.1284094 -0.16792135 -0.062893204
000320 ce b0 ca 3d 1c bf 56 be 23 21 41 3a c3 2c 1b 3e
       0.09897004 -0.2097134 0.00073673035 0.15153794
000330 c6 74 10 3d bc 26 4a 3e aa 07 c4 3c cb 5e 0a 3d
       0.035267614 0.19741338 0.023929436 0.033781808
000340 11 0c b1 bb 9f e2 a5 3d 1b 5e e1 39 4c d9 07 be
       -0.0054030498 0.08099865 0.00042985458 -0.13266486
000350 7f 55 04 be ab 46 10 be d8 ca d5 3d c2 4f 10 3e
       -0.12923239 -0.14089458 0.1043908 0.14092925
000360 6b d6 09 3e 4f ca 02 bd 99 87 f1 bd d9 98 5d be
       0.134607 -0.031931218 -0.11793441 -0.21640338
000370 e3 3d dd bd 4a 30 fe bd 00 ac 5a bd fa 74 93 3d
       -0.108028196 -0.12411554 -0.05338669 0.07200046
000380 7e 4a 39 bd 71 fa a5 bd 39 c5 ca bc a5 78 54 bc
       -0.045237057 -0.081044085 -0.024752246 -0.012968217
000390 1f 91 26 3d 9b cf b7 bd 76 84 7b bd 5f 49 eb bd
       0.040665742 -0.089751445 -0.06140562 -0.11488604
0003a0 7c 9c 22 3e 94 2a f4 3c f2 94 c8 3d 66 64 b1 bd
       0.15880007 0.02980546 0.09794034 -0.086617276
0003b0 12 23 84 be aa 6f af 3d 00 28 61 bd 95 eb 49 3d
       -0.25808007 0.0856622 -0.054969788 0.049296934
0003c0 7f 78 f6 bd 23 9c 14 3d 74 43 99 3d d2 ce 5e 3d
       -0.120347016 0.036281716 0.07483569 0.054396458
0003d0 db af 0a 3e 4e 75 02 be 6b 72 fa bd 67 45 05 be
       0.13543646 -0.1274006 -0.12228855 -0.13014756
0003e0 c9 8e e4 3c 72 95 a3 bd 91 08 4f 3d 5f a5 50 3e
       0.027900117 -0.07987489 0.05054528 0.20375584
0003f0 c1 1b 2c be e0 85 b5 bd a8 f2 2f bd b5 d0 92 bd
       -0.16807462 -0.08863425 -0.042956024 -0.07168714

fc1.bias f4 [100]
000000 89 7a f1 bd 77 32 32 3d b5 b7 55 3d 3c 08 2b bb
       -0.1179095 0.04350516 0.05217715 -0.0026097437
000010 b4 01 ef bd 8f da e3 bd f0 7e e7 ba 71 05 51 3b
       -0.11670247 -0.11125671 -0.0017661732 0.0031894112
000020 db 87 1a bd 01 92 75 bd 92 62 88 3c 08 69 e8 bd
       -0.037727218 -0.059953693 0.016648564 -0.11348158
000030 7d b3 eb bd 8a 7d 3a 3d b1 bc a9 3d 96 5d 9a 3d
       -0.11508844 0.04552988 0.08287943 0.07537381
000040 c1 e1 ed 3d f9 3e ae bd db d6 12 bd 42 29 f5 bd
       0.11615325 -0.08508105 -0.035849433 -0.1197076
000050 e2 40 6e 3d 62 3a a8 3d 9f b7 02 3d eb bc 8f 3d
       0.058167346 0.08214261 0.031913396 0.07018455
000060 f4 38 1d bd 16 8e c1 3d bf ec 28 3d 25 2e 43 bc
       -0.038384393 0.09450929 0.041241404 -0.011912857
000070 10 21 9d 3d f2 2e dc bd 63 08 b5 bc 0b cb 34 bd
       0.07672322 -0.107511416 -0.022098726 -0.04413895
000080 84 cf 20 3d ca 36 58 bd ae ef 5c bd ee f6 ba 3d
       0.039260402 -0.052786626 -0.053939514 0.09129129
000090 c5 50 02 be c2 5e 9f 3d 51 0e 14 bd 36 92 db 3a
       -0.12726124 0.077817455 -0.036146466 0.0016751948
0000a0 5d 3e a5 3d a0 97 c7 bd c0 13 70 3c 19 cc 98 3d
       0.080685355 -0.09745717 0.014653146 0.074608035
0000b0 1f 14 21 3d 9e 9d fb 3c 3c 4a 25 3d f5 7a ce bd
       0.03932583 0.030714806 0.040354 -0.10082046
0000c0 82 a7 9c bc 7b 37 3b bd 43 dc ef bd 63 8e c3 bd
       -0.019122843 -0.045707207 -0.117119335 -0.095486425
0000d0 37 a6 0f bd 5c 1e 09 3e 70 54 1c bd b6 55 3d 3d
       -0.035070624 0.13390487 -0.038166463 0.04622432
0000e0 aa 30 cf bd 6e b1 03 bd 47 ed 69 bb 7b 40 4c bd
       -0.10116704 -0.032151632 -0.0035694407 -0.04986618
0000f0 4f 3a f8 bd 25 f5 a8 bd fa e2 28 3d c8 5e 40 3d
       -0.121204965 -0.082498826 0.041232087 0.04696539
000100 a2 ac cf 3d f2 be 11 bd c1 e7 2c 3d 1b 93 10 bb
       0.10140349 -0.03558249 0.042213205 -0.0022060338
000110 25 08 43 bd a0 bc ae 3d b3 07 88 3d da 23 88 bd
       -0.04761519 0.08532071 0.066420935 -0.06647463
000120 f9 82 b6 3d e2 db ec 3c 9d f2 11 bd 33 dd eb 3d
       0.089117 0.028913442 -0.035631765 0.115168
000130 4c 84 8c bd 05 60 9f bc 1b 21 f9 3b 55 44 fa bc
       -0.06861171 -0.019454965 0.0076028234 -0.030550161
000140 c5 d7 92 bd 5c 45 c5 3d 19 2b 05 be aa 4e 86 3d
       -0.07170061 0.0963237 -0.13004722 0.06557973
000150 20 4c 09 be 92 6a 85 bd 40 f6 9a 3d d7 78 83 bd
       -0.13407946 -0.06514467 0.075665 -0.06419533
000160 d6 24 98 bd 66 8b 00 3e a7 95 49 3d 79 ae c3 bd
       -0.07428901 0.12553176 0.049214985 -0.095547624
000170 72 f3 1e 3d 95 94 38 3d 94 8e ac bd 1b e8 f1 3d
       0.038806386 0.045063574 -0.08425632 0.11811849
000180 ca 6e 4e 3b 49 c3 60 3d 04 ff 89 bc ea b8 58 bc
       0.003149914 0.05487374 -0.016845234 -0.013227681

fc2.weight f4 [2, 6400]
000000 4a c8 a6 bd 1f 0b c7 3d 91 6e 24 bc d6 1e 1f 3d
       -0.08143671 0.09718918 -0.010036127 0.038847767
000010 84 bc 3f 3d 12 d8 3d 3d ab 9f 6c bb 33 fe 6c 3d
       0.046810642 0.04634864 -0.0036105912 0.05785961
000020 7a df da bd 35 86 e5 3c 27 38 07 be ea d8 93 bd
       -0.10687156 0.028018096 -0.13205014 -0.072191074
000030 c6 57 f1 3b f5 97 bf bd c2 ad b4 3d be d1 8e 3d
       0.0073651997 -0.093551554 0.08822204 0.06973599
000040 8d b2 ac bd 3e f2 a1 3c d5 95 70 3d 3f f7 49 3d
       -0.08432493 0.01976883 0.05873664 0.049308058
000050 53 ff 99 3a 64 d4 01 bd 3b 2d 45 bc 8a 46 80 3c
       0.0011749066 -0.031696692 -0.01203471 0.015658636
000060 77 64 2c 3d 0f 22 99 bd f8 c1 d1 bd 96 76 25 3d
       0.042088 -0.07477199 -0.10242075 0.040396295
000070 fa 51 07 bd 6e 48 c8 bc d0 af fd 3d 09 79 52 3d
       -0.033037163 -0.0244486 0.12387049 0.05138496
000080 33 1a 1b 3c 7e fc 45 3d 2b 4f d8 3d 91 a6 bd bc
       0.009466696 0.0483365 0.10561975 -0.023150714
000090 33 9c 96 3d 44 63 bf 3c 20 08 a7 bb 55 1f 44 3d
       0.073540114 0.023362763 -0.005097404 0.047881443
0000a0 ec 88 1b bd e6 5c da bc 94 f2 3d bd 42 7f 02 3c
       -0.037972376 -0.026655626 -0.04637392 0.007964911
0000b0 cc 57 a3 3d b7 f3 da bc cf de 14 3d 2f b7 8a bc
       0.0797573 -0.02672754 0.0363453 -0.016933052
0000c0 9f bd c4 bd 79 62 2b bd d4 5e cc bb 42 6f b2 3c
       -0.0960648 -0.041841958 -0.0062368903 0.021781567
0000d0 7c 15 54 be 06 e1 d8 3c d3 9a cd 3c 99 a2 66 bb
       -0.2071132 0.026474487 0.02509824 -0.003519213
0000e0 fc c6 14 bb 3c 74 81 bd c3 d9 a1 bd c8 9b 97 bc
       -0.0022701612 -0.06320998 -0.07902863 -0.0185069
0000f0 15 1b ea bc ac a8 79 bc 30 67 c9 bc 1c 10 26 3d
       -0.028577367 -0.015237968 -0.024585336 0.040542707
000100 47 93 de 3b 13 6d ba 39 27 95 af 3d 59 44 e8 bd
       0.006792459 0.0003555795 0.085733704 -0.11341161
000110 e1 71 f9 bd b9 ce 8b 3d a8 ea 1b bd bd 66 1c 3d
       -0.12179924 0.068265386 -0.038065583 0.038183916
000120 e7 a4 8e bd 94 07 36 bd f7 f0 2c be 3f d3 e6 bd
       -0.069650464 -0.04444082 -0.16888796 -0.11270761
000130 44 a0 7e 3d 21 8c 77 3e 59 1c d8 bd e2 4f 00 3e
       0.06216456 0.24174549 -0.10552282 0.12530473
000140 c2 c5 70 bd 54 c4 1f 3d f3 6c 85 bc 9f 6b ed bb
       -0.058782347 0.039005592 -0.016287303 -0.0072454954
000150 7d 85 8c bc b6 5a 8b 3c ee 22 c0 bc 1d 23 2f 3e
       -0.017153496 0.017011028 -0.023454156 0.17103238
000160 0c e4 7d ba 93 d5 e0 3d c0 d1 9f 3c 34 2d 0f 3e
       -0.0009685166 0.10978236 0.019509196 0.13982087
000170 ba 4d 64 3c 24 dd 2f bd fd be 5c 3d c2 ee 92 3d
       0.013934547 -0.042935506 0.053893078 0.07174446
000180 3e 63 7f bd 0c c1 eb bd fd bf ab bd 78 3b 38 3d
       -0.062350504 -0.1151143 -0.08386228 0.04497859
000190 cb ac 5f bd f2 63 3b 3d 23 0b 50 bd 5a 90 90 3c
       -0.054608148 0.045749612 -0.05079187 0.017646957
0001a0 11 b4 e8 bc ae c4 06 3e b0 61 70 39 18 17 81 3b
       -0.028406175 0.13160965 0.00022924575 0.0039395206
0001b0 5f be 9b bd d1 96 f2 bc 49 a3 2a be a3 b1 4e bb
       -0.0760467 -0.02961293 -0.16663851 -0.0031538985
0001c0 21 00 fa 3c ac 3a 18 bd a1 20 cb 3c ae a0 99 3d
       0.03051764 -0.03716533 0.024795832 0.0750135
0001d0 63 0b a7 bd e8 cb 52 3d ed dc 82 3d 6b 55 59 3c
       -0.08156469 0.05146399 0.063897945 0.013264994
0001e0 1f 33 fb bc ae fd 81 3d 2f 21 b5 bc 18 5b b8 3b
       -0.030664025 0.06347214 -0.02211055 0.0056260936
0001f0 71 07 91 3b b1 a9 68 bd 8d b0 b0 bd 9c ae a7 3c
       0.004425936 -0.056802455 -0.086274244 0.020469002
000200 48 51 bf 3c a4 39 40 bc d1 e7 3f 3d a8 8b 97 bb
       0.023354188 -0.011732493 0.046851937 -0.0046248026
000210 02 2c 56 3d 72 9b e0 bc d2 e0 9d 3d 0b ff 3c bd
       0.052288063 -0.027417872 0.07708897 -0.046141665
000220 79 99 24 3d ed 5c ac 3d e0 1b a2 3b 92 85 97 3d
       0.040185425 0.08416162 0.0049471706 0.073985234
000230 ae 8f e2 3c 45 c3 69 bd b5 2d 61 3d 0b 65 a0 bc
       0.027656402 -0.05707099 0.05497523 -0.019579431
000240 f3 b6 e9 3c 53 86 a8 bc 12 03 cf bb 14 4f 47 bd
       0.02852962 -0.020571863 -0.0063175047 -0.0486594
000250 b9 91 7d bd 37 28 d0 bd 72 de bc bd 6d 56 0b bd
       -0.06190655 -0.101639204 -0.092221156 -0.03401797
000260 fa 4a fc bd 63 8d 82 3d 3e fa 9a 3c 58 9a 16 ba
       -0.12318988 0.063746236 0.018918153 -0.0005745045
000270 56 92 c2 bc cb 56 fb bc 38 53 3b 3d b8 b5 09 bc
       -0.023751419 -0.030681035 0.04573366 -0.0084051415
000280 08 6d 4e ba cc 6f 0c bd 66 ac 56 3c fa 7c 63 3d
       -0.0007874523 -0.034286305 0.013102626 0.05553911
000290 5f d0 d8 3c 14 d6 8c 3c 00 f3 42 3d 58 b3 9c bd
       0.026466547 0.017191924 0.047595024 -0.076513946
0002a0 f9 82 86 bd 16 d6 8a 3c 27 3a 04 bd 4e c7 82 3d
       -0.0656795 0.016947787 -0.03228202 0.063856706
0002b0 c3 05 80 bc 28 9a 83 bc f2 27 64 bd 1f f9 89 bd
       -0.015627747 -0.016064718 -0.055702157 -0.06736969
0002c0 04 70 2a 3d c4 b8 0a 3e 6e 0e c3 bd 6d e2 7f 3d
       0.041610733 0.13547045 -0.095242366 0.062471796
0002d0 6e 7e d0 bb e5 1f 6f 3c fd 2b a7 3d 55 bb 74 bd
       -0.006362728 0.014595007 0.08162687 -0.059748966
0002e0 b6 43 b1 3b 2d df 2c bd 74 92 00 3c 47 76 f4 3d
       0.005409683 -0.042205025 0.007847417 0.11936622
0002f0 54 49 1a bc 17 13 eb 3d 18 e5 ba 3b b3 35 9c bd
       -0.009416897 0.114782505 0.0057035796 -0.0762743
000300 80 36 8c 3c b6 35 52 bd b8 dd ad 3d 97 92 81 bb
       0.017115831 -0.051320754 0.08489555 -0.0039542424
000310 d1 33 ef bc d8 5e ec bb c4 08 fb bd 61 fd d6 3c
       -0.029199513 -0.0072134547 -0.12257531 0.026243867
000320 eb 46 89 bd ee f9 45 3d 16 6a 14 bd f7 29 99 bd
       -0.0670298 0.048334055 -0.036233984 -0.07478707
000330 20 54 ff bb e3 80 33 bd 02 6c e1 bc 2d 85 cd ba
       -0.007792011 -0.043824088 -0.027517322 -0.0015679948
000340 43 63 88 bd 91 1c 26 3c e8 26 af bd 73 b5 f1 3c
       -0.06659558 0.010138647 -0.08552343 0.029505467
000350 66 87 b5 3d af cc bb bc 4f 3a 8e 3d 42 87 b1 3a
       0.08863716 -0.02292475 0.06944715 0.0013544338
000360 47 dd 3a bd 4c 23 6b 3d 2e 42 82 bc f0 ad b5 3c
       -0.045621183 0.05740671 -0.015900698 0.022177666
000370 7e bd 20 bd a1 9b 93 3c 2e 98 82 bd b2 09 a2 bc
       -0.039243214 0.018018546 -0.06376682 -0.019780014
000380 b7 e8 75 bd 19 b0 42 bd 4f 07 ac bd 57 d2 31 3d
       -0.060036387 -0.04753122 -0.083998315 0.043413486
000390 cd 26 0a bb ce 55 ac 3c 17 a7 da bc 72 c6 c7 bc
       -0.0021080256 0.021037009 -0.026691003 -0.024386618
0003a0 a7 ab 74 3c ef 0b 63 3d f1 9d 23 3d 96 65 c6 bc
       0.014933503 0.055431303 0.039945547 -0.024218362
0003b0 a5 80 fc 3d 60 06 84 3d fa ee f1 3c 3a 6a 2a 3c
       0.123292245 0.064465284 0.029532898 0.010401303
0003c0 2e 83 df 3c 42 9c 81 bd f4 19 2b bd be 3b 94 bc
       0.027284231 -0.06328632 -0.041772798 -0.018094894
0003d0 0a f2 22 3d 2b bf b8 3c e1 1d e4 bc 68 60 4e bd
       0.039781608 0.022552093 -0.027846279 -0.05038491
0003e0 c7 48 04 be 4a 6c e2 bd ff ae 97 bd 91 03 4b bd
       -0.12918387 -0.11055811 -0.07406425 -0.049563948
0003f0 03 49 48 3c 17 38 aa b9 4e 3a 24 3d b0 7f 30 3c
       0.012224439 -0.00032466717 0.040094666 0.010772631

fc2.bias f4 [2]
000000 57 93 01 3c 4e 54 19 bb
       0.007908664 -0.0023396197
