results/mlp/mlp_length_50_batch_64_lr_0.001.pth (torch, 32528 bytes, 4 tensors)

fc1.weight f4 [50, 50]
0	0x3dcad5c5	0.099040546
1	0xbe68e9c2	-0.22745422
2	0x3e0dbcf5	0.13841613
3	0xbe19e94a	-0.15030399
4	0xbdfe6d9f	-0.12423252
5	0xbd367ba5	-0.04455151
6	0xbd06b469	-0.032886896
7	0x3dc139bd	0.09434841
8	0xbd1c1d41	-0.038113836
9	0xbcd175b8	-0.025568828
10	0x3dc4343a	0.09580274
11	0x3db3a38d	0.08771429
12	0xbd58ae32	-0.0529005
13	0x3e01ac59	0.12663402
14	0xbdbda2ff	-0.09259605
15	0x3d6f83f3	0.058475446
16	0x3d14a180	0.03628683
17	0xbdabf4fb	-0.08396336
18	0xbde03637	-0.10947841
19	0xbc77b131	-0.015117929
20	0xbbcc101a	-0.0062275054
21	0x3de7cb2f	0.11318051
22	0xbb894f3f	-0.004190355
23	0x3d32005d	0.043457378
24	0x3dcc4a18	0.0997507
25	0x3cd09b2c	0.025464617
26	0x3e49f0da	0.19720784
27	0x3e2dbf84	0.16967589
28	0xbda473ad	-0.08029876
29	0x3e3d8ddd	0.18511148
30	0xbd867b7a	-0.0656652
31	0x3dbd5c8f	0.0924617
32	0xbe21be4e	-0.15795252
33	0x3e033e91	0.12816836
34	0x3de550c3	0.11197045
35	0x3c348492	0.011017935
36	0x3d50d589	0.050984893
37	0x3d8802fe	0.06641196
38	0x3dd6b66b	0.10484012
39	0xbd7a5d98	-0.061124414
40	0x3d224c32	0.039623447
41	0xbe01dd26	-0.12682018
42	0xbe1b51a7	-0.15167867
43	0xbd8136d9	-0.063092895
44	0x3adbc94b	0.0016768364
45	0x3e0caf8b	0.1373884
46	0xbe54c478	-0.20778072
47	0xbc90c7d7	-0.017673416
48	0x3d8774f0	0.06614101
49	0xbdaa6404	-0.08319858
50	0xbe82f9be	-0.25581163
51	0xbd2353c9	-0.039874826
52	0xbe188fc4	-0.14898592
53	0xbdca96f8	-0.09892076
54	0xbc87794a	-0.016537327
55	0x3dde4e66	0.10854797
56	0xbc65f8d2	-0.014036374
57	0x3d4806a9	0.048834477
58	0xbd1b7ceb	-0.037960928
59	0xbdf185c3	-0.11793091
60	0x3ce13f15	0.0274959
61	0x3df697a2	0.120406404
62	0xbd25b84c	-0.040458962
63	0x3df96be3	0.12178781
64	0xbe90bec7	-0.28270552
65	0xbeac1037	-0.3360612
66	0x3e8e61df	0.27809045
67	0xbde62640	-0.11237764
68	0xbe8c66f7	-0.27422306
69	0x3ada880e	0.0016672628
70	0xbed50448	-0.4160483
71	0x3dd87ea5	0.105710305
72	0x3d991942	0.07475521
73	0x3e0f7ac5	0.14011677
74	0xbccce41c	-0.025011115
75	0xbe1e8567	-0.15480576
76	0xbc51a359	-0.012795293
77	0x3daf4dc5	0.08559755
78	0x3d6a6429	0.057224426
79	0xbe239c75	-0.15977652
80	0x3dd4f894	0.10398975
81	0x3df3a5cb	0.11896857
82	0xbe37c540	-0.17946339
83	0x3d8c21ce	0.06842385
84	0x3c9b4575	0.018954018
85	0x3d070486	0.0329633
86	0x3cb34f1d	0.02188831
87	0xbe13cbab	-0.14433162
88	0x3ea8f732	0.33001095
89	0xbdcb1632	-0.09916343
90	0x3d7028ee	0.058632784
91	0x3b0b386c	0.0021243347
92	0x3d3cb7e6	0.046073817
93	0xbd79a11b	-0.060944658
94	0xbdac1ac6	-0.08403544
95	0x3d5d2371	0.053988878
96	0xbe1affc5	-0.15136631
97	0xbd6105be	-0.054937117
98	0xbe707d91	-0.234854
99	0xbd08a3ee	-0.03335946
100	0xbcdd8496	-0.027040761
101	0x3e471dd5	0.19444974
102	0x3e024b50	0.12724042
103	0x3d15757b	0.03648899
104	0x3b2004d4	0.002441694
105	0xbdeda6bd	-0.116040684
106	0x3c9dd012	0.019264255
107	0xbdfb3f7a	-0.122679666
108	0x3e4876f4	0.19576627
109	0x3e128bbb	0.14311115
110	0xbdce5659	-0.10075063
111	0xbe133966	-0.14377365
112	0xbdec8aa9	-0.11549885
113	0xbd7e7fbb	-0.062133532
114	0x3e058f0e	0.13042852
115	0xbbdf3375	-0.006811554
116	0x3e2f10ea	0.17096296
117	0xbcdbf90b	-0.026852151
118	0xbe1a0ed2	-0.15044716
119	0x3e37160b	0.17879502
120	0x3d75892d	0.059945274
121	0xbc2cf650	-0.010556772
122	0xbe0fb8e0	-0.14035368
123	0xbe244fd3	-0.16046076
124	0xbd54df48	-0.05197075
125	0x3d88f35d	0.06687043
126	0x3d8361c4	0.06415132
127	0x3dc30200	0.09521866
128	0xbd1ff2ae	-0.039049797
129	0xbd4c32aa	-0.049853005
130	0xbcefc0e8	-0.02926679
131	0xbe0c5796	-0.13705286
132	0xbe177b48	-0.14793122
133	0x3e18605e	0.14880511
134	0x3d29c99f	0.041452046
135	0x3e5a00cb	0.21289365
136	0x3c2cd83b	0.0105496
137	0xbc5c3d38	-0.01344233
138	0xbe8b2ce8	-0.27182698
139	0x3e036d1e	0.12834594
140	0xbda4698f	-0.08027946
141	0x3d2cc29c	0.04217778
142	0xbd8715ab	-0.0659593
143	0x3d313a7b	0.043268662
144	0xbd7ffc7b	-0.062496644
145	0x3d0da045	0.034576673
146	0xbd7a8d13	-0.061169695
147	0xbdcc7d8b	-0.09984883
148	0xbe88cc52	-0.26718384
149	0xbe84dad7	-0.25948212
150	0x3e48e7ab	0.19619624
151	0xbe334c72	-0.1750963
152	0xbd8f311c	-0.06991789
153	0x3e3a453b	0.18190472
154	0x3d0be42e	0.034153156
155	0xbe0ab29c	-0.13544697
156	0x3d53dba3	0.051723134
157	0x3dce63ed	0.10077653
158	0xbd862246	-0.06549506
159	0xbe8344c7	-0.2563841
160	0x3d2e52ea	0.04255954
161	0x3e6b8cb1	0.23002888
162	0x3e4cd21d	0.20002027
163	0xbe46a8fa	-0.19400397
164	0xbc2bfaed	-0.010496837
165	0xbe42c2b6	-0.19019589
166	0x3d8c8890	0.06861985
167	0xbb21d81f	-0.0024695469
168	0x3e56b286	0.20966539
169	0x3e61ee8a	0.22063652
170	0xbe0bf5f5	-0.13668044
171	0xbdacc834	-0.08436623
172	0x3e5095c0	0.20369625
173	0xbdaaa1e8	-0.083316624
174	0x3dca2600	0.09870529
175	0xbd1a38fa	-0.037651993
176	0xbdbfe088	-0.09368998
177	0x3db30473	0.08741083
178	0x3e2e8beb	0.17045562
179	0xbca19263	-0.019723123
180	0x3e00b964	0.12570721
181	0x3d57dc33	0.052700233
182	0x3d6658d9	0.056237075
183	0x3d870759	0.06593198
184	0x3c783356	0.015148958
185	0xbc398251	-0.011322574
186	0xbd1620c7	-0.036652353
187	0x3e15dffc	0.14636225
188	0xbe7cdad0	-0.24692845
189	0x3bcd9179	0.006273445
190	0x3daed525	0.08536748
191	0xbd2e6e7b	-0.04258583
192	0xbda78dbd	-0.08181331
193	0x3dc1b700	0.094587326
194	0x3e106f7a	0.14105025
195	0xbd89d30c	-0.06729707
196	0x3d0a2e12	0.033735342
197	0x3dbdfb4f	0.09276449
198	0x3c0506ea	0.008119324
199	0xbe28a644	-0.16469675
200	0xbe4c4c95	-0.19951089
201	0x3e8d546a	0.27603465
202	0x3df91f11	0.121641286
203	0xbdbef298	-0.09323615
204	0xbdb6338b	-0.0889655
205	0xbd938c2b	-0.07204469
206	0x3dbb61b0	0.09149492
207	0xbde519aa	-0.11186536
208	0x3cdbdaa3	0.026837653
209	0xbce73da7	-0.02822764
210	0x3e0ea986	0.13931856
211	0xbd848d37	-0.06472247
212	0x3d55ef50	0.05223018
213	0x3d5fb67d	0.054617394
214	0xbdb914ce	-0.09037171
215	0x3e509955	0.20370992
216	0xbda998da	-0.08281107
217	0xbca8e947	-0.020619048
218	0xbe9bb38f	-0.3041043
219	0x3d1ec352	0.03876049
220	0x3e686468	0.22694552
221	0xbe01ec9d	-0.12687917
222	0xbe9558ed	-0.29169407
223	0xbdea9a96	-0.11455266
224	0x3eaed4dc	0.34146774
225	0xbd9716ed	-0.073774196
226	0x3d14225c	0.03616558
227	0xbc082090	-0.008308545
228	0x3d30510e	0.04304605
229	0xbe034ab0	-0.1282146
230	0x3d9bc68d	0.0760623
231	0xbc7539ca	-0.014967391
232	0xbddd8af4	-0.10817519
233	0xbd0305dc	-0.03198801
234	0xbe81b35a	-0.25332147
235	0x3e0b825f	0.13623951
236	0xbd2c1634	-0.042013362
237	0x3e185f7b	0.14880173
238	0x3e4815b1	0.19539525
239	0xbd5f686d	-0.054542948
240	0x3d0c2ec9	0.034224305
241	0x3d934eed	0.07192788
242	0xbe84ca66	-0.25935668
243	0xbda96cdc	-0.082727164
244	0xbc7e76fa	-0.015531296
245	0xbdbedcfb	-0.093194924
246	0xbe6f1ccd	-0.2335083
247	0xbda804c7	-0.08204036
248	0x3da2b210	0.07944119
249	0xbe5105af	-0.20412324
250	0xbc59305a	-0.013256157
251	0xbc5c5557	-0.013448081
252	0xbc4c756b	-0.0124791665
253	0xbd9f6601	-0.077831276
254	0xbdcbd99b	-0.09953614
255	0x3da1c329	0.07898552

fc1.bias f4 [50]
0	0x3c8d5ba5	0.017255614
1	0x3d176766	0.036963843
2	0xbdc6d47f	-0.09708499
3	0x3c85275b	0.016254118
4	0xbdc076bc	-0.09397647
5	0x3c8f5102	0.017494682
6	0xbe1d2ca0	-0.15349054
7	0xbda2d9e9	-0.07951719
8	0x3dbc0a61	0.09181667
9	0x3dfd412e	0.12365948
10	0x3d38a35c	0.045077667
11	0x3dc32d5e	0.095301375
12	0xbd7a346e	-0.061085157
13	0x3c9f0602	0.019412044
14	0xbdfe9fdc	-0.124328345
15	0x3c8206b4	0.015872337
16	0xbd96951e	-0.073526606
17	0x3d5e3d06	0.054257415
18	0x3ca73035	0.02040873
19	0x3d8bd5ba	0.068278745
20	0xbd577149	-0.05259827
21	0xbdb1e9df	-0.086871855
22	0xbd57db9a	-0.052699663
23	0x3d80df2a	0.06292565
24	0x3dd13cfa	0.102167085
25	0xbbfe40b2	-0.007759177
26	0xbdc6cee8	-0.09707433
27	0xbd587d5d	-0.05285393
28	0x3dd56a24	0.10420635
29	0x3d05f053	0.032699894
30	0x3d8302d4	0.06397024
31	0xbcab9a41	-0.020947577
32	0x3c59fb9e	0.013304619
33	0xbdcccf0f	-0.10000431
34	0xbcaded2e	-0.02123126
35	0xbd9c06cd	-0.07618485
36	0xbe1b419b	-0.15161745
37	0xbe14b36b	-0.14521568
38	0x3d15cfaa	0.036574997
39	0xbd2c1dc9	-0.042020593
40	0xbd1aa2ed	-0.037753034
41	0xbbdc83be	-0.006729572
42	0xbcc36a46	-0.023854386
43	0x3dd615ef	0.10453402
44	0x3dbe030c	0.09277925
45	0xbe1b39ea	-0.15158811
46	0xbd65418a	-0.055970706
47	0xbdda4d41	-0.10659266
48	0xbcba1e56	-0.022719543
49	0x3d0a9070	0.033829153

fc2.weight f4 [2, 2500]
0	0xbc15ffe6	-0.009155249
1	0xbe2ce4da	-0.16884175
2	0xbe53ddb8	-0.20690048
3	0x3db051cc	0.086093515
4	0x3d252ca1	0.040325765
5	0xbd66f648	-0.056387216
6	0x3e9e643d	0.3093585
7	0x3dfefaa2	0.12450148
8	0xbd65fc66	-0.05614891
9	0xbe024edc	-0.12725395
10	0x3c989d9e	0.018629845
11	0x3c9c7103	0.019096857
12	0x3d3f4233	0.046693992
13	0x3ea8df9f	0.3298311
14	0x3c18b7cb	0.009321163
15	0x3d9feccb	0.078088365
16	0x3df44ecd	0.119290926
17	0xbe6f083d	-0.23342986
18	0xbe5277f9	-0.20553578
19	0xbda3d824	-0.0800021
20	0x3d92db84	0.071707755
21	0x3e181e48	0.14855301
22	0xbe0b94f2	-0.13631037
23	0xbc04c257	-0.008102975
24	0xbd2dde9a	-0.042448618
25	0xbdaf812f	-0.08569562
26	0xbdf7719a	-0.12082215
27	0xbe5f13b7	-0.21784864
28	0x3dd90033	0.10595741
29	0x3c47c013	0.01219179
30	0xbd948cf5	-0.07253448
31	0x3d8960f6	0.06707947
32	0xbd6eff52	-0.05834896
33	0x3d5995a2	0.053121217
34	0xbdbda444	-0.09259847
35	0x3e91b750	0.2846017
36	0x3c98379c	0.018581204
37	0xbc940556	-0.01806895
38	0x3d2bd23e	0.04194855
39	0x3d744663	0.05963744
40	0xbd7af499	-0.061268423
41	0x3d03cc26	0.032177113
42	0xbe34a4e3	-0.17641024
43	0x3df33891	0.118760236
44	0x3d2d888b	0.042366546
45	0x3d113876	0.035454236
46	0xbe96373e	-0.2933902
47	0x3e4b4a5c	0.19852585
48	0x3d16e76f	0.036841806
49	0x3e8870da	0.266486
50	0x3d57ee30	0.052717388
51	0xbe4447b8	-0.19167984
52	0xbdcd275d	-0.100172736
53	0x3d4e80f2	0.05041594
54	0xbc00d1a8	-0.007862486
55	0xbde2a172	-0.110659495
56	0x3e9434be	0.2894649
57	0xbcc46a54	-0.023976482
58	0xbce845cc	-0.028353594
59	0xbcac5513	-0.02103666
60	0x3c0e90c0	0.008701503
61	0x3c18ad53	0.009318667
62	0x3de192d3	0.110143326
63	0x3e9a657e	0.30155557
64	0xbdaa7402	-0.08322908
65	0xbd313bd8	-0.043269962
66	0x3d6ac7a5	0.057319302
67	0xbe65095e	-0.22366855
68	0xbe27f42b	-0.16401736
69	0xbb840962	-0.004029439
70	0xbdb6587c	-0.08903596
71	0x3d5fcf66	0.05464115
72	0xbddf6781	-0.10908414
73	0xbd913096	-0.07089345
74	0x3d4f7874	0.050651982
75	0xbd4e95e0	-0.0504359
76	0xbe6f1917	-0.23349415
77	0x3cd75444	0.026285298
78	0x3d57443e	0.052555315
79	0xbc3969d0	-0.011316732
80	0x3ce6192c	0.028088175
81	0xbe0395b0	-0.1285007
82	0xbe0f2a45	-0.13980968
83	0x3de317a7	0.11088496
84	0xbd7e34ed	-0.062062193
85	0x3e0241f3	0.1272047
86	0x3e02099a	0.12698975
87	0x3aefd1e8	0.001829681
88	0xbc8311cb	-0.015999695
89	0xbc95ecb7	-0.018301351
90	0x3d8bed83	0.06832411
91	0xbb78cb3c	-0.0037962934
92	0xbc925b8a	-0.017865915
93	0x3deef67c	0.11668107
94	0xbc2cb249	-0.010540553
95	0x3e0dd255	0.13849767
96	0xbe262bac	-0.16227597
97	0x3d263367	0.040576365
98	0x3d251dec	0.04031174
99	0x3e17bcde	0.14818141
100	0xbd5c33f7	-0.053760495
101	0xbe0c1485	-0.13679703
102	0xbdcf66a0	-0.10126996
103	0x3cc3e795	0.023914138
104	0x3daa70ad	0.083222724
105	0xbdfe174b	-0.124067865
106	0x3e0519b9	0.12998094
107	0x3e08f347	0.13374053
108	0xbda11042	-0.07864429
109	0xbc36d80c	-0.011159908
110	0x3d4052f5	0.046954114
111	0xbc5c6aa8	-0.013453163
112	0xbd10bb45	-0.035334844
113	0x3e900e84	0.28136075
114	0x3c122e0a	0.008922109
115	0x3d844103	0.064577125
116	0x3db01634	0.08597985
117	0xbe2c8c6a	-0.16850439
118	0xbe241eb5	-0.16027339
119	0x3d100b56	0.03516706
120	0xbdb11485	-0.08646492
121	0x3cfece0b	0.031104108
122	0xbda6f7c6	-0.08152728
123	0xbd69b268	-0.057054907
124	0x3e1e85dd	0.15480752
125	0x3c0800ac	0.008300941
126	0xbe369315	-0.17829545
127	0xbe240c94	-0.16020423
128	0x3d5e4b2f	0.05427092
129	0xbc463e2d	-0.012099785
130	0x3d59dafe	0.053187363
131	0x3d55b8a8	0.052178055
132	0xbe1b6782	-0.15176204
133	0x3c5ee2bd	0.013603863
134	0xbcca15f7	-0.024668677
135	0x3dcd12fa	0.10013385
136	0x3dfb166e	0.122601375
137	0x3c81885f	0.015812097
138	0xbd2d81a8	-0.042359978
139	0xbe1b02b1	-0.15137745
140	0x3dbd858e	0.09253989
141	0xbd7cb287	-0.061693694
142	0x3d3ec39c	0.046573266
143	0x3d7425d6	0.059606396
144	0x3dc74423	0.09729793
145	0x3e8aff15	0.27147737
146	0xbe2711a8	-0.16315329
147	0x3e24fe89	0.16112722
148	0x3df3208e	0.11871444
149	0x3cad2272	0.021134589
150	0xbd8564b6	-0.0651335
151	0xbe52a187	-0.2056943
152	0xbd28f512	-0.041249342
153	0xbcbc60b9	-0.02299534
154	0x3b2e40b6	0.0026588864
155	0x3cd389a9	0.025822477
156	0x3e0d4c2a	0.13798586
157	0xbc8131a4	-0.01577074
158	0x3d694050	0.0569461
159	0x3c1c6561	0.009545655
160	0x3cce568f	0.025187759
161	0xbd7cf86d	-0.061760355
162	0x3dbe948a	0.09305675
163	0x3e4e6d42	0.20158866
164	0x3cad8244	0.02118028
165	0x3cf5625b	0.029954126
166	0xbd90b390	-0.07065499
167	0xbe159d34	-0.1461075
168	0xbe67a17f	-0.226202
169	0xbd5e8896	-0.054329477
170	0xbc2280ea	-0.009918431
171	0x3d0fef0b	0.03514008
172	0xbd76f955	-0.060296375
173	0xbd269b6e	-0.040675573
174	0x3dcdb446	0.1004415
175	0xbd826d25	-0.06368474
176	0xbe1a8eeb	-0.15093581
177	0x3da37adf	0.0798242
178	0xbd5e9d72	-0.05434937
179	0x3d2477af	0.0401532
180	0xbd7d3c03	-0.06182481
181	0xbdb585e0	-0.08863425
182	0xbe61a890	-0.22036958
183	0xbcc365fd	-0.023852343
184	0xbdde0e68	-0.108425915
185	0x3ca0ed59	0.019644426
186	0x3e8e1d57	0.2775676
187	0xbdd163ea	-0.10224135
188	0xbd3ba3c2	-0.04581047
189	0xbdc3d21e	-0.09561561
190	0x3d7777c8	0.060416967
191	0x3d8acf85	0.067778625
192	0xbd147952	-0.036248513
193	0xbd80151a	-0.06254025
194	0xbcf8f985	-0.030392418
195	0x3e679c9b	0.22618334
196	0xbde1bda3	-0.110224985
197	0x3de186c8	0.110120356
198	0x3d84dea3	0.06487777
199	0x3d5306c2	0.051520117
200	0xbc898416	-0.016786616
201	0xbe1d1d14	-0.15343124
202	0xbcd4c5f7	-0.025973303
203	0x3dee0c2b	0.116234146
204	0xbd4d8359	-0.05017409
205	0xbb7436af	-0.003726404
206	0x3d8110a4	0.06302002
207	0xbc1f24b9	-0.009713345
208	0xbdb26ef6	-0.0871257
209	0xbca0ee10	-0.019644767
210	0x3c71d892	0.014761107
211	0x3d81beb2	0.063352
212	0xbd037779	-0.03209636
213	0x3e4ea76c	0.20181054
214	0xbe25a31b	-0.16175501
215	0x3d1f3f2d	0.03887861
216	0xbca003d2	-0.019533072
217	0xbccf6ccd	-0.025320435
218	0xbbb77216	-0.005598317
219	0xbda4b4de	-0.0804231
220	0xbdf99e73	-0.12188425
221	0x3e3fc057	0.18725716
222	0xbdea8b59	-0.1145236
223	0xbca92086	-0.020645391
224	0x3d1c54bc	0.038166746
225	0xbc889b82	-0.016675714
226	0xbdad3477	-0.084572725
227	0x3daf45d3	0.0855824
228	0x3de16d97	0.11007231
229	0xbd4fa7db	-0.05069719
230	0xbe04fb24	-0.12986428
231	0xbdbf78c5	-0.09349207
232	0xbe80be93	-0.25145397
233	0xbc06313d	-0.00819045
234	0x3ae69666	0.001759243
235	0x3d4ba8ac	0.049721405
236	0x3ddfbf19	0.10925121
237	0xbce461e0	-0.027878702
238	0xbd17328a	-0.036913432
239	0x3d4c89a5	0.049935956
240	0x3c3c47bd	0.011491713
241	0xbb8583d0	-0.004074551
242	0x3d83aa15	0.06428925
243	0x3b92ef34	0.0044840816
244	0xbca26801	-0.019824984
245	0x3df95bfc	0.12175748
246	0xbd93e8d1	-0.072221406
247	0x3e11bc9e	0.14232108
248	0x3d3a7c78	0.04552886
249	0x3da47b21	0.080312975
250	0xbd1928ed	-0.037392545
251	0xbdcd2d79	-0.10018439
252	0xbe0f2d2a	-0.13982072
253	0xbd39cb2b	-0.04535977
254	0x3ca856e5	0.020549247
255	0xbe07addd	-0.13249917

fc2.bias f4 [2]
0	0x3cb2ee51	0.021842154
1	0xbc54b8ea	-0.01298354
