results/mlp/mlp_hidden_100_length_64_batch_64_lr_0.1.pth (torch, 74072 bytes, 4 tensors)

fc1.weight f4 [100, 50]
000000 60 1d d5 be 70 62 2f bf 87 c7 31 bf b2 a5 18 3f
       -0.41623974 -0.6850958 -0.6944508 0.5962783
000010 a3 34 0c bf 18 05 ed be c7 2a dd be 04 78 1c bf
       -0.5476782 -0.4629295 -0.431967 -0.6112063
000020 7a 2f 1a bf 33 b1 db be be 31 0c bf df de 8c 3e
       -0.60228693 -0.4290863 -0.547634 0.27513787
000030 8b 7e 17 bf 36 93 3e bf 7b 64 0b bf ad ab 31 bf
       -0.59177464 -0.74443376 -0.54450196 -0.6940258
000040 bf 75 a2 3e 55 11 0e bf be 9e ff be 60 66 ff be
       0.31730458 -0.55495197 -0.49925798 -0.49882793
000050 8e 52 0f bf 74 f2 0e bf ed 23 36 3f e0 c1 5e bf
       -0.55985343 -0.55838704 0.7114857 -0.8701458
000060 81 86 c9 be c4 f1 1b 3f 72 25 ef 3e cd ae 96 be
       -0.3936043 0.6091578 0.46708256 -0.29430237
000070 20 02 72 bf 34 c8 2f bf c3 93 3e bf 11 b7 e9 be
       -0.9453449 -0.6866486 -0.74444216 -0.4564748
000080 70 29 e2 be c1 1d 36 bf 63 59 36 bf 46 72 44 3f
       -0.4417224 -0.7113915 -0.71230143 0.7673687
000090 8b 54 19 bf e7 cf 12 bf 43 b3 96 be 7c ed 10 3f
       -0.5989463 -0.57348484 -0.2943364 0.5661237
0000a0 6f 70 01 3f 15 6f f5 3e 3f 33 10 3f 8f 63 c3 be
       0.50562185 0.4793631 0.56328195 -0.38161895
0000b0 18 e8 33 3f 3b b6 19 3f c6 50 01 bf 6e 45 0e 3f
       0.7027602 0.60043687 -0.50513875 0.5557469
0000c0 91 22 0f bf 6c 7b d3 be 19 36 02 bf 02 a3 20 bf
       -0.5591212 -0.413051 -0.50863796 -0.6274873
0000d0 6e 15 35 bf 47 b5 53 3f 0a e2 1a bf f4 e8 3e bf
       -0.70735824 0.8269848 -0.6050116 -0.7457421
0000e0 64 7b 23 3f c8 73 44 3e 4e e0 47 bf 02 82 0d bf
       0.63860154 0.19184792 -0.78076637 -0.552765
0000f0 25 d6 f9 be 13 4a 11 3f 65 d1 23 bf fb 2f 48 be
       -0.48796192 0.56753653 -0.63991386 -0.19549553
000100 83 5a 15 bf 59 47 f8 3e 88 b7 48 bf 4c 02 27 bf
       -0.58341235 0.48491934 -0.78405046 -0.6523788
000110 33 7a 03 3f db 13 cb 3e 4b de c0 3e 91 6e e3 be
       0.51358336 0.39663586 0.37669596 -0.44420293
000120 11 2f 11 3f 20 93 9c 3e cc e4 1e bf b8 f1 1b 3f
       0.5671244 0.30580997 -0.62067866 0.6091571
000130 fb 7c 73 3e 6f 47 d9 be 98 2f 13 bf 1c 1f 0f 3f
       0.23778145 -0.42437312 -0.574945 0.55906844
000140 4c 54 68 bf de 57 38 bf 56 d9 52 bf b6 cb 18 bf
       -0.90753627 -0.72009075 -0.8236288 -0.5968584
000150 91 50 44 bf 8f 63 e8 be df 56 05 bd 2a c9 22 bf
       -0.76685435 -0.45388457 -0.03255355 -0.635882
000160 c3 8e dc be 1c 06 02 3f f4 06 58 3f 10 2b 18 3f
       -0.4307767 0.5079057 0.8438561 0.5944071
000170 5a cd 49 3e 19 bb b3 be 68 9f 43 3e bd e1 4c 3f
       0.19707242 -0.35103682 0.19103777 0.8003195
000180 f5 15 0a bf d8 89 68 3f 1c cf 56 bf 72 cd 48 3f
       -0.53939754 0.9083533 -0.83909774 0.78438485
000190 e0 d5 2e bf 96 bd 08 bf 94 a2 53 bf cf 5a 0b 3f
       -0.682951 -0.53414285 -0.8266995 0.5443544
0001a0 8a 62 bd 3e dc b6 24 bf d9 72 26 bf 91 d8 32 bf
       0.36989242 -0.6434152 -0.65018994 -0.69861704
0001b0 08 a9 4d bf e1 6f e5 be 64 6c 15 bf fb 04 c9 3e
       -0.80336046 -0.4481192 -0.58368516 0.39261612
0001c0 2e ac a1 be 2e 5e 0c bf 42 da 26 bf c7 d0 c2 be
       -0.31576675 -0.54831207 -0.65176785 -0.3804991
0001d0 d3 d5 06 bf 46 dc 4a bf 56 be 01 bf e8 58 c7 3e
       -0.5267002 -0.7924236 -0.50681055 0.38935018
0001e0 e8 94 f6 be 4f ff 35 bf b6 92 1e 3f b4 f5 03 3f
       -0.4816048 -0.71092695 0.61942613 0.5154679
0001f0 1b b3 03 bf 49 ba 46 3f 42 8f 98 be f6 a4 0c bf
       -0.5144517 0.77628 -0.29796797 -0.5493921
000200 3e ef 53 bf c8 85 f9 3e ed c7 07 bf 1f 2d 15 bf
       -0.8278693 0.4873488 -0.5303944 -0.58271974
000210 9f e2 10 bf f0 22 1b bf c0 27 09 bf 85 3c 16 3f
       -0.56595796 -0.60600185 -0.5357628 0.58686095
000220 5e f2 08 bf 2e 0f ba 3e 2c 48 e0 3e da 5c 37 3f
       -0.5349482 0.36339706 0.43805063 0.71626055
000230 e7 e9 18 3f 26 52 37 3f d6 35 36 3f 5f 23 ca 3e
       0.59731907 0.71609724 0.711759 0.3948011
000240 2d 5b 84 be e3 94 54 be 8c 74 f9 be e2 b5 11 3f
       -0.25850812 -0.20759921 -0.4872173 0.56918156
000250 1b 6a 13 bf 5a 3c 53 3f e7 e6 96 bf 8d a4 00 bf
       -0.5758378 0.82513964 -1.1789216 -0.50251085
000260 da 59 ed bf e7 48 2a 40 b3 30 b4 bf c4 67 89 3f
       -1.8543046 2.6606996 -1.4077362 1.0734792
000270 8d 20 2a 3f e2 6c f9 be 25 d0 cb bf 43 25 2f 3f
       0.6645592 -0.48715883 -1.5922896 0.6841623
000280 20 5d 34 c0 18 66 d8 3f 4c 81 a5 bf de 86 16 c0
       -2.818184 1.6906157 -1.2930083 -2.3519816
000290 b1 df bf bf db 04 d8 be 05 5f b6 bd 0e 0a b3 be
       -1.499014 -0.42191204 -0.08904842 -0.3496861
0002a0 ec 75 77 bd 84 2a 01 3e 6c 3f 98 bf 78 f7 af bf
       -0.060415193 0.12613875 -1.1894355 -1.3747396
0002b0 eb 9a c5 3f 5e da c4 bd 58 99 8f bf a4 d6 e0 3f
       1.5437902 -0.09611963 -1.1218672 1.7565503
0002c0 b0 ff f1 be 44 7c 4e 3f 93 f5 02 c0 3c bf 88 bd
       -0.47265387 0.80658364 -2.0462387 -0.066771
0002d0 e1 ef e3 bf cb ae 2a be b1 03 a6 3e 1c e2 a6 bf
       -1.780758 -0.1666824 0.3242469 -1.3037753
0002e0 c9 f3 3c bf 35 a0 54 3f 9a 4a 39 3f 9f e9 bc be
       -0.73809487 0.83056957 0.7237946 -0.3689699
0002f0 c7 c9 1e 40 0e d3 3c 3f 8e 7a e1 3f e9 4a 8f 3f
       2.4810655 0.73759544 1.7615526 1.1194736
000300 bc a2 0a 3f ea f2 dc bf 4d 3c ae 3f 3f e1 cb bd
       0.5415456 -1.7261631 1.3612152 -0.09955072
000310 92 fe e9 bf 3c 41 fa bd 18 42 80 bf 3f 6a a8 3f
       -1.8280814 -0.12219474 -1.002017 1.3157424
000320 b9 b5 82 be 28 ac 93 be 7b fd ac be ed c2 10 3f
       -0.25529268 -0.28842282 -0.3378714 0.56547433
000330 aa a1 c6 be 46 e4 76 3e ac cb 4b 3e a6 5a fc be
       -0.38795215 0.24110517 0.19901913 -0.4928791
000340 66 aa ae be 24 42 0d bf 16 cc f3 be 54 16 ae 3e
       -0.3411438 -0.5517905 -0.47616643 0.3400141
000350 52 dc bd be 59 6f 06 bf 41 4c 00 bf 80 fc 72 3c
       -0.37082154 -0.52513653 -0.50116354 0.0148307085
000360 59 5f 2e be c2 9e a1 be b1 fa d2 be 7a 89 8c 3e
       -0.1702856 -0.31566435 -0.41206887 0.27448636
000370 2b cd f2 bd 9c 19 4d be b4 61 b6 3e 18 a2 63 be
       -0.11855539 -0.200293 0.35621417 -0.22229803
000380 79 7a 8e be 75 d0 7c 3e d8 bc 2c 3f a2 b4 a1 be
       -0.27827814 0.24688895 0.6747565 -0.31583124
000390 2a 77 f2 be 9d c4 eb 3d f4 cc e7 be 7d da b7 be
       -0.4735654 0.115121104 -0.45273554 -0.3590888
0003a0 d3 6f ca be 87 a2 8a be 1d ee 7c be 11 b4 cf 3e
       -0.3953844 -0.27077124 -0.24700208 0.40567067
0003b0 8a 46 33 bf 32 e2 b0 be 3c fd 4a be ed a9 a5 3e
       -0.7002951 -0.34547573 -0.19823164 0.32356206
0003c0 b4 ac 84 3e fe 78 c5 3e 5e 91 ea be 80 0b 9b bf
       0.25913012 0.38568872 -0.4581403 -1.2112885
0003d0 2b f2 3b 3e 14 73 e4 3e 93 d4 f2 be 38 ba f7 3e
       0.18354098 0.44619048 -0.47427806 0.4838426
0003e0 ec aa be be 2a 9e 9a 3e 98 03 92 be 27 81 0c 3f
       -0.37239778 0.30198795 -0.28518367 0.5488457
0003f0 ef e1 23 bf 54 00 0d bc 81 4b c5 3e 43 c5 51 3f
       -0.6401662 -0.008606035 0.38534167 0.8194162

fc1.bias f4 [100]
000000 36 6d 29 bf 95 ce 54 bf a5 ab 04 bf 83 c4 18 c0
       -0.6618227 -0.8312772 -0.5182441 -2.3869941
000010 e0 75 ef be 76 68 63 bf fb 33 2e bf b6 79 31 bf
       -0.4676962 -0.8883127 -0.68048066 -0.6932634
000020 4c 98 8b bf 56 76 1c bf ed 4d 09 bf a0 c7 1c bf
       -1.0905852 -0.61118066 -0.5363453 -0.61242104
000030 6f 64 36 bf 1a cc 05 bf 9a 6a f4 be 6e a1 14 bf
       -0.71247 -0.5226456 -0.4773758 -0.5805882
000040 b7 cc 3f bf d2 46 0c bf 2e 59 45 bf 6a cf 96 be
       -0.74921745 -0.54795563 -0.770892 -0.2945512
000050 b0 f4 0f bf be d5 14 bf 10 c4 a9 be b3 90 34 bf
       -0.5623274 -0.58138645 -0.33157396 -0.70533293
000060 07 57 22 bf 27 56 89 be c8 c5 3e bf b1 ef 08 bf
       -0.63414043 -0.26823542 -0.7452054 -0.5349074
000070 ad 92 f2 be 09 35 04 bf bb 52 4c bf de 0f 26 bf
       -0.4737753 -0.51643425 -0.79813737 -0.6486796
000080 ed fa ce bf 74 58 22 bf f5 0f 06 bf bd fb 1f bf
       -1.6170326 -0.6341622 -0.523681 -0.624935
000090 6e 59 68 bf 4e c5 1f bf 7c 3b 68 be 3e 66 9f be
       -0.9076146 -0.6241044 -0.22678941 -0.31132692
0000a0 99 ea 1b bf 96 b7 1e bf b9 f4 1d bf 5f f3 1e bf
       -0.6090484 -0.6199888 -0.6170154 -0.62090105
0000b0 94 8a a7 be 02 24 8e be 4e 67 24 bf 04 4c 10 bf
       -0.32722914 -0.27761847 -0.6422013 -0.5636599
0000c0 e9 0b 3b bf 3b 7f 38 bf d0 d4 7a c0 c0 2c d5 be
       -0.7306505 -0.7206914 -3.919239 -0.41635704
0000d0 b0 2b 15 bf b4 5f 31 bf ee 10 a4 be 9d aa 39 bf
       -0.58269787 -0.69286656 -0.32044166 -0.7252596
0000e0 4a fb c7 bf cf b6 07 bf b0 05 64 bf af ba 19 bf
       -1.5623562 -0.5301332 -0.8907118 -0.6005048
0000f0 83 1f bf be 98 f7 80 be e4 21 08 bf bc da 85 be
       -0.3732873 -0.251889 -0.53176713 -0.26143444
000100 bc 21 92 bf de 65 17 bf 29 86 aa be b7 9a 2d bf
       -1.1416545 -0.5913981 -0.3330548 -0.678142
000110 a1 83 11 bf f1 a9 08 bf 1b 0d 2d bf d1 04 9c bf
       -0.56841475 -0.5338431 -0.6759812 -1.218897
000120 f5 64 03 bf fb 83 ed be 86 a5 a3 bf d8 ed b1 be
       -0.51325923 -0.46389756 -1.2784889 -0.34751773
000130 1a ac 6f bf 31 c8 a5 bf 56 9d 33 be 61 9e 0a c0
       -0.9362198 -1.2951719 -0.17540488 -2.1659167
000140 8d 13 38 bf cc 14 0b bf 12 c6 09 bf 45 88 9f be
       -0.7190483 -0.5432861 -0.53817856 -0.31158653
000150 89 a1 0f bf 27 c5 32 c0 b9 a3 af be a7 cd 06 bf
       -0.5610586 -2.7932832 -0.34304598 -0.5265755
000160 eb d1 cc be f6 46 04 bf 54 ad 07 bf 9e 78 bc be
       -0.40003905 -0.5167078 -0.5299885 -0.36810774
000170 a1 5f 42 bf 52 dd 0b bf 44 3b 15 bf 22 8d 31 bf
       -0.7592717 -0.54634583 -0.5829356 -0.69355977
000180 30 5a 17 bf 3f 03 18 bf 53 8d 23 bf be de c1 be
       -0.5912199 -0.59379953 -0.6388752 -0.3786525

fc2.weight f4 [2, 6400]
000000 85 b5 bb 3e a8 72 c1 3e ec 69 18 bf cb d9 16 bf
       0.36661926 0.37782788 -0.59536624 -0.58926076
000010 8e 21 a2 3e be fe 18 bf 96 7f ab be 89 84 00 3f
       0.31666225 -0.59763706 -0.33495778 0.5020223
000020 70 d8 27 3f 7c d0 ac 3e 0e 9d b9 3e 4c f7 d9 3e
       0.6556463 0.3375281 0.36252636 0.42571485
000030 2d c7 bc 3e 5b e9 12 bf bb cf d7 3e eb 80 f0 be
       0.3687071 -0.5738732 0.42150673 -0.46973357
000040 6a a1 1a bf 7f 25 1a bf 08 d6 17 bf 1e 21 ed 3e
       -0.6040255 -0.60213464 -0.5931096 0.4631433
000050 cd ea 98 3e d2 b5 19 be 07 02 a9 3e 82 d1 42 bf
       0.2986664 -0.15010765 0.3300936 -0.76100934
000060 8e db 62 be c4 f6 be 3e b0 41 19 bf 61 71 17 3f
       -0.22154066 0.37297642 -0.59865856 0.5915738
000070 0b 52 2c bd 1e a5 b9 bd c6 65 17 bf 30 d9 e4 3e
       -0.04207043 -0.09064697 -0.5913967 0.4469695
000080 90 36 1b bf 23 01 ad 3e 98 db 2f 3f ce ca 53 be
       -0.6063013 0.3378993 0.6869445 -0.20682833
000090 d1 27 9c 3e e7 8e 06 3f 31 be a5 3e c5 32 96 be
       0.30499128 0.525618 0.32371667 -0.2933561
0000a0 d7 56 c6 3e 00 8f 28 3f c0 aa bb be 63 04 97 3e
       0.3873813 0.658432 -0.3665371 0.29495534
0000b0 41 47 30 3f d5 0d d3 3e 07 90 1e 3d 14 bf ec 3e
       0.68858725 0.4122149 0.038711574 0.4623953
0000c0 2a af 1b 3f e9 c6 c0 3e 5b 30 07 bf 58 05 b4 3e
       0.60814154 0.37651756 -0.5280816 0.35160327
0000d0 e8 7b 27 3f bd 4e dc bd 23 11 97 3e 87 e3 b4 be
       0.6542344 -0.10757206 0.29505262 -0.3532984
0000e0 fd bc 36 be f2 44 35 3f a1 6e 16 3f d1 97 19 bf
       -0.17845531 0.7080833 0.58762556 -0.5999728
0000f0 e9 62 73 be 7b c4 92 3e d4 9b 1c bf 16 3d 91 3e
       -0.237682 0.28665528 -0.61175275 0.28366917
000100 90 ee 6d bf 25 84 ff be ac 0f bd 3e eb 56 02 bf
       -0.9294214 -0.49905506 0.3692602 -0.50913876
000110 56 59 c1 3e b7 22 a1 3e 1b b1 b2 3e f4 59 e8 3e
       0.3776347 0.31471798 0.34900746 0.4538113
000120 10 7e 15 3f 27 ee 94 3e 0f fb 2e 3f 2c 7e c4 3e
       0.5839548 0.29087946 0.68351835 0.38377512
000130 8f c2 1c bf 03 a8 e9 3e 64 6a 87 3e c6 6d 1a bf
       -0.6123437 0.45635995 0.26448357 -0.6032375
000140 a2 8a 1a 3f cd 06 c7 be 74 10 23 3f b8 08 b1 3e
       0.60367787 -0.38872376 0.6369698 0.34576964
000150 c0 0c 56 3f f9 4a 1c bf a0 cd 09 3f db 87 2e 3f
       0.83613205 -0.610519 0.53829384 0.6817605
000160 ad b9 27 3e f4 2d af 3e d6 b8 94 3e 9c 1d b0 3e
       0.16379423 0.34214747 0.2904727 0.3439759
000170 53 b7 95 3e d9 2a ba 3e 7f cc 2f 3f 8d 9e d2 3e
       0.29241428 0.36360815 0.6867141 0.4113659
000180 ef 97 72 3e 00 ee 28 bf 23 31 c1 3e ae 5a c0 3e
       0.2369077 -0.6598816 0.377328 0.37569183
000190 83 bc b7 3e e1 1b 1a bf 81 24 13 bf 72 cc 17 bf
       0.3588601 -0.6019879 -0.57477576 -0.59296334
0001a0 60 ea a6 3e 91 80 1b bf c8 c7 1a bf af 1f a8 3e
       0.3260069 -0.6074305 -0.6046109 0.32836673
0001b0 64 ee 1a bf b5 07 75 3d ba a7 be 3e b8 5c c9 3e
       -0.60520005 0.059821803 0.3723734 0.3932855
0001c0 4b bf b4 3e ee f1 1b be 21 25 e0 3e 8d 6c b7 3d
       0.35302195 -0.15229008 0.43778327 0.08956251
0001d0 5f ad 1b bf 10 4e 1c bf b5 b6 1c 3f 53 04 e2 3e
       -0.6081142 -0.61056614 0.6121629 0.44143924
0001e0 d7 6b 83 3e 09 4b 14 bf d6 f5 18 3f fc 60 84 3e
       0.25668213 -0.57926995 0.59750116 0.25855243
0001f0 46 17 36 be eb 29 cf 3e e3 3f 18 bf 1f cf 17 bf
       -0.17782316 0.40461668 -0.59472483 -0.59300417
000200 d0 1a b5 3e de 5e 4c 3f ea 84 fc be c7 7b 58 3f
       0.3537202 0.79832256 -0.49320155 0.8456387
000210 0b 4c 1c bf 97 0b ca 3e 15 27 df 3e d6 5b 29 bd
       -0.6105353 0.39461967 0.43584505 -0.041347347
000220 8a 8b d5 be 64 74 21 3f 6d b6 61 3e 29 1a d9 3e
       -0.41708022 0.63068223 0.22042246 0.4240277
000230 ae fb db 3e 3f 21 bb 3e 83 d2 db 3d f5 0f f3 3e
       0.42965454 0.36548802 0.10733511 0.47473112
000240 8c 68 c6 3e 6e 2f 69 3e 35 8c 8f 3e 57 8a db 3e
       0.38751638 0.22771999 0.28036657 0.42878982
000250 bb 7c c3 3e 3b 2c 29 3f 42 72 fa 3f d2 83 1b 3f
       0.381811 0.66083115 1.9566119 0.60748017
000260 10 9a d7 3e c1 74 99 be 2c 47 92 3e fb 74 be be
       0.42109728 -0.2997189 0.28569925 -0.37198624
000270 e5 45 4c 3f 87 14 19 bf 95 e3 23 3f 7c 62 10 bf
       0.7979415 -0.5979695 0.6401914 -0.56400275
000280 1f d7 ff bc 13 e7 aa 3e 2d 0f 4e be 52 17 a1 3e
       -0.031230507 0.3337942 -0.20122977 0.31463104
000290 4a d4 74 bd 62 4a 54 be 94 f9 c6 3e f2 5e 51 be
       -0.059772767 -0.207315 0.38862288 -0.20446375
0002a0 74 1e bc 3e 8a bd 97 3e ab d9 66 3e dd 58 e1 be
       0.36741984 0.29636794 0.22543971 -0.4401311
0002b0 b4 d6 d1 3e 89 3b ad 3e d0 40 23 3f 69 fd c2 3e
       0.40984118 0.33834484 0.6377077 0.38083962
0002c0 7b 57 1a bf ee 32 dc 3d fb 05 12 3f f4 9c 19 3f
       -0.60289735 0.107519016 0.57040375 0.60005116
0002d0 07 98 b1 3e c5 e4 3f 3e 17 a3 eb 3e 7b 72 bf 3e
       0.346863 0.18739612 0.46022865 0.3739203
0002e0 ce 2a 10 bf 2a a2 19 bf b6 06 6f 3e 9e 6c c5 3e
       -0.56315315 -0.6001307 0.23342404 0.3855943
0002f0 d7 bb 80 bd 8c 56 26 3f f4 bb c9 be 18 01 b4 3e
       -0.062858276 0.6497581 -0.3940121 0.35157084
000300 46 4b b8 3e 70 05 9c 3e 36 ed 69 3e 0c f6 c9 3e
       0.3599493 0.30472898 0.22844395 0.3944553
000310 0e c3 6f 3d 39 5b 1e bf 4b fd b5 3e 06 fa c4 3e
       0.058535628 -0.61857945 0.3554481 0.38472003
000320 25 29 bc 3e 37 50 18 bf 82 0b 1a bf 61 8f 1a bf
       0.3675014 -0.594974 -0.6017381 -0.6037503
000330 64 c6 78 3e 88 0d 18 bf 91 f3 1a bc d4 8c 06 3f
       0.2429443 -0.5939565 -0.009457485 0.52558637
000340 e0 b6 1b 3f 91 b5 c5 3e f5 4e aa 3e f5 38 29 3f
       0.6082592 0.38615087 0.33263364 0.66102535
000350 b7 08 c2 3e 1a 8d 01 bf 9d 33 19 3f cb f1 18 bf
       0.37897274 -0.5060593 0.5984438 -0.59743947
000360 ab fc 19 bf 8c c5 1b bf 0d be de be f6 86 25 3f
       -0.60151166 -0.6084831 -0.43504372 0.6465906
000370 3b 7d ae 3e d8 a0 18 bf aa f2 0c 3f 7e db 45 bf
       0.34079918 -0.5962043 0.55057776 -0.77288043
000380 3a 84 98 3e ea 51 bc 3e fb 8c 19 bf 25 d6 08 be
       0.2978838 0.36781245 -0.59980744 -0.1336294
000390 af e9 e2 3e 2f d6 cd be 51 1f 5e 3e 32 72 a5 3e
       0.4431891 -0.40202472 0.21691634 0.32313687
0003a0 ef ef 19 bf a7 44 ac 3e 68 e2 23 3f 26 4b 6b be
       -0.60131735 0.33646128 0.64017344 -0.22977886
0003b0 11 13 2a 3e ef ab c6 3e 50 1d 95 3e 95 a9 2d 3f
       0.16608836 0.3880305 0.29123926 0.67836887
0003c0 f7 64 23 3f 63 35 ca 3e ef 48 64 be ad 05 a7 3e
       0.63825935 0.39493856 -0.22293447 0.32621518
0003d0 82 18 3d 3f 74 32 88 3e 31 32 9a 3e ff 7c da 3e
       0.7386552 0.26600993 0.30116418 0.4267349
0003e0 7f f0 b4 3e af 28 1e 3f 7a 35 2c 3b 30 92 8c 3e
       0.35339734 0.6178083 0.0026276992 0.27455282
0003f0 0a 38 da 3e 50 b7 a6 3e 23 d5 2e 3e 88 8e 19 bf
       0.4262088 0.3256173 0.17073493 -0.5998311

fc2.bias f4 [2]
000000 9d 6a 19 bd fb 84 cf 3c
       -0.03745519 0.025331965
