results/mlp/mlp_hidden_100_length_64_batch_64_lr_0.0001.pth (torch, 74160 bytes, 4 tensors)

fc1.weight f4 [100, 50]
0	0x3dac0c80	0.08400822
1	0x3d176b9a	0.03696785
2	0x3c787395	0.015164276
3	0x3def0db9	0.11672539
4	0x3dbb3f41	0.09142924
5	0xbddd16b7	-0.10795348
6	0x3d5206c2	0.051275976
7	0x3dfb693d	0.12275932
8	0xbdfe73d0	-0.12424433
9	0x3b418b07	0.002953233
10	0x3de950fe	0.11392401
11	0xbdea482c	-0.11439547
12	0xbd837d7a	-0.06420417
13	0xbe013237	-0.12616812
14	0x3da64108	0.081178725
15	0xbd9c2618	-0.07624453
16	0x3e150071	0.1455095
17	0xbdc255b5	-0.094890036
18	0x3e424a8e	0.18973753
19	0xbdab4752	-0.08363213
20	0xbe50c2a8	-0.20386755
21	0xbdbff6f9	-0.09373278
22	0x3dcb8f50	0.09939444
23	0x3e180464	0.14845425
24	0x3da9a2e9	0.08283026
25	0x3c043f33	0.0080717085
26	0x3da88cfe	0.08230017
27	0x3dc3903f	0.09548997
28	0x3c2ba028	0.010475196
29	0x3a5abdba	0.00083443115
30	0xbdccc696	-0.09998815
31	0x3d3ef2d5	0.0466183
32	0xbd86b598	-0.06577605
33	0xbc7732e3	-0.015087816
34	0x3e10cf64	0.14141613
35	0x3d87bd1e	0.06627868
36	0x3d719f15	0.058989603
37	0x3da5ae37	0.080898695
38	0x3ce5f4f1	0.028070899
39	0x3d8ea505	0.06965069
40	0x3cc3942f	0.02387437
41	0xbd9f439c	-0.07776567
42	0xbd317e5d	-0.0433334
43	0xbdb553a9	-0.088538475
44	0x3d6c2f5b	0.05766235
45	0x3bcbd7c4	0.0062207896
46	0xba4f1ecc	-0.00079010124
47	0xbd39f896	-0.045403086
48	0x3e1baa0e	0.1520159
49	0x3cfd78d7	0.03094141
50	0x3c68cc17	0.014208815
51	0xbe11d0a2	-0.14239743
52	0xbe36b4ed	-0.17842455
53	0x3d59e885	0.053200264
54	0x3b63832a	0.003471563
55	0x3da2fa8e	0.07957946
56	0xbe061a6a	-0.13096014
57	0xbae178c6	-0.0017202131
58	0x3e141dfc	0.14464563
59	0xbe4ecb61	-0.2019477
60	0x3e34aa5a	0.17643109
61	0x3e01b7ed	0.12667818
62	0xbc0313db	-0.008000339
63	0x3db89fb6	0.090148374
64	0xbe664826	-0.2248846
65	0x3e0fbd4b	0.14037053
66	0xbdca15cb	-0.09867438
67	0x3cdae8fe	0.026722427
68	0xbe7ab9bc	-0.24484915
69	0xbc8b8c7c	-0.017034762
70	0xbe156fcb	-0.14593427
71	0x3e1db4a6	0.15400943
72	0x3ca527e6	0.020160627
73	0xbcfc50dd	-0.030800277
74	0x3e358c4f	0.17729305
75	0xbd8744b0	-0.06604898
76	0xbd3c83c7	-0.04602411
77	0x3e21c73d	0.1579866
78	0x3e023a0f	0.1271746
79	0xbe130d8b	-0.14360635
80	0xbd8195ea	-0.06327422
81	0xbdd8fe8a	-0.105954245
82	0x3d8d019e	0.06885074
83	0xbd3c70a1	-0.04600585
84	0xbdd0ef35	-0.10201875
85	0x3e210759	0.15725459
86	0x3e0cb86a	0.13742223
87	0xbd789333	-0.060687255
88	0x3ba7d25e	0.0051215133
89	0xbdd9374a	-0.10606249
90	0x3dd148f6	0.10218994
91	0xbddb62bb	-0.10712191
92	0xbdacb7ef	-0.0843352
93	0xbdba576c	-0.09098706
94	0x3da6d033	0.081451796
95	0x3e3acf3c	0.18243116
96	0xbd12eae5	-0.035868544
97	0xbe08d28a	-0.13361564
98	0xbc51b216	-0.012798807
99	0x3dd1ea31	0.102497466
100	0x3e355e7c	0.17711824
101	0x3d380efe	0.044936173
102	0x3d3610f2	0.044449754
103	0xbdc97a10	-0.09837735
104	0x3e2e4027	0.1701666
105	0xbdc67f3a	-0.09692235
106	0x3da6514b	0.08120974
107	0xbda69b56	-0.08135097
108	0x3d85ab06	0.06526761
109	0xbe2c9d72	-0.16856936
110	0x3cae1e39	0.021254646
111	0xbd7a71e9	-0.06114379
112	0x3e270b6a	0.16312948
113	0xbe16aa28	-0.14713347
114	0x3bca5f11	0.0061758836
115	0x3de186a7	0.11012011
116	0x3e09b34a	0.134473
117	0x3c864b1d	0.016393239
118	0x3df6e782	0.12055875
119	0xbdcc2dc2	-0.09969665
120	0x3ce8d934	0.028423883
121	0xbcdd3e16	-0.027007144
122	0xbd463ebf	-0.048399683
123	0x3dafdc4f	0.085869424
124	0xbd039510	-0.03212458
125	0xbe101e2b	-0.14074008
126	0x3d98bf81	0.074584015
127	0x3d6dc4c0	0.058048964
128	0x3c8718af	0.016491262
129	0x3dee4cdd	0.11635754
130	0xbcec5b5a	-0.028852154
131	0xbd645f51	-0.055754963
132	0xbdf3f712	-0.11912359
133	0x3d9f3068	0.07772905
134	0x3d9c6d7b	0.07638069
135	0xbc866c7f	-0.016409157
136	0xbe887a2e	-0.26655716
137	0x3d13ce69	0.03608552
138	0xbdf926c6	-0.121655986
139	0xbe0ee761	-0.13955452
140	0xbd37b405	-0.044849414
141	0x3d8a9211	0.06766141
142	0x3e45d10e	0.1931803
143	0x3db15dc9	0.08660466
144	0xbdeca5b9	-0.115550466
145	0x3de105aa	0.109874085
146	0x3ccfade5	0.025351474
147	0xbe22cc23	-0.15898184
148	0xbd206fdd	-0.03916918
149	0xbe10ccfc	-0.14140695
150	0xbe131178	-0.14362133
151	0xbe480c6f	-0.19535993
152	0xbcab22fa	-0.020890702
153	0x3921baf9	0.00015423809
154	0xbd0b3198	-0.033982843
155	0xbcaa93b5	-0.020822385
156	0xbbafae3d	-0.005361347
157	0xbe2a2865	-0.16616972
158	0x3dd96e7b	0.106167756
159	0x3e2d3469	0.16914524
160	0x3d261760	0.040549636
161	0xbb4377e3	-0.0029826097
162	0x3d6eae58	0.058271736
163	0x3d91824d	0.07104931
164	0xbdf078e1	-0.11741806
165	0xbe0d172e	-0.13778374
166	0x3e1d9e79	0.15392484
167	0xbe01b624	-0.12667137
168	0xbe90ceb2	-0.28282696
169	0x3bda6d90	0.006665893
170	0xbe5f7dbb	-0.21825306
171	0x3ddaa6e9	0.10676367
172	0x3e547180	0.20746422
173	0xbde6d549	-0.1127115
174	0x3e357709	0.1772119
175	0xbd8eb9bf	-0.06969022
176	0xbd8d269c	-0.0689213
177	0x3dca9126	0.09890966
178	0x3dc9fb10	0.098623395
179	0xbe34fb69	-0.1767403
180	0x3e086518	0.13319814
181	0x3d225b35	0.039637763
182	0xbe1b0138	-0.15137184
183	0xbd18def4	-0.037322
184	0xbd54c47c	-0.051945195
185	0x3d09747a	0.033558346
186	0x3dee531c	0.116369456
187	0xbe30b4cb	-0.17256467
188	0x3dcb86af	0.09937798
189	0x3d13bf2f	0.036071
190	0x3e4145b5	0.18874247
191	0x3d92dd84	0.07171157
192	0xbd844d23	-0.06460025
193	0xbdee69f5	-0.116413034
194	0x3dea2bcd	0.114341356
195	0xbde0bbbd	-0.10973308
196	0xbdfd395d	-0.12364457
197	0xbe2f475e	-0.17117068
198	0xbdb2607e	-0.08709811
199	0xbd0d1137	-0.034440245
200	0xbcb9a585	-0.022661934
201	0xbe8bb530	-0.27286673
202	0x3cea2102	0.028580192
203	0xbe3b0dad	-0.18266936
204	0x3e2bb5e3	0.16768603
205	0xbd76e519	-0.06027708
206	0x3bb6e567	0.005581546
207	0x3b0d9f5c	0.0021609878
208	0xbdead17c	-0.11465737
209	0xbe400bce	-0.18754503
210	0x3e214263	0.15747981
211	0x3d4c0a36	0.049814425
212	0xbdb1416e	-0.08655058
213	0x3dd8f627	0.10593825
214	0xbe538b37	-0.20658575
215	0xbe141be3	-0.14463763
216	0xbe389f7f	-0.18029593
217	0xbe030cc3	-0.12797837
218	0xbc58c933	-0.013231563
219	0xbc8c7929	-0.017147617
220	0x3de4ff17	0.11181467
221	0x3e2009bf	0.15628718
222	0xbd8430b8	-0.06454605
223	0x3e1ab628	0.1510855
224	0x3de05140	0.10952997
225	0x3db33498	0.08750266
226	0xbe165561	-0.14681007
227	0x3ddb45de	0.107066855
228	0xbd8970b8	-0.067109525
229	0x39ef4fa1	0.0004564496
230	0xbd9cd9c3	-0.07658722
231	0x3e24738a	0.160597
232	0x3c7c2325	0.0153892385
233	0x3d7a0baf	0.0610463
234	0xbc016cb8	-0.007899456
235	0xbdbe3ccb	-0.09288939
236	0x3e0955d4	0.13411647
237	0x3dfce141	0.12347651
238	0x3d65d6de	0.056113116
239	0x3e3498f6	0.17636475
240	0xbd83d4dd	-0.06437085
241	0xbe0d8b00	-0.13822556
242	0x3d96044a	0.07325037
243	0x3da048b7	0.07826369
244	0x3e3c3b0c	0.183819
245	0xbd918dd0	-0.07107127
246	0x3d199d22	0.03750337
247	0xbd4a8d0c	-0.04945092
248	0xbdea6d3f	-0.11446618
249	0x3e08d627	0.13362943
250	0xbc80ccb2	-0.015722606
251	0xbe11e176	-0.14246163
252	0x3d810aa7	0.0630086
253	0x3dfc69b4	0.12324849
254	0x3d652bbb	0.055949908
255	0x3dc1beba	0.09460206

fc1.bias f4 [100]
0	0x3e0483f4	0.12940961
1	0xbd8aa35e	-0.06769441
2	0x3d8bf189	0.068331786
3	0x3b941ab9	0.004519787
4	0xbce46b99	-0.027883338
5	0x3de52f28	0.11190635
6	0xbde59819	-0.11210651
7	0x3c25d475	0.0101214545
8	0xbd8bb466	-0.06821518
9	0xbdcdff86	-0.10058503
10	0xbd6473f9	-0.055774663
11	0x3e0ff668	0.1405884
12	0x3c7eb055	0.0155449705
13	0xbd2e827a	-0.0426049
14	0xbd244b45	-0.040110845
15	0x3dd2edeb	0.102992855
16	0xbd1ec454	-0.03876145
17	0xbdbb6b4d	-0.091513254
18	0x3c33de2e	0.010978265
19	0x3e00ab12	0.12565258
20	0x3d84c098	0.06482047
21	0x3d9e2b87	0.07723146
22	0x3db98946	0.09059386
23	0xbdee024d	-0.116215326
24	0x3e05ad1b	0.13054316
25	0x3dc164aa	0.09443028
26	0xba99c095	-0.0011730368
27	0x3c2a419b	0.010391618
28	0x3d548802	0.05188752
29	0x3e16969a	0.14705887
30	0x3dee84c5	0.116464175
31	0xbdb62097	-0.08892935
32	0x3c899811	0.016796144
33	0xbd2d57d6	-0.042320095
34	0x3d8cca51	0.06874526
35	0x3dc892a6	0.09793596
36	0x3dd395e1	0.103313215
37	0x3dc7790a	0.09739883
38	0xb8805a45	-6.1203296e-05
39	0xbddf0856	-0.10890262
40	0xbd86fcc3	-0.06591179
41	0x3ddbb9c5	0.10728792
42	0x3c4048c8	0.011736102
43	0x3de74745	0.112928905
44	0x3c9e142e	0.019296732
45	0x3a35f392	0.0006940897
46	0xbc58cb2f	-0.0132320365
47	0xba96f51d	-0.0011517141
48	0xbd0c90ee	-0.034317903
49	0x3dac4ef0	0.08413494
50	0x3dba0def	0.09084689
51	0x3db99a6a	0.09062655
52	0x3d86f519	0.065897174
53	0xbdf5dd33	-0.12005081
54	0xbd99527c	-0.07486436
55	0xbd7d129e	-0.061785333
56	0x3e0aeaac	0.13566083
57	0xbdd30e97	-0.10305517
58	0x3d15db08	0.036585838
59	0xbbac9d29	-0.0052677584
60	0xbc07db9a	-0.008292103
61	0xbdb4510f	-0.08804523
62	0xbc01362b	-0.00788645
63	0xbcedf927	-0.02904947
64	0x3d8e98f3	0.069627665
65	0xbdddcbc3	-0.1082988
66	0xbdba818f	-0.091067426
67	0xbc866906	-0.016407501
68	0x3d8a04ec	0.0673922
69	0x3dc8c5dd	0.098033644
70	0x3dd461c1	0.103702076
71	0xbdcf459c	-0.10120699
72	0x3d643fea	0.055725016
73	0x3e0bb4e8	0.13643229
74	0x3dea0f03	0.114286445
75	0xbc48b984	-0.012251262
76	0x3d342c92	0.043987818
77	0x3b7d5b4f	0.003865916
78	0x3dfbee01	0.12301255
79	0xbde06270	-0.109562755
80	0x3d02c19c	0.03192292
81	0x3cf23fdb	0.029571464
82	0xbd994359	-0.07483549
83	0xb8e47115	-0.000108929504
84	0x3dadade9	0.08480436
85	0xb931ed54	-0.00016968447
86	0x3e096834	0.13418657
87	0xbcd96dab	-0.026541552
88	0x3e0ffcff	0.14061354
89	0xbe050480	-0.12989998
90	0xbde3799b	-0.11107179
91	0xbd380bd0	-0.04493314
92	0x3de2526e	0.110508785
93	0xbd87eaae	-0.066365585
94	0x3c38be8e	0.0112759005
95	0x3db6c46c	0.08924183
96	0x3d27ad07	0.040936496
97	0x3d75985e	0.05995976
98	0x3da530af	0.08065926
99	0xbdbb139a	-0.09134598

fc2.weight f4 [2, 6400]
0	0x3cb46aaa	0.022023518
1	0xbdaee37b	-0.08539482
2	0xbbddb4a0	-0.006765917
3	0xbe27a5bd	-0.16371818
4	0xbd7d0855	-0.061775524
5	0x3c3adc34	0.01140504
6	0x3dd8239c	0.10553667
7	0xbcab8d45	-0.020941386
8	0xbd8308ab	-0.06398138
9	0x3c2cb90f	0.010542168
10	0x3d6c56bb	0.0576999
11	0xbcc22679	-0.023699986
12	0xbd3d9ed0	-0.046294034
13	0x3de13a28	0.109974205
14	0x3d9a88a6	0.07545595
15	0x3d0a341a	0.033741094
16	0xbb83a5ba	-0.004017559
17	0xbd9d1919	-0.076708026
18	0xbb112f6a	-0.0022153505
19	0x3c9e96e2	0.019359056
20	0x3c51f9ca	0.012815902
21	0xbcceb989	-0.025234954
22	0x3c05a8eb	0.008157949
23	0x3dce4e0c	0.1007348
24	0x3d9050b8	0.07046646
25	0x3d8b44c0	0.068002224
26	0x3d89321c	0.06699011
27	0x3d0ee65b	0.034887653
28	0x3b7a5d6d	0.0038202659
29	0x3b613755	0.0034365256
30	0xbdbf62d5	-0.093450226
31	0x3dbedfcb	0.09320029
32	0xbd2c2437	-0.042026725
33	0xbd12cc8c	-0.035839602
34	0xbb383fa5	-0.0028114107
35	0xbcbc3017	-0.02297215
36	0xbd35a2a7	-0.04434457
37	0xbdb1869e	-0.08668254
38	0xbde2c0dd	-0.11071942
39	0x3ce6a8dd	0.028156692
40	0x3d90c732	0.070692435
41	0xbb716184	-0.0036831805
42	0xbca86bde	-0.020559248
43	0x3d1ea9d2	0.038736172
44	0x3dc081aa	0.093997315
45	0x3bcb8a62	0.006211565
46	0xbd028eb9	-0.031874392
47	0xbd043bc1	-0.03228355
48	0xbc34903d	-0.011020717
49	0x3b74fd26	0.0037382334
50	0xbd9c1801	-0.07621766
51	0x3d0cf03f	0.034408804
52	0x3d865003	0.0655823
53	0xbdb0e6f3	-0.086378
54	0xbd00c19c	-0.03143464
55	0x3da3b0cd	0.079927064
56	0xbc3501e2	-0.011047812
57	0xbc414b09	-0.011797675
58	0x3a8809f0	0.0010378938
59	0xbd679b1e	-0.056544416
60	0x3d1bf07f	0.03807115
61	0xbc27ef45	-0.010249917
62	0x3dc8f6ad	0.09812675
63	0xbd92c69b	-0.07166787
64	0xbdf5d21e	-0.12002967
65	0xbd500124	-0.050782338
66	0x3be3b671	0.006949239
67	0x3e0b291b	0.13589899
68	0x3dd2f275	0.10300151
69	0xbc568b11	-0.013094679
70	0xbcc94a10	-0.024571449
71	0x3cb2ae6c	0.021811686
72	0xbd229248	-0.039690286
73	0xbd403874	-0.046928838
74	0xbb96e077	-0.004604395
75	0x3be3119b	0.006929589
76	0x3bc9d9d4	0.0061600003
77	0xbd5aad35	-0.05338784
78	0x3c3a9c5f	0.011389821
79	0xbd348fa2	-0.04408229
80	0x3a92133b	0.0011144647
81	0xbce4a172	-0.027909014
82	0xbdc5d3e4	-0.096595556
83	0x3c914112	0.017731223
84	0x3d38724c	0.045030877
85	0xbc5bec62	-0.013423057
86	0x3d448445	0.047977705
87	0xbccc54f5	-0.024942854
88	0x3d36459c	0.04449998
89	0x3d1e8b19	0.038706873
90	0xbd858e19	-0.065212436
91	0x3cb15557	0.021647139
92	0xbb41022f	-0.0029450764
93	0xbbdb680c	-0.006695753
94	0x3d26ae91	0.040693823
95	0x3becb8f7	0.007224198
96	0x3da2eff6	0.07955925
97	0x3d1f1de9	0.038846884
98	0x3da12363	0.078680776
99	0x3c542b38	0.012949757
100	0x3cedd4a7	0.029032065
101	0xbdae4c34	-0.08510628
102	0x3b690ffe	0.003556251
103	0xbdac1bf0	-0.08403766
104	0xbc5bd106	-0.013416534
105	0x3ca31183	0.019905811
106	0x3d08e38d	0.033420134
107	0xbaf7bf52	-0.0018901622
108	0xbd90b2a8	-0.07065326
109	0x3d9d4f2a	0.07681115
110	0x3d19362d	0.03740518
111	0xbd9473a3	-0.072486185
112	0xbd0676f6	-0.032828294
113	0x3dd1e984	0.10249618
114	0xbb17e11d	-0.002317495
115	0x3c485cf2	0.012229191
116	0x3bef37e4	0.007300364
117	0xbd88d623	-0.06681468
118	0xbcfe9200	-0.031075478
119	0x3c08a3f4	0.008339871
120	0xbac01638	-0.0014655059
121	0x3d0e3def	0.034727033
122	0x3da16e94	0.07882419
123	0x3c6ab5cf	0.014325573
124	0x3cdc430b	0.026887437
125	0x3c91a6d4	0.017779745
126	0x3b8e9130	0.004350804
127	0x3d56bff1	0.052429143
128	0x3cf52927	0.02992685
129	0x3414050f	1.3785414e-07
130	0xbdadf8ba	-0.084947065
131	0x3a6d9ac2	0.0009063893
132	0x3c46618d	0.012108219
133	0x3cdd56fc	0.027019016
134	0xbd2b80ff	-0.041871067
135	0xbcd21263	-0.025643533
136	0xbd4e9b80	-0.050441265
137	0xbd513d78	-0.05108401
138	0x3c9c23b9	0.019060003
139	0x3d30d60e	0.04317289
140	0x3d294763	0.041327845
141	0xbc43f1cd	-0.011959505
142	0xbcfa45c2	-0.030550841
143	0x3c4de258	0.012566172
144	0xbbd912f2	-0.006624573
145	0x3d876064	0.06610182
146	0xbc5f3743	-0.013624015
147	0xbd5cf8ca	-0.0539482
148	0x3b6f2e25	0.003649601
149	0xbb8cdded	-0.0042989166
150	0xbdc46b04	-0.09590724
151	0x3d45ab18	0.04825887
152	0x3c787f38	0.01516705
153	0xbdae121c	-0.08499548
154	0xbca42393	-0.020036494
155	0x3d30be87	0.04315045
156	0xbc6ee694	-0.014581341
157	0xbcda8159	-0.026673006
158	0x3a93eef0	0.0011286419
159	0xbd89b183	-0.06723311
160	0x3cc2ce28	0.023779944
161	0xbcaf9674	-0.021434046
162	0x3d75e238	0.060030192
163	0xbd154727	-0.03644481
164	0xbd8fe57e	-0.07026194
165	0xbc935aa7	-0.017987562
166	0xbdc48f2d	-0.09597621
167	0x3d7cddb6	0.061734878
168	0x3e0aeac8	0.13566124
169	0xbc227e20	-0.009917766
170	0xbbf3d69b	-0.0074413544
171	0xbd4c1c80	-0.049831867
172	0xbd1dac39	-0.038494322
173	0xbce96fe9	-0.028495746
174	0x3d7da242	0.06192232
175	0xbc0c1d8e	-0.008551968
176	0xbc5db557	-0.013532004
177	0xbd1d18bf	-0.038353678
178	0x3c653006	0.0139885
179	0xbc8cd41b	-0.017190984
180	0x3c25de00	0.01012373
181	0x3c9c1104	0.019051082
182	0xbc6731ea	-0.0141110215
183	0x3d24ec51	0.04026443
184	0x3c955270	0.018227786
185	0x3a4fd776	0.00079285295
186	0x3c979489	0.018503444
187	0xbcdfd7cd	-0.027324582
188	0x3d130f0f	0.035903033
189	0x3baf22f4	0.005344743
190	0xbdae8547	-0.085215144
191	0x3c9cf6ed	0.019160712
192	0x3bb49260	0.0055106133
193	0xbc759143	-0.014988246
194	0x3d2bfdc2	0.04199005
195	0xbd065c72	-0.032803006
196	0xbc58cd42	-0.013232531
197	0xbd4e9788	-0.05043748
198	0xbbae87ab	-0.0053262315
199	0x3cc41fd7	0.023940964
200	0x3cf6122e	0.030037966
201	0xbdad7fa7	-0.084716134
202	0xbcee121e	-0.029061373
203	0xbd19d5e1	-0.037557486
204	0xbd6cb16c	-0.05778639
205	0x3d2c910d	0.04213052
206	0xbbdcc38e	-0.006737179
207	0xbd0cc4bd	-0.03436731
208	0xbd466122	-0.048432477
209	0x3d1ea9a8	0.038736016
210	0x3cd52863	0.026020234
211	0xbb199149	-0.0023432544
212	0xbcc0c6e2	-0.023532335
213	0x3d94cf06	0.07266049
214	0x3d087c34	0.033321574
215	0x3c0b002c	0.008483928
216	0x3c9279d4	0.017880358
217	0xbd2d1d02	-0.042263992
218	0xbd0606ad	-0.03272121
219	0x3d83941c	0.06424734
220	0x3c7e2043	0.0155106215
221	0xbaa99e4e	-0.0012940855
222	0x3d385049	0.04499844
223	0x3b229bf5	0.0024812196
224	0x3b615929	0.003438542
225	0x3d49ddf1	0.049283925
226	0xbba89a1b	-0.005145324
227	0x3ca60f91	0.020271095
228	0x3c8bdb41	0.017072322
229	0xbd12d936	-0.03585168
230	0xbd883f80	-0.06652737
231	0x3d1fe9cb	0.03904132
232	0xbcafc58a	-0.021456499
233	0x3be9d6c1	0.0071361964
234	0xbd044258	-0.032289833
235	0xbd270d52	-0.040784188
236	0xbc089ac2	-0.008337678
237	0xbd410e2a	-0.04713265
238	0x3c973386	0.018457185
239	0x3d93421a	0.07190342
240	0xbcdc5431	-0.026895614
241	0xbc6f083e	-0.014589367
242	0xba5365da	-0.00080641883
243	0x3cf39585	0.029734382
244	0x3c11680a	0.0088749025
245	0x3d702749	0.058631215
246	0xbd044442	-0.03229166
247	0xbc97c898	-0.018528268
248	0x3aad9c12	0.0013245365
249	0xbd0982b2	-0.033571906
250	0xbd631fd0	-0.05545026
251	0x3d9d8579	0.076914735
252	0xbcbe6952	-0.02324358
253	0xbdc8e1bd	-0.09808681
254	0xbd6635f8	-0.056203812
255	0x3c5d5db3	0.013511109

fc2.bias f4 [2]
0	0x3b025680	0.0019887984
1	0x3b832a94	0.0040028784
