results/mlp/mlp_length_50_batch_64_lr_0.001.pth (torch, 32528 bytes, 4 tensors)

fc1.weight f4 [50, 50]
-0.015755592 0.11285112 -0.016531143 0.06333264 -0.016446771 -0.022908367 0.1605255 0.10542029
-0.18602574 -0.08811965 -0.17516616 0.04343229 -0.13436659 -0.12069558 -0.0781423 -0.17272444
-0.12553222 -0.059453 -0.07544972 0.029711429 0.064582765 0.1147585 0.19518474 0.11345804
-0.25362504 0.10078744 0.20885421 0.12183278 0.121224806 -0.30689368 -0.44966954 -0.0075149126
0.1187897 0.08088016 0.11785685 0.033569403 0.21526478 0.050542068 0.052721914 -0.046815928
0.2742373 0.054010015 -0.082825825 0.23333043 0.02546619 0.007944343 0.0761384 -0.14576009
0.08616218 -0.1698957 -0.08474653 0.19031103 -0.11199266 -0.053134166 -0.13245656 -0.10337716
-0.060823135 0.02670887 -0.027877564 -0.029934691 0.062930815 -0.11235877 -0.053629115 0.035147894
0.0109145595 -0.15862226 0.10645775 -0.018119665 0.03795773 0.061229926 0.2000008 -0.1121624
0.012032642 -0.113620885 -0.0073995995 0.117546685 0.054173376 0.018582182 0.18115835 -0.03403784
0.082559414 0.17111267 0.055247627 0.06298369 0.12840053 0.13373661 -0.035599884 0.19998935
0.10487782 -0.1044447 0.1527506 -0.09602583 0.23493446 -0.08966797 0.020435361 0.021655168
0.14060615 0.06941254 0.050475106 0.037627112 0.011046988 0.2582005 -0.09957478 0.08402078
0.032843307 -0.096512295 -0.012073735 0.011399178 0.023295319 -0.015385216 0.049566254 -0.09525511
-0.14164497 -0.085851975 0.025477642 -0.021469211 -0.061261535 -0.09589398 0.016961392 0.011097514
0.16397123 -0.0767222 0.060452186 0.050146814 -0.034973137 -0.119527094 0.09672176 0.028854968
0.034008995 -0.17753415 -0.022910696 0.12148139 0.17269541 -0.0053775227 0.046407785 -0.06230978
-0.06038131 -0.00014381915 0.07940446 -0.1568101 0.19190873 -0.1631702 0.14983764 0.0058663525
-0.16821112 -0.089598484 0.050913464 -0.075741306 0.02933359 -0.119325876 0.025608944 0.09388628
-0.07076226 -0.008024154 0.00097427226 -0.18037353 -0.29705155 -0.05190921 -0.28535104 -0.19923036
-0.08313268 -0.057203643 0.016583143 0.0857559 0.03432765 -0.042883914 0.02651166 0.037507426
0.15250047 -0.060938764 -0.065175496 0.1613018 -0.07025489 -0.24043056 0.086486526 0.06184118
0.039617352 -0.2176577 -0.06013383 0.27612433 -0.009565296 -0.036809884 -0.08362229 0.122989714
0.020491475 0.071138844 0.12669171 0.07829771 -0.26063752 0.033244465 0.26032653 0.14516883
0.0028355117 0.030331615 -0.007180131 -0.12471632 -0.023511512 -0.11917225 -0.10172253 0.04860315
0.07217456 0.14554755 0.019843632 -0.07938932 0.14254948 0.329576 0.112675905 -0.24307719
0.11105095 0.06265395 0.03480239 0.080393344 0.0066616246 -0.16410673 -0.10565324 0.103170775
-0.0657673 0.04469132 0.06849654 0.029294621 0.07429955 -0.10104944 0.08707626 0.30231994
-0.14551626 0.1539014 -0.22748904 0.077581644 0.18182953 -0.10455752 -0.10314994 -0.13632151
-0.04002455 -0.105983995 -0.15154956 0.3223178 -0.034794755 -0.21983697 0.090792336 -0.016284853
-0.14585803 -0.06910592 0.12875022 -0.019727116 -0.15403453 0.22821316 0.07044766 -0.09848724
0.12442085 -0.034092933 0.12909172 0.014512554 0.025215987 0.0050169225 -0.13739894 0.10362752
00000000: df11 81bc 7d1e e73d 526c 87bc 8bb4 813d
00000010: 61bb 86bc 54aa bbbc cc60 243e 98e6 d73d
00000020: 887d 3ebe 1378 b4bd c25e 33be 0fe6 313d
00000030: 6597 09be 3f2f f7bd 1209 a0bd adde 30be
00000040: 858b 00be fd84 73bd 6285 9abd 6265 f33c
00000050: f843 843d 8106 eb3d 82de 473e b05c e83d
00000060: 24db 81be a569 ce3d e1dd 553e 7783 f93d
00000070: b644 f83d 2b21 9dbe 163b e6be a83f f6bb
00000080: 0448 f33d 7fa4 a53d ef5e f13d 1280 093d
00000090: 5f6e 5c3e 3305 4f3d eff2 573d 0fc2 3fbd
000000a0: d568 8c3e 9b39 5d3d 96a0 a9bd 2cee 6e3e
000000b0: 799e d03c fd28 023c 73ee 9b3d 2242 15be
000000c0: cc75 b03d 23f9 2dbe 978f adbd e5e0 423e
000000d0: 685c e5bd 36a3 59bd b1a2 07be 68b7 d3bd
000000e0: ae21 79bd 8fcc da3c 7d5f e4bc 9939 f5bc
000000f0: dfe1 803d 5b1c e6bd 34aa 5bbd 3df7 0f3d
00000100: fbd2 323c e06d 22be 8506 da3d b16f 94bc
00000110: 9179 1b3d 3bcc 7a3d 02cd 4c3e 66b5 e5bd
00000120: 8f24 453c 11b2 e8bd 5778 f2bb 51bc f03d
00000130: e7e4 5d3d a939 983c 9381 393e 436b 0bbd
00000140: e914 a93d 2938 2f3e 564b 623d 98fd 803d
00000150: 6e7b 033e 40f2 083e 2fd1 11bd 02ca 4c3e
00000160: 2fca d63d 1ae7 d5bd a76a 1c3e 31a9 c4bd
00000170: a992 703e d7a3 b7bd 0f68 a73c 2e66 b13c
00000180: 0ffb 0f3e 2928 8e3d fcbe 4e3d e31e 1a3d
00000190: 6dfe 343c db32 843e dded cbbd 1613 ac3d
000001a0: b486 063d 3da8 c5bd ead0 45bc 9ec3 3a3c
000001b0: d3d5 be3c 4612 7cbc fc05 4b3d 1c15 c3bd
000001c0: 610b 11be 29d3 afbd 7db6 d03c 33e0 afbc
000001d0: 60ed 7abd 1064 c4bd 9ef2 8a3c 59d2 353c
000001e0: 13e8 273e 8720 9dbd b69c 773d bf66 4d3d
000001f0: fe3f 0fbd 9fca f4bd 0f16 c63d 4161 ec3c
00000200: 044d 0b3d 83cb 35be 36af bbbc 3ccb f83d
00000210: 11d7 303e ee35 b0bb 1716 3e3d 8a38 7fbd
00000220: 6452 77bd 29ce 16b9 ce9e a23d d492 20be
00000230: b983 443e 1716 27be 0a6f 193e 883a c03b
00000240: 893f 2cbe 697f b7bd a38a 503d 421e 9bbd
00000250: ff4c f03c 2061 f4bd d9c9 d13c 7347 c03d
00000260: ceeb 90bd be77 03bc 4e66 7f3a d7b3 38be
00000270: 2417 98be c09e 54bd 8819 92be 0b03 4cbe
00000280: 7741 aabd 5e4e 6abd 5fd9 873c caa0 af3d
00000290: 269b 0c3d 0ba7 2fbd fb2e d93c 63a1 193d
000002a0: 1529 1c3e ed9a 79bd bb7a 85bd 4d2c 253e
000002b0: cce1 8fbd 6e33 76be d91f b13d 2d4d 7d3d
000002c0: ce45 223d a9e1 5ebe e44e 76bd 2b60 8d3e
000002d0: c2b7 1cbc f6c5 16bd 2a42 abbd 08e2 fb3d
000002e0: bddd a73c 3eb1 913d 79bb 013e 8d5a a03d
000002f0: 4872 85be 592b 083d 8549 853e 23a7 143e
00000300: fed3 393b 027a f83c 4e47 ebbb 456b ffbd
00000310: 379b c0bc 9510 f4bd e753 d0bd 1914 473d
00000320: 41d0 933d 6b0a 153e 1d8f a23c de96 a2bd
00000330: 7ef8 113e 2fbe a83e a0c2 e63d 3ae9 78be
00000340: ae6e e33d b750 803d f38c 0e3d 44a5 a43d
00000350: c249 da3b 980b 28be ba60 d8bd 334b d33d
00000360: 02b1 86bd 3f0e 373d ea47 8c3d 46fb ef3c
00000370: 5d2a 983d 02f3 cebd 0a55 b23d aec9 9a3e
00000380: 3702 15be 5498 1d3e e3f2 68be 20e3 9e3d
00000390: 8531 3a3e 4122 d6bd 4740 d3bd de97 0bbe
000003a0: c8f0 23bd 230e d9bd cf2f 1bbe d706 a53e
000003b0: f284 0ebd f11c 61be 55f1 b93d d067 85bc
000003c0: cf5b 15be 6887 8dbd 19d7 033e c39a a1bc
000003d0: 3abb 1dbe b6b0 693e dd46 903d aeb3 c9bd
000003e0: 5cd0 fe3d 08a5 0bbd 9f30 043e 10c6 6d3c
000003f0: c291 ce3c ff64 a43b 4fb2 0cbe aa3a d43d

fc1.bias f4 [50]
-0.0820777 -0.12624665 -0.10447081 -0.057816263 -0.023371384 -0.0030735887 0.11256656 0.10021169
-0.043185897 -0.02741713 -0.06151226 0.118870646 0.0671643 -0.07113706 0.0011546217 -0.08182801
0.049300052 0.04712887 -0.084460795 0.04118879 0.04978721 -0.08704057 -0.007170108 -0.053020697
-0.1114837 0.09578817 0.009518158 -0.026789017 -0.13166565 -0.14429082 0.113160744 -0.14922856
-0.06261992 0.0077731325 -0.03004248 -0.02934414 -0.024637692 0.0414702 0.105917245 -0.080869794
-0.100844376 -0.025171813 -0.05034693 -0.06132297 -0.1354968 -0.106322944 -0.10783259 0.056715563
0.1284777 -0.12495465
00000000: 5a18 a8bd cd46 01be cbf4 d5bd bfd0 6cbd
00000010: 5875 bfbc 436e 49bb 4c89 e63d c93b cd3d
00000020: b2e3 30bd e499 e0bc 48f4 7bbd 7472 f33d
00000030: 708d 893d 4fb0 91bd ad56 973a 7295 a7bd
00000040: daee 493d 340a 413d c8f9 acbd 94b5 283d
00000050: aced 4b3d 5442 b2bd 3af3 eabb 3b2c 59bd
00000060: 9151 e4bd 972c c43d 0cf2 1b3c a474 dbbc
00000070: 5cd3 06be f9c0 13be d2c0 e73d 5fcf 18be
00000080: df3e 80bd c3b5 fe3b a61b f6bc 1f63 f0bc
00000090: fcd4 c9bc a8dc 293d 24eb d83d 109f a5bd
000000a0: 7f87 cebd 1e35 cebc 9538 4ebd cb2d 7bbd
000000b0: acbf 0abe d8bf d9bd 55d7 dcbd 944e 683d
000000c0: a88f 033e 39e8 ffbd

fc2.weight f4 [2, 2500]
0.16751711 -0.004512072 0.051831566 0.16537245 0.006879774 -0.067240454 -0.0037062736 0.10217284
0.22847757 -0.20664981 -0.1565547 -0.04154669 0.021919588 -0.21517944 -0.17632587 0.31308094
0.019073103 -0.0803115 -0.099144 0.1335053 -0.046746574 -0.02117825 -0.05726894 0.07094302
-0.03852571 0.0916762 0.19946845 0.06957214 0.21237129 0.0037588668 0.09504016 0.04432345
0.049781896 0.13405783 0.045851067 -0.07543962 -0.040319927 0.12866594 -0.08178261 -0.035141453
-0.13815738 0.07605768 0.19148329 -0.017571688 -0.13725515 -0.014245499 0.08510166 -0.12565131
0.10627562 -0.08753014 0.16983275 0.07074027 -0.0137934415 0.08654744 0.054255426 -0.031571843
0.011003889 0.013851132 0.110885285 -0.07315099 -0.0120858075 -0.014131193 -0.070068724 -0.1617381
-0.08160227 0.071420036 0.027541678 -0.08438194 -0.056414187 0.008764969 -0.058596805 0.053330477
-0.06074924 0.05088548 0.030013213 0.029424718 0.039552465 0.051072616 0.20020464 -0.07726003
0.075862646 -0.08474062 0.05244226 0.15416367 -0.06595546 -0.107650846 -0.13837346 0.00142399
-0.115573905 -0.019597922 -0.155683 0.021196198 0.11347095 0.010721891 -0.08808131 -0.0065479167
0.042015254 0.017868066 0.10092085 -0.16778041 0.012287884 0.02606506 -0.048485413 0.17918593
0.1779817 -0.12123866 -0.0335265 0.04121897 0.0637227 -0.11597318 -0.0471292 0.010586409
0.043561894 -0.10771031 -0.038008727 0.17750116 0.011843266 -0.03308609 -0.080887854 -0.033216108
0.04078236 -0.03171492 -0.093345895 0.05087607 0.003916036 0.0437091 0.037918933 0.038083844
0.09711276 -0.081916325 0.07659651 -0.17218263 0.13952607 0.15526581 0.046739522 0.027164634
-0.0415893 0.038973708 -0.05290171 -0.09095751 -0.14360973 0.08530806 0.12725328 -0.027507557
-0.061010227 -0.053749498 0.102224626 -0.03361033 0.08595185 -0.14482588 0.06013466 0.049540218
-0.0027970886 -0.054765265 0.09317067 -0.053548552 -0.0469991 -0.008747171 -0.0031082518 -0.13004148
-0.03971233 -0.009393214 -0.08429961 -0.118070945 0.04836707 0.07513716 -0.018224385 -0.06561253
-0.016157351 0.0196432 0.0075141275 -0.01036053 -0.06789457 -0.017857319 -0.030032638 0.0017605564
0.1067407 0.07045949 0.10557601 0.004389774 0.052585315 -0.15147416 0.024572162 0.15014468
0.0622377 -0.038658697 -0.048527576 0.014949918 -0.059504274 -0.06526696 -0.12533958 0.08623829
0.109469764 0.085298836 -0.096409135 0.008964812 -0.17136826 -0.117938995 0.049202364 -0.06978407
0.025100954 0.055052962 0.031014588 0.111856505 0.007051238 -0.07449901 -0.10641575 0.08297594
0.002793195 -0.15847717 -0.06672267 -0.01152008 -0.04158366 -0.11616834 -0.08528018 0.026307238
0.043084174 -0.020221036 -0.013824364 0.06631539 -0.003886623 -0.0036124478 -0.05498875 0.03218233
0.05581863 -0.054550894 0.13083488 0.07159433 -0.0878168 -0.123680905 0.090021946 0.034888756
0.05268768 0.08745183 0.017666701 -0.09072228 0.0028776764 0.04018672 -0.1104624 -0.000730296
-0.07732069 0.21769337 0.11182268 0.03371515 -0.074026 -0.007996803 -0.019464705 -0.027827702
0.07554447 -0.20403177 0.04557277 0.039768778 0.10956952 0.03108427 0.15898457 0.023670211
00000000: 9b89 2b3e 01da 93bb 564d 543d 6557 293e
00000010: ba6f e13b 5db5 89bd f4e4 72bb fe3f d13d
00000020: 06f6 693e 029c 53be e04f 20be dd2c 2abd
00000030: b590 b33c 0058 5cbe c58e 34be 254c a03e
00000040: 323f 9c3c 5b7a a4bd 020c cbbd 9db5 083e
00000050: 5679 3fbd 027e adbc d692 6abd 934a 913d
00000060: 23cd 1dbd bbc0 bb3d 7541 4c3e d77b 8e3d
00000070: dc77 593e 5257 763b 6aa4 c23d 828c 353d
00000080: 1ae8 4b3d 7546 093e 54ce 3b3d 1680 9abd
00000090: 8226 25bd 01c1 033e a47d a7bd 7cf0 0fbd
000000a0: 2179 0dbe 21c4 9b3d 3214 443e 80f2 8fbc
000000b0: 9d8c 0cbe f465 69bc c749 ae3d bdaa 00be
000000c0: 08a7 d93d 0143 b3bd a3e8 2d3e 46e0 903d
000000d0: e3fd 61bc c93f b13d f03a 5e3d 7a51 01bd
000000e0: a849 343c dcef 623c d317 e33d 30d0 95bd
000000f0: 8d03 46bc 8586 67bc 3180 8fbd ac9e 25be
00000100: 171f a7bd ab44 923d 169f e13c 70d0 acbd
00000110: 9012 67bd f29a 0f3c 3403 70bd 0f71 5a3d
00000120: 32d4 78bd 4b6d 503d 45de f53c 1b0c f13c
00000130: c401 223d 8531 513d 7202 4d3e 823a 9ebd
00000140: e05d 9b3d 7d8c adbd b2cd 563d 15dd 1d3e
00000150: a813 87bd 0c78 dcbd c6b1 0dbe 2da5 ba3a
00000160: 03b2 ecbd d28b a0bc 5d6b 1fbe a6a3 ad3c
00000170: 7563 e83d dfaa 2f3c f963 b4bd e88f d6bb
00000180: 3018 2c3d 0d60 923c 97af ce3d a1ce 2bbe
00000190: 1f53 493c 6586 d53c a498 46bd 847c 373e
000001a0: d640 363e f94b f8bd 1553 09bd 39d5 283d
000001b0: 0c81 823d 5983 edbd 8c0a 41bd 9e72 2d3c
000001c0: f56d 323d 3997 dcbd 0aaf 1bbd ddc2 353e
000001d0: 420a 423c 4885 07bd 88a8 a5bd 9d0d 08bd
000001e0: 670b 273d 81e7 01bd 222c bfbd 6d63 503d
000001f0: 1752 803b 5008 333d e250 1b3d cefd 1b3d
00000200: 0ee3 c63d bfc3 a7bd a2de 9c3d a550 30be
00000210: ecdf 0e3e 00fe 1e3e f171 3f3d 5e88 de3c
00000220: 8b59 2abd e5a2 1f3d 77af 58bd ee47 babd
00000230: 6e0e 13be feb5 ae3d af4e 023e 8757 e1bc
00000240: dce5 79bd 6f28 5cbd 255b d13d fcaa 09bd
00000250: 8607 b03d 3c4d 14be c34f 763d afea 4a3d
00000260: 5c4f 37bb 8b51 60bd 44d0 be3d ba55 5bbd
00000270: 2182 40bd 4b50 0fbc d0b3 4bbb 9829 05be
00000280: 65a9 22bd ffe5 19bc 46a5 acbd 2ecf f1bd
00000290: 8c1c 463d 83e1 993d 4e4b 95bc dd5f 86bd
000002a0: 6c5c 84bc c7ea a03c 1239 f63b 36bf 29bc
000002b0: 4f0c 8bbd 8349 92bc 0207 f6bc 78c2 e63a
000002c0: de9a da3d 114d 903d 3c38 d83d 18d8 8f3b
000002d0: b363 573d 0b1c 1bbe 8f4b c93c 87bf 193e
000002e0: f5ec 7e3d 9558 1ebd dac4 46bd 80f0 743c
000002f0: c1ba 73bd afaa 85bd 0559 00be b39d b03d
00000300: af31 e03d 28b1 ae3d 2772 c5bd 26e1 123c
00000310: 297b 2fbe 008a f1bd 6b88 493d f3ea 8ebd
00000320: 84a0 cd3c 377f 613d 4e12 fe3c 0615 e53d
00000330: 120e e73b f092 98bd 80f0 d9bd 4aef a93d
00000340: 090e 373b d747 22be e5a5 88bd b8be 3cbc
00000350: a153 2abd abe9 edbd 60a7 aebd 4782 d73c
00000360: 0879 303d 96a6 a5bc 967f 62bc 5dd0 873d
00000370: b7b6 7ebb d1be 6cbb e23b 61bd 9ed1 033d
00000380: 13a2 643d c270 5fbd 94f9 053e 0ca0 923d
00000390: 4bd9 b3bd 6a4c fdbd 6d5d b83d 83e7 0e3d
000003a0: 09cf 573d f219 b33d c2b9 903c 9acc b9bd
000003b0: 6697 3c3b d59a 243d 1c3a e2bd 5671 3fba
000003c0: 4f5a 9ebd 03eb 5e3e 4a03 e53d e618 0a3d
000003d0: f29a 97bd 0605 03bc 7274 9fbc ecf6 e3bc
000003e0: 0fb7 9a3d b4ed 50be 83aa 3a3d 96e4 223d
000003f0: fc65 e03d 70a4 fe3c dacc 223e 08e8 c13c

fc2.bias f4 [2]
-0.010191654 0.007384852
00000000: e5fa 26bc a1fc f13b
