results/mlp/mlp_hidden_100_length_64_batch_64_lr_0.001.pth (torch, 74152 bytes, 4 tensors)

fc1.weight f4 [100, 50]
0	0x3d23cd53	0.039990734
1	0x3d450da7	0.048108723
2	0x3d8d08a3	0.06886413
3	0x3e3656dc	0.17806572
4	0xbe3f3df2	-0.18675974
5	0xbda493dd	-0.08036015
6	0x3cc54b3e	0.02408373
7	0x3de565cf	0.11201059
8	0xbe4ed5ac	-0.20198697
9	0xbe27348d	-0.1632864
10	0xbde4a45f	-0.11164164
11	0x3dc1a790	0.09455788
12	0x3cefe10b	0.029282114
13	0xbe1e77cd	-0.15475388
14	0xbe0cdf4d	-0.13757057
15	0xbdc0bd0f	-0.0941106
16	0x3d46534d	0.048419286
17	0x3d98c238	0.07458919
18	0x3c8adaa1	0.016949954
19	0x3dc0fd94	0.09423366
20	0xbddf3622	-0.10898997
21	0xbd6f6abd	-0.058451403
22	0x3d9b6e05	0.07589344
23	0xbe21e0c0	-0.15808392
24	0x3c38d96f	0.011282309
25	0xbdfa99c6	-0.12236361
26	0x3d20a5ed	0.03922074
27	0xb9a44fc8	-0.0003133996
28	0xbdb027b6	-0.08601324
29	0xbd8a3c17	-0.067497425
30	0xb90c8c5d	-0.0001340373
31	0x3de8159d	0.113322474
32	0x3d8d9dd3	0.06914868
33	0x3db757f2	0.08952321
34	0xbe12e393	-0.14344625
35	0x3e20b6a2	0.15694669
36	0x3e1b3d97	0.15160213
37	0x3da92b27	0.08260184
38	0xbd81548e	-0.06314956
39	0x3de34343	0.110968135
40	0x3e4709ba	0.19437304
41	0xbb7c172b	-0.0038465958
42	0x3ddcc02f	0.107788436
43	0x3e10218c	0.14075297
44	0x3e093bee	0.13401768
45	0xbd7e107d	-0.062027443
46	0x3e1f5b12	0.15562084
47	0xbdc25902	-0.09489633
48	0x3d41e251	0.047334973
49	0x3da8a902	0.08235361
50	0xbdcb17e7	-0.099166684
51	0x3de6d8b3	0.11271801
52	0x3c7b9c19	0.015357041
53	0xbdb7e27b	-0.089787446
54	0x3ad777ab	0.0016438862
55	0xbe3fadd1	-0.1871865
56	0x3d9a4102	0.075319305
57	0xbc4b1dba	-0.012397224
58	0xbe317a2d	-0.17331763
59	0xbde07b8b	-0.10961064
60	0x3d968120	0.073488474
61	0x3d8b302b	0.06796297
62	0x3e095cf4	0.13414365
63	0x3d27e071	0.04098553
64	0xbd3a1914	-0.045434073
65	0x3de9f290	0.11423218
66	0x3de39a03	0.1111336
67	0xbd920c26	-0.071312234
68	0xbde81839	-0.11332745
69	0xbe117809	-0.14205946
70	0xbc6a93ab	-0.014317433
71	0xbe1abfd5	-0.1511224
72	0xbcc16f7f	-0.023612736
73	0xbe94b8d2	-0.29047257
74	0x3d8d4270	0.068974376
75	0x3e00abd8	0.12565553
76	0x3db4065f	0.08790278
77	0xbe2a27da	-0.16616765
78	0xbde9f7c7	-0.11424213
79	0x3da12251	0.078678735
80	0x3e2568c6	0.16153249
81	0x3ddeb694	0.10874668
82	0xbd0f0411	-0.034915987
83	0x3d532687	0.051550414
84	0x3e04913a	0.12946025
85	0x3e7c0d07	0.24614345
86	0x3e315e07	0.17321025
87	0x3e81ac63	0.25326833
88	0xbe3a76fb	-0.1820945
89	0xbc9a5ce7	-0.018843127
90	0x3e46b8fe	0.19406506
91	0xbde6634b	-0.112494074
92	0x3b178705	0.002312125
93	0xbe3d095d	-0.18460603
94	0xbd39af64	-0.04533328
95	0xbdab8722	-0.08375384
96	0xbc42984c	-0.011877131
97	0xbcd0713d	-0.025444621
98	0x3db9dbbd	0.09075115
99	0xbe2b00d0	-0.16699529
100	0x3dd22de8	0.10262662
101	0x3e3c2fef	0.1837766
102	0x3d42ed78	0.04758975
103	0x3d4438bb	0.047905665
104	0x3c28ccb6	0.010302713
105	0xbe647daa	-0.22313562
106	0xbe831363	-0.25600728
107	0xbe0dd191	-0.13849474
108	0xbda1e6d0	-0.07905352
109	0xbdb0c6a0	-0.08631635
110	0x3d12ef9b	0.035873037
111	0x3d870ce1	0.06594253
112	0xbdbe6d11	-0.092981465
113	0x3e0030de	0.12518641
114	0xbd431a22	-0.047632344
115	0xbd9849a4	-0.07435921
116	0x3d8155cd	0.06315193
117	0xbce2bba0	-0.027677357
118	0x3e2509d6	0.16117033
119	0x3e396b2b	0.18107288
120	0xbe228adf	-0.15873288
121	0xbcb686ca	-0.02228107
122	0x3d57fb80	0.052730083
123	0xbd100340	-0.03515935
124	0xbe2ec374	-0.17066747
125	0x3d010e59	0.031507824
126	0x3c4eb118	0.012615465
127	0xbd690eb4	-0.056898788
128	0xbd6a7fc6	-0.05725076
129	0x3d116b2c	0.035502598
130	0xbe3af26c	-0.18256539
131	0x3dd24be8	0.10268384
132	0x3dba39e2	0.090930715
133	0xbdb95343	-0.09049084
134	0x3ded8524	0.1159766
135	0xbe02efa3	-0.12786727
136	0x3d9c2570	0.07624328
137	0x3e273e2c	0.1633231
138	0xbd841f21	-0.0645125
139	0x3dd3a8cf	0.10334932
140	0x3d610fbb	0.054946642
141	0x3b980d67	0.0046402696
142	0x3e11e37d	0.14246936
143	0x3dbe80dc	0.09301922
144	0x3e456f25	0.1928068
145	0x3d8e5cd0	0.06951296
146	0x3c70d5ac	0.014699381
147	0x3dd60715	0.104505695
148	0x3d023356	0.03178724
149	0xbe19c269	-0.15015568
150	0xbdd40267	-0.10352021
151	0x3e11ea97	0.14249645
152	0xbe3607b8	-0.17776382
153	0xbe1c1b28	-0.15244734
154	0xbe11076f	-0.14162992
155	0xbde612e3	-0.11234071
156	0xbe5a26a1	-0.21303798
157	0x3d9473d5	0.07248656
158	0x3dd19de7	0.102351956
159	0x3d318e0d	0.04334836
160	0x3d85e259	0.06537313
161	0x3d4f9abe	0.050684683
162	0xbdc22e7c	-0.094815224
163	0xbe215669	-0.15755619
164	0x3d77e1e3	0.060518157
165	0xb94e7e2d	-0.00019692695
166	0x3d655366	0.055987738
167	0x3e0be582	0.13661769
168	0x3d80a3e4	0.0628126
169	0xbd95b862	-0.07310559
170	0xbd3ccf8b	-0.046096366
171	0x3a68e555	0.0008884271
172	0xbd5d9902	-0.054100998
173	0x3e2b0774	0.16702062
174	0x3dcc6cc5	0.09981684
175	0x3d9a49c1	0.07533599
176	0x3c956241	0.018235328
177	0xbde4152c	-0.11136851
178	0x3dff8500	0.124765396
179	0xbe0e5d57	-0.13902794
180	0x3dd28b34	0.10280457
181	0xbd977fbc	-0.0739741
182	0xbd2f9939	-0.042870734
183	0xbd56f51e	-0.052479856
184	0xbd9106ad	-0.070813514
185	0xbd66c3b2	-0.056338973
186	0x3e757489	0.23970236
187	0x3e1a258c	0.15053385
188	0x3de5cfe0	0.1122129
189	0x3cb96a6d	0.022633756
190	0x3e449ee0	0.19201231
191	0x3e05cf68	0.130674
192	0x3e037a0e	0.12839529
193	0xbdb0a892	-0.08625902
194	0xbe2a8b84	-0.16654783
195	0xbe1ba684	-0.1520024
196	0xbda56810	-0.08076489
197	0x3c9af153	0.0189139
198	0x3e1d5263	0.1536346
199	0x3dc64644	0.09681371
200	0xbc77ab3c	-0.015116509
201	0xbea1ba82	-0.31587607
202	0xbe8159a2	-0.25263697
203	0xbdffdb7a	-0.12493034
204	0x3cc7ca3c	0.024388425
205	0x3e3ff67e	0.18746373
206	0xbe0f39c0	-0.13986874
207	0xbc5c4e00	-0.013446331
208	0xbdc76d5b	-0.09737655
209	0x3df6a5b3	0.12043323
210	0x3e075256	0.13215002
211	0x3e358a51	0.17728545
212	0xbd611e8a	-0.054960765
213	0x3db81643	0.08988621
214	0xbe9243b5	-0.2856728
215	0xbdee1402	-0.1162491
216	0x3df19249	0.1179548
217	0xbdebcbb1	-0.115134604
218	0xbe058cfd	-0.13042064
219	0xbd7d59d2	-0.061853237
220	0xbed5d22f	-0.4176192
221	0x3d310676	0.043219052
222	0xbd16b92e	-0.036797695
223	0x3ddee636	0.10883753
224	0x3a6b0e03	0.00089666265
225	0xbdb04559	-0.08606977
226	0xbd0138bf	-0.031548258
227	0xbd39c856	-0.04535707
228	0x3e06f0a4	0.13177735
229	0x3d592bbf	0.053020235
230	0x3e15a4b2	0.14613608
231	0x3d98a840	0.07453966
232	0xbda60b97	-0.08107679
233	0x3cecf1f9	0.028923975
234	0x3df14f62	0.11782719
235	0xbab513b4	-0.0013815076
236	0x3e2210f0	0.15826774
237	0xbe8ac539	-0.27103594
238	0x3e6bdc8d	0.23033352
239	0x3d2db021	0.042404298
240	0x3e26df82	0.16296199
241	0xbe051972	-0.12997988
242	0x3d956ede	0.07296537
243	0xbba8cb13	-0.0051511615
244	0x3defa242	0.1170087
245	0x3e7ca0a2	0.24670652
246	0xbc83e502	-0.01610041
247	0x3d93a285	0.072087325
248	0x3d33a776	0.043860875
249	0x3cc6fd24	0.024290629
250	0xbe11a92f	-0.14224695
251	0x3d4d9a86	0.050196193
252	0xbd95a5a4	-0.07306984
253	0xbdc2be71	-0.0950898
254	0xbc018195	-0.00790443
255	0x3df774a1	0.12082792

fc1.bias f4 [100]
0	0x3dcb4aef	0.09926402
1	0x3d75c19d	0.059999097
2	0x3dd7ec53	0.10543122
3	0xbc7e32f7	-0.015515081
4	0x3ce3a9de	0.02779096
5	0xbc786f03	-0.015163186
6	0xbdf97310	-0.121801496
7	0x3daa0efb	0.083036385
8	0xbde115e0	-0.109905005
9	0xbe028a02	-0.12747958
10	0xbd4eb2b2	-0.050463386
11	0x3d026f84	0.03184463
12	0xbdb6c3ab	-0.089240395
13	0x3c880278	0.01660274
14	0xbe02228f	-0.12708496
15	0xbdaf50d5	-0.08560339
16	0xbdc53721	-0.09629656
17	0xbda67660	-0.08128047
18	0xbd802700	-0.06257439
19	0x3d34a925	0.04410662
20	0xbb469b1a	-0.003030485
21	0xbd2ce8f5	-0.042214353
22	0xbd235cee	-0.039883547
23	0xbcc57f47	-0.024108542
24	0xbdbbd1b4	-0.09170857
25	0xbe03e458	-0.12880075
26	0x3d32b508	0.043629676
27	0x3d9eafce	0.07748376
28	0xbdaddf8f	-0.08489906
29	0xbd86cd79	-0.065821595
30	0xbd34cbbb	-0.044139605
31	0x3cf5f449	0.03002371
32	0x3da05075	0.07827846
33	0xbcf4001f	-0.029785214
34	0x3cb287ac	0.021793209
35	0xbc7ee1c0	-0.015556753
36	0xbc2f36e6	-0.010694241
37	0x3d78d01f	0.060745355
38	0x3878d5f1	5.9327056e-05
39	0x3d47bc28	0.048763424
40	0xbcd6451c	-0.026156
41	0x3d84b10e	0.06479083
42	0x3cd16929	0.02556284
43	0x3cd1d9f6	0.025616627
44	0x3cfaf141	0.030632617
45	0xbd59e38c	-0.05319552
46	0xbcf21d89	-0.0295551
47	0xbd2ab947	-0.0416806
48	0xbd9498be	-0.07255696
49	0xbd91db91	-0.07121957
50	0x3ccd0fcb	0.025031945
51	0xbd19fc61	-0.037594203
52	0x3d393726	0.04521861
53	0x3d4e8f77	0.050429787
54	0x3d20263d	0.039098967
55	0xbe04dbc0	-0.12974453
56	0xbe11ade0	-0.14226484
57	0xbd1048bf	-0.035225626
58	0x3d0e0db7	0.03468105
59	0xbda93aad	-0.08263145
60	0x3cfeeab4	0.031117775
61	0x3dc55b8f	0.09636604
62	0x3c65b92b	0.014021198
63	0xbd3a3156	-0.045457207
64	0x3b2d6c45	0.0026462239
65	0xbde23dc3	-0.11046936
66	0x3d55f35e	0.052234046
67	0x3dd4d136	0.10391466
68	0xbb59b977	-0.0033222118
69	0xbc00b218	-0.007854961
70	0x3c8bf443	0.017084247
71	0xbd1cd5e8	-0.038289934
72	0x3d61dcc8	0.055142194
73	0xbc54b610	-0.01298286
74	0x3d707b14	0.058711126
75	0xbd0a0530	-0.033696353
76	0xbd999caa	-0.075005844
77	0xbd5e87a9	-0.054328594
78	0xbdb56b0a	-0.08858307
79	0x3c413367	0.01179204
80	0x3cfd2d42	0.03090537
81	0xbd279cbf	-0.04092097
82	0xbb08fa05	-0.0020900976
83	0xbbe188a1	-0.0068827425
84	0x3d2b1195	0.041764814
85	0x3c258ec4	0.010104839
86	0xbe1b1291	-0.15143801
87	0xbdb2b0fa	-0.08725162
88	0x3bf51c0e	0.007480151
89	0xbce138be	-0.027492877
90	0x3d720d83	0.059094917
91	0x3c2dbb6b	0.010603766
92	0xbcb78246	-0.022400986
93	0x3d2dd9f4	0.042444184
94	0xbd8734e9	-0.06601889
95	0xbd680e39	-0.05665419
96	0x3d722e3b	0.05912612
97	0x3cb56ea8	0.022147492
98	0xbd713511	-0.0588885
99	0x3cf531ce	0.029930975

fc2.weight f4 [2, 6400]
0	0x3d929dce	0.07159005
1	0x3bd38ef0	0.0064562485
2	0xbc726f58	-0.014797054
3	0x3d91ba89	0.07115657
4	0xbdf76c35	-0.12081186
5	0x3db2eec4	0.08736947
6	0xbdd1831e	-0.10230087
7	0xbdc30b34	-0.09523621
8	0xbca04b5c	-0.019567184
9	0xbe09482a	-0.13406435
10	0xbc2089d3	-0.009798485
11	0xbd06f663	-0.032949816
12	0x3cac8630	0.02106008
13	0x3dcbfcce	0.09960328
14	0x3cb4fe1a	0.022093821
15	0xbdd0bc89	-0.1019221
16	0x3d5e41c8	0.054261953
17	0x3cdd5af3	0.027020907
18	0x3d8f5a06	0.069995925
19	0xbe88241b	-0.26590046
20	0x3e12d81d	0.14340253
21	0xbd1dc1c9	-0.038514886
22	0x3d76ccaf	0.060253795
23	0x3d72d270	0.05928272
24	0x3d87ab91	0.066245206
25	0xbda7b785	-0.081893004
26	0x3df5ef43	0.12008526
27	0xb892ee24	-7.00618e-05
28	0xbe663cf4	-0.2248419
29	0x3e76560b	0.2405626
30	0xbd7769f4	-0.06040378
31	0xbdb7272a	-0.08943017
32	0xbda104b1	-0.07862223
33	0xbb9758c1	-0.0046187346
34	0xbdcb64d9	-0.099313445
35	0xbccd0c41	-0.025030257
36	0x3cac01af	0.020996897
37	0xbc0846d0	-0.008317664
38	0xbdc3008e	-0.0952159
39	0xbda36c25	-0.07979611
40	0xbd06a2f4	-0.032870248
41	0xbd903d44	-0.070429355
42	0xbda772f5	-0.08176223
43	0xbcaf1daf	-0.021376459
44	0xbdbd0246	-0.09228949
45	0xb9cebcd0	-0.00039432058
46	0xbdccfb28	-0.10008842
47	0x3cd69264	0.026192851
48	0x3e61f024	0.22064263
49	0x3df4069b	0.119153224
50	0x3db079af	0.08616959
51	0xbe275753	-0.16341905
52	0x3e40b959	0.18820705
53	0x3d1c8048	0.038208276
54	0xbcdd3184	-0.02700115
55	0x3ddd5f96	0.10809247
56	0xbdea9874	-0.114548594
57	0xbdbdc48d	-0.09266005
58	0x3c130256	0.008972725
59	0x3e1c4437	0.15260397
60	0x3bd82b5d	0.006596966
61	0x3c15aa62	0.009134861
62	0x3e2336f5	0.15938933
63	0x3d2f95b0	0.042867362
64	0x3e6c9032	0.23101881
65	0xbe063022	-0.13104299
66	0xbe309a56	-0.17246374
67	0xbdb7135b	-0.08939239
68	0x3dc7ff07	0.097654395
69	0xbbb8bf80	-0.005638063
70	0xbd198040	-0.037475824
71	0x3dc48f1e	0.0959761
72	0x3e6212a5	0.22077425
73	0x3e4b84ba	0.1987485
74	0xbbb540d2	-0.005531409
75	0x3de4e204	0.111759216
76	0xbd791545	-0.0608113
77	0x3d9b0a23	0.07570293
78	0x3e0bdd13	0.13658552
79	0x3cabff2d	0.0209957
80	0x3dece281	0.1156664
81	0x3bef86e7	0.007309783
82	0xbd1a0e97	-0.03761157
83	0xbcdec2bd	-0.027192468
84	0x3daeae31	0.08529318
85	0xbc23c450	-0.009995535
86	0xbe63a040	-0.222291
87	0xbde10e1b	-0.109890185
88	0x3d1d571a	0.038413145
89	0xbcaa0bdc	-0.020757608
90	0xbde11eee	-0.109922275
91	0xbd855b2b	-0.065115295
92	0xbdae9bf0	-0.085258365
93	0xbd03e6dc	-0.032202587
94	0x3e59039c	0.21192783
95	0xbe156845	-0.14590557
96	0x3ccf82e5	0.02533097
97	0xbd6d1c94	-0.057888582
98	0x3d1cf68c	0.038321063
99	0xbba6ad93	-0.0050866096
100	0x3d6629df	0.056192275
101	0x3dbc8190	0.092043996
102	0x3de7e8a1	0.11323667
103	0x3a95460a	0.0011388671
104	0xbdb8a28b	-0.090153776
105	0x3c435fb8	0.011924677
106	0xbe578ec0	-0.21050549
107	0xbdb5298c	-0.08845815
108	0x3c046bfb	0.008082385
109	0x3b1378da	0.0022502453
110	0x3a70ee23	0.00091907586
111	0xbbc98e6c	-0.006151011
112	0x3d9b1a99	0.075734325
113	0xbd2eb486	-0.04265263
114	0x3dd0b3fc	0.10190579
115	0xbdca57cb	-0.098800264
116	0xbda5ac35	-0.080894865
117	0x3cc5a709	0.0241275
118	0x3d2ea438	0.04263708
119	0xbdd64ef5	-0.104642786
120	0x3d9160d3	0.07098546
121	0xbe080472	-0.13282946
122	0x3d6d19f7	0.05788609
123	0x3e22f5b5	0.15914042
124	0xbd1eda47	-0.038782384
125	0xbcc42b71	-0.023946496
126	0x3d6620d6	0.05618366
127	0xbc04d910	-0.008108392
128	0xba2202b8	-0.00061802147
129	0x3d8a840e	0.06763469
130	0x3c99b276	0.018761855
131	0xbd802738	-0.062574804
132	0xbd535d8f	-0.051602896
133	0xbda1f829	-0.07908661
134	0xbb301f41	-0.0026874098
135	0xbd176c03	-0.036968242
136	0x3b53eec8	0.003233837
137	0xbbb92b3b	-0.0056509054
138	0x3cae93ea	0.021310765
139	0x3de852df	0.113439314
140	0xbdc0ef54	-0.09420648
141	0xbd2d62a8	-0.042330414
142	0xbdd50096	-0.104005024
143	0xbd2693b5	-0.04066821
144	0xbd4d429f	-0.050112363
145	0xbdd239fd	-0.10264967
146	0xbcf56b04	-0.029958256
147	0x3da82b93	0.08211436
148	0x3d7eff2e	0.062255077
149	0xbd2e5c2b	-0.042568367
150	0x3d706109	0.05868629
151	0xbd0b5854	-0.034019783
152	0xbd27f523	-0.041005265
153	0x3d7c1ac0	0.06154895
154	0xbd49dad2	-0.04928095
155	0x3e17821f	0.14795731
156	0xbcfb91ac	-0.03070911
157	0xbdc810f7	-0.09768861
158	0x3df68624	0.12037304
159	0x3e5229d7	0.20523773
160	0x3dba22d0	0.09088671
161	0xbccf62b9	-0.02531563
162	0x3e262cfb	0.16228096
163	0xbaa96952	-0.0012925065
164	0x3d897720	0.067121744
165	0xbdf29e7b	-0.11846634
166	0xbd178fd4	-0.0370024
167	0x3bc2365c	0.0059268903
168	0x3c9d9a47	0.019238604
169	0xbd8fb735	-0.07017366
170	0xbd8df23e	-0.0693097
171	0x3d301333	0.04298706
172	0x3e114fd0	0.14190602
173	0x3dc1bf42	0.09460308
174	0xbd8899f5	-0.0666999
175	0x3d980343	0.07422497
176	0x3bf14dd2	0.007364013
177	0xbd0e4995	-0.034738142
178	0x3d90f9e8	0.07078916
179	0x3daeffec	0.08544907
180	0x3d184693	0.03717668
181	0xbdf70629	-0.12061722
182	0x3ce971cf	0.028496651
183	0x3d9c9f21	0.07647539
184	0x3dd0b96b	0.10191616
185	0x3d84604b	0.06463679
186	0xbe214d1c	-0.15752071
187	0xbe018e3d	-0.12651916
188	0x3bc2bd57	0.005942981
189	0xbdc00732	-0.093763724
190	0xbd3628c8	-0.044472486
191	0xbdd67cea	-0.10473044
192	0xbdf5c42d	-0.12000308
193	0x3dba0ef4	0.09084883
194	0x3d3bc63f	0.04584336
195	0xbe219c9c	-0.15782398
196	0xbc7ea3eb	-0.015542011
197	0x3da4b0e9	0.080415554
198	0x3d7412a0	0.059588075
199	0x3c21f6f7	0.009885541
200	0xbd1b78ee	-0.037957124
201	0x3d38d00c	0.045120284
202	0xbd4dcf99	-0.05024681
203	0x3d3d2a2c	0.046182796
204	0xbd652cf6	-0.05595108
205	0xbd7a3a1c	-0.061090574
206	0xbe221779	-0.15829267
207	0xbca79083	-0.02045465
208	0x3ba956e6	0.00516783
209	0xbdc87f44	-0.09789899
210	0x3d458eed	0.048232008
211	0xbd643337	-0.055712905
212	0x3d9951f8	0.074863374
213	0x3d9eaecd	0.07748184
214	0x3dac2869	0.08406145
215	0xbe2ba0c9	-0.16760553
216	0xbc984c75	-0.018591145
217	0x3cd543ef	0.02603337
218	0x3d3b91df	0.04579341
219	0xbe462466	-0.19349822
220	0x3b4bc8e6	0.0031095087
221	0xbd4d8f97	-0.050185766
222	0x3d437263	0.04771651
223	0xbdf0a335	-0.11749879
224	0xbdb80b0d	-0.08986483
225	0xbd88b186	-0.06674485
226	0x3d964e6b	0.07339176
227	0x3bc21d1e	0.005923881
228	0x3dcae0ed	0.099061824
229	0x3d362287	0.04446652
230	0xbca35132	-0.019936178
231	0xbd9e10bb	-0.07718035
232	0x3cd5fd39	0.026121723
233	0xbd495ec7	-0.049162652
234	0xbc1b4a66	-0.009478187
235	0xbd2a22fa	-0.041537262
236	0xbd04b4a4	-0.032398835
237	0x3c2db32c	0.0106018
238	0xbd9c7374	-0.076392084
239	0x3cf5dcb0	0.030012459
240	0xbdb76012	-0.08953871
241	0xbd2efab0	-0.042719543
242	0xbd84da1b	-0.06486913
243	0xbd4c2d63	-0.04984797
244	0xba24ec64	-0.00062913285
245	0xbd4582e2	-0.048220523
246	0x3deae63f	0.11469697
247	0x3db68620	0.08912301
248	0x3e0b68ee	0.13614246
249	0xbdaec1da	-0.08533068
250	0x3e0111b5	0.12604411
251	0xbe1865c7	-0.14882575
252	0x3df6b552	0.12046303
253	0x3d2da43c	0.042392954
254	0x3ded6efe	0.11593436
255	0x3e0280e4	0.1274448

fc2.bias f4 [2]
0	0xba82f202	-0.0009990337
1	0x3ba21c14	0.004947195
