results/lstm/lstm_hidden_100_layers_1_bidirectional_False_length_50_batch_64_lr_0.001.pth (torch, 247890 bytes, 6 tensors)

lstm.weight_ih_l0 f4 [400, 50]
000000 fc b3 d4 be 33 b0 dc be d6 9a 73 bd d2 04 c0 bd
       -0.41543567 -0.4310318 -0.059473835 -0.093759194
000010 30 45 74 be f2 57 d6 3d 38 ff 90 be 3a e8 3f bb
       -0.23854518 0.10465993 -0.28319716 -0.0029282705
000020 1c 44 d8 bd a9 35 2b 3e 10 39 91 bb 45 0c be 3d
       -0.10559866 0.16719688 -0.004431851 0.09279684
000030 83 ce 8f 3b bf 35 39 3c 3b d8 4a be 40 8f 19 bd
       0.004388632 0.011304318 -0.19809048 -0.03749013
000040 24 29 60 3c 82 0f eb bd 65 e4 cc bd 5a b1 8a 3e
       0.013681684 -0.11477567 -0.100045 0.27088434
000050 dc a3 a1 be 9b b4 4e 3c fc 0b f1 3d 7f 89 b7 be
       -0.31570327 0.012616302 0.11769864 -0.3584709
000060 eb bd 49 bd 5d 17 39 bd d3 f4 6a bc d8 66 d4 be
       -0.049253386 -0.045188297 -0.014340597 -0.41484714
000070 29 d9 38 3b c0 2a a0 bd 22 4d aa 3e d0 cd 32 bc
       0.002820561 -0.07820654 0.33261973 -0.010913327
000080 43 5a e5 bd df b7 f4 bd de 0e dd bd 8f 33 d7 bd
       -0.11198857 -0.11949133 -0.10793851 -0.10507881
000090 0f 21 0c be 8f 62 ce bd 37 fd 91 be 72 40 dd 3d
       -0.13684486 -0.10077392 -0.285135 0.108033076
0000a0 1a c1 25 3e e2 3e 04 bd 72 68 b6 3b f2 2b e3 be
       0.16186944 -0.032286532 0.00556665 -0.44369465
0000b0 a6 ce c2 3d 5b 3b 7c 3d 2f 43 e9 bc 46 12 1a 3d
       0.09512071 0.061580043 -0.028474418 0.037615083
0000c0 12 7b 08 bd 13 73 15 3d 24 30 01 3d f7 9f 46 be
       -0.033320494 0.036486696 0.03154005 -0.19396959
0000d0 55 01 96 bd 0c cf 89 3e fb bf 00 bd 93 67 a0 3e
       -0.07324473 0.26915777 -0.031433087 0.3132902
0000e0 77 2f 8e bd e9 9e 42 be 16 89 61 3b 88 69 07 3e
       -0.06942647 -0.19005932 0.0034413985 0.1322385
0000f0 31 96 e9 3d 34 3c 84 3e 88 25 29 bd 61 c8 90 bd
       0.114056 0.2582718 -0.04129556 -0.07069469
000100 a1 be 9d 3d 44 25 72 be 0a 93 31 be 71 24 01 be
       0.07702375 -0.23647028 -0.17341247 -0.12611558
000110 66 5e 8d 3d 10 57 81 3e 55 4d 03 be 52 83 5b bd
       0.06902771 0.25261736 -0.12822469 -0.053592034
000120 d8 f2 3c bd a2 e7 fb 3e 7f e8 b9 bd df 9e 35 3e
       -0.04613003 0.4920016 -0.09077548 0.17736386
000130 d2 d3 f3 bd 85 f8 e8 bc fb 12 24 bd e8 5a 87 bc
       -0.11905636 -0.028438816 -0.040057164 -0.01652284
000140 f5 b7 b2 3d 90 a1 63 bd d1 cc 06 be 99 51 5a be
       0.08726493 -0.055574 -0.13164069 -0.2132019
000150 71 1f f4 3c 0c ce f9 bd e7 19 03 bf 02 e1 48 3e
       0.029800149 -0.121975034 -0.512114 0.19617084
000160 12 2f b8 3e 46 a8 60 3d ba eb d1 bd d6 13 57 3e
       0.35973412 0.054847978 -0.102500394 0.2100366
000170 3f 6b 40 bc 21 32 46 3e 02 88 1c be 66 ce ab 3d
       -0.011744319 0.1935506 -0.15286258 0.08388977
000180 cc be cf bd 52 52 50 3e 70 15 87 bd 8a 53 6a 3d
       -0.101438135 0.20343903 -0.06595886 0.057208575
000190 17 87 f2 be da f7 12 bf da fa 3e bf d6 2d 0e 3a
       -0.4736869 -0.5740944 -0.7460152 0.00054237
0001a0 2d c1 85 be e3 a5 a0 3e 33 34 be be dc 7e 83 be
       -0.26123944 0.31376562 -0.371492 -0.25682724
0001b0 e2 aa d4 3d a8 0a c9 be 1c 1d 22 3e 8f 92 44 3f
       0.10384156 -0.39265943 0.15831417 0.7678613
0001c0 f6 87 e3 3d 6a b0 62 bd 93 35 4c bf 4a ae 6b be
       0.11109917 -0.055344023 -0.7976925 -0.23015705
0001d0 60 95 24 3f 35 61 99 3d 1b f5 e3 be cb 2f fa 3d
       0.6429043 0.07489244 -0.44522938 0.12216147
0001e0 97 62 09 bf b0 43 06 3f e6 7e aa bc c7 e6 27 3e
       -0.5366606 0.5244703 -0.020812463 0.16396628
0001f0 3c a6 6d 3e 65 07 34 be af 50 82 3d 99 f8 21 3e
       0.23207945 -0.17580946 0.063630454 0.15817489
000200 a1 c0 82 bd 97 22 f3 be ac 27 ac be 4d d5 20 3e
       -0.06384397 -0.47487327 -0.33624017 0.15706368
000210 68 84 a0 be ec 2d d5 be 41 fe a0 3d 24 41 60 3d
       -0.31351018 -0.41636598 0.07860995 0.054749623
000220 65 5e 15 3e b9 05 b6 bc 6c 8a 19 3e 3f c1 1f bc
       0.1458679 -0.022219526 0.1499421 -0.009750663
000230 1e 45 2e 3f 05 28 a7 bd 2d 44 ad be 3d c4 c8 3d
       0.68074214 -0.0816193 -0.33841076 0.098030545
000240 44 44 e8 3e c2 f6 0f 3f 99 ee 9b be 63 37 2d be
       0.45364583 0.562359 -0.30455473 -0.1691566
000250 ef 13 02 be 07 dd f2 be 7f 58 ca bd ce 3d db 3d
       -0.12702917 -0.47434255 -0.098801605 0.10705148
000260 3a 6b 15 be 4b f6 19 3c bc a4 cf be f2 98 25 bf
       -0.14591685 0.0093971 -0.4055537 -0.646865
000270 7e c0 d4 be e9 f8 a9 be ba 7f 7e be eb 85 90 3d
       -0.4155311 -0.33197716 -0.24853411 0.07056793
000280 c8 e1 21 3d d1 16 d4 3d b3 9e 66 3e 65 7e eb bd
       0.039521962 0.103559144 0.22521476 -0.11498717
000290 1c ee 17 3e 64 99 53 bc 5f b1 a9 3e 6c 79 f4 bd
       0.14836925 -0.012914989 0.33143136 -0.11937222
0002a0 58 14 89 be 00 f8 f2 bc 36 aa 55 be 6a 07 bd 3d
       -0.26773334 -0.029659271 -0.20865712 0.0922993
0002b0 88 64 6c be 3e f6 96 be 92 ef dd bd a3 43 06 3e
       -0.23085225 -0.29484743 -0.1083671 0.13111739
0002c0 89 41 1f be d2 a2 bc bc 99 18 ca 3e 13 fd 04 3f
       -0.15552343 -0.023026858 0.39471892 0.5194866
0002d0 24 18 93 be 08 77 06 3e 7b 85 dd be e7 c3 1b be
       -0.28729355 0.13131344 -0.432659 -0.1521145
0002e0 24 e4 a9 3d 3f da bb 3e e5 f5 87 be fc 6f 74 be
       0.082954675 0.36689946 -0.2655479 -0.23870844
0002f0 85 ec 86 3e a3 79 0d be 99 7a 7b be 49 f7 39 3e
       0.26352325 -0.13815932 -0.24558486 0.18160738
000300 fb 4c e3 bc a9 71 a0 be 44 2c 4e be 1a 52 1d 3e
       -0.027746668 -0.31336716 -0.20134073 0.1536335
000310 82 ce 4c be bd 91 92 bd 26 f5 b6 be f6 04 a0 be
       -0.20000651 -0.071567036 -0.35733908 -0.31253785
000320 76 ad ae bc f4 56 58 3e 76 cb 12 be 34 7b 32 3c
       -0.021322947 0.2112692 -0.14335427 0.010893632
000330 17 d7 ec bc ae 8e 50 be 9e f8 8e be bd 41 40 be
       -0.028911157 -0.20366928 -0.27924055 -0.18775077
000340 b2 a9 7e 3d e9 c9 75 3e 06 0a 5e 3e b6 e0 a0 be
       0.062173553 0.24002804 0.21683511 -0.3142144
000350 27 86 b5 bd f0 51 30 3e 35 5a a4 bd 9f 7a f9 bd
       -0.08863478 0.17218757 -0.08025018 -0.12181591
000360 e5 8f 6f 3d 7b fa ac bd d7 3d c7 3d 56 ff f7 3d
       0.058486838 -0.08446213 0.09728592 0.12109248
000370 69 74 82 bd 97 6f 63 bc 74 7d a2 3e 3a 22 ba 3c
       -0.0636986 -0.013881586 0.31736338 0.022721399
000380 89 13 7b bd 19 21 1e 3c 4a 14 48 3e 4e 17 1a 3e
       -0.061297927 0.009651446 0.1953899 0.15047953
000390 2b 86 97 bd 9d 5c ad be 50 4c b9 bd 06 f1 dc bd
       -0.073986374 -0.3385972 -0.090477586 -0.10788159
0003a0 92 6a 19 3e a7 34 9e 3e 8f 57 f6 3c a3 73 27 3e
       0.1498206 0.30899546 0.030071048 0.16352706
0003b0 0b 74 12 bd 7c bd 7c be 7d fb 01 bd 84 cf cf 3d
       -0.0357552 -0.24681658 -0.03173398 0.10147002
0003c0 4e 10 4b 3e af 50 0b 3d 89 3d fd 3d 2a 2c 73 bd
       0.19830438 0.034012493 0.123652525 -0.05936829
0003d0 a0 63 65 3d d9 d8 3a 3e 33 4d 80 bc 82 5b 02 3d
       0.056003213 0.18246783 -0.015661811 0.03182555
0003e0 30 8d 07 3e 1c 5c 30 3e 18 ec c6 3c 0f 36 04 3e
       0.13237453 0.17222637 0.0242825 0.12911247
0003f0 b6 0f e7 bd 11 e5 3b bd 68 c9 d2 3c f0 da c5 bd
       -0.112822935 -0.04587275 0.025730804 -0.096609

lstm.weight_hh_l0 f4 [400, 100]
000000 da 78 e7 bd d1 0b 0e 3d 15 e4 2f 3e 09 c3 8c 3d
       -0.113023475 0.034679238 0.1717685 0.068731375
000010 a0 22 4b 3d a9 1e a2 bd fd de 92 bd b2 99 03 3e
       0.049593568 -0.07916004 -0.07171438 0.12851599
000020 90 69 a1 bd 4b 43 0b 3e b6 94 c2 bd 39 0f ba bd
       -0.078814626 0.13599889 -0.095010206 -0.09084935
000030 3b 5d 9d 3d a1 e4 5e 3b c3 43 2f 3d 50 f3 2f 3c
       0.07683798 0.0034010785 0.042789232 0.010739163
000040 72 86 51 bd 48 67 aa bd dd 69 11 3d 57 3a 91 3c
       -0.051153608 -0.083204806 0.03550135 0.017728014
000050 09 7b ce bd 09 9e 12 bd c7 9d 2d 3e 49 5d 7b bd
       -0.10082061 -0.035795245 0.16954719 -0.06136826
000060 34 b1 e8 3d a2 90 29 bd 5a 92 71 bd a9 b0 08 3c
       0.11361924 -0.0413977 -0.058977462 0.0083429
000070 2b 7a 94 bc 5e 7e 6c 3c 9e 67 9c 3d d3 3b 09 bb
       -0.01812466 0.014434425 0.07636951 -0.00209402
000080 ac d4 b8 bd 0f ed 99 3d b1 fd 9d 3c 00 85 21 be
       -0.09024939 0.075159185 0.019286009 -0.15773392
000090 7b ba 4e 3d 3a 7d c1 bc 95 38 fa 3d 18 89 19 3e
       0.05047081 -0.023619283 0.122178234 0.14993703
0000a0 d8 b5 3d bd b5 6e 3a bd 58 c7 10 bd 90 e3 7a 3d
       -0.046315998 -0.045515735 -0.03534636 0.061252177
0000b0 86 a7 13 bd 6f d2 1d 3e 55 0c 92 3d 22 f6 cb bb
       -0.036048435 0.15412305 0.071312584 -0.0062244097
0000c0 90 aa c2 3c af ce 93 bd 34 59 ff 3c 19 86 c4 3c
       0.023762971 -0.07217156 0.031170465 0.023989724
0000d0 9a 57 ba 3d db 1d 24 3e 89 05 8b 3d 09 df b2 bd
       0.0909874 0.16027014 0.06788165 -0.08733947
0000e0 a5 7e da 3d 14 fd ec bc 07 72 75 bc 67 da 9e 3c
       0.10668687 -0.02892927 -0.0149807995 0.019391252
0000f0 ee c5 b4 bc 73 15 10 3c e3 8d a6 bc 4d a5 73 3c
       -0.022067036 0.008794176 -0.020331329 0.014870954
000100 f2 bb bb 3d 25 87 f5 bc ef de 6e 3b fe b6 2a be
       0.09166707 -0.029971668 0.0036448797 -0.16671368
000110 23 de 1e be b3 cb bc bc 6c 3f f8 bc a8 92 78 3d
       -0.15514426 -0.02304635 -0.03030368 0.060686737
000120 f1 24 05 be 80 92 a4 bd 3c d1 2c 3d b6 4f 14 bd
       -0.13002373 -0.08035755 0.04219173 -0.03620883
000130 5f 1f fc bd 85 c6 e7 3d 3e 16 44 bd d3 ca 58 bd
       -0.12310671 0.113171615 -0.047872774 -0.052927803
000140 52 e2 17 bc 18 53 b8 3d 53 bb 37 3d 03 17 06 3d
       -0.009270268 0.09000224 0.04485638 0.03273679
000150 89 7a d8 bb d8 73 34 3d 4e ac 0c 3e c5 c6 a6 bd
       -0.006606404 0.04405579 0.13737604 -0.08143381
000160 56 4c 87 3c bd 48 f2 3c c2 cf 34 bd 32 e0 90 bc
       0.016515892 0.0295757 -0.044143446 -0.01768503
000170 03 2f 2c bd b2 40 4c be 9f c0 28 3e 3a 5d ef bd
       -0.04203702 -0.19946554 0.16479729 -0.116877034
000180 56 4b b3 3d 18 67 ce 3d 3f 2c 14 be 52 3e d6 3c
       0.087546036 0.10078257 -0.14470004 0.026152764
000190 6d 03 7f 3d a6 7f b8 bc ce e1 aa 3a ca f0 38 3e
       0.062259126 -0.022521805 0.0013037266 0.18060604
0001a0 ac ef ab 3d ca f3 35 bd a3 7c 52 bd 49 49 92 bd
       0.08395323 -0.04442195 -0.051388394 -0.07142884
0001b0 18 95 89 bb 62 ad 49 3d c1 2f 58 bd 89 08 49 3d
       -0.0041986816 0.049237616 -0.052779917 0.049080405
0001c0 cb f2 f1 bd 3c 6f 37 3d 2c 53 7e bd 1a 82 34 3c
       -0.11813887 0.044783816 -0.062091038 0.011017347
0001d0 5a 70 3f bd 7f b5 8a 3c bc 59 ae bc 53 3d 9a bc
       -0.046738006 0.016932247 -0.021283023 -0.01882807
0001e0 ec b1 b5 3d 65 07 16 bc ee a5 04 be e0 c8 a1 3d
       0.088718265 -0.009157036 -0.12953922 0.07899642
0001f0 66 ab ce 3c ac 36 38 be f6 d9 c8 bc 30 1e 07 3e
       0.025228214 -0.17989606 -0.024517994 0.1319511
000200 bc 11 70 bd 67 5d f9 bc 13 03 5c 3d ea d5 d7 3d
       -0.058610663 -0.030440046 0.05371387 0.10538848
000210 5a 6b e5 bb 50 02 ea bd c1 1f 62 bd 7e c3 89 3c
       -0.0070013227 -0.11426222 -0.055206064 0.01681685
000220 48 7a f7 3d 81 60 dd 3d 36 10 fd ba c2 52 51 3c
       0.1208387 0.10809422 -0.0019307199 0.012776079
000230 9c 4c 37 3e 1f 83 40 3d 5d 7e ae 3b 6f 70 f0 bd
       0.17900318 0.047000047 0.0053251223 -0.11740195
000240 40 c6 a6 3c 4a ed 45 bd 97 f4 8f bd 95 50 dd bd
       0.020358205 -0.048322 -0.07029074 -0.108063854
000250 23 ba 61 3d ff 54 58 bb 80 3e 06 3d bc 99 3f 3d
       0.055109154 -0.0033009646 0.03277445 0.046777472
000260 52 8b a2 3a f7 ca 83 bd 5d 9e cb 3c f0 96 4f bd
       0.001240114 -0.06435197 0.024855787 -0.050681055
000270 cd f3 3c bc 47 fb ea 3c 58 d1 95 bd a0 b5 05 3e
       -0.011532736 0.028684271 -0.0731532 0.13057566
000280 f8 bd f9 bc 67 fc 14 3d 70 0a 0b be b7 eb 7f bc
       -0.030486092 0.036373522 -0.135782 -0.015620164
000290 19 a5 87 bd 83 91 1d be 21 6a 8b bd b8 fe f0 bd
       -0.06623287 -0.1538754 -0.06807352 -0.11767334
0002a0 3f 49 2e 3d cf 53 be bd 46 39 65 bd bd b5 96 3d
       0.04255032 -0.09293329 -0.055962823 0.073588826
0002b0 e6 29 bb 3d d9 52 9c bd c3 fb 98 bd 56 92 ff 3a
       0.09138851 -0.076329894 -0.07469895 0.0019498568
0002c0 7e 07 5e bd 74 b6 ed 3c 7e 7c 43 3d 93 a5 0e 3e
       -0.054206364 0.029017664 0.047726147 0.13930349
0002d0 c1 52 9a bd 2e 22 9f bb fc ed b5 3c 32 80 de bd
       -0.07535315 -0.0048563695 0.022208206 -0.10864295
0002e0 75 53 c3 3d 2f 7f 43 3e f8 be 99 bd 3a c0 72 be
       0.095374025 0.19091485 -0.075071275 -0.23706141
0002f0 1e a6 bf bd 39 34 a4 3d 6b d6 f8 3d fc 9a 8e 3d
       -0.09357856 0.08017773 0.12150272 0.06963155
000300 7f d5 93 3c 80 f9 6c be 3b b4 07 3c 20 b1 ab bb
       0.018046139 -0.23142052 0.008282716 -0.005239621
000310 6e b8 24 3d 7a 70 1b be ea 08 82 bd 9d bc b9 bd
       0.04021495 -0.15179625 -0.063493565 -0.09069178
000320 2f 06 87 bc 61 32 71 be f8 0b 14 bf c5 6c 16 be
       -0.01648244 -0.23554374 -0.5783076 -0.1468993
000330 f3 0d 4a 3d 5b 7f d8 3e 4a 90 4c be f4 9d 93 3d
       0.04932971 0.42284665 -0.19976917 0.072078615
000340 0c 41 0e bd c9 2c 76 be 44 71 0c bf b3 34 c2 bd
       -0.034730002 -0.24040522 -0.5486033 -0.09482708
000350 a3 3e 23 be 52 29 16 be 46 af 58 3d 67 49 0b 3d
       -0.15941863 -0.146642 0.05290153 0.03400555
000360 c7 55 19 3e 87 96 a2 3e e0 d6 06 3c ad 3f 34 3c
       0.14974128 0.31755468 0.008229941 0.01100151
000370 94 a8 ac be 1d d0 e3 3d 44 3b 9a 3e 34 13 a3 be
       -0.33722365 0.11123679 0.3012334 -0.31850588
000380 19 da 1f 3e c6 b4 97 be 03 5f 8e bd 7f 31 26 3d
       0.15610541 -0.29630107 -0.06951716 0.040574547
000390 dc f4 f7 3e b3 48 82 be d0 fd 59 be c5 3b 8e 3e
       0.48429 -0.2544609 -0.21288228 0.27779976
0003a0 30 44 5b be 33 20 c3 bd 49 17 f2 3e dc ae ab be
       -0.2141273 -0.09527626 0.4728339 -0.33531845
0003b0 98 5d 72 be 06 25 80 be 09 59 91 3e 37 98 08 3e
       -0.23668516 -0.25028247 0.2838824 0.13339315
0003c0 e8 52 67 be a7 51 8e bc 07 e4 ac be 07 2d c1 3e
       -0.2259022 -0.01737292 -0.3376772 0.37729666
0003d0 31 3c 10 3e b9 cd 84 3d fb c3 ee ba 29 09 37 bd
       0.14085461 0.06484551 -0.0018216366 -0.04468647
0003e0 ec 92 45 3e ed 53 f1 be cd 7c 8a 3c 43 64 cd bb
       0.19294327 -0.47134343 0.016905213 -0.0062680556
0003f0 1b ca 6a be 9b 58 9f be 10 ab 7b be a5 52 bc 3c
       -0.2292866 -0.31122288 -0.24576974 0.022988627

lstm.bias_ih_l0 f4 [400]
000000 11 cf 9c bc fc 1f 09 bd aa da b3 be 2d 75 d1 bd
       -0.019141706 -0.03347777 -0.35127765 -0.10227428
000010 ae 72 85 3b b6 41 02 be 5f d5 02 be cd 0f d5 bc
       0.004072509 -0.12720379 -0.12776707 -0.026008511
000020 4e d8 28 3d 0a 34 0f bd 0d 62 10 be 24 ac c8 3c
       0.04122191 -0.034961738 -0.14099903 0.024496146
000030 d4 fa 05 3c e9 e8 94 bd 4e 05 be bd 74 9d 02 3b
       0.008177478 -0.072709866 -0.092783555 0.0019930275
000040 fb b9 c7 bd 89 ae ae bd 23 aa 9f bd 51 34 19 be
       -0.0975227 -0.08529384 -0.07796123 -0.14961363
000050 4a d7 17 be d9 aa 85 bd 90 37 84 bd 7e 30 84 ba
       -0.1482822 -0.06526727 -0.0645591 -0.0010085253
000060 9a 2b 2d bd 7b 34 2c be f2 12 d5 bc 0c 11 f9 bc
       -0.04227791 -0.16816895 -0.02601001 -0.030403636
000070 0f 0f 4c bd 80 c9 12 be 49 41 0f be cd d2 01 be
       -0.04981905 -0.14334679 -0.13989748 -0.1267807
000080 6f 8c 13 be ce db ef bc f8 94 46 bd a8 f6 17 be
       -0.1440904 -0.029279616 -0.04848191 -0.14840186
000090 ba af 1c 3d df a3 27 be 45 b8 3a be 1e a2 b0 bd
       0.038253523 -0.16371106 -0.18234356 -0.086246714
0000a0 a6 1b 1f bd a9 c3 3a bc e1 20 66 3c 0f 53 c0 3c
       -0.038844727 -0.011399188 0.014045925 0.023477105
0000b0 99 0e 41 bd 2e be 51 be 40 9f dc bd dc c8 e2 bc
       -0.047133062 -0.20482704 -0.10772562 -0.027683668
0000c0 f7 81 c3 bd a2 2c f9 3b 68 7b 25 bb 05 14 1e be
       -0.09546273 0.0076041976 -0.0025250558 -0.15437324
0000d0 c7 94 cf bd 92 2a 4b bd b8 63 29 bd 03 8d 5b bd
       -0.10135799 -0.049601145 -0.041354865 -0.053601276
0000e0 82 f0 4b 3d ae da 22 be 26 90 bb bd 9b d2 2a be
       0.049789913 -0.15903732 -0.091583535 -0.16681902
0000f0 3e 00 d7 bd 3c 43 19 3d 2e b2 64 be f5 75 a9 bc
       -0.10498093 0.037417635 -0.22333595 -0.02068613
000100 54 70 92 3d 71 91 d2 bd f9 74 cb 3c 07 f6 21 3d
       0.07150331 -0.10281647 0.02483605 0.03954127
000110 ed 08 9c bc 99 e4 88 3b 76 f0 f2 bd 8d 90 d9 bc
       -0.019047225 0.0041776416 -0.118622705 -0.026558185
000120 38 81 05 3c 81 4d 8e bc a7 33 cc bd 58 8f 1b be
       0.008148484 -0.017370941 -0.099707894 -0.151914
000130 b2 8f 32 3d fb dd 98 bd b6 ed 95 3b 0d 15 0f be
       0.04359407 -0.074642144 0.0045754565 -0.13972874
000140 44 41 9b bd 34 d9 27 be c0 ae 93 bd 78 45 c0 bd
       -0.07580808 -0.1639145 -0.07211065 -0.0938825
000150 f7 82 13 bd 81 95 f1 bd 08 3c c2 3c 36 f4 db bc
       -0.03601357 -0.11796094 0.023710266 -0.026849847
000160 93 1d 8c bd 06 71 91 bd 17 60 6f bd 89 a4 19 be
       -0.06841578 -0.07101636 -0.058441248 -0.15004171
000170 d5 b2 17 be 6e bf 68 bd 9b 74 0f 3d 00 e3 fe bd
       -0.14814313 -0.056823187 0.035023313 -0.124456406
000180 6c b1 6f bc b4 89 3e 3c c3 64 e0 bd 89 7e 5f bd
       -0.014629703 0.011629511 -0.10956719 -0.054564033
000190 c3 21 98 3c 83 19 c1 3c ac e9 13 3e 73 c9 5b 3e
       0.018570786 0.023571735 0.14444607 0.21463566
0001a0 b3 72 2c bd 37 4c da bd cc 76 0b 3d fb 68 89 3d
       -0.042101573 -0.10659068 0.03404884 0.067094766
0001b0 bd 5d df 3d 79 54 38 3d c0 a6 5a 3d 2f f6 4f 3e
       0.10906551 0.045002434 0.05338168 0.20308755
0001c0 02 9c 9a 3d d7 fc 93 3d 45 2a ac bd 49 1b d4 bc
       0.075492874 0.0722596 -0.084065 -0.025891917
0001d0 52 ce 9e bd 5d e4 e4 bc 8c b8 57 3d 3f 0c e9 3d
       -0.07754196 -0.027940923 0.052666232 0.11379289
0001e0 56 50 58 3e 48 9e a3 bd 6c 04 30 3d d0 4a 05 bd
       0.21124396 -0.07989174 0.042972967 -0.03254205
0001f0 13 fe 1c 3b bb 8e ce 3c e7 3b b6 3d 83 be 12 3e
       0.002395515 0.025214544 0.08898144 0.14330487
000200 ec 89 9f bd 35 92 8f 3d fd 5f 25 bc 43 eb a4 bb
       -0.077899784 0.07010309 -0.010093686 -0.005032928
000210 c3 35 51 3d b9 a0 4b bd aa 0e 69 bd 4b d6 2e bd
       0.05107666 -0.049713824 -0.05689875 -0.042684834
000220 ac c1 85 3e cf 95 42 bc e7 98 13 bc 55 53 26 bb
       0.26124322 -0.011876537 -0.009008623 -0.002537926
000230 34 4e 1a bd ed 3f 6e 3d c7 de 1a bd ac cc d6 3c
       -0.037672237 0.058166433 -0.037810113 0.026220642
000240 75 0b bb 3c fd 29 49 3c 17 08 4a 3e d5 e3 0a 3e
       0.022832612 0.012278077 0.19729649 0.13563474
000250 30 19 23 3e 8b c7 bf 3c bf 31 6e 3b e5 2d 62 3e
       0.15927577 0.02341058 0.003634557 0.2208782
000260 ad 46 82 bd 83 48 b6 bc bb 54 f3 3d 6b c8 6b 3d
       -0.063611366 -0.022251373 0.118813954 0.05756418
000270 8e 94 bd bd a1 62 04 3e 70 e4 ed 3d e6 43 a1 bd
       -0.0925685 0.12928249 0.116158366 -0.07874279
000280 26 74 33 bd 16 55 5c 3c 83 ec b1 3d 13 82 02 3e
       -0.04381194 0.01344802 0.08687689 0.12744932
000290 30 a1 45 3d ec 9a 13 bd 00 5e c5 3d d3 d2 59 bd
       0.048249424 -0.036036417 0.0963707 -0.053179573
0002a0 fc 51 14 3b 67 5c a3 3d c9 22 03 3e 59 87 c0 3d
       0.0022631874 0.07976609 0.12806238 0.094008155
0002b0 e2 72 e7 bd b2 1c b5 3d 66 0b 22 3c 03 f2 85 bd
       -0.11301209 0.08843364 0.009890413 -0.06540301
0002c0 1d 79 e9 bc 66 4c 85 bc 56 2c b0 3d b2 0b 97 3d
       -0.028500134 -0.016271781 0.086022064 0.073752776
0002d0 5e 4a 09 3d 57 12 e3 3d 48 89 bd 3d a7 d7 39 bd
       0.033518188 0.110874824 0.092547 -0.045371678
0002e0 b6 4b 93 bd 31 98 22 3d 6b 6d ea bd b2 61 63 bb
       -0.07192175 0.039695922 -0.11446651 -0.0034695682
0002f0 5a e3 83 3d ee d5 b4 bc a8 86 c6 3d 06 2a 50 bd
       0.06439848 -0.022074666 0.096936524 -0.050821327
000300 00 51 cf bc 5e a6 af bc cd 36 e6 bd af 9e 14 bc
       -0.025307178 -0.021441635 -0.11240921 -0.009071036
000310 a5 2e 21 3d 52 5b 4d be 91 4e af bd 1b 72 00 3e
       0.039351124 -0.20054367 -0.08559907 0.12543528
000320 50 c7 86 3c 87 54 8a bd ff 25 a3 bd 81 40 25 bd
       0.016452461 -0.067544036 -0.079662316 -0.04034472
000330 8c a6 9c 3c 8c 7a 1a 3c 31 4f 42 3c 5a 1b 4b bd
       0.019122384 0.0094286315 0.011859701 -0.04958663
000340 aa a5 5e bd d9 6f 6f bd b0 85 7a 3c c9 0a 08 3d
       -0.05435721 -0.058456276 0.015290663 0.03321341
000350 b6 2a 9d bd 64 4a 4c bd 88 91 a4 bd bd e4 ee bc
       -0.07674162 -0.049875632 -0.080355704 -0.029161805
000360 d1 17 80 3d 7c c5 7b bd 6b 50 a6 bb 76 49 fd 3c
       0.062545426 -0.061467633 -0.0050755045 0.030918818
000370 d6 3a 87 3d 06 2c 70 bd 3b cc 99 bd a6 44 4e 3d
       0.06603019 -0.058635734 -0.07509657 0.050358437
000380 85 e0 39 bc 1b b2 21 3d b8 93 4c ba 1d 03 7e 3d
       -0.0113450335 0.039476495 -0.0007803994 0.062014688
000390 a1 da 83 bd 5b ce 91 3d 21 76 90 3d d3 09 b4 3d
       -0.064381845 0.07119437 0.07053781 0.08790936
0003a0 d3 bf 19 3d 6e 87 e2 bb a9 d0 6d 3d 2f 71 22 3d
       0.037536453 -0.006913117 0.058060322 0.03965872
0003b0 0a 9c 50 bd 16 79 f4 3c c9 30 b8 bd 46 ec 43 3c
       -0.05093006 0.029842895 -0.0899368 0.011958187
0003c0 72 2a 6c bc 19 6b 29 bc 81 52 48 3c e9 d5 ae bc
       -0.014414417 -0.0103404755 0.012226702 -0.021342235
0003d0 d7 d5 97 3c 8e a3 4b bd 40 20 91 bd e2 3e bf 3d
       0.018534584 -0.049716525 -0.07086229 0.09338166
0003e0 65 cc 5f 3c 83 46 f1 3c 08 8e 5d 3d 1a fb 93 bd
       0.013659571 0.029452568 0.05409053 -0.07225628
0003f0 5f 89 22 3d f2 d2 a7 3d 7a 86 73 bd 8e 88 7e 3d
       0.03968179 0.081945315 -0.05945442 0.062141947

lstm.bias_hh_l0 f4 [400]
000000 f5 7b ad bd 5a 33 dc 3c e2 a0 c7 be 49 eb 81 be
       -0.084709086 0.026879955 -0.3898993 -0.2537482
000010 62 cb e5 bd e3 a7 c8 bd 1b f1 85 bc 58 5a a4 3d
       -0.11220433 -0.09797647 -0.01635032 0.08025044
000020 fb ff 13 be 41 10 10 be 54 e5 0a be 83 c0 96 3b
       -0.14453118 -0.140687 -0.13564044 0.004600586
000030 4f 27 d2 bd 9c f7 c0 bd 7a 88 88 3c 0d b6 12 be
       -0.10261404 -0.09422228 0.01666664 -0.1432726
000040 c5 5f 62 3d 88 75 d1 bd 3c e9 11 3c fe a9 00 be
       0.055267114 -0.102274954 0.008905705 -0.12564847
000050 f8 2d 1c bd af bd 02 be d8 d6 23 be d1 da eb bb
       -0.038129777 -0.12767671 -0.15999925 -0.007197716
000060 28 9e ad bd 1d 38 4f bd 61 ee 53 bc 22 08 0a be
       -0.084774315 -0.050590623 -0.012935252 -0.13479665
000070 e6 eb 4b bd 98 49 cc bd 3b 58 01 bd 2f 89 6f bd
       -0.049785517 -0.099749744 -0.031578284 -0.058480438
000080 ce 62 a2 3b 02 71 07 be c0 d9 18 bd e1 a8 01 3d
       0.004955626 -0.13226703 -0.037317038 0.031655196
000090 3e dc 16 3d 14 0c c2 bb 7a 7d 75 be 7e 2c 4e be
       0.036831133 -0.00592185 -0.23973647 -0.2013416
0000a0 88 2a b7 3d 31 f6 86 bd 8f 5a 81 bd 01 36 57 bd
       0.08943659 -0.06589926 -0.06316101 -0.052541737
0000b0 c1 09 77 bd 9c 45 70 be f6 65 e3 bc d9 e9 ff bd
       -0.060312036 -0.23464054 -0.02775858 -0.12495775
0000c0 d4 90 09 be 50 8b 4b 3d d8 e9 56 3c d4 39 a6 bd
       -0.13434154 0.049693406 0.013117276 -0.081164986
0000d0 1a 41 13 be 34 7c d1 bd 4a 9a 19 be 85 21 f6 bd
       -0.14380303 -0.10228768 -0.15000263 -0.12018112
0000e0 7a aa 22 3d d2 8b c2 bd 49 12 3c be b4 e7 82 bc
       0.03971336 -0.09499325 -0.1836635 -0.015979625
0000f0 e6 5d a6 3c e5 61 f2 bd ba e5 1c be 3b cd 2e 3d
       0.020308446 -0.11835078 -0.15322009 0.04267619
000100 6a 99 5b 3d 4f e3 fd bd a9 24 87 3c 72 a8 9a 3d
       0.053613104 -0.12396871 0.016496973 0.0755166
000110 6b a2 dc bd 66 93 a8 bd 7e 15 20 be 2c 4e 18 be
       -0.10773166 -0.08231239 -0.15633199 -0.1487357
000120 21 78 62 3d 20 84 0d be a8 ae 4a bd ea 84 2c bc
       0.055290345 -0.13819933 -0.04948297 -0.010529736
000130 cd 39 31 3d e7 12 02 be e9 81 d0 bd 19 21 03 3d
       0.043268014 -0.12702523 -0.101810284 0.032013986
000140 e5 64 10 be bb 1b 7f bd f6 a9 5d bb b0 e4 ea bd
       -0.14100988 -0.062282305 -0.0033823228 -0.114694
000150 65 f7 93 bd d2 3f 52 be e1 ad 56 3c 20 3f e8 bd
       -0.07224921 -0.20532158 0.013102979 -0.11340165
000160 0d 0f b1 bc af df fb bb 9a ba b3 bd 05 de 4d bd
       -0.021613622 -0.0076865773 -0.08775826 -0.050260562
000170 32 3f 2b 3c b5 e5 b1 bd a6 72 85 bd a1 cf f4 bd
       0.010452079 -0.08686391 -0.06516008 -0.119536646
000180 83 27 12 be 8e 29 8f 3c e5 99 50 be 0d e3 f1 bd
       -0.14272885 0.01747587 -0.20371206 -0.118108846
000190 0d bf 31 bd 6e 43 0a 3e 11 af 06 3e 5e 27 c3 3d
       -0.04339509 0.13502285 0.1315272 0.09528993
0001a0 ce 30 be bd 3e 29 67 3d e7 5a b3 3c 81 87 04 bd
       -0.092866525 0.056435816 0.021893932 -0.03235579
0001b0 6b 66 3c bd bf 22 bb 3c 63 7f 21 3d 58 8c d4 3d
       -0.04599611 0.022843717 0.039428126 0.10378331
0001c0 eb 05 35 3e 4d 0b 15 bd 41 05 93 3d 45 44 bd 3c
       0.17678039 -0.03638773 0.071787365 0.023103843
0001d0 d7 97 f8 3c 74 bd d8 3d b4 cd ac 3b fc 47 92 bb
       0.03034584 0.1058301 0.005273545 -0.0044641476
0001e0 0c ef 43 3e 06 35 22 3d 96 98 0b bd 2b 77 b5 bc
       0.19134158 0.03960135 -0.034081064 -0.02215155
0001f0 4c 2b 94 3d 87 7b 1e 3b a1 bc 95 3d 8d b1 0e 3e
       0.07234821 0.0024182515 0.07311369 0.13934918
000200 ec 91 8d bd a6 36 0d 3d b3 f7 5e bd 1e 3e e0 3c
       -0.06912598 0.034475945 -0.054435443 0.02737337
000210 42 b8 07 3e 2a e0 04 be 4e 6f 56 bc a9 d6 2d bd
       0.13253883 -0.12976137 -0.013088061 -0.042441044
000220 6b 9e 01 3e d7 03 c7 bd 55 ab 94 3d fc 72 ab 3d
       0.12658088 -0.09717529 0.072592415 0.08371541
000230 df 75 af bc 36 27 f9 bd 08 24 7c 3d c0 23 7a bd
       -0.02141851 -0.12165682 0.0615578 -0.06106925
000240 84 a6 80 3d 7e 30 de 39 69 91 0f 3e ed 40 51 3e
       0.0628176 0.0004237927 0.14020313 0.20434923
000250 a8 9d 20 3c f6 09 88 3d c2 65 28 3c 65 e5 71 3e
       0.009803213 0.06642525 0.010278167 0.23622663
000260 30 db c6 3c f4 a6 0b bd 50 1b 1c bc da 14 15 bd
       0.024274439 -0.034094766 -0.009527996 -0.03639684
000270 1a bf 9c bc d9 87 13 3c 94 34 b7 3d f9 8c 97 bd
       -0.019134093 0.009004557 0.08945575 -0.07399935
000280 39 2c 44 bd 2b 13 7a 3b 36 c7 ec 3d 17 c5 c7 3d
       -0.047893737 0.0038158398 0.11561434 0.09754389
000290 b5 be a0 bd d0 cb 4f bd 1b 77 00 bd 8e dd 60 bc
       -0.078488745 -0.05073148 -0.031363588 -0.013724698
0002a0 f2 c8 24 3d 44 2c ff 3d c8 6c 9f 3d 35 5f 11 3c
       0.0402307 0.12459615 0.0778442 0.008872797
0002b0 aa ea d9 bd f6 58 99 bd 14 df 80 bd db a6 7d 3c
       -0.10640462 -0.07487671 -0.06292549 0.015481676
0002c0 bb 79 f4 bd 16 c4 b2 bd bd 3b 23 bd 75 ec 6c bd
       -0.11937281 -0.08728807 -0.039851893 -0.05784269
0002d0 0a 6b 8f bd 61 c1 bf 3d 0a f5 a0 bb 8c 81 70 bd
       -0.07002838 0.09363056 -0.0049120234 -0.058717296
0002e0 c8 24 e1 bd 3f cf c2 bd ba 0a be bd 07 88 f4 bc
       -0.109933436 -0.09512185 -0.0927939 -0.02985002
0002f0 a9 d4 21 3d 6a 26 ac 3d 55 a2 94 bd f5 f0 d0 bb
       0.03950945 0.084057644 -0.07257525 -0.0063763806
000300 35 67 d8 bc 9b 80 d5 bc 92 c0 09 be 1c 90 bc bd
       -0.0264164 -0.0260623 -0.13452366 -0.09207174
000310 c7 bc 45 3a 07 da 9b bd 3c 8a e7 bc 19 cd 5b 3d
       0.00075430836 -0.07609945 -0.028264157 0.053662393
000320 75 5c de 3b 95 2f ac 3d 37 6a 22 3d 45 d8 97 bd
       0.006785924 0.08407513 0.039652076 -0.07414297
000330 ce b3 56 bc b6 05 3a bd 19 e6 af 3d a6 4f 88 3d
       -0.013104392 -0.045415603 0.085888095 0.06655817
000340 c3 e1 89 3d 70 c7 83 3d 75 a2 49 bb c6 24 8a 3c
       0.06732514 0.06434524 -0.0030766998 0.016863238
000350 be c6 47 bd 26 9d e1 3c 48 91 9e 3d cf 97 2c bd
       -0.04877352 0.027540755 0.07742554 -0.042136963
000360 f7 87 5b bd d3 b2 1c bc ab e1 df 3c dd d7 10 bc
       -0.053596463 -0.009564119 0.027329287 -0.008840528
000370 37 78 8e bc ed 4a 7c 3c b2 b3 9c bd 62 99 e7 3c
       -0.017391307 0.015398723 -0.07651462 0.02827138
000380 bb 42 c6 3c 65 a8 45 3d a1 92 d5 3c fa 63 41 bd
       0.024201741 0.048256297 0.026070895 -0.047214486
000390 e8 3e ba 3d 66 82 6a bd 5e be 8d bd c5 6c a7 3c
       0.0909403 -0.057253264 -0.06921075 0.020437608
0003a0 b0 40 9a bc 90 a8 be bb 0b f7 82 bd 18 da 1e bd
       -0.018829674 -0.005818434 -0.06394776 -0.03878221
0003b0 87 7e b3 3c da 31 46 3d c7 e8 61 3d c0 7e ab bd
       0.021910919 0.048387386 0.055153634 -0.08373785
0003c0 65 d9 a6 3d a0 40 6d bd 85 dd 68 bc 24 1b 5b 3b
       0.081469335 -0.05792296 -0.014212971 0.0033432925
0003d0 5c f2 c3 3d 85 f0 6f bd 40 c8 b5 bd 65 f3 0e bd
       0.09567711 -0.058578987 -0.08876085 -0.034900088
0003e0 14 06 03 bd 86 4a 43 bd ba a7 7b bd f8 2f 83 3d
       -0.03198822 -0.047678493 -0.061439253 0.06405634
0003f0 bd 9e 48 3d ec 36 89 bd be b4 1b 3d 5f 33 0a bd
       0.04897951 -0.06699929 0.038014166 -0.033740398

fc.weight f4 [2, 100]
000000 8c 88 13 3e 9c ca 50 bd f5 b4 25 be de ab 98 bd
       0.14407557 -0.050974473 -0.16182311 -0.07454656
000010 13 74 41 3e fb 69 06 3e ea 40 16 be 22 12 34 3e
       0.18891935 0.13126366 -0.146732 0.17585042
000020 d8 d6 da bd 41 b2 d0 3b e4 71 d1 bc fe 67 3f be
       -0.106855094 0.006368906 -0.025567003 -0.18692014
000030 be 02 7c bc ac 98 0c 3e 6e 78 1d 3e 99 a9 23 bd
       -0.015381513 0.13730115 0.15377972 -0.039956663
000040 fa f9 0c 3d 8f 32 b7 3d 5e a9 c8 bd 51 48 a9 3c
       0.034418084 0.0894519 -0.09797929 0.020664366
000050 dd 67 c3 bd b3 85 77 be eb e4 34 3e 3e 30 16 3e
       -0.09541295 -0.24172096 0.1766545 0.1466684
000060 12 4a 05 3e 27 31 1e be ae 2d 9a bd da b2 09 be
       0.13016537 -0.15448438 -0.07528244 -0.13447133
000070 8b a5 03 3d ac 48 cb 3d 9b 39 1f 3e e9 36 c9 bd
       0.032140296 0.099259704 0.15549318 -0.098249264
000080 5c 28 8b bd 6a 21 ca bd 65 ac 20 3e 5a 21 0d be
       -0.06794807 -0.098696545 0.15690763 -0.13782254
000090 f0 19 06 bd 3f 69 43 be 79 09 44 3e b1 56 50 3e
       -0.03273958 -0.19083117 0.19144239 0.2034557
0000a0 f1 b5 d4 bc 4a 09 34 3e a6 f2 1b be 68 02 3c 3e
       -0.025965663 0.17581668 -0.15229282 0.18360293
0000b0 4b 06 1f 3e 9a a0 9e 3c 65 67 0d 3e 5c bd 3b bd
       0.15529744 0.01936369 0.13808973 -0.045834884
0000c0 19 d6 fb 3d c3 1f 23 3e 64 fa 40 3e bc 79 43 be
       0.12296695 0.15930085 0.18845516 -0.19089407
0000d0 17 04 ef 3d 5b d3 3b 3e be 48 c5 bd 34 c4 11 be
       0.11670702 0.18342344 -0.09633015 -0.14235002
0000e0 08 7a 1c bd 7a e1 52 bd 36 ae cb bd 00 4b 2b 3e
       -0.038202316 -0.051484562 -0.099453375 0.16727829
0000f0 20 ef 4c be ed 7f 07 3d 9e 63 12 be 38 57 b1 bd
       -0.20013094 0.033080984 -0.14295813 -0.08659214
000100 a7 6d 96 be 16 5b 44 bc 2e 59 b0 3d 9b c7 f2 3d
       -0.29380533 -0.011984607 0.0861076 0.11854478
000110 c3 bb 1e 3e 8c bc 1e 3e ae 42 8c 3d 9a b3 a2 3d
       0.15501313 0.15501612 0.06848656 0.079444125
000120 ac 49 8a 3d 7d 94 f3 bd dd 14 0d be ae 2a 5b be
       0.06752333 -0.11893556 -0.1377749 -0.21403
000130 40 06 b4 3d fb 10 2e 3e 40 13 f5 bd 96 a0 6d bd
       0.087902546 0.16998665 -0.11966562 -0.058014475
000140 f4 f9 a3 bd 8d 4b f5 bd 4f 3b 96 3d c5 67 d8 3c
       -0.08006659 -0.11977301 0.07335531 0.026416669
000150 d5 c7 7c 3e ff 71 85 3d 3b bb 04 3e 15 1a 16 be
       0.24685605 0.06515884 0.12962048 -0.14658387
000160 ed 60 1d 3e 16 e7 53 3e 64 94 12 bc 78 41 73 3c
       0.15369006 0.20693621 -0.008946512 0.014847152
000170 7b a5 4a be 28 57 e1 3b 79 cc 29 bd e5 94 46 be
       -0.19789688 0.006876845 -0.041454766 -0.19392736
000180 2f 21 01 3c 2d db 1f 3e 46 9b 4d be dd fb 8a bd
       0.007881447 0.15610953 -0.20078763 -0.0678632
000190 af 28 ff bd 45 4e 21 3e c8 b4 2e 3e 4e b9 e4 3d
       -0.12458932 0.15752514 0.1706115 0.111681566
0001a0 4c 7e 59 be 34 ab 7a be e9 b2 c8 3d 00 e4 39 be
       -0.21239585 -0.24479371 0.097997494 -0.18153381
0001b0 cd 97 5c 3e 24 a8 0a 3e 85 0b 8e 3d 57 57 31 3c
       0.21542282 0.13540703 0.06935791 0.010824046
0001c0 41 d2 0f 3e 28 77 2a be 09 f1 10 be 7d 37 3b 3e
       0.14045049 -0.16647017 -0.14154448 0.18282886
0001d0 8d fb 15 be b3 a9 a7 bd 0c f4 96 3d b9 30 03 be
       -0.1464674 -0.081866644 0.07370767 -0.12811555
0001e0 77 ac b6 3d e4 13 2b 3e b7 80 75 bd 6e 9d 2b be
       0.08919614 0.16706806 -0.059937205 -0.16759273
0001f0 23 e5 01 be af 50 1a 3e cd c0 db 3d ed f6 7a 3d
       -0.12685065 0.15069841 0.10730133 0.061270643
000200 87 d3 a1 bd 50 9a 2c be 26 73 0d be ab ad 82 3d
       -0.07901674 -0.1685574 -0.13813457 0.06380781
000210 a7 b7 0e 3d 9d 74 1f 3e cb 6a d0 bd 93 28 57 3e
       0.034843113 0.15571828 -0.10176619 0.21011572
000220 8e 66 94 3d 24 fe c3 3d 36 bb b6 bd 7c 0e e1 bc
       0.07246123 0.09569958 -0.089224264 -0.027472727
000230 ae bb cc bd e1 b5 a9 bd 72 e2 f0 3d c7 db 1a be
       -0.099967346 -0.08286644 0.11761941 -0.15122901
000240 04 4b 16 bd 28 41 5b bd 80 3f 16 bd a8 42 ec 3d
       -0.036692634 -0.053528935 -0.036681652 0.11536151
000250 f8 3d fd bd 16 46 0e bd f6 07 45 bd 36 d3 1c 3e
       -0.12365335 -0.034734808 -0.048103295 0.15314946
000260 23 a3 b5 bd eb 09 84 be df 58 59 3e 06 d0 41 3e
       -0.088690065 -0.25788817 0.21225308 0.18927011
000270 73 9c 87 bd 01 f1 cf 3d 1a c7 f6 3c 80 a9 10 be
       -0.06621637 0.1015339 0.030124236 -0.14127159
000280 04 98 16 3e 1c d3 08 be f2 22 9f 3d cc 4d 1d 3e
       0.14706427 -0.13361782 0.07770337 0.15361708
000290 a4 15 8d 3e 03 6a 35 be c0 aa ae bd fe be 12 be
       0.27555573 -0.17716222 -0.08528662 -0.1433067
0002a0 c2 57 05 be 0f 82 0d be c9 6f 0a be 8c 12 de bd
       -0.13021758 -0.13819145 -0.13519205 -0.10843381
0002b0 44 66 8f bd e0 ea 36 3e 88 ff b4 3d 30 24 11 3e
       -0.070019275 0.17863035 0.08837801 0.1417396
0002c0 03 28 c3 bb b3 8c 69 bd 07 24 1b 3e 7f 0f 9b 3d
       -0.0059556975 -0.057018947 0.15150462 0.07571315
0002d0 c0 48 f3 3d 0c f5 d2 3d 03 6f fb bd a7 dd 16 be
       0.1187911 0.10300645 -0.12277033 -0.14732991
0002e0 e2 99 1a be cb d6 73 3d 81 92 f6 bc d4 50 34 3d
       -0.15097764 0.059531014 -0.030099155 0.044022396
0002f0 0a 29 04 be d0 d9 51 be 58 61 24 3e 92 94 ba bd
       -0.1290628 -0.20493245 0.16052759 -0.09110369
000300 ea 58 13 3e 24 56 29 bc a1 ab b3 3c 12 55 22 3e
       0.14389387 -0.010335479 0.021932425 0.15852764
000310 54 bb 44 3d dc e9 b6 bc 30 d2 17 3e 74 69 a1 3d
       0.048030213 -0.02232831 0.14826274 0.07881442

fc.bias f4 [2]
000000 5c ea 4b bd 39 f3 26 bd
       -0.04978405 -0.0407593
