results/lstm/lstm_hidden_100_layers_1_bidirectional_False_length_64_batch_64_lr_0.01.pth (torch, 246932 bytes, 6 tensors)

lstm.weight_ih_l0 f4 [400, 50]
-1.0763837 0.22807808 -2.1077545 2.143418 1.3389584 -1.8210454 -1.571934 -0.6033723
0.21405667 -0.3460397 0.4744756 0.87123275 -1.0723584 -0.7444092 0.03008941 -0.15790264
-0.41284657 -2.1033232 -0.62348855 0.15530655 -0.5058678 0.56874084 -1.950845 -0.067265
1.1813034 0.3194704 0.25224414 1.1216011 0.3590393 0.80267626 0.5396691 0.18834001
-0.16567393 -1.1719455 -0.7123289 0.5787811 1.5955563 0.26066965 -0.86874765 0.5067362
1.9483511 1.6207323 -0.8980982 -0.5666561 0.21818443 -0.12326594 -0.5839961 -0.011249453
-1.0430163 0.13637857 -0.024110142 -0.031152215 0.47145078 -0.8646493 -0.80060637 -0.28400475
-0.2935636 0.25301984 -0.249283 -0.759755 -0.9595245 1.1845794 0.5286476 0.36524397
0.59256774 -0.25649905 0.848557 0.15144624 0.49935195 0.3609497 0.18691666 0.1351815
-0.63874763 0.16038857 -1.006268 -0.24757446 0.10280521 0.17167719 0.103783004 0.3883625
-2.8422148 0.045198657 0.012481786 -0.39872083 -0.52279216 1.6456054 0.07282154 -1.0147115
1.1779208 0.104268014 -0.20986828 0.014937924 -0.030689422 0.0046199453 1.0000646 0.8945282
-1.7371525 0.7857456 0.14625989 -0.24840339 -1.4769936 -0.17343299 -2.8512478 -0.43480435
-1.9106728 -1.7041271 -2.3954756 0.40293318 0.7082195 -0.43392208 0.45872277 -0.3509539
-0.89716345 -0.02087293 -1.6474512 0.673763 0.68794316 0.5246145 0.6456125 -2.1967187
-1.743604 0.03431903 -1.2680407 0.025205912 0.6101818 0.109662354 -0.23328392 -0.15669607
-0.8971332 1.1275195 -0.8369542 0.88570046 -0.8909255 -0.55115205 -0.012954098 -1.1018004
0.50599414 0.26175335 0.81994534 0.045876417 2.0119393 0.17680147 0.54438746 0.0024019375
0.1995486 0.81087226 -0.95532 -0.37732548 -0.14446647 -1.0432671 -0.12666202 -0.8897851
0.05411044 1.6927817 0.2873732 -0.12929168 -0.23279998 -0.18935534 -0.18644579 0.9457773
-0.36085272 0.4725302 -0.48480147 -1.1684364 -0.25350794 -0.23433816 -0.61248964 -0.44085515
-1.146543 0.09568394 0.4777709 -0.36047086 -0.44182944 -0.3714192 -1.480258 0.9736604
-0.37616616 -0.72907126 -0.449349 0.49827334 -1.3359114 0.029745938 -0.39955047 -0.31361493
-0.3746403 0.68647385 0.07533131 0.4831246 0.15419492 0.26440877 0.14997177 -0.043598395
-0.74517924 -0.17483547 0.01930994 0.25831327 -0.69044083 0.26469323 -0.4227864 -0.012740795
-0.56037456 1.3511821 -1.532108 -0.3761828 0.8331311 0.23889633 1.2029642 -1.3160998
0.040525492 0.45176226 -0.16690347 -0.5808861 -0.1544308 0.095322765 0.19654742 -1.3113401
0.965831 -0.286022 0.44143134 -1.1857173 0.0237499 -0.57201684 0.18758012 -1.3109717
-0.29885814 0.7938704 1.3394731 0.72993684 -0.026449269 -0.6152819 0.6312608 -0.2979628
0.95705426 -0.09615562 1.2260436 -0.017732425 -0.042532813 0.12539652 -0.71643287 -0.3128008
0.44320515 -0.4145655 0.7293497 -0.9185434 1.1472682 1.0329921 -0.9329923 -0.2074038
0.93385094 -0.04900598 -0.16011146 0.8524646 0.3291997 0.66175264 0.31459004 1.5266762
00000000: f1c6 89bf 4d8d 693e 73e5 06c0 c32d 0940
00000010: fd62 ab3f 0418 e9bf 2235 c9bf 9b76 1abf
00000020: ac31 5b3e 1e2c b1be 77ee f23e 1c09 5f3f
00000030: 0a43 89bf 9a91 3ebf 117e f63c 3bb1 21be
00000040: a060 d3be d99c 06c0 f29c 1fbf ae08 1f3e
00000050: 8d80 01bf 0099 113f 4ab5 f9bf 3bc2 89bd
00000060: f334 973f a091 a33e 2526 813e a090 8f3f
00000070: 00d4 b73e 317c 4d3f c127 0a3f 34dc 403e
00000080: 6da6 29be 4f02 96bf 305b 36bf 002b 143f
00000090: 303b cc3f 7e76 853e 3f66 5ebf 77b9 013f
000000a0: 9263 f93f 2874 cf3f c3e9 65bf 6010 11bf
000000b0: bd6b 5f3e da72 fcbd c580 15bf a04f 38bc
000000c0: 8f81 85bf d3a6 0b3e a282 c5bc ee32 ffbc
000000d0: ff61 f13e a859 5dbf 8af4 4cbf 1269 91be
000000e0: f84d 96be d18b 813e 0b44 7fbe 4e7f 42bf
000000f0: 66a3 75bf 4ca0 973f 7355 073f 4201 bb3e
00000100: 85b2 173f d853 83be 083b 593f b914 1b3e
00000110: 0fab ff3e 66ce b83e 1567 3f3e 056d 0a3e
00000120: f784 23bf e73c 243e 64cd 80bf 2984 7dbe
00000130: 8a8b d23d 25cc 2f3e 2f8c d43d 73d7 c63e
00000140: d9e6 35c0 3a22 393d 6880 4c3c 2325 ccbe
00000150: b5d5 05bf 33a3 d23f 7623 953d 11e2 81bf
00000160: 1cc6 963f 788a d53d b6e7 56be 32be 743c
00000170: 6268 fbbc e962 973b 1e02 803f cdff 643f
00000180: 035b debf a026 493f 27c5 153e 755d 7ebe
00000190: 200e bdbf 6b98 31be d87a 36c0 ad9e debe
000001a0: ed90 f4bf d620 dabf 794f 19c0 424d ce3e
000001b0: e04d 353f 092b debe b6dd ea3e 3bb0 b3be
000001c0: 81ac 65bf b5fd aabc aedf d2bf bb7b 2c3f
000001d0: 0b1d 303f 234d 063f dc46 253f 0a97 0cc0
000001e0: 6a2e dfbf 1c92 0c3d 284f a2bf a17c ce3c
000001f0: e034 1c3f a896 e03d fbe1 6ebe ef74 20be
00000200: 85aa 65bf 8f52 903f a142 56bf 44bd 623f
00000210: b213 64bf 4d18 0dbf 6d3d 54bc cc07 8dbf
00000220: d588 013f 8904 863e f0e7 513f e9e8 3b3d
00000230: 9dc3 0040 720b 353e fa5c 0b3f d369 1d3b
00000240: 7856 4c3e 5395 4f3f da8f 74bf ce30 c1be
00000250: 05ef 13be c789 85bf b0b3 01be f5c8 63bf
00000260: e9a2 5d3d 12ad d83f 9422 933e 0a65 04be
00000270: 1e63 6ebe 5ee6 41be a5eb 3ebe 761e 723f
00000280: b0c1 b8be 7aef f13e e637 f8be 538f 95bf
00000290: cbcb 81be 58f6 6fbe 1fcc 1cbf c4b7 e1be
000002a0: ecc1 92bf f1f5 c33d 639e f43e a38f b8be
000002b0: 7837 e2be a82a bebe 1879 bdbf cf41 793f
000002c0: da98 c0be 6aa4 3abf 1211 e6be af1d ff3e
000002d0: 25ff aabf c1ad f33c e191 ccbe 2392 a0be
000002e0: dad0 bfbe c0bc 2f3f 4d47 9a3d 1c5c f73e
000002f0: 46e5 1d3e 9660 873e 3392 193e 3b94 32bd
00000300: 11c4 3ebf 1208 33be e12f 9e3c a341 843e
00000310: bbc0 30bf df85 873e 7677 d8be c4be 50bc
00000320: b574 0fbf 89f3 ac3f 1d1c c4bf 089b c0be
00000330: 1448 553f 3da1 743e bbfa 993f f575 a8bf
00000340: 0ffe 253d 624d e73e bee8 2abe f4b4 14bf
00000350: 1c23 1ebe 9538 c33d ba43 493e fed9 a7bf
00000360: b340 773f 7a71 92be 4a03 e23e 96c5 97bf
00000370: 268f c23c b26f 12bf 0115 403e eccd a7bf
00000380: ef03 99be 173b 4b3f db73 ab3f 24dd 3a3f
00000390: 23ac d8bc 1d83 1dbf 4f9a 213f 958e 98be
000003a0: 8201 753f 3ded c4bd ffee 9c3f 9743 91bc
000003b0: e336 2ebd f267 003e 2568 37bf 6d27 a0be
000003c0: c9eb e23e ee41 d4be a9b6 3a3f a925 6bbf
000003d0: afd9 923f 1639 843f 95d8 6ebf a961 54be
000003e0: db10 6f3f 7fba 48bd 42f4 23be 1f3b 5a3f
000003f0: dd8c a83e 9f68 293f f211 a13e 206a c33f

lstm.weight_hh_l0 f4 [400, 100]
-0.3958824 0.5782052 -0.44828987 -0.47858992 -0.534415 -0.63639915 0.1103625 0.07491548
0.1042157 -0.26798055 0.19996515 0.8472933 0.035393402 0.59764224 0.2944345 0.020013781
-0.083245166 -0.80022085 -0.43782982 0.4046099 -0.24604006 0.13245046 0.29497746 -0.74003357
-0.21408348 0.052523132 0.2710599 0.3216611 0.1300088 -0.055601995 0.29400754 -0.16144198
0.25610763 0.007907878 0.39707634 -0.00017820424 0.031026492 0.71612245 0.4341303 -0.65266806
0.28005788 -1.1732112 0.013916755 0.6098567 -1.0634633 0.8129358 -0.11184186 -0.47925675
0.2640224 0.11564132 0.077637516 0.58323354 0.022611758 1.2074881 0.09243617 -0.023290573
0.43322065 0.04459269 -0.1456691 -0.6523028 -0.20735866 0.03172994 -0.50525814 0.520763
0.25253114 0.053245544 -0.21703538 0.44463727 0.5881191 0.60204756 -0.8525143 0.05088086
-0.22679701 0.14230038 -0.39187422 0.27130353 -1.2621062 -0.35726556 0.11678993 0.13843575
0.18878295 0.29450387 1.0485091 -0.03960223 0.11632581 0.3860958 0.012129544 -0.00165159
0.11720326 -0.27358738 -0.4423904 0.030057695 0.2005762 0.556256 0.3680438 -0.05725403
-0.5144257 0.044125803 -0.3048765 0.059965935 0.219485 -0.030804371 -0.5562465 0.30686653
-1.089832 -1.546256 -0.58360136 0.3800532 1.0496969 0.10386641 0.3625375 0.42392126
0.40993392 -0.17675431 0.09393782 -0.2949194 0.09266731 0.37638018 0.16761747 -0.03479048
-0.66695684 -0.04066983 0.3647833 0.009987566 -0.26142815 -0.30221763 -0.01991727 -0.61739516
0.0070190253 -0.07021525 0.3522161 -0.4303872 -0.09297814 1.6615597 0.75368017 -0.060153604
2.5815256 0.40331286 -1.2623253 -0.5582618 -0.52904797 0.81188697 0.09386937 -0.09125473
1.0472417 -0.57736427 -0.8067072 0.057875857 1.0017502 -0.29516703 -0.79054254 0.0440085
-0.9029749 -1.1319087 -0.5022553 0.8070604 -0.3253046 -0.33641213 0.39208865 0.37942618
-0.5698859 -0.29881617 1.4219184 0.72759926 0.64366776 0.6640972 0.109549314 -0.030265182
-1.2111793 -0.0052842717 0.058459993 -0.39585942 -0.06511528 -0.048506126 -0.53124166 0.31547496
0.45478746 -0.06402411 -0.15091933 -0.121486515 -1.6597159 0.03726042 0.43085742 0.8172897
0.81629705 -0.05487743 0.5312776 -0.28374723 0.47581062 0.0750097 -0.8595805 -0.57312447
0.10097917 -0.019272147 0.40976843 0.15430659 0.10763531 -0.8504744 0.18652484 -0.21260484
1.0694001 0.023340603 -0.1585671 -0.08989952 -0.7259439 -0.06312413 -0.16246094 -0.087043725
0.11580415 -0.340711 0.22663155 -1.104789 -0.32144254 0.7267665 0.9752238 -0.33441806
0.043985456 0.21031903 0.2652694 -0.0326385 -0.10174052 -0.16188963 0.1849775 -0.17947261
-0.6572208 -0.27038872 0.1714024 -0.09012996 -0.022613315 -0.2624826 0.1761151 -0.07247449
-0.42869955 1.0446537 -0.2799371 -1.7718742 2.344275 0.3584823 0.6800923 -0.083095916
0.23832597 1.1618174 -0.05627378 -1.1912028 0.5600916 -0.08615669 -0.60188735 -0.07606498
0.3299863 0.6416158 -0.28154874 0.64300746 -0.33163396 -1.2265164 0.19296806 0.76292944
00000000: 19b1 cabe 4205 143f 4086 e5be bd09 f5be
00000010: 6ccf 08bf 0eeb 22bf bc05 e23d 4a6d 993d
00000020: 0a6f d53d bf34 89be aac3 4c3e 37e8 583f
00000030: acf8 103d 15ff 183f 1ec0 963e f1f3 a33c
00000040: 717c aabd 46db 4cbf 3b2b e0be 0729 cf3e
00000050: edf1 7bbe 18a1 073e 4907 973e d772 3dbf
00000060: b338 5bbe 7f22 573d 5dc8 8a3e c4b0 a43e
00000070: 0721 053e ebbe 63bd 2888 963e 0c51 25be
00000080: 8a20 833e 0b90 013c 974d cb3e 56dc 3ab9
00000090: 452b fe3c cd53 373f 5446 de3e 4115 27bf
000000a0: bf63 8f3e c92b 96bf 1a03 643c 921f 1c3f
000000b0: 911f 88bf 901c 503f 580d e5bd 2461 f5be
000000c0: f22d 873e 5bd5 ec3d 6b00 9f3d cb4e 153f
000000d0: 4b3c b93c f88e 9a3f 2d4f bd3d dfcb bebc
000000e0: 19cf dd3e d3a6 363d 482a 15be 51fd 26bf
000000f0: d455 54be 41f7 013d 9958 01bf b950 053f
00000100: c34b 813e 0018 5a3d 863e 5ebe 7fa7 e33e
00000110: f98e 163f ca1f 1a3f 613e 5abf 7368 503d
00000120: 7a3d 68be 31b7 113e bda3 c8be 4ce8 8a3e
00000130: b28c a1bf 83eb b6be 8f2f ef3d 1ac2 0d3e
00000140: 5150 413e 36c9 963e 8c35 863f f335 22bd
00000150: 3a3c ee3d 59ae c53e ffba 463c 2a7a d8ba
00000160: 4308 f03d a513 8cbe ff80 e2be 8e3b f63c
00000170: d963 4d3e cb66 0e3f 3d70 bc3e 3483 6abd
00000180: 67b1 03bf 42bd 343d c618 9cbe d79e 753d
00000190: adc0 603e 7359 fcbc 2c66 0ebf 9c1d 9d3e
000001a0: 9d7f 8bbf b7eb c5bf e666 15bf 5596 c23e
000001b0: 785c 863f eab7 d43d 849e b93e 350c d93e
000001c0: dce2 d13e 15ff 34be 7962 c03d adff 96be
000001d0: 5cc8 bd3d e7b4 c03e eaa3 2b3e 7680 0ebd
000001e0: afbd 2abf 6895 26bd e0c4 ba3e e3a2 233c
000001f0: e9d9 85be 45bc 9abe 8b29 a3bc 9c0d 1ebf
00000200: daff e53b 03cd 8fbd ab55 b43e b65b dcbe
00000210: 536b bebd fdad d43f 2ff1 403f a063 76bd
00000220: b737 2540 067f ce3e e093 a1bf 3fea 0ebf
00000230: b06f 07bf d3d7 4f3f 963e c03d c3e3 babd
00000240: 040c 863f 25ce 13bf 5d84 4ebf 3c0f 6d3d
00000250: 5a39 803f 2220 97be ff60 4abf 4242 343d
00000260: 5d29 67bf 62e2 90bf ce93 00bf 839b 4e3f
00000270: 538e a6be 363e acbe d8bf c83e 2644 c23e
00000280: 0be4 11bf 6ffe 98be 6c01 b63f f243 3a3f
00000290: 69c7 243f 4602 2a3f 645b e03d b0ee f7bc
000002a0: ec07 9bbf af27 adbb bf73 6f3d 16ae cabe
000002b0: 295b 85bd 5cae 46bd 74ff 07bf ef85 a13e
000002c0: e7d9 e83e 131f 83bd 998a 1abe eccd f8bd
000002d0: 9271 d4bf 629e 183d 5899 dc3e e639 513f
000002e0: d8f8 503f 28c7 60bd cf01 083f 5147 91be
000002f0: 739d f33e b09e 993d 780d 5cbf 49b8 12bf
00000300: 2bce ce3d 9fe0 9dbc 2bcd d13e 8c02 1e3e
00000310: e76f dc3d b1b8 59bf 5e00 3f3e 15b5 59be
00000320: 1ae2 883f cb34 bf3c 6a5f 22be 3d1d b8bd
00000330: 76d7 39bf 3947 81bd 295c 26be fb43 b2bd
00000340: ba2a ed3d ac71 aebe 1a12 683e ba69 8dbf
00000350: 1e94 a4be 5f0d 3a3f 44a8 793f d838 abbe
00000360: 182a 343d df5d 573e 64d1 873e f3af 05bd
00000370: 555d d0bd 65c6 25be be6a 3d3e abc7 37be
00000380: 9f3f 28bf 6470 8abe 1c84 2f3e 0e96 b8bd
00000390: 8f3f b9bc 1f64 86be 8457 343e 816d 94bd
000003a0: 827e dbbe 36b7 853f ea53 8fbe c6cc e2bf
000003b0: 9a08 1640 fe8a b73e 871a 2e3f 312e aabd
000003c0: b90b 743e 6fb6 943f 567f 66bd 5579 98bf
000003d0: 2a62 0f3f eb72 b0bd 4a15 1abf f5c7 9bbd
000003e0: f7f3 a83e ef40 243f 2827 90be 239c 243f
000003f0: edcb a9be 7dfe 9cbf 6b99 453e 584f 433f

lstm.bias_ih_l0 f4 [400]
-0.4105344 -0.418909 -0.26346934 -0.72878367 -0.8265563 -0.5488296 -0.87921417 -0.1604036
-0.21747382 -0.47403076 -0.52325416 -0.93097436 -0.36122736 -0.49947414 -0.6642605 -0.5145885
-0.2675076 -0.35970286 -0.28435534 -0.33216548 -0.50987583 -0.6024826 -0.44718915 -0.25136086
-0.5612044 -0.46621656 -0.5666843 0.09939201 -0.5909576 -0.38363823 -0.60833794 -0.2736475
-0.23607777 -0.7640995 -0.3709217 -0.63692087 -0.37797406 -0.059567578 -0.7508963 -0.5394811
-0.5068861 -0.83272785 -0.52862245 -0.71355176 -0.48682937 -0.5897934 -0.7298599 -0.18212448
-0.5602994 -0.816758 -0.41113067 -0.31917545 -0.7023721 -1.0537089 -0.30353588 -0.55844575
0.12784003 -0.2842538 -0.47659883 -0.39712512 -0.44477847 -0.2545488 -0.83360887 -0.2428633
-0.65009713 -0.5736727 -0.560336 -0.6715982 -0.40477258 -0.8088589 -0.13009156 -0.73945844
-0.7958052 -0.71921957 -0.8656622 -0.33197024 -0.94500583 -0.4645848 0.18625857 -0.2889546
-0.10964152 -0.69823176 -0.6704409 -0.2005705 -0.7050004 -0.15812202 -0.35089043 -0.5472166
-0.59590775 -0.51443756 -0.45983034 -0.42776987 -0.63013095 -0.3214074 -0.30199793 -0.3389456
-0.74558014 -0.50735825 -0.41811073 -0.48972914 -0.7653505 -0.49699974 -0.29629195 -0.6392608
-0.53534216 -0.8050552 -0.3809789 -0.019003382 -0.22341807 -0.28806952 -0.5606784 0.6618679
-0.91720515 -0.71714014 -0.64204156 -0.46904147 -0.4343054 -0.7911902 0.2914272 0.06831701
-0.17500634 -0.5690205 0.6949847 -0.65297925 -0.68394285 0.4155773 -0.57948864 -0.6026813
-0.77764463 -0.33788854 -0.66139466 -0.67624474 -0.46935302 -0.58053726 -0.7744682 -1.077124
-0.37104315 -0.5068362 -0.69141304 0.4506793 -0.16441408 -0.5980088 -0.49892098 -0.42142883
-0.4447171 -0.68227327 -0.65668607 -0.5730533 -0.20000692 -0.14830573 -0.58666754 -0.89237356
-0.3301753 0.77238744 -0.39356634 -0.7074708 0.10642532 -0.47524297 -0.3644132 -0.7273275
-0.5559104 -0.3672897 -0.5125035 -0.39391065 -0.7051946 -0.47829807 -0.97571176 -0.597547
-0.51928467 -0.5992004 -0.05517738 -0.64851224 0.93193185 -0.58706445 -0.33120644 -0.6919338
0.5170896 -0.73852783 0.18087365 -0.5478131 -0.6326149 -0.5111292 -0.38180548 0.024022713
-1.1159306 -0.44874486 -0.8624333 -0.5643337 -0.56625694 -0.6574677 -0.57794034 -0.58068496
-0.3839741 -0.49401397 -0.7530376 -0.48889294 -1.0352757 0.17525627 -0.5456156 -0.7394581
0.16907439 0.06760786 0.272009 0.15749803 -0.012581335 0.13944495 0.054988544 0.104733154
0.41207787 0.07210467 -0.06285991 0.22443199 0.011349177 -0.18385206 0.25798374 0.14779419
-0.0013372146 0.24834342 0.06195757 0.042629663 0.094720095 -0.26703072 -0.048444796 0.20114587
-0.07759418 -0.17161071 -0.08254662 -0.3676204 -0.025345614 0.008958885 -0.16409548 0.21399057
0.048955962 0.073514946 0.003166132 -0.099186614 -0.10662941 0.023257645 -0.057673614 -0.14520027
-0.18611382 -0.19731109 0.21349987 0.10051643 0.22568268 0.076754 -0.07411083 0.022169132
-0.22364989 0.0012103138 -0.17702958 -0.08338449 -0.026106684 -0.25782275 -0.12662624 0.06409882
00000000: 9131 d2be 3e7b d6be 74e5 86be 9191 3abf
00000010: 3299 53bf 1980 0cbf 2e14 61bf d740 24be
00000020: 75b1 5ebe 29b4 f2be fcf3 05bf 5654 6ebf
00000030: cbf2 b8be 13bb ffbe fa0c 2abf 12bc 03bf
00000040: c2f6 88be f92a b8be 0697 91be 9811 aabe
00000050: 3987 02bf 4d3c 1abf faf5 e4be 5fb2 80be
00000060: 17ab 0fbf f0b3 eebe 3912 11bf 0a8e cb3d
00000070: ff48 17bf 3b6c c4be 09bc 1bbf 861b 8cbe
00000080: 5fbe 71be 069c 43bf 73e9 bdbe 3f0d 23bf
00000090: d185 c1be 22fd 73bd bd3a 40bf 6f1b 0abf
000000a0: 4ac3 01bf a72d 55bf cd53 07bf 54ab 36bf
000000b0: b341 f9be b3fc 16bf 19d8 3abf d77e 3abe
000000c0: c86f 0fbf 0d17 51bf b87f d2be f76a a3be
000000d0: a8ce 33bf efdf 86bf 0e69 9bbe 4df6 0ebf
000000e0: 7fe8 023e b789 91be c304 f4be fc53 cbbe
000000f0: 01ba e3be 3854 82be 6467 55bf 28b1 78be
00000100: c46c 26bf 37dc 12bf 2e72 0fbf dced 2bbf
00000110: 5a3e cfbe 6011 4fbf b936 05be 264d 3dbf
00000120: e4b9 4bbf c61e 38bf 0a9c 5dbf 01f8 a9be
00000130: e7eb 71bf 0fde edbe 91ba 3e3e dbf1 93be
00000140: bc8b e0bd 51bf 32bf 04a2 2bbf 5a62 4dbe
00000150: e87a 34bf bdea 21be e9a7 b3be 6316 0cbf
00000160: 698d 18bf 2eb2 03bf e26e ebbe a704 dbbe
00000170: 4350 21bf 838f a4be 799f 9abe 478a adbe
00000180: 57de 3ebf 3be2 01bf 9c12 d6be c7bd fabe
00000190: 03ee 43bf c076 febe 94b3 97be 99a6 23bf
000001a0: 2f0c 09bf 1918 4ebf ab0f c3be fbac 9bbc
000001b0: b5c7 64be d97d 93be 9f88 0fbf 2d70 293f
000001c0: f5cd 6abf 7f96 37bf d65c 24bf 3426 f0be
000001d0: 475d debe 718b 4abf f235 953e cae9 8b3d
000001e0: dd34 33be 54ab 11bf 84ea 313f a629 27bf
000001f0: e116 2fbf 8cc6 d43e 5e59 14bf 5249 1abf
00000200: b813 47bf baff acbe 2951 29bf 601e 2dbf
00000210: 0a4f f0be 179e 14bf 8c43 46bf 33df 89bf
00000220: 5ef9 bdbe 04c0 01bf 7200 31bf 70bf e63e
00000230: 2a5c 28be 1b17 19bf 9272 ffbe 85c5 d7be
00000240: f6b1 e3be 76a9 2ebf 941c 28bf 9fb3 12bf
00000250: 9dce 4cbe 75dd 17be d82f 16bf 9872 64bf
00000260: bd0c a9be 2fbb 453f 8781 c9be ce1c 35bf
00000270: 85f5 d93d 0c53 f3be 5e94 babe 2332 3abf
00000280: 2550 0ebf 650d bcbe 6e33 03bf a8ae c9be
00000290: a287 34bf 7ce3 f4be 3fc8 79bf d7f8 18bf
000002a0: d7ef 04bf 3365 19bf ad01 62bd e604 26bf
000002b0: 1693 6e3f db49 16bf e493 a9be 9322 31bf
000002c0: fc5f 043f 2910 3dbf f136 393e 7b3d 0cbf
000002d0: 0df3 21bf 5dd9 02bf 027c c3be 48cb c43c
000002e0: d0d6 8ebf e3c1 e5be 6ec8 5cbf 2c78 10bf
000002f0: 37f6 10bf ce4f 28bf e6f3 13bf c5a7 14bf
00000300: 4198 c4be 66ef fcbe 12c7 40bf 2d50 fabe
00000310: ea83 84bf 6176 333e 77ad 0bbf 204d 3dbf
00000320: d621 2d3e fd75 8a3d c344 8b3e 2a47 213e
00000330: f221 4ebc a8ca 0e3e ab3b 613d 567e d63d
00000340: dffb d23e 9dab 933d b2bc 80bd 80d1 653e
00000350: e6f1 393c b743 3cbe 7216 843e 5c57 173e
00000360: 7a45 afba bd4d 7e3e 39c7 7d3d 719c 2e3d
00000370: 9cfc c13d 40b8 88be 0d6e 46bd 2ff9 4d3e
00000380: b3e9 9ebd b8ba 2fbe 340e a9bd be38 bcbe
00000390: 9ba1 cfbc 4ac8 123c a508 28be 5820 5b3e
000003a0: 0c86 483d 018f 963d e17e 4f3b 5a22 cbbd
000003b0: 8560 dabd d186 be3c 2b3b 6cbd 61af 14be
000003c0: 9f94 3ebe eb0b 4abe b69f 5a3e 8fdb cd3d
000003d0: 5c19 673e 3331 9d3d 6bc7 97bd 0a9c b53c
000003e0: 7a04 65be 64a3 9e3a 3e47 35be 7dc5 aabd
000003f0: afdd d5bc 5801 84be 4faa 01be 3e46 833d

lstm.bias_hh_l0 f4 [400]
-0.47829854 -0.45952424 -0.20302211 -0.6384529 -0.82255006 -0.6224931 -0.85499084 -0.09489812
-0.21280986 -0.3930924 -0.5314875 -0.9005827 -0.3244517 -0.37132335 -0.53099585 -0.5665658
-0.20210771 -0.2414839 -0.27754095 -0.1647277 -0.37701932 -0.5638791 -0.32320553 -0.3828115
-0.40796012 -0.5106788 -0.5513925 0.1346971 -0.4672576 -0.25906095 -0.57304645 -0.28485322
-0.2615824 -0.90275264 -0.55483365 -0.6254499 -0.44904426 -0.09694885 -0.6875013 -0.6629979
-0.48222262 -0.75582576 -0.45158193 -0.7164797 -0.42949307 -0.53446627 -0.81305784 -0.21891856
-0.4944486 -0.8670169 -0.4237751 -0.18216828 -0.58516943 -0.98847264 -0.22438239 -0.44616827
0.08931888 -0.27463695 -0.3418483 -0.32804617 -0.53477615 -0.3833008 -0.7447814 -0.38254407
-0.58781666 -0.61895365 -0.51864636 -0.7709115 -0.26922187 -0.9370811 -0.28415442 -0.65430516
-0.8819684 -0.72991973 -0.75820625 -0.24234381 -0.9548911 -0.431603 0.15059283 -0.44152075
-0.2856111 -0.7625983 -0.5018201 -0.21292835 -0.86197996 -0.06829697 -0.41664264 -0.47135672
-0.5027228 -0.6039016 -0.5275452 -0.55041355 -0.63818854 -0.24395964 -0.41489676 -0.3105557
-0.84190136 -0.47051448 -0.37061682 -0.50655615 -0.6053108 -0.46319595 -0.29758114 -0.7419247
-0.4555725 -0.75667703 -0.33297262 -0.016544666 -0.22277103 -0.2763959 -0.60047454 0.65772897
-0.9865067 -0.87028176 -0.66304547 -0.33406842 -0.56828487 -0.8446996 0.2101384 -0.036265075
-0.09749475 -0.49667224 0.52961326 -0.5786797 -0.6567271 0.36432892 -0.6093985 -0.53580385
-0.86791766 -0.31561866 -0.78167415 -0.6662401 -0.48147142 -0.68999684 -0.7053806 -1.1734934
-0.41665328 -0.46183276 -0.6156798 0.3929526 -0.21476349 -0.59972703 -0.36641273 -0.40294278
-0.38864446 -0.7363374 -0.6101997 -0.60155064 -0.2168644 -0.19717485 -0.6678077 -0.7409547
-0.35262188 0.6559622 -0.48964936 -0.61777914 0.24834543 -0.5400465 -0.5334676 -0.6512799
-0.46916893 -0.4758774 -0.6085473 -0.5255985 -0.80177885 -0.51373297 -0.89903945 -0.5490267
-0.5084826 -0.5733296 -0.07468028 -0.5093815 0.8372119 -0.52102244 -0.31534296 -0.68651843
0.60564095 -0.66903037 0.17234753 -0.48308522 -0.6714428 -0.5213602 -0.34763548 -0.00012954885
-1.0968097 -0.4278906 -0.90173006 -0.461213 -0.6322425 -0.7346459 -0.58478373 -0.4993603
-0.4433491 -0.44391838 -0.83825403 -0.43386427 -1.0015534 0.27186537 -0.60437125 -0.6935426
0.23474933 0.07316697 0.1701471 0.058079254 -0.020179667 0.18954466 0.04736578 0.08238767
0.41368034 0.16649787 0.007932964 0.13669752 0.029578425 -0.15191936 0.19725297 0.2293657
-0.0114697805 0.17649864 0.20165305 0.035373896 0.08440327 -0.19801337 -0.08025283 0.28548202
-0.06273148 -0.07535966 -0.034600276 -0.34385723 0.109916165 -0.025993712 -0.2268328 0.082991645
-0.013526247 -0.078938834 0.0089222565 -0.080102146 -0.124731615 -0.09059585 -0.0827678 -0.08766349
-0.03359872 -0.02967593 0.10032269 -0.009151551 0.26988453 0.09336834 0.06612569 0.060551144
-0.10903202 -0.02028277 -0.13516994 -0.01515738 0.11391667 -0.17119056 -0.15624739 -0.04334612
00000000: 8ce3 f4be c346 ebbe 07e5 4fbe a671 23bf
00000010: a492 52bf b55b 1fbf aee0 5abf f259 c2bd
00000020: d4ea 59be 6843 c9be 910f 08bf 968c 66bf
00000030: 891e a6be 181e bebe 58ef 07bf 750a 11bf
00000040: 53f5 4ebe 8e47 77be d919 8ebe 61ae 28be
00000050: ad08 c1be 615a 10bf 327b a5be deff c3be
00000060: 26e0 d0be d9bb 02bf 0f28 0dbf 09ee 093e
00000070: 633c efbe a3a3 84be 2cb3 12bf 48d8 91be
00000080: 21ee 85be cc1a 67bf 9409 0ebf 7c1d 20bf
00000090: 21e9 e5be 1e8d c6bd 1600 30bf 3bba 29bf
000000a0: e2e5 f6be cc7d 41bf bf35 e7be 376b 37bf
000000b0: 84e6 dbbe c8d2 08bf 8f24 50bf 302c 60be
000000c0: 5e28 fdbe d2f4 5dbf 0df9 d8be 528a 3abe
000000d0: aacd 15bf 8b0c 7dbf 7fc4 65be 2b70 e4be
000000e0: d1ec b63d 379d 8cbe be06 afbe abf5 a7be
000000f0: 17e7 08bf 0140 c4be fea9 3ebf d1dc c3be
00000100: 277b 16bf bf73 1ebf 02c6 04bf 755a 45bf
00000110: 73d7 89be 8ce4 6fbf b07c 91be 8b80 27bf
00000120: aec8 61bf 05dc 3abf ce19 42bf fa28 78be
00000130: be73 74bf 12fb dcbe 0235 1a3e 020f e2be
00000140: 9e3b 92be a439 43bf 4877 00bf e409 5abe
00000150: b8aa 5cbf 48df 8bbd 2f52 d5be ab55 f1be
00000160: 71b2 00bf 4c99 1abf 340d 07bf e7e7 0cbf
00000170: 5360 23bf 8ed0 79be 596d d4be 2801 9fbe
00000180: d986 57bf 46e7 f0be 7dc1 bdbe aaad 01bf
00000190: a6f5 1abf 0528 edbe 8e5c 98be c7ee 3dbf
000001a0: cc40 e9be 96b5 41bf 637b aabe ae88 87bc
000001b0: 171e 64be c383 8dbe b3b8 19bf ed60 283f
000001c0: b48b 7cbf c9ca 5ebf 59bd 29bf 040b abbe
000001d0: 1e7b 11bf 3c3e 58bf 852e 573e b08a 14bd
000001e0: 54ab c7bd d34b febe bc94 073f 5a24 14bf
000001f0: 441f 28bf 5289 ba3e 8a01 1cbf 712a 09bf
00000200: da2f 5ebf c598 a1be cc1b 48bf b68e 2abf
00000210: 6c83 f6be a2a3 30bf d393 34bf 0835 96bf
00000220: 9453 d5be 5875 ecbe 319d 1dbf 1531 c93e
00000230: f6ea 5bbe b687 19bf 739a bbbe 844e cebe
00000240: 68fc c6be 9c80 3cbf 0c36 1cbf 39ff 19bf
00000250: b411 5ebe 34e8 49be 72f5 2abf 35af 3dbf
00000260: db8a b4be 24ed 273f 52b3 fabe c626 1ebf
00000270: 444e 7e3e 7d40 0abf 5591 08bf 48ba 26bf
00000280: e936 f0be 34a6 f3be c1c9 1bbf a08d 06bf
00000290: 6141 4dbf 0184 03bf 7327 66bf 048d 0cbf
000002a0: ea2b 02bf bbc5 12bf faf1 98bd d366 02bf
000002b0: 8553 563f ba61 05bf a274 a1be acbf 2fbf
000002c0: 490b 1b3f 9345 2bbf df7b 303e f256 f7be
000002d0: ade3 2bbf dd77 05bf 47fd b1be 81d7 07b9
000002e0: 4364 8cbf 7a14 dbbe c8d7 66bf 1c24 ecbe
000002f0: a5da 21bf c111 3cbf 63b4 15bf 27ac ffbe
00000300: a7fe e2be 4549 e3be d197 56bf 7523 debe
00000310: e732 80bf f031 8b3e 13b8 1abf 028c 31bf
00000320: 2162 703e 90d8 953d 0b3b 2e3e 83e4 6d3d
00000330: d44f a5bc ff17 423e 9f02 423d deba a83d
00000340: e9cd d33e 6b7e 2a3e 43f9 013c 6ffa 0b3e
00000350: 744e f23c c090 1bbe affc 493e d8de 6a3e
00000360: bfeb 3bbc 0fbc 343e 237e 4e3e 38e4 103d
00000370: 9fdb ac3d 04c4 4abe 995b a4bd b32a 923e
00000380: 5d79 80bd 2a56 9abd 05b9 0dbd 0e0e b0be
00000390: ba1b e13d c4f0 d4bc dc46 68be 86f7 a93d
000003a0: 319d 5dbc afaa a1bd a82e 123c 980c a4bd
000003b0: 4a73 ffbd 518a b9bd 2a82 a9bd ea88 b3bd
000003c0: d09e 09bd f01a f3bc fc75 cd3d 63f0 15bc
000003d0: 4e2e 8a3e e637 bf3d e86c 873d 7a04 783d
000003e0: 2e4c dfbd 0d28 a6bc fd69 0abe a956 78bc
000003f0: 254d e93d 944c 2fbe 51ff 1fbe b38b 31bd

fc.weight f4 [2, 100]
0.24152124 0.18514828 -0.31104878 0.13243842 -0.10241195 0.15761682 -0.10700071 0.041946188
-0.4499741 0.18632653 0.3163937 0.0241995 -0.54146963 -0.12336049 -0.30736372 -0.13027842
-0.33458272 -0.31478885 -0.24993949 0.37866697 0.24941449 0.27683562 -0.06945101 -0.35004684
0.16773948 -0.2665364 -0.26443046 0.25579318 0.39820382 -0.11327296 -0.13640784 0.39126155
-0.036933877 -0.20115332 -0.5219074 0.20302437 -0.3457627 0.17090847 0.09544873 -0.15321904
0.225603 0.4856993 0.06547784 -0.13773128 -0.13852689 -0.3319263 0.5497568 0.47203204
0.18468681 -0.45740634 -0.63346374 0.3750721 -0.45757374 0.06315387 0.3698776 -0.36750886
0.068749875 0.38989425 -0.4758705 -0.2390183 0.088414125 0.48133963 0.33853358 0.30087078
-0.3863698 0.23926419 0.18814784 0.06158 0.48023528 -0.041858993 -0.3942241 0.123471655
0.07007888 -0.038926393 0.27238593 -0.37248626 -0.14117995 -0.28450006 -0.014036246 -0.3579089
0.37434855 0.53305864 0.40974882 -0.36096582 0.5309622 0.26420143 0.19548728 -0.5377259
-0.27466574 -0.35503381 0.47981134 0.27789995 -0.22013804 0.39679733 0.54707956 -0.41463864
0.14176314 0.20427997 -0.5430153 0.4488087 -0.27000773 -0.064633764 0.3675999 -0.12291103
0.0040942584 -0.15199625 0.051050495 -0.17988 0.38223013 -0.19576456 -0.17410716 -0.0004407704
0.49923846 0.21092816 0.17342101 0.2037143 0.27143744 0.32134694 0.1172962 -0.42123926
-0.29872623 -0.3395633 -0.062395968 0.46485442 -0.20277502 0.42450878 0.32092083 -0.1857033
-0.27881527 0.010996806 0.18616144 -0.27226782 -0.016305512 0.2512641 0.53837633 -0.30030784
0.22959255 -0.1581857 -0.05825285 0.15802132 -0.15923662 -0.5106618 0.04996448 0.1856111
0.15458986 0.42203036 -0.65529805 -0.4434719 -0.13098289 0.42515793 0.50344735 -0.45180613
0.4969506 -0.030515788 -0.28064758 0.43105885 -0.09182273 -0.30303836 0.43001112 0.25043225
-0.18537958 -0.46054924 -0.30758935 -0.27208987 0.36619878 -0.18376936 -0.23354764 -0.08165898
-0.39255038 -0.029116515 0.30295676 -0.11803955 0.039171282 0.048233986 -0.1887795 0.35269752
0.12936391 0.34973767 0.04003331 0.33546513 -0.41142747 -0.673271 -0.30725926 0.29348168
-0.5697735 -0.36028442 -0.28757396 0.382404 0.20478745 0.23530795 -0.38105074 -0.32105318
0.047772508 -0.4169668 -0.38429648 0.3685679 -0.094727896 -0.28721756 0.4616757 -0.33849993
00000000: 5851 773e 8397 3d3e c941 9fbe f09d 073e
00000010: 5bbd d1bd 4e66 213e 3023 dbbd c4cf 2b3d
00000020: 0163 e6be 62cc 3e3e 5bfe a13e 083e c63c
00000030: c19d 0abf 6da4 fcbd c75e 9dbe b567 05be
00000040: 6d4e abbe 012c a1be 23f0 7fbe a3e0 c13e
00000050: 8366 7f3e 66bd 8d3e 553c 8ebd 5739 b3be
00000060: e6c3 2b3e 7677 88be 6e63 87be 53f7 823e
00000070: 5fe1 cb3e a7fb e7bd 7fae 0bbe 6f53 c83e
00000080: fa47 17bd 23fb 4dbe b99b 05bf 9fe5 4f3e
00000090: cf07 b1be a102 2f3e a07a c33d 74e5 1cbe
000000a0: 7904 673e 94ad f83e 3f19 863d 6e09 0dbe
000000b0: fed9 0dbe 3ef2 a9be ddbc 0c3f 2fae f13e
000000c0: 8a1e 3d3e 2a31 eabe ae2a 22bf 7309 c03e
000000d0: 1b47 eabe d156 813d 9960 bd3e 1f2a bcbe
000000e0: bccc 8c3d 38a0 c73e 4ca5 f3be 37c1 74be
000000f0: 7712 b53d 2672 f63e 4654 ad3e bc0b 9a3e
00000100: 43d2 c5be ac01 753e d4a9 403e 4f3b 7c3d
00000110: 66e1 f53e 5674 2bbd bed7 c9be b5de fc3d
00000120: 8485 8f3d 4871 1fbd 2b76 8b3e 85b6 bebe
00000130: 7a91 10be fea9 91be 48f8 65bc d63f b7be
00000140: 9daa bf3e 8876 083f 99ca d13e 83d0 b8be
00000150: 24ed 073f 6945 873e d12d 483e 68a8 09bf
00000160: fda0 8cbe fec6 b5be d5a9 f53e e748 8e3e
00000170: de6b 61be 0529 cb3e 680d 0c3f 844b d4be
00000180: 5b2a 113e c52e 513e 0d03 0bbf 41ca e53e
00000190: 743e 8abe b55e 84bd 0e36 bc3e c7b8 fbbd
000001a0: 2129 863b e8a4 1bbe 531a 513d 7632 38be
000001b0: abb3 c33e 8176 48be 2649 32be 3417 e7b9
000001c0: 2f9c ff3e 8dfd 573e 4795 313e 7b9a 503e
000001d0: d9f9 8a3e 9687 a43e fd38 f03d acac d7be
000001e0: a5f2 98be 3edb adbe ea92 7fbd 6601 ee3e
000001f0: 41a4 4fbe 3759 d93e bc4f a43e 0229 3ebe
00000200: e0c0 8ebe f32b 343c 1ba1 3e3e b066 8bbe
00000210: 2393 85bc b0a5 803e 08d3 093f f3c1 99be
00000220: 4f1a 6b3e 6ffb 21be 8a9a 6ebd 57d0 213e
00000230: ed0e 23be bbba 02bf 8ea7 4c3d d610 3e3e
00000240: ce4c 1e3e 5d14 d83e 9dc1 27bf c00e e3be
00000250: 6120 06be 4dae d93e ede1 003f 2253 e7be
00000260: 4f70 fe3e 3ffc f9bc 0ab1 8fbe bfb3 dc3e
00000270: 8e0d bcbd d827 9bbe 6b2a dc3e a838 803e
00000280: 25d4 3dbe 1ccd ebbe 5a7c 9dbe 5d4f 8bbe
00000290: 687e bb3e 092e 3cbe 1d27 6fbe d33c a7bd
000002a0: 5dfc c8be c285 eebc 261d 9b3e b8be f1bd
000002b0: 1172 203d 0091 453d 6a4f 41be c594 b43e
000002c0: f977 043e d110 b33e f8f9 233d 16c2 ab3e
000002d0: 9fa6 d2be 7d5b 2cbf 1651 9dbe 3b43 963e
000002e0: addc 11bf 3377 b8be e53c 93be 75ca c33e
000002f0: cdb3 513e 91f4 703e 1519 c3be 1561 a4be
00000300: 1bad 433d ac7c d5be 82c2 c4be efb4 bc3e
00000310: b300 c2bd 2e0e 93be c260 ec3e dd4f adbe

fc.bias f4 [2]
-0.03967173 -0.029066129
00000000: d37e 22bd 171c eebc
