results/lstm/lstm_hidden_100_layers_1_bidirectional_True_length_64_batch_64_lr_0.001.pth (torch, 491284 bytes, 10 tensors)

lstm.weight_ih_l0 f4 [400, 50]
00000000: a262 813d ac80 13be 80b5 173e 3609 313e
00000010: b2a5 34bd f3cc 733e af64 4e3e cb48 493e
00000020: 936e debc 0289 af3d 9ab8 bbbd b9c2 4abe
00000030: d05b 903d de9b 483e 725d e5bd 43aa 9e3e
00000040: 09a6 953d 2692 1c3e 81cb e03d ea47 8e3d
00000050: 9451 7b3e 01d4 bb3d becc ebbd 6573 de3c
00000060: 2726 ab3d 9575 5bbe 31d7 9c3d 268a b2bd
00000070: cbed 153e 4056 c1be 66e8 b5bc 6a65 103e
00000080: ce5f 4a3e dd72 d1bc 0e8b 74bd 10b7 0cbe
00000090: d7bc 59bd dddc 7c3d a8e1 1a3e b99c 123c
000000a0: 8f9e 1bbe 5988 b23c e9d5 813c 52d3 163e
000000b0: 1364 063e 76d6 bbbd cc04 9cbb 4076 50bd
000000c0: e8ff 133e 1c3b 1ebe b019 69be 0bbc f8bc
000000d0: 9bee 54bd 4fef 1f3e 671a 593e 22ec 32be
000000e0: b391 913e 6dca 29be 2124 953c 9594 65be
000000f0: 0a28 c4bd ebab 1fbe ad8f e23c 709d ddbd
00000100: b02d 3fbe 793a 33be 783c 0ebe 8d29 843d
00000110: 4e24 a0be 93df 4e3e 6cde 26be 6eca 383c
00000120: 23f3 a7be 6a26 233a 0b72 583e 3936 88be
00000130: 4f32 47be b398 acbe 031e 97bd d803 13bd
00000140: 266c 1bbf 13a8 5bbc 1a75 b2bc cf13 213c
00000150: 6d2b e63d 46e6 433e 20ee 89bd ad8b 483d
00000160: c97b 9e3e d812 81bd 3168 18be 3550 84bd
00000170: ce04 8d3d 6b0c 153e 1827 e6bd bc6d 823e
00000180: 780b b0be 4770 0fbd 8318 89bd 4332 2cbd
00000190: a4a0 0f3e 192a 52bd 831c cebd bf60 80bd
000001a0: 7a90 933a ae7f 98bc 76c7 883d 00be 473d
000001b0: 51a9 803e f16f 6fbe 3ee7 bebc 4c65 dd3d
000001c0: a627 163e 2c24 7c3d 68e4 9ebd 4a46 17bd
000001d0: 2852 8fbd db96 3d3e c7ad 4dbe 864d 643d
000001e0: d5ad 8cbe e4cf a8bd decc 5fbe f179 99bc
000001f0: 839f b0bd a1d9 ddbd d49f b0bd 93b8 873d
00000200: 62e5 0bbe 3045 5c3e 1d18 233c 4d27 1bbe
00000210: 0ff3 f9bc 1b28 febb 6aaa ecbd c442 55bb
00000220: ee87 b8bd 677e 77bd 50a5 db3e afcb debd
00000230: 609c 00be 1ea7 953d 14fe 3dbd c141 51bc
00000240: 2bae 7cbd ad5f 4c3e 0251 41be 7508 a03c
00000250: 423f 61be f860 d1bc 42e8 5dbd fb53 e93d
00000260: cffc b93e d44d 60be 8148 683e 5d70 4d3e
00000270: 924d c23e 7bc0 d13c 5682 593e 5221 9ebe
00000280: 56bb e73d 4c28 80bc 60e7 5b3e 9cf2 b3be
00000290: e0b4 4d3e 0db7 163e 1802 a2be d873 8c3d
000002a0: 1fca aabe 1359 993c 7e9a 98bd 2f77 77bc
000002b0: 608e fe3d 7694 383e 9d87 b53d edec 2a3e
000002c0: 74a5 b6bd bb94 f43d 847d f1be 1c60 81bd
000002d0: b787 a13d 15e3 ee3d bca4 e43d 582a a7bd
000002e0: 95f6 b0be 8e20 8dbe b8c0 a7bd 83de bb3e
000002f0: 6375 f8be 35cd 16be ca41 b3be da27 6fbe
00000300: dc96 e23c a90c 23be dd1d e7bd 8acc 87be
00000310: 6874 ce3c e565 083e 5756 833e 0fb4 1a3e
00000320: ea00 c43d 0ea7 7cbd 4a73 dd3d 3592 133e
00000330: 39ae ba3d 0e75 963e 7b59 8c3e 5c3f 3d3e
00000340: 32bd 6bbd 7ab5 423e f0ba 043e 2b81 95bd
00000350: 9393 0f3d f7e0 0f3c 8539 843d 07a4 943e
00000360: 30ac e63d 32b0 af3c 111a 1ebe 7a3c b5bd
00000370: 9e28 403c 44b0 423e 6fb6 fe3c 9ecf e1bb
00000380: 3bb4 e13d 7b1e 75be db53 9abe 06cc a1bd
00000390: 54fc f83d 9831 6cbe ea49 2dbe 3dce 253e
000003a0: cb2a 163e 11ce fdbc e416 183e d917 64be
000003b0: fbc2 3b3e a25f 833c 2b01 823e d794 28be
000003c0: 3c12 f5bd 8251 83bd 4ba8 db3d 026a 6ebe
000003d0: 204d 51be 0e5a 0fbe a27b 143e 2531 27be
000003e0: 0a73 63bb 4a18 933d 9d8c 35bc 5b72 d8bd
000003f0: 0c9e 9e3e 834c 58bd c077 e83d 2dfa 803e
0.06317641 -0.14404553 0.1481533 0.1728867 -0.044103332 0.2380865 0.20155595 0.19656675
-0.027152335 0.08571054 -0.09166069 -0.19800843 0.07048762 0.19590709 -0.11199464 0.30989274
0.07307059 0.15290126 0.10976315 0.0694731 0.24542838 0.09171296 -0.11513661 0.027154634
0.08356886 -0.21431573 0.07658232 -0.08717756 0.14641492 -0.37761116 -0.022205543 0.14101186
0.19763109 -0.025567466 -0.059702925 -0.13741708 -0.053158607 0.06173407 0.15125144 0.008948498
-0.15197204 0.021793531 0.01584907 0.1472905 0.13124113 -0.091717646 -0.004761314 -0.050894022
0.14453089 -0.15452236 -0.22763705 -0.030363103 -0.051985364 0.15618633 0.21201478 -0.1747289
0.28431472 -0.16581126 0.018205704 -0.22419961 -0.09577949 -0.15592925 0.0276564 -0.108210444
-0.18669772 -0.17502774 -0.13890254 0.06453238 -0.31277698 0.20202474 -0.16295785 0.011278732
-0.32802686 0.00062236807 0.21137254 -0.2660387 -0.19452785 -0.3371025 -0.07378771 -0.035892338
-0.60711896 -0.013406771 -0.021784354 0.009831383 0.112387516 0.19130811 -0.06734872 0.04896133
0.30953816 -0.06302422 -0.14883496 -0.06460611 0.06885682 0.14555518 -0.11237925 0.25474346
-0.3438375 -0.035019185 -0.06694128 -0.04204012 0.14026123 -0.05130968 -0.10064032 -0.06268453
0.0011258267 -0.01861557 0.06678669 0.048765182 0.25129178 -0.23382546 -0.023303624 0.108103365
0.14663562 0.061557934 -0.07758409 -0.036932267 -0.06998092 0.18514578 -0.20085822 0.055737995
-0.27476373 -0.08242777 -0.21855494 -0.018734904 -0.086241744 -0.10832525 -0.08624235 0.066270016
-0.13661721 0.21510768 0.0099544795 -0.15151711 -0.030511407 -0.007756246 -0.115559414 -0.0032541016
-0.090103015 -0.06042328 0.4289956 -0.10878693 -0.12559652 0.07307266 -0.046384886 -0.012772025
-0.061689537 0.19958372 -0.18878558 0.019535283 -0.21996787 -0.025558934 -0.054176576 0.11392971
0.3632569 -0.21904689 0.22683908 0.20062394 0.37949806 0.025604477 0.21241125 -0.30884796
0.11315028 -0.015644215 0.21474981 -0.35146034 0.2008853 0.14718266 -0.31642222 0.06858033
-0.3335733 0.018719232 -0.07451342 -0.015104099 0.124294996 0.18025383 0.08863757 0.16691943
-0.089182764 0.119424306 -0.47166073 -0.063171595 0.07887214 0.11664406 0.11164233 -0.08162373
-0.34563127 -0.275639 -0.08191055 0.366932 -0.4852706 -0.14726718 -0.3501113 -0.23355046
0.027659826 -0.15922798 -0.11284993 -0.26523238 0.025201991 0.1332012 0.2565181 0.1510775
0.09570487 -0.061682753 0.10813005 0.14411242 0.091152616 0.2938618 0.27412018 0.18481201
-0.057553478 0.1901454 0.12961936 -0.073000275 0.035052847 0.008781663 0.064562835 0.29031393
0.11263311 0.021446321 -0.15439631 -0.088494256 0.011728434 0.19012552 0.03109285 -0.006891205
0.11020704 -0.23937409 -0.30142102 -0.079002425 0.12157503 -0.23065794 -0.16922727 0.16191955
0.14664762 -0.03098205 0.14852482 -0.22274722 0.18336098 0.016036812 0.25391516 -0.16463028
-0.119663686 -0.06412031 0.10725459 -0.23282626 -0.20439577 -0.13999197 0.14500287 -0.16327341
-0.003470602 0.07182367 -0.011080888 -0.105686866 0.30979955 -0.052807342 0.113509655 0.2519087

lstm.weight_hh_l0 f4 [400, 100]
00000000: 7758 8e3d f7ca 58bd 7089 753b 1152 e93d
00000010: 135f b93b 5f07 24be b910 2dbe 8765 1f3d
00000020: bf94 6ebe 27d5 1d3c 4191 4bbe a58a 1cbd
00000030: 6fbf 1abd a08d da3d 24a2 7fbd 7390 833d
00000040: 463f 063c 8cdd b7bd 2923 073c 2c69 04bb
00000050: 0527 39bd 99a4 923e af04 ddbd 447e 943e
00000060: 9654 49bc 21a4 b73d 3718 f6bb 7b52 583d
00000070: 70d5 2bbd 49f1 41be 0232 1c3e 221b 173c
00000080: 1274 17bd 85ed 123e 856a 763d 83f5 1bbd
00000090: 45fe 14bd 0f8f d8bd 7e48 9f3a 46c0 a5bd
000000a0: 82c0 a3bd d5f4 bbbd 15ca f9bb eef6 90bd
000000b0: 0b2c f9bb 017d 493d 2fcb d33d 8aea 263d
000000c0: 488d 2c3e f1c8 14be a4fb 943d 7476 b13c
000000d0: 5824 ffbc bd7f 46be 8fe7 9b3d ed3c a73d
000000e0: a4f9 33bd 9461 07be 7ff8 47be 59e8 013d
000000f0: e059 f7bd ab44 4bbe 7e04 fb3d ebfd d43d
00000100: c267 3d3e 6408 793d 8783 313d e851 1fbe
00000110: 8538 f43c aa85 333d 58f9 13bd b526 44be
00000120: 6f4b 7abd 907d 89bc 9a3b 25bc cb23 8a3d
00000130: 1d98 fe3d 4198 613d 0a45 af3a 9898 23be
00000140: 6848 aabc bbdd e03c 38c6 8a3d 47f2 32bd
00000150: 94b7 4dbd 7432 3a3e 0820 1bbc 90e7 843e
00000160: 654f b93c bbf1 303e 1fa6 fb3d 8c1e 75bd
00000170: 7320 fbbd 8700 093e 3a54 81bd 9d7a 1fbe
00000180: 017b 59be 159f e3bd 6a4a 7c3d 1200 333c
00000190: 7d90 68be 08c4 57bc cd41 cdbd a98a 593e
000001a0: edc7 f0bd ca7a 293e 2346 8b3d 3921 58bb
000001b0: b20d 7bbd 09aa acbd d695 30bd c93a 0e3e
000001c0: e91b 383e 82af 893d 0b72 9c3d c352 3ebd
000001d0: 95b7 90bd ce41 033e b0ff 2dbe 7032 063e
000001e0: c63e 683e f20c e03d c342 263d a1ad 543e
000001f0: f338 1f3e 9825 9b3a 61c1 3d3e dfe0 4cbc
00000200: 2162 69be 2509 3ebe 86a2 0f3e b3c8 5c3e
00000210: 0f64 51be ec39 293d 5885 333d 2ee0 2d3e
00000220: 7ebe 883d 3ee2 59be a6ba 2abd e0bf d13d
00000230: fb37 593c 1de8 4a3e fe53 ca3d 71c7 dabc
00000240: 66bc 77be c150 d53d 951b 513e c43e 063e
00000250: 610b f43c 4c17 a4bb 85eb 573e c2ff 893d
00000260: 47c4 1bbe bcea 70be 206c 253d 33fe d23d
00000270: 3a0a 8dbd 8beb 863e 6262 543d a761 8d3d
00000280: 111c 933d f23a 6c3e 2a61 3cbd cd71 43be
00000290: 5c0c 623c 3019 1bbe 3849 a33d 8f2b 603e
000002a0: ee2b 5cbd 6e86 b83c ffec b23e d1e3 45bc
000002b0: 298e 19bd 4224 61be 9c47 e0bd 3a78 33be
000002c0: 4163 54bd fe66 3ebe bfcc 283e 071b da3d
000002d0: bacb 223d 58e8 7fbd fb86 4d3d fe32 9b3d
000002e0: a30c 7cbd 5906 a43d 5090 38be 8ccd 153d
000002f0: fcd0 7e3e dae1 e73c da34 babd 8281 92bd
00000300: 67e8 5fbd 4919 77be 343a f1bd 3024 3cbd
00000310: 686d 0abd ae26 3f3d fea2 84bc 364c c73e
00000320: edb2 d13d b0b2 1e3d 2894 fa3d e68e 25bc
00000330: 3814 cf3d 7d19 0e3e 7f36 833b a439 1b3e
00000340: c5f0 4dbe 884e 3fbe c342 3ebd 0b9a 633d
00000350: 50a4 b53d 518c 81ba 3840 77bd 8997 ae3d
00000360: 07ef 3dbe 15c2 a23d 94a4 453d 8db7 393e
00000370: b938 173e 329d 853d 09d3 7cbd 562e 15b9
00000380: a66d 3d3e 11e7 2b3d 4f37 273e f361 463c
00000390: 28fd daba f693 4abe 385a a0bd 7708 0d3c
000003a0: 8c5b 75be 997d 023d cfee 163e 43f4 fa3d
000003b0: 6bbb d73c f531 193c a8b9 9ebd 2d7c 0f3d
000003c0: 4d50 793c f25f 37bd d691 c2bd 2cdc 36bd
000003d0: 5841 4ebd 2ffe b7bc 2967 713e 1b58 063e
000003e0: 94ec ebbd 01ea c83d c831 473e 2c26 cf3d
000003f0: 3fbc b2be 300c 8a3b c121 293e ef73 eb3d
0.06950467 -0.052927937 0.0037465952 0.11392606 0.0056570857 -0.16018437 -0.1690091 0.038915183
-0.2329893 0.009633339 -0.19879629 -0.03821816 -0.03778022 0.10671544 -0.06241049 0.06424036
0.0081937965 -0.089778036 0.008248129 -0.002020429 -0.045203228 0.28641203 -0.10791909 0.29002583
-0.012288233 0.08966852 -0.007510211 0.052813035 -0.041951597 -0.18939699 0.15253451 0.009222778
-0.036975928 0.14348419 0.06016018 -0.038075935 -0.036375303 -0.10574161 0.0012152342 -0.08093314
-0.07995702 -0.091775574 -0.007622967 -0.07078348 -0.0076041273 0.04919148 0.103414886 0.040751018
0.1685077 -0.14529778 0.07274559 0.021662928 -0.03114526 -0.19384666 0.07612526 0.081659175
-0.043939248 -0.13220817 -0.19528387 0.031715725 -0.12077689 -0.19850414 0.12256716 0.103999935
0.18496612 0.060799018 0.043338325 -0.15558589 0.029812107 0.043828644 -0.036126465 -0.1915539
-0.061107095 -0.016783506 -0.010085011 0.06745108 0.12431357 0.05507684 0.0013372016 -0.15976179
-0.02078648 0.02744948 0.067760885 -0.043688085 -0.050223902 0.18183309 -0.009468086 0.25957918
0.022620866 0.17279713 0.122875445 -0.059843585 -0.122620486 0.13379107 -0.06314893 -0.15574117
-0.21238329 -0.11114327 0.061594404 0.01092531 -0.22711368 -0.013169296 -0.10022316 0.21244301
-0.11756883 0.16550747 0.06800487 -0.0032978787 -0.061292358 -0.08430869 -0.043111645 0.13889612
0.17979397 0.067229286 0.076389395 -0.046465646 -0.070662655 0.12818071 -0.16992068 0.13105178
0.22680196 0.10939969 0.040591013 0.20769359 0.15549068 0.0011836765 0.185308 -0.012504785
-0.2279134 -0.18558176 0.14026842 0.21560936 -0.20448326 0.041315004 0.04382834 0.16980049
0.066769585 -0.21277711 -0.041681908 0.102416754 0.013257976 0.19815107 0.098793015 -0.02670643
-0.24192962 0.10415793 0.20420678 0.1310988 0.029790582 -0.00500766 0.21085937 0.06738235
-0.15211593 -0.23527044 0.04038632 0.10302391 -0.06886716 0.2635158 0.051851638 0.06903391
0.071830876 0.23069361 -0.0459911 -0.1908638 0.013796892 -0.15146327 0.0797295 0.21891616
-0.053752832 0.022525039 0.3494644 -0.012078241 -0.03748909 -0.21986488 -0.109511584 -0.17526332
-0.05185247 -0.18593976 0.16484354 0.10649686 0.03974507 -0.06247744 0.050177556 0.07578085
-0.06153549 0.08009023 -0.18023801 0.036572978 0.24884409 0.028305937 -0.09092112 -0.07153608
-0.054664996 -0.2413074 -0.117786795 -0.04593295 -0.033795744 0.046667747 -0.016191002 0.38925332
0.102392055 0.03874463 0.1223529 -0.01010487 0.10111278 0.1387691 0.004004299 0.15158707
-0.20111378 -0.18682301 -0.046450388 0.05556683 0.08869231 -0.0009883736 -0.06036398 0.08524997
-0.18548213 0.079471745 0.048252657 0.18136425 0.14767732 0.06524123 -0.061724696 -0.00014227009
0.18498859 0.04196841 0.16329692 0.012108314 -0.0016707527 -0.19783005 -0.07829708 0.008607975
-0.23960704 0.03185806 0.14739536 0.122536205 0.026334485 0.00935029 -0.07750255 0.035030533
0.015216899 -0.044769235 -0.09500472 -0.044643566 -0.050355285 -0.022460071 0.23574509 0.13119547
-0.11519733 0.09810258 0.19452584 0.101147026 -0.34909245 0.0042128786 0.16516782 0.11496722

lstm.bias_ih_l0 f4 [400]
00000000: 5e53 dc3c 4f4c 8ebd d05d 62bd 430c dbbd
00000010: d611 f4bc bdd1 dfbc bc50 62bc 5374 613d
00000020: 1775 45be ae6c 30be de53 11bd e6ef 1dbe
00000030: fb6c efbd a184 7d3c 4813 273d a7d9 20be
00000040: 07b7 f3bd a5b2 03be ca95 1cbd ffa9 98bd
00000050: 3069 0c3a 487c 84bd da55 c7bd d311 8cbe
00000060: 18d8 05be 6691 7bbe 0b0b 20be 3024 fabd
00000070: c085 59bd 1724 673d 576a e33b 34cf 96bd
00000080: 2ba0 f2bc ae54 90bd 3c87 133e edc2 73bd
00000090: 51c7 8cbd 34bf 08be c818 e1bd d7e3 28bd
000000a0: 4f36 7dbd 5d11 97bd 6ffd 22be 41de d6bd
000000b0: 1bc5 0fbe c68b 033d 16d1 08be e03c 06bd
000000c0: c9c0 0e3d 85d4 7bbd ea68 e8bc cdae 27be
000000d0: 19ec 9ebd f5b5 90bd 8627 14be 0d43 35be
000000e0: 6232 d2bd fad0 53be 5f49 8cbd 01b9 133d
000000f0: a20f 51be 416c 06be e569 12be 14ac 2cbe
00000100: 36ac d7bd 3574 37be d445 c2bd 7745 96bd
00000110: 3e9d 9bbd fea1 20bd 3feb e1bc 3c0c 40be
00000120: 6106 31bd c61e c0bc d984 f0bd 6b63 4bbd
00000130: 5e3f d8bd e025 fabd 11e3 88bd 3fdc 0cbe
00000140: 1bc7 fdbc ad0b 5bbd 5273 e1bb 1f33 58be
00000150: 8192 1cbe e9d4 c1bd 226f 87b8 0949 e7bd
00000160: 253a 8ebe 9589 933d 6325 4ebd e634 d1bd
00000170: b9a4 d6bd 0fd9 43bd ee22 86be c4d6 72be
00000180: 4ae8 99bd fdec b23c 8c82 26bd 583c dabd
00000190: 0da9 2e3d 4d77 9abd 32ae 1ebe 187c 253e
000001a0: 0949 6c3d d85b b9bc 3a8b da3c bc64 c43d
000001b0: 5a61 45be b1db 03be 81c7 87be 3d0f 2cbe
000001c0: eb85 923d 1421 64bc 7fe9 85bc eaf6 5ebc
000001d0: 05e6 d7bd c897 03be 4791 b6bd 0596 38be
000001e0: c62b 4fbd 8451 b4bd 49f1 843d 5e65 2dbe
000001f0: 7711 febb 50c1 edbd 1277 05be eda4 213c
00000200: cc81 79bd 7b19 2abe f83a 8cbd eb25 76bd
00000210: 599a debc 1c5b 1e3b 4546 0ebe 5319 d6bd
00000220: 5b2c 40be 058f b6bd 53ce dcbd 326b f9bb
00000230: 147c ffbd ef19 01bd f174 16be b384 04be
00000240: e78b 9f3b 0832 6bbd 3705 2abd 9556 92bd
00000250: b602 82be cbb4 a6bd 13bc 05be e28b 52bd
00000260: 5b27 3fbe 4dec 77bd 5e39 7a3c 6970 35bd
00000270: 70e2 793d 0aaf be3c b159 433c aef8 123c
00000280: e525 53be 9a8d 993a af7a ea3d 9e1d 003e
00000290: b025 e83c f119 cbbc c9d6 28be 4288 933c
000002a0: def1 acbc 2109 acbd 943b 253d cab9 68be
000002b0: 2997 273e 11a7 bebd c09a fcbc 73bf e4bd
000002c0: 88f5 09be 0ee5 71bc a194 c73d ba58 e83c
000002d0: f20f 14be caec 643d e53e 9ebb c9f3 d4bd
000002e0: 0c4f 51bd bffb 3cbe 6a5f d739 6581 bcbc
000002f0: c0d5 993d 37ce 53bd e1b0 30be 4acf 9a3c
00000300: 85ea 4ebe c598 b83d bdf1 20be 1a33 74bd
00000310: 1f07 fabc 6633 0d3d 1cbd 23be 2005 a3bd
00000320: 1abf ee3b 5da3 8ebc 2c15 9d3d 7459 9c3c
00000330: 3082 973c d8e3 faba 780f c83c 1b75 7dbc
00000340: a12d ec3d b043 68bb cdca cf3c 36f7 05bd
00000350: f7cb babd ddd8 e93c eb2a f1bc 702d 423d
00000360: 4b53 9cbd 5de6 ae3c a72a 32bc e1ef 30bc
00000370: c415 4d3d 6f4f 42bd 9ded 7a3d 0bb5 133d
00000380: ca34 7dbd eeb9 0bbc 62c7 54ba 3c7b 523d
00000390: 1660 fbbc 72d8 df3c 0676 3dbd 87c9 83bd
000003a0: c00c 423d 53fe cfbc f00f 533d 58ee 87bd
000003b0: 5f37 bb3c 3a2f cfbc 5663 9fbc 1107 02bd
000003c0: 7f3c 9e3d 30f4 6bbd 78c2 073d 9194 a43d
000003d0: dc11 913d 88ea 3f3c 1229 3b3c 4b7c b4ba
000003e0: 628f bfbc 6ab2 97bd 374f a73d b85d 8abd
000003f0: 6e5d a5bc 6957 4fbd ae90 42bb 9a99 15bd
0.026895221 -0.069481485 -0.055265248 -0.10695698 -0.029793661 -0.02732169 -0.013813194 0.055042576
-0.19282947 -0.17228958 -0.035480373 -0.15423545 -0.11690708 0.015473516 0.040789872 -0.15708028
-0.11900144 -0.12861116 -0.038228787 -0.07454299 0.00053562503 -0.06469017 -0.09733172 -0.2735735
-0.13070714 -0.24567184 -0.15629213 -0.122139335 -0.05310607 0.056430902 0.006940167 -0.073637396
-0.02961739 -0.07047401 0.14407057 -0.059512068 -0.06873954 -0.13354188 -0.10991055 -0.04123291
-0.06181937 -0.07376359 -0.1591699 -0.1049161 -0.14040034 0.03211572 -0.1336101 -0.0327729
0.034851823 -0.06148197 -0.02837034 -0.16375275 -0.07759876 -0.070659555 -0.14468202 -0.17701359
-0.10263516 -0.20685187 -0.06849932 0.036065105 -0.2041612 -0.13127233 -0.14298208 -0.16862518
-0.105308935 -0.17915423 -0.09485975 -0.07337468 -0.07598351 -0.039216988 -0.027577994 -0.18754667
-0.043218974 -0.023452174 -0.11744089 -0.04965536 -0.10558961 -0.12214255 -0.066839345 -0.13755892
-0.03097873 -0.05347793 -0.0068802023 -0.21113251 -0.15290262 -0.094644375 -6.458002e-05 -0.11293227
-0.27778736 0.07203976 -0.050328624 -0.10215168 -0.10480637 -0.047814425 -0.26198524 -0.23714739
-0.07515009 0.02184152 -0.040651843 -0.10656041 0.04264169 -0.07542286 -0.15496138 0.1616062
0.05768684 -0.022626802 0.026677717 0.09589526 -0.19275418 -0.12876774 -0.26519397 -0.16802688
0.07154449 -0.013923902 -0.016346691 -0.013608674 -0.105419196 -0.12850869 -0.08914428 -0.18025978
-0.050578855 -0.0880461 0.06491334 -0.169332 -0.007753547 -0.11609137 -0.13033703 0.0098659815
-0.0609148 -0.16611283 -0.06847185 -0.060094755 -0.027173208 0.0024163192 -0.13893993 -0.10454049
-0.1876692 -0.089139976 -0.10781541 -0.0076116556 -0.12474838 -0.031518873 -0.14693047 -0.12941246
0.0048689726 -0.05742076 -0.04150888 -0.071454205 -0.25392693 -0.08139952 -0.13060026 -0.051402934
-0.18667357 -0.06052809 0.0152724665 -0.044296656 0.061006963 0.023276825 0.01192324 0.008970423
-0.20619924 0.0011715174 0.11449181 0.12511298 0.028338283 -0.024792643 -0.16488184 0.018009309
-0.021111425 -0.08400179 0.04034002 -0.22727123 0.16366257 -0.09309209 -0.03083551 -0.111693285
-0.13472569 -0.014764084 0.097451456 0.02836262 -0.14459208 0.055889882 -0.004829275 -0.10398061
-0.051100776 -0.18455409 0.00041079085 -0.023010919 0.07511473 -0.051710334 -0.17254974 0.018897671
-0.2020665 0.090135135 -0.15717216 -0.059619047 -0.030520974 0.034472845 -0.15990108 -0.07959962
0.0072859647 -0.017411882 0.07670054 0.019085623 0.018494695 -0.0019141389 0.024421439 -0.015469815
0.115321405 -0.0035440736 0.025365258 -0.03270646 -0.091209345 0.028545791 -0.02943941 0.047406614
-0.076330744 0.02135008 -0.010874427 -0.010799379 0.050069585 -0.047439035 0.061261762 0.036061328
-0.06181792 -0.008528216 -0.00081168686 0.051387057 -0.030685466 0.027324889 -0.046255134 -0.06434923
0.04737544 -0.025389826 0.05152887 -0.06637257 0.022853551 -0.025291074 -0.019456547 -0.03174502
0.077263825 -0.057605922 0.033144444 0.08036149 0.070834845 0.011713631 0.011423366 -0.0013769952
-0.0233838 -0.07407077 0.08169406 -0.06756157 -0.020186152 -0.05062047 -0.0029688287 -0.03652344

lstm.bias_hh_l0 f4 [400]
00000000: 5c25 893d cb03 4bbe e09b 02be dc6e 9fbc
00000010: 6380 5fbc e695 08be a0dd bfbd 78fb 043d
00000020: 244b 00be 9279 6ebe 0e1f 29ba 1c9c 50bc
00000030: 0f4a dfbd f86a 6cbc aa2d 883d 5b0f 93bd
00000040: b42c 3d3d e11a 98bc ca7b f3bc 1c4c 33bd
00000050: 46ed cb3d ffaa 03be b566 25bd 6110 60be
00000060: f2c8 1dbd 67b9 37be 3be1 ddbd 272a 36be
00000070: d6ee 15be 0a80 73bd fe3d 073c 51d1 00be
00000080: 72a5 e1bc 5acc 123c cde8 103d 0ce3 a9bd
00000090: 247a 923d 0295 89bd aa11 a1bd c91d 3fbe
000000a0: 98db f3bd be97 77bc 545e 4bbe 5d9a 38be
000000b0: 3166 41bc cafc 15be 2ab3 48be befc 32bd
000000c0: c6e7 eb3d 7b49 73bd 34e2 373c 17db 1abe
000000d0: d2d3 63be d944 123d 9b68 e8bd ffc6 eebd
000000e0: 3335 08be 50e5 35be 6afb 00bc 3137 d93d
000000f0: ff29 15be 8565 d6bd d099 50be 6dea 5bbe
00000100: ea31 c7bd 6513 75bc 0ff6 34bd 14db a73d
00000110: edc8 febd 98da 80bd 2916 9f3c 8d55 e4bd
00000120: 1fcf 8bbd d3fc b83d 1804 5dbe 414b a9bd
00000130: d615 16be 8780 21be 9464 34be ea99 f5bd
00000140: 1f21 86bd af4f ab3b 754e b8bc b15c c6bd
00000150: de5e 40be 07ff f2bd f226 643d 6c0b 03be
00000160: 3a7d 4abe 05cb 45bc 97fd 5dbd b19c 2bbe
00000170: cbd9 96bd 963c dfbd f49f 3ebe de0b b2bd
00000180: 290c 9abd 282d b0bd cbec b0bd 1f64 efbd
00000190: d40c 0ebd f540 c2bd 382a 31be 5d95 cbbb
000001a0: 5110 08be a175 e6bd e1f0 4abd 967f da3d
000001b0: de0b 7cbe 7a21 ddbd d1c8 75be 81bb 86bd
000001c0: 37b9 7dbd 5afb 13be 4fcc 763d 2663 02be
000001d0: 6f20 83bd 0422 933c a025 74bd 2dfe efbd
000001e0: d1f3 e8bd ceaa 82bd d9dd 7fbd ea3d 33be
000001f0: 7134 713d a228 59bd 3f21 2cbe 1597 05be
00000200: 3ed2 7cbc 4db0 5dbd 739d a2bc 5bb4 5b3d
00000210: 3fa6 ce3c adac 1ebd 75f4 55be 3451 4ebc
00000220: aff8 34be 8d31 0dbe fe59 db3c 617f 4d3c
00000230: 5cee 0dbe 1a93 d2bd 224b a0bd 1076 b1bd
00000240: 5264 fcbd ac08 dfbd aec9 d2bd c9d7 34be
00000250: fb27 8abe fe8f d7bd 9060 6dbe b4b0 f4bc
00000260: d9c1 b9bd 78b3 c1bd 436a 57bd d865 0bbe
00000270: de62 39bd e8e9 0b3d 0202 c1bd baee d6bc
00000280: 383d fbbd 7f2f c8bb 6288 973b 3fdb e33d
00000290: 414e 03bd 9589 36bc 0ba1 87bd 7b73 94bc
000002a0: cfcf 06be a2d0 6abe 014f 0dbe dc4a 80be
000002b0: 5c3a 183c 7f6a 05be 90e7 0dbe 6339 00bd
000002c0: 6394 8bbd 55ef 15be 6988 a9bd 84ce 7ebd
000002d0: a815 3dbe e605 073e 285f ffbd 584e 85bd
000002e0: af19 c3bd b09d 43bd cf74 91bc f028 a5bd
000002f0: 23dc db3a 545b c5bd a61a 86bb 8837 07bd
00000300: 0c76 4cbe be63 ad3d d1a5 b8bd 784c 9cbc
00000310: 60e2 6d3c 381f d7bd a12c f9bd 6840 04bd
00000320: 613b e13c cf28 0f3b c728 073d fefb b43b
00000330: 14b9 ccba 6fdc 48bd f67c d7bc f5af b8bb
00000340: 5229 75bd b8a4 aebd 6ef1 a7bc a1ef e93c
00000350: c14b 263d 9097 0e3d 53c7 f13c 928a 013a
00000360: e9f5 8f3d b085 e43b 1b75 543c aab6 d4bc
00000370: 25ad ddbc 8e7d bdbc 81c6 17bd 849d a9bc
00000380: 9ec1 2fbc 0783 ab3c 7d2d 073d b33b 5fbc
00000390: bf80 e43c 5aa8 13bd 32d9 86bb eb7f 47bd
000003a0: 3cd4 febc ffbc 97bc 3baa f1bc 8acd 623d
000003b0: 6fc8 68bd d609 723c 55d3 313d 1f12 ffbc
000003c0: 3be3 91bd f7ce 8dbd 8c94 aa3a 7b1b 8ebd
000003d0: 4e66 8e3c 3186 a7bb b451 dd3c 29a0 683d
000003e0: f811 6a3d 007f c73d cac5 9dbd ae7b 5f3d
000003f0: 0078 30bd f764 3c3d dcce 79bd c0d8 8ebc
0.06696579 -0.19825666 -0.12754774 -0.019462042 -0.01364145 -0.13338432 -0.093684435 0.03246638
-0.12528664 -0.23288563 -0.0006451466 -0.012732532 -0.109027974 -0.0144298 0.06649335 -0.07180663
0.04618521 -0.018567504 -0.029722113 -0.043773755 0.09957366 -0.12858199 -0.040381152 -0.21881248
-0.038521715 -0.17941819 -0.10833975 -0.17789517 -0.1464189 -0.05944828 0.008254526 -0.12579848
-0.02754471 0.008959854 0.035378266 -0.08295259 0.07152203 -0.06717874 -0.07864697 -0.18663706
-0.119071186 -0.015111862 -0.19860202 -0.18027635 -0.0118041495 -0.14647213 -0.19599596 -0.043698065
0.11518817 -0.05939625 0.011223365 -0.15122639 -0.22248772 0.03571019 -0.11348077 -0.11659049
-0.13301544 -0.17763257 -0.007872442 0.1060623 -0.14566801 -0.10468582 -0.20371175 -0.21476145
-0.09726317 -0.014958237 -0.044179972 0.08196083 -0.12440667 -0.062916934 0.019419746 -0.1114913
-0.068266146 0.090325974 -0.21583593 -0.08266307 -0.14656767 -0.15771686 -0.17616493 -0.119922474
-0.06549286 0.005228005 -0.022498349 -0.09685648 -0.18786189 -0.11865049 0.055701204 -0.12797326
-0.19774333 -0.012072329 -0.05419692 -0.16758992 -0.073657595 -0.10900228 -0.18615705 -0.0869367
-0.075218506 -0.08602363 -0.08638915 -0.116890185 -0.034680203 -0.09485046 -0.17301261 -0.006212874
-0.13287474 -0.11252905 -0.049546126 0.10668866 -0.24613902 -0.10797401 -0.24002387 -0.06578732
-0.061944213 -0.14451352 0.060253438 -0.12733135 -0.064026706 0.017960556 -0.059606194 -0.11718402
-0.11374629 -0.06380235 -0.06246743 -0.17504087 0.058887903 -0.053017266 -0.16809557 -0.13045914
-0.015430985 -0.05412321 -0.019850468 0.053638797 0.025225757 -0.038738895 -0.20894034 -0.0125926025
-0.1767299 -0.13788433 0.02677631 0.0125425765 -0.13860458 -0.10281964 -0.078268304 -0.08665097
-0.12323822 -0.10890326 -0.102923736 -0.1766044 -0.26983628 -0.10525511 -0.23181367 -0.029869415
-0.09070177 -0.09458059 -0.052591573 -0.13613069 -0.045260303 0.034158617 -0.09424211 -0.02623688
-0.12267536 -0.0061091776 0.0046244124 0.11125802 -0.03205705 -0.011141201 -0.066225134 -0.018121472
-0.1316521 -0.2293115 -0.13799669 -0.25057113 0.009291258 -0.13028906 -0.13857865 -0.03130473
-0.06815412 -0.14642079 -0.08277971 -0.062208667 -0.18465292 0.13185844 -0.124693215 -0.065090835
-0.09526383 -0.047757804 -0.017755894 -0.08064449 0.001677398 -0.0963656 -0.004092532 -0.033011943
-0.19966906 0.0846629 -0.09016002 -0.019079432 0.014519304 -0.105040014 -0.121667154 -0.032287985
0.027494134 0.0021844392 0.032997873 0.005523204 -0.0015619122 -0.049038347 -0.026304703 -0.00563621
-0.05985386 -0.08527511 -0.020500865 0.028556647 0.04059959 0.03481251 0.02951399 0.0004941608
0.070293255 0.0069739446 0.012967373 -0.025966007 -0.0270601 -0.023131158 -0.037054542 -0.020704992
-0.010727314 0.020936502 0.033002365 -0.013625073 0.027893422 -0.036049224 -0.004115247 -0.048705976
-0.03110706 -0.018522738 -0.029500118 0.0553718 -0.056831773 0.014772853 0.043414433 -0.03113657
-0.07123419 -0.06924241 0.0013014241 -0.06938835 0.017382767 -0.0051124324 0.027016498 0.056793366
0.057146043 0.0974102 -0.07703741 0.05456131 -0.04308319 0.045994725 -0.060988292 -0.017437339

lstm.weight_ih_l0_reverse f4 [400, 50]
00000000: fc4c 1d3c 50fd fc3e 87b3 d13d b3f3 01be
00000010: fd93 73bc 900d 08be 1ebe 653e d544 1abe
00000020: 87ea c1bc 8074 913e d508 03be 7c67 04be
00000030: 26ec 49be 2e02 b2be c99b 983e 8cba b7be
00000040: dc37 c93c 36b7 583d 8d28 8abe d485 733e
00000050: 8780 c93b 2fb6 53be 6f38 0d3e 370e ebbe
00000060: 3ab9 aebd 28db 533e 31ad d2bb 540f a2bd
00000070: 651e c33d b6d7 b4bc 1db8 e5bd 28bd a23c
00000080: 2ba1 1f3d 6623 293d 73e1 85bd 1953 823e
00000090: e580 bdbc 5dfe 91bc 7473 72bd 31ee 663d
000000a0: dd1f 4d3e 5ba3 143c d827 7bba 6256 6bbd
000000b0: 86e1 9e3c ef6f 69bd 5372 99bd a13f a03d
000000c0: d3ce e8bd db2f d1bd 9233 d1bd 4c5e 37bd
000000d0: aac6 40bd b583 243e cdbc c6be ecbe 3a3d
000000e0: 6a23 893d 3f20 9a3d 3c28 26bd 39d3 abbe
000000f0: 5575 733d 0e05 fe3d fd3a 66bd f9cb 763d
00000100: ac2f c2be 93cb 83be f98b acbe 6d6b efbc
00000110: d5c7 e83d 2e75 6fbe 32e1 c6be 7ee7 3fbe
00000120: eb27 d839 66da eb3e 99d4 243d ae1f 80bd
00000130: 0fea 7abe fd01 003c d348 d1bd 0e05 cdbd
00000140: 5665 903e 9a86 373e 5b35 32bd 8d68 aabd
00000150: 51cf cebd 3442 5c3c 6e09 523e 8d89 783e
00000160: 3e8c ad3d b28a a83e 2001 843e 89c3 373d
00000170: 88a0 90bd 9a80 e13e 711c 263e dd80 d43d
00000180: 4852 d43d 78da 293e 3d0d ca3d cf8b ec3c
00000190: 80fe d83c 06ea b3be 2186 8cbd 84dd 403d
000001a0: fedb b2be c5a7 05be fcc2 2fbe 53c1 98be
000001b0: 0b47 833e 0a85 89be 9645 a83e 52fd fc3d
000001c0: dfd1 943d d101 033e c567 583d 8f86 503e
000001d0: 14fb 903e 9092 493e 134f adbe 59d7 133f
000001e0: 51a8 35bf 1448 113e 8b65 f4bd 26f0 4cbe
000001f0: c6e6 5dbd 0800 59bd 2ab6 e0bd ce51 a7be
00000200: 2c2c 1a3e 9552 c03c a06e e4bd d1c2 483b
00000210: 7bd9 2bbe 30d9 e2bc d6c7 1bbb c2cc df3d
00000220: 076d a7be 982f 2f3e a45b c23d 64e9 2abe
00000230: 4250 9a3e 83ff cf3d ad38 153e 0999 2fbf
00000240: b6a4 38bd b2f5 af3e 6791 cabd 107f b1bd
00000250: a03d 0ebe 0e66 84be 7441 44be a4b1 2ebe
00000260: 86d1 efbe 215f 8bbe a352 11be 5708 453f
00000270: 4b41 b7bd 8cf2 bebe 82e4 cdbb 9ddb b13d
00000280: 0b14 1e3e 7d16 b83e 1669 08be 452f 8fbe
00000290: cb9b c4be 1303 93be 31f6 cb3d 656a 86be
000002a0: 2164 b5be 47c1 7abe cbc8 a0be 66d2 ca3e
000002b0: 64db a43e 64d3 443e cc12 0ebe a077 04be
000002c0: 602b 77bd ca90 073f e2ae 093e 3d8b 4fbf
000002d0: b9a5 103e afd5 e0bd 1d8e 8fbe 1e70 c83b
000002e0: 4233 203b c57a a23e 3285 803e d373 f2be
000002f0: 2af0 993f f1ba 13be 4b9f d63e c61d b1be
00000300: 5460 05bd 8894 bd3d cb98 8d3e 05ea 013f
00000310: fe22 8fbe b87e 67be ab86 0e3e fade cb3e
00000320: 95cb eb3b 9c22 1f3e 9ebe 0ebe 8dcb 8ebe
00000330: f227 efbd 9036 c6be 6cc4 58be dd4e 0fbe
00000340: 33e8 9bbd 33c8 cb3d c90e 31be e127 b93d
00000350: 7cb4 c7be e118 de3d d081 cf3d cbba d33d
00000360: fae5 113f ee44 2c3e 64e8 f8bd eb6d 0b3d
00000370: 89c3 6dbd 7e47 1abe 106b 4a3c 6f01 81be
00000380: 4910 65be 13ec 3b3e 41ba 4a3f 9d34 28be
00000390: 40de 52bc 776a d13e ee94 49be 0408 6a3d
000003a0: c1b5 033e efa5 16be 69dd 8abd c89f 30be
000003b0: 2946 6ebd f919 893e 791c f2be bff2 013f
000003c0: fcec d43d 9232 863e 636b 38bd dcc6 d83c
000003d0: 9c31 02bf 0913 08bf a91d 47be 1406 9a3e
000003e0: ebbb 84be 7e68 83be b33d 1dbd 91f3 80be
000003f0: c0a3 95be 0636 61be 161e 97be d9ab e3bc
0.009600874 0.49412012 0.1023932 -0.1269062 -0.014866826 -0.13286424 0.22435805 -0.1506532
-0.023671402 0.28409195 -0.12796338 -0.12930101 -0.1971899 -0.34767288 0.29806355 -0.3588451
0.024562769 0.0529091 -0.26984063 0.2378152 0.006149355 -0.20674966 0.13791059 -0.45909283
-0.08531423 0.2068907 -0.0064293374 -0.0791308 0.09527282 -0.022075515 -0.112167574 0.019865587
0.03897206 0.041293524 -0.06537142 0.25454023 -0.02313275 -0.017821485 -0.059192136 0.0563795
0.20031686 0.00907215 -0.00095808273 -0.057455428 0.019394647 -0.056991514 -0.07492509 0.07824636
-0.113675736 -0.10214206 -0.102149144 -0.044767663 -0.04706446 0.16065867 -0.3881592 0.045592234
0.06696208 0.07525682 -0.040565714 -0.33559588 0.05943807 0.12403308 -0.0562086 0.060253117
-0.37926996 -0.25741252 -0.3370054 -0.02922603 0.1136624 -0.23384544 -0.38843685 -0.18740651
0.00041228472 0.46065062 0.04024181 -0.062560424 -0.24503349 0.007812974 -0.10218968 -0.1001073
0.28202313 0.1792244 -0.043507915 -0.08320723 -0.10098136 0.013443518 0.2051141 0.24271221
0.08474015 0.32918316 0.25782108 0.04486421 -0.07061869 0.44043428 0.16221787 0.10376141
0.103672564 0.16587245 0.09865806 0.02887526 0.026488543 -0.35139483 -0.068615206 0.047086254
-0.34933466 -0.1305228 -0.17164224 -0.29834995 0.2564014 -0.26859313 0.3286559 0.123530045
0.07266592 0.12793662 0.052833337 0.2036383 0.28316557 0.19684815 -0.3384939 0.5775047
-0.70959955 0.14187652 -0.1193343 -0.20013484 -0.05417516 -0.052978545 -0.10972245 -0.326796
0.15055913 0.023476878 -0.111539125 0.0030633698 -0.16782181 -0.027691454 -0.0023770235 0.10927726
-0.3270037 0.17108 0.09490135 -0.16690594 0.30139357 0.10156157 0.14572401 -0.6859289
-0.045078956 0.34367138 -0.098910145 -0.086668134 -0.13890696 -0.25859112 -0.19165593 -0.17059952
-0.4683954 -0.27221015 -0.1419168 0.7696585 -0.089480005 -0.37294424 -0.006283344 0.08684466
0.15437333 0.35954657 -0.13321337 -0.2796575 -0.3840011 -0.28713283 0.09959067 -0.26253048
-0.35427955 -0.24487792 -0.31403193 0.39613646 0.32198632 0.19221264 -0.13874358 -0.12936258
-0.0603441 0.52955306 0.13445619 -0.81071836 0.14125718 -0.10978257 -0.2803811 0.006116881
0.0024444615 0.3173429 0.2510162 -0.47353992 1.2026417 -0.14426781 0.41918406 -0.34593028
-0.03256257 0.09256846 0.27655634 0.5074771 -0.27956384 -0.22606933 0.13918559 0.39818555
0.0071958997 0.15540546 -0.13939902 -0.27889672 -0.11677541 -0.38713503 -0.21168679 -0.13994928
-0.07612648 0.09950294 -0.17290796 0.090408094 -0.39004886 0.10844589 0.10132182 0.10338362
0.5699154 0.1682317 -0.121537 0.034040373 -0.058047805 -0.15066335 0.012354627 -0.25196406
-0.22369494 0.18351774 0.7919045 -0.1642632 -0.012870371 0.4090154 -0.19685718 0.05713655
0.12862302 -0.14711736 -0.06780512 -0.17248452 -0.05817238 0.26777628 -0.47287348 0.50761026
0.10396764 0.26210457 -0.045024287 0.026462011 -0.5085695 -0.53154045 -0.19444908 0.30082762
-0.2592462 -0.2566566 -0.03838892 -0.25185826 -0.29226494 -0.21993265 -0.2951514 -0.027791904

lstm.weight_hh_l0_reverse f4 [400, 100]
00000000: 6a0c a43d 0d02 bb3d 1643 6bbe 8b59 0c3e
00000010: faa5 bb3c 2dc3 8fbc 7b95 0abd 0966 15bd
00000020: a97e e2bd 6ed1 633d 49ec d13b 7cbf c2bd
00000030: 3c5b 51bd a685 b73d 36ca 22bc 3dca a93d
00000040: 0e06 efbd 3e07 aabc 2057 003d fa37 bd3c
00000050: 09f6 8cbd e73c 393d 1a1c 3d3d f23a cdbd
00000060: c3ce ab3c e03d 623e b7f9 d8bd 93ef 03be
00000070: 8470 453c dac8 873b 4735 6dbc 36ec c3bd
00000080: 194c 0fbe 3181 ae3c 6ca4 9a3d 6664 04be
00000090: a131 fabd 53ab 593d 0695 5bbe 8964 66be
000000a0: 0384 ddbd e21b 163d 612b 823d c47b f63c
000000b0: 9d6e 213d 117e 643d 0b2f 8e3b 58f8 3b3e
000000c0: 496e 6a3d 1b9b 3d3d e9e1 0f3e 1545 e3bd
000000d0: ae83 95bd 5a66 a8bd 8ca5 af3d 2e11 29be
000000e0: fe20 cfbd 0ea2 f1b7 a4da 77bd 6175 b1bb
000000f0: af70 94bd 5769 f93c 49e9 29bd 40a3 e2bc
00000100: 221b f2bd a625 353e 465a 35be 4431 ee3c
00000110: 048f 773d 3352 d0bd 579a 27be d1b4 863e
00000120: 2190 9f3d c706 373e 5a89 d5bd 3098 423d
00000130: 800b b9bd 9744 33bc 2f50 9a3d 4485 233d
00000140: e750 8abb 24bb 42be 2110 04be de20 943d
00000150: e2a6 80be 70cf 433e 2c1e 9bbd 2802 0f3e
00000160: 57f8 953d cd6e aa3c 02d0 56bd c538 0e3c
00000170: df42 bfbb fd9f 05bc ec8a 773e e329 433d
00000180: 416a b0bd 48f7 08bd db1b b2bd 523b b93c
00000190: e138 0dbd a6d0 93bc ca2c e4bd fc92 663e
000001a0: 92bd 2f3d ef78 ac3d d853 3abe 77d9 dd3c
000001b0: f23f 8f3e 8565 a0bd 8ccf 8e3d ec3b e63c
000001c0: 8a5d 9bbd 53aa c53c ba19 10bd 7875 a43d
000001d0: 3c96 4fbb 2298 2e3e db2e 7cbd c4ea 233c
000001e0: c4b8 823d c7f1 80be a418 843d 6f01 c7bd
000001f0: 46d3 c43d 0b35 973c 2e1a 023e ecd7 2d3d
00000200: eac6 80bd 875a 38bd 3dda 61be 2ce3 00be
00000210: d3cc 3bbc be22 a93b ec8b 4f3d 216a 113e
00000220: ee71 383d d873 0ebd 7ef9 3ebd 6539 22bd
00000230: 1947 483e 924f af3d fc06 2abd e728 713e
00000240: 85d7 efbc bd78 ca3c cffc ca3b 1680 dabb
00000250: f8a6 92bd 1707 193e c224 a3bc 36cc bfbd
00000260: f30e 8dbd cf7f 43bd 2373 003e 8b93 9a3d
00000270: 24ea a2bd 0b54 a73d 85ad 583d 16e4 5b3e
00000280: c351 38bc 9ab7 cd3d e563 3f3c 45b6 283d
00000290: e4eb d1bc a0cf 5c3e c835 633d 757c 003e
000002a0: 9849 9abd fbc2 87bd b86b ddbd c441 d5bd
000002b0: 26b0 26be d8ad 6a3d 4cac 90bd b27f fd3c
000002c0: f78d acbc 146d c1bd d1ce 923e 4885 3d3e
000002d0: 739e 3b3c 8429 52bc 3f74 e83d 63dd 2abd
000002e0: 9bfe 633e 5293 593e e515 3c3e 43f3 de3d
000002f0: 92df 8dbd 5b63 23bd 867e 283e e324 7b3d
00000300: 60c0 07bc e1c4 41be 412d 3d3e 5b50 353e
00000310: 4e5f 1d3c 0190 3f3d 846c a23d c9bc c2bd
00000320: 6f57 683e 58d0 8a3d 2831 b23d f524 843e
00000330: 3fa7 1f3e cd27 cfbd 5936 3ebe 42b0 d33d
00000340: ca29 d63d 54dd 8f3e 2243 0d3e f037 c13d
00000350: 262d 1d3e fcb3 9fbd ff5a 123d 3992 3d3e
00000360: d1ea 81be 3e87 7ebd 2b8b e1bd 5c5d 343e
00000370: c88e 293d 00c8 183d e204 b2bd 1186 aa3e
00000380: e212 683d b496 8b3d 9ac5 053d 7c1f d13d
00000390: 5aa6 60bd fbcc 9cbe 431f bd3d 6583 6ebc
000003a0: c077 763e f35d c2bc b2bf 29be 12bd 82be
000003b0: 3033 f3bc a159 80be bdab 123d f98a d7bd
000003c0: 9f93 9f3d 9c43 f3bc da91 05be 4886 30be
000003d0: 8fff e0bb 580b 813d c6d8 433d 5180 de3d
000003e0: 248a a73e b252 22bc 6cdb 903e 7c01 f33d
000003f0: 6108 d13d 033f 763e f6e2 ae3d d141 9cbc
0.0801018 0.091312505 -0.2297481 0.13706033 0.022906292 -0.017549122 -0.033833962 -0.03647426
-0.11059315 0.05561965 0.006406341 -0.09509179 -0.0511124 0.08961038 -0.009935906 0.08290527
-0.11671077 -0.020755406 0.03133309 0.02309798 -0.06882865 0.045224097 0.046169378 -0.100210086
0.020972615 0.22093916 -0.10594504 -0.12884359 0.012050752 0.0041438164 -0.014478034 -0.09566538
-0.13993873 0.021301838 0.07550892 -0.12928924 -0.12216497 0.053141903 -0.21443567 -0.22499289
-0.10816195 0.036647685 0.0635593 0.030088313 0.03941213 0.05578429 0.004339104 0.18356454
0.057234082 0.0462905 0.14051022 -0.11097161 -0.073005065 -0.08222647 0.085764974 -0.1651046
-0.10113715 -2.8804901e-05 -0.060511246 -0.005415604 -0.07248055 0.030445738 -0.041482244 -0.027665734
-0.118215814 0.17690143 -0.17710218 0.029076226 0.060439125 -0.10171928 -0.1636747 0.26309827
0.07791162 0.17873679 -0.10426588 0.04750842 -0.090353966 -0.010941646 0.07534825 0.039922014
-0.00422107 -0.19016701 -0.12896778 0.072328314 -0.2512732 0.191221 -0.07574114 0.13965666
0.07322758 0.020804787 -0.052444465 0.008680527 -0.005836829 -0.00815582 0.24174088 0.04764737
-0.08614016 -0.03343895 -0.08696719 0.022611294 -0.034478072 -0.018043827 -0.11141355 0.22517008
0.042905398 0.08421504 -0.18196046 0.027081234 0.27978474 -0.07831863 0.0697318 0.028104745
-0.075862005 0.024129068 -0.035180785 0.08030218 -0.003167524 0.17050222 -0.061568122 0.010004703
0.063828975 -0.2518446 0.06450012 -0.0971707 0.0961061 0.01845791 0.127053 0.042442247
-0.0628794 -0.04500821 -0.22055908 -0.12586659 -0.011462408 0.0051616123 0.05067055 0.14200641
0.045030527 -0.034778446 -0.046624653 -0.039605517 0.19558372 0.08560099 -0.041510567 0.2355076
-0.029277572 0.024715776 0.006194688 -0.006668101 -0.07160753 0.14944111 -0.019914988 -0.09365122
-0.06887617 -0.04772931 0.12543921 0.07547673 -0.07954815 0.08170327 0.052899856 0.21473727
-0.011249962 0.10044785 0.011681532 0.04118945 -0.025625177 0.21563578 0.05547121 0.12547477
-0.07533568 -0.066289864 -0.10811561 -0.104129344 -0.16278133 0.057294697 -0.07064113 0.030944679
-0.021063788 -0.09444633 0.28673413 0.18507874 0.011451351 -0.012827281 0.11350297 -0.041715037
0.22265093 0.21247604 0.18367727 0.10886242 -0.06927408 -0.039889675 0.16454515 0.061314475
-0.008285612 -0.1892276 0.18474294 0.17706434 0.009605242 0.046768192 0.07930854 -0.09508664
0.22689603 0.0677802 0.08700782 0.25809446 0.15591143 -0.10115013 -0.1857542 0.10336353
0.104571894 0.28098547 0.1379514 0.09434497 0.15349254 -0.07798001 0.035731312 0.18512811
-0.25374463 -0.062140696 -0.11012872 0.17613739 0.041395932 0.03730011 -0.086923376 0.3330541
0.056658633 0.06815854 0.03265915 0.10211083 -0.054846145 -0.30625138 0.09234478 -0.014557694
0.24069118 -0.02372644 -0.16577032 -0.25534874 -0.029687494 -0.2506838 0.035808314 -0.10524554
0.07791828 -0.029695325 -0.13043919 -0.17238724 -0.0068664025 0.06300992 0.047814153 0.10864318
0.3272258 -0.009907411 0.28292406 0.118655175 0.10206676 0.24047475 0.08539383 -0.019074352

lstm.bias_ih_l0_reverse f4 [400]
00000000: 6d94 b6bd 065d 85bb a79a 9d3b ad35 79be
00000010: 9ec0 10be 61e2 87bd 58a1 67bd fa65 bebd
00000020: 8902 62bd ec5f 0bbe 9431 08be db06 1abe
00000030: 073f b1bd 968a 45be de15 18be 3676 e9bd
00000040: 54bc 61bd 95af bc3b f18c 48be 922d 71bc
00000050: 5c70 38bc 7d46 ad3c c724 2fbe 48c7 76bd
00000060: 8c94 22be 2678 9dbe 6fb1 0dbe a759 fbbd
00000070: 4b2a c73d 873f 9cbe 7f59 f13c fc6a 8abd
00000080: 5164 01bd 4bac 5ebd a0f9 49bd a5fc d2bc
00000090: 0dd1 08bd b3ad 25bd 4ecd 20bd e91e 723d
000000a0: 98c8 25bd 61a6 db3c 92fc bebd aa22 a33d
000000b0: 8151 94bc a59d c6bd e68d 0fbe c5a3 10be
000000c0: 1ec2 1abe 182d 24bb 216e 0a3d 588f 9ebd
000000d0: 761c dc37 f5b6 273b 277e 8a3c 7421 6fbd
000000e0: e80d 65be 3463 83bd e0aa 43bd f154 bebd
000000f0: c838 f8bd 1e02 0abe 1dc9 41bd 35b2 1ebe
00000100: cb0f afbd f59c adbd 507f 8fbd eddb f7bd
00000110: 1e7a ebbd 2959 0abe 7f2e 44bd 1bd3 4d3b
00000120: f140 b6bd 28fc da3c fd03 00be 46e5 1dbc
00000130: ce22 9d3d ed96 7bbd 72d0 b8bd 8344 bebd
00000140: 977f c5bd d139 0cbe fb2f 8bbd bd5c b8bd
00000150: c028 77bd e019 ebbd 45c4 1cbe 8b55 7bbd
00000160: 009d 92be cabd c3bd 05c8 b13d 6727 1bbd
00000170: ae89 40be fcd3 113d 2ab9 6ebc 9c05 16bd
00000180: dcdb 9abd 4c3e 053d b852 09be 4c8c bdbd
00000190: d4a8 2a3e 0236 8abd 3117 d73d 295b 163e
000001a0: 5c85 033e fb27 423a 355c afbd 22c1 f5bb
000001b0: a476 b13d 5a5a b63d 50a0 0e3e a6da bbbb
000001c0: d3c7 cfbd 8566 123d 2dcc b03a 0177 45bd
000001d0: 0150 e3bc 8208 ea3b a7a0 863d a3bc 8dbd
000001e0: 0853 d83c 696a 39bd 291d 2dbd 65a4 9a3d
000001f0: 3109 083d fa89 b4bc e3bd 0a3e bc66 9cbc
00000200: 0b0f f53c 93fd 513d f0b9 7cbd 7e2f 3ebd
00000210: 0b2b d8bc 1d58 123d 26c5 bc3d 2998 fabb
00000220: d152 9abc e40c 933d c3fd abbc dc8d 053d
00000230: 6168 fc3c 975a cdbd f4a1 de3d 332b 53bd
00000240: ad8c 823d 4817 893d 8d0b f53d f5ff 84bd
00000250: b0e0 913d 7640 42bd eaee 14be 58e5 193c
00000260: 85a2 26bd ae9c d33c 185b 193c 6bc9 9abd
00000270: 454b 413d c5f6 a33d 731a 70bd 2693 0c3e
00000280: f113 183e eb58 053e c301 4dbd f472 293d
00000290: 9574 42bc 3f5c 14be 29eb b2bd 4a80 be3d
000002a0: de15 053d 6b71 ab3d a715 b03d fb78 913d
000002b0: 54d7 a2bd 8a9a 213c 2fbb 14ba 90d7 ddbc
000002c0: ea43 92bd 49d0 21bd 76cf a23d 98c1 06bd
000002d0: 75c5 e5bc 0d55 c13b 6ce6 d8bd 41af a53d
000002e0: 683f 163d 759a a3bd 1f80 d5bc 02aa 593d
000002f0: c12f dd3d f2b1 2dbd 1669 06bc 8cba 483d
00000300: 6da3 b53d e578 0bbb 25b5 923d 2405 8dbd
00000310: e44e 913c 7a77 9abd 1291 363c fc30 fcbb
00000320: c0b7 9abd bd67 103d 2f59 80bd 527e a83d
00000330: 5a06 40bd 428f 33bc 69dd 293d 3003 a7bc
00000340: c282 943c 94ae 8c3d 4030 363d b4b0 6abd
00000350: aef3 6a3c 33e6 76bd 1482 5d3d 2541 843d
00000360: 321d 42bd 0d60 7d3d 0d32 bebc 61bb a73c
00000370: 93fe b9bd a11f 09bc b017 763d e172 893d
00000380: d35d 343d 3c2b 283d 33d8 aa3d 4ef7 9f3c
00000390: 87e1 b33d 88a2 913d 1088 84bd 818f 8f3d
000003a0: 91bb c83b 8429 82bc c25d c7bd c4a6 48bd
000003b0: 0aba b43c 5e20 bbbc 2696 2a3d 998b 89bc
000003c0: 53f4 b43d e0d2 aa3c 5e16 b93d 2197 4d3d
000003d0: a4b9 9b3d e759 b83c da32 1e3d 828e 1c3d
000003e0: 00f1 8c3d aa16 89bd 61e1 19bd 9daa 1abd
000003f0: 2285 843d 6f63 de3c 355f 82bd a525 8c3c
-0.08915029 -0.004069927 0.0048096958 -0.24336882 -0.14135978 -0.06634975 -0.056550354 -0.09296794
-0.0551782 -0.1361081 -0.13300163 -0.15041678 -0.086546 -0.19291148 -0.14852092 -0.113995
-0.055111244 0.0057582357 -0.19585015 -0.014720337 -0.011257257 0.021151775 -0.17103873 -0.060248643
-0.15876979 -0.30755728 -0.13837217 -0.12272959 0.097248636 -0.30517218 0.02946162 -0.06758687
-0.03158981 -0.05436353 -0.049310327 -0.025755236 -0.03340249 -0.040448856 -0.039258294 0.05911151
-0.040474504 0.026812734 -0.09325518 0.07965596 -0.01810527 -0.09698037 -0.14018974 -0.14124973
-0.15113112 -0.0025051292 0.033796433 -0.077421844 2.6239297e-05 0.0025591229 0.016905857 -0.058381513
-0.22368586 -0.06415406 -0.04777038 -0.09293545 -0.12120205 -0.1347737 -0.047310937 -0.15497668
-0.08547934 -0.08477203 -0.07006705 -0.121024944 -0.114979014 -0.13510574 -0.047895905 0.0031406346
-0.08899105 0.026731566 -0.12501521 -0.009637183 0.07672654 -0.06142323 -0.09024133 -0.09290411
-0.096434765 -0.1369393 -0.06796261 -0.090020634 -0.060341597 -0.11479545 -0.15309246 -0.061360877
-0.28635406 -0.09557684 0.08680729 -0.037879374 -0.1880252 0.035602555 -0.014570514 -0.036626443
-0.07561466 0.032530114 -0.13410461 -0.09255275 0.16665965 -0.067485824 0.1050247 0.14683212
0.12843841 0.000740647 -0.08562509 -0.00749983 0.08665207 0.08903952 0.13928342 -0.005732852
-0.10145535 0.0357423 0.0013488583 -0.048209194 -0.02774811 0.0071421275 0.06573611 -0.06920745
0.02640678 -0.045267496 -0.042264137 0.07550887 0.03321189 -0.022038449 0.13548999 -0.019091956
0.0299144 0.051267218 -0.06170076 -0.04643201 -0.026387712 0.035728563 0.092172906 -0.0076475334
-0.018838318 0.07180193 -0.020995026 0.03260599 0.03081149 -0.10027044 0.10870734 -0.05155487
0.06374488 0.06693894 0.11965094 -0.064941324 0.07122934 -0.047424756 -0.14544263 0.009393059
-0.040682334 0.025831547 0.009360097 -0.07557949 0.047190923 0.08006052 -0.058618974 0.13728008
0.14851357 0.13022201 -0.05005051 0.041369393 -0.011868616 -0.14488314 -0.087362595 0.09301813
0.032491557 0.08371242 0.0859788 0.07103153 -0.07951227 0.009863505 -0.00056736445 -0.027080327
-0.0714186 -0.039505277 0.07949726 -0.03289947 -0.028048256 0.0059000314 -0.105908245 0.08090068
0.036681563 -0.07988445 -0.02606207 0.053140648 0.10800124 -0.04240603 -0.008203765 0.04900603
0.088690616 -0.0021281776 0.07163457 -0.06885746 0.017737813 -0.075423196 0.011142986 -0.007696269
-0.07554579 0.035255183 -0.062670104 0.08227219 -0.046881057 -0.010959448 0.04147092 -0.020387262
0.018128756 0.06869236 0.04447961 -0.057297423 0.014340324 -0.06027813 0.05407913 0.06457738
-0.047391124 0.06185918 -0.023217225 0.020475091 -0.09081759 -0.008369357 0.060081184 0.067113645
0.04403479 0.041056857 0.08342018 0.019527104 0.0878325 0.071110785 -0.06471264 0.07009793
0.0061258753 -0.015888937 -0.0973468 -0.048987165 0.022061367 -0.022842582 0.0416471 -0.016790198
0.08835664 0.020852506 0.09037469 0.050192956 0.076037675 0.022503806 0.038622715 0.038221844
0.068819046 -0.06693776 -0.037568454 -0.037760366 0.064707056 0.027147023 -0.063658156 0.017107794
