results/lstm/lstm_hidden_100_layers_1_bidirectional_False_length_64_batch_64_lr_0.1.pth (torch, 246925 bytes, 6 tensors)

lstm.weight_ih_l0 f4 [400, 50]
00000000: 219a 753f 8128 85be f3dd ea3e c1b0 40bf
00000010: a9ba 45bf 12ef 103f f8f1 f63e be5f c23e
00000020: fd25 513f 21eb bb3b eb87 633f 38a4 12bf
00000030: d36b 053f 1f82 5c3f 0dae 40be baaa edbe
00000040: ae87 54be 241b 473f ba90 003e 58e1 a6bd
00000050: a483 72bf 2f8b c83e 9695 96bd 5a92 3d3f
00000060: 5b33 5c3e 81a1 8bbe f33f cb3e cf94 323e
00000070: b11e 843f b3ac 073f a8ab 2c3f 70f9 c03e
00000080: 4d80 4c3c d40f 643e 3902 b33e 3a80 21bf
00000090: ec12 4cbe a7c1 4e3f 7d09 86bf de51 68bf
000000a0: 69d3 3ebf 7c4c 993d d542 3b3f 2854 47bf
000000b0: e963 973d 04fa 16bf 459b 613f 8c41 0fbe
000000c0: 430d 653f 24b6 f6be 89f2 63bf b717 66bf
000000d0: a94f 7ebf 0d3b 283e 6766 483f dfa5 04bd
000000e0: 0fa5 b93e 0eb0 44bf aa44 5fbf d46f bbbe
000000f0: 3458 9cbe a5b5 a5bd b052 80bf f725 4bbf
00000100: 02e5 11bf 3411 63bf 68fc 0b3f a699 71bf
00000110: a8aa 2bbf efcf 6f3e fb6d e53c d895 6fbf
00000120: f20e 573f 1498 313f 81fe 7ebf 228a d73a
00000130: 7da4 763f e1c6 df3e cdcd 54bf 9fe6 d03e
00000140: cdf7 fb3d 3920 89bf 22ab 3d3e 73dd 5dbf
00000150: e8d7 75bf 379f 203f 0070 2fbf e926 c93e
00000160: 1ee3 ab3e ca05 543f 283c 713f 819b 8b3f
00000170: 13d8 273f 3ed8 a2be 9fcc 033f 8a7f 093f
00000180: 70c5 4bbf 4412 2e3f 2039 7dbf 447e 85be
00000190: 51f5 c73e 672a 9c3e e332 a43f d18f cf3e
000001a0: 5775 cd3e c3ea 0f3f 704e ba3d f87b d8be
000001b0: 70a8 613f c2ef 6bbd d54e 1ebe 08a3 b0be
000001c0: ac37 453f e041 9fbe 00fb bf3e 52fe 6ebe
000001d0: 6700 973f fff8 6b3f 4b8a ec3d e9b0 8cbd
000001e0: 59f4 27bf 1c9e 303f 6889 54bf 1ccc 13bf
000001f0: a90c 823f 5efa 753d d618 d6be 2aee 9b3c
00000200: 211f 563f 4166 04bf f8c4 863f e8e1 d5be
00000210: c87f 8a3f d518 a8be d3da d13e c287 8ebe
00000220: 030d a13d 1d18 27be 215f 91be 7ff6 63be
00000230: ec92 52bd 5d0a 44bf aff1 48bf 60f2 d13e
00000240: ee93 2ebf a8f0 3ebf 66f2 5ebe 7e9c 9bbf
00000250: 7557 fdbd d302 6dbe 506d 93be 1d7e 8fbd
00000260: 7d61 e6be 890b 443f 08f2 85bf 75ab 1ebf
00000270: cbe0 1d3f d37c 8ebf 630b 423f 37b6 1fbf
00000280: 207d 6ac0 c90e d33f 2b98 aa3d 1247 7ec0
00000290: 9452 69bf b9ce 473f 7281 823e a3a7 84bf
000002a0: fd0b 9dbe 218d 2b40 f0e3 9b3f f1a9 1d3e
000002b0: f03c 863e 134a 76be a48a 68be 0a9f 3e3e
000002c0: 479e 7fbe 10eb 12bf 7c25 b9be 3f82 9ebf
000002d0: 0123 8ec0 3a5b 153f f7a3 45bf f572 44be
000002e0: 0581 66be 72b3 4f40 2a20 51bf 69f2 bfbf
000002f0: f8d4 1dbf b280 8e3e 951d 613e 4b61 fcbe
00000300: ed02 5c3e e363 583f 2618 49be 959b ca3f
00000310: fb9a 22c0 52a3 723e 06b5 8cbd 9cff 42be
00000320: 86c6 c93f a3c0 8a40 47b7 90bf fe8a 9abf
00000330: 1d55 dac0 5fc6 c33f 0537 d53e bcde dfbe
00000340: 9717 eb3f 9f71 9dbf af02 8640 0022 9d3e
00000350: 85c7 1f40 3898 db3f ebb5 b540 b63e cd3f
00000360: fc94 d6bf 9ebd 9ebf cea1 033f e3fd 24bf
00000370: 1727 a53f c9ce b23f ef7c 00bf f0ea ebbe
00000380: e039 3740 9ef3 a4bf 1395 56bf ece9 083f
00000390: 1b50 82be dd62 d2bf 993a f43e 4155 6d3f
000003a0: 3df8 2c3f 3a59 3440 1733 ad3e 49fa 5f3f
000003b0: 86c9 cb3f 5ad4 6b40 d48c b5be 24fe 95bf
000003c0: dd1e 1ebf 2e7b 04c0 b3f6 55bf dec3 6bbd
000003d0: cfa2 14c0 62e0 a3bf 7222 3440 3f56 32bf
000003e0: 5d75 0540 0aab 0bc0 d57a 00bf 455c 0dbf
000003f0: b534 25bd 44c1 1ebf 90af a9bd 6e2c 383f
0.9593831 -0.26007465 0.4587246 -0.75269705 -0.77237946 0.5661479 0.48231483 0.3796367
0.8169859 0.0057348167 0.8887927 -0.5728183 0.5211765 0.8613605 -0.18816395 -0.46419317
-0.20754883 0.7777579 0.12555209 -0.0814845 -0.9473212 0.3916869 -0.0735275 0.7405144
0.21503966 -0.27271655 0.39697227 0.17439578 1.0321866 0.52997893 0.67449427 0.37690306
0.012481761 0.22271663 0.34962633 -0.63086283 -0.19929093 0.8076424 -1.0471646 -0.9074992
-0.74541336 0.07485291 0.7314885 -0.7786279 0.07392103 -0.58975244 0.8812755 -0.13989848
0.8947336 -0.48185837 -0.89041954 -0.89879936 -0.993403 0.16428776 0.78281254 -0.03238475
0.36258742 -0.7683114 -0.8721415 -0.36608756 -0.30536044 -0.080912866 -1.0025234 -0.79354805
-0.56990063 -0.88698125 0.54682016 -0.94375074 -0.67057276 0.23419164 0.028006544 -0.9358802
0.8400718 0.6937268 -0.9960709 0.0016444365 0.9634474 0.4370642 -0.8312653 0.4080095
0.123031236 -1.0712959 0.18522313 -0.8666603 -0.9603257 0.6274294 -0.68530273 0.392875
0.33571714 0.82821333 0.94232416 1.0906831 0.6556408 -0.31805605 0.514841 0.53710234
-0.7959814 0.6799662 -0.9891529 -0.26072896 0.3905435 0.305011 1.2828029 0.4053941
0.40128586 0.5621759 0.09096992 -0.4228208 0.8814764 -0.057601698 -0.1545976 -0.34499383
0.77038074 -0.31104946 0.37496185 -0.23339203 1.1796998 0.9217681 0.11549815 -0.068696804
-0.6560722 0.68991256 -0.83022165 -0.5773332 1.0160114 0.060053222 -0.41815823 0.019034464
0.8364125 -0.5171853 1.052886 -0.41773915 1.0820246 -0.32831445 0.40987262 -0.2783795
0.0786381 -0.16317792 -0.2839289 -0.22262 -0.051409647 -0.76578313 -0.7849378 0.4100523
-0.6819447 -0.7458596 -0.21772155 -1.2157133 -0.12370197 -0.23145609 -0.28794336 -0.07006476
-0.44996253 0.765801 -1.0464487 -0.6198037 0.6167113 -1.1131843 0.75798625 -0.6238741
-3.663887 1.6488887 0.08329805 -3.9730878 -0.9114163 0.7804981 0.25489384 -1.0363659
-0.3067321 2.6804888 1.2178936 0.15396859 0.26218367 -0.24051695 -0.22709137 0.18615356
-0.24962722 -0.57389927 -0.3616141 -1.2383498 -4.441773 0.58342326 -0.77203315 -0.19184478
-0.22510155 3.2453275 -0.81689703 -1.4995853 -0.6165309 0.27832562 0.21983941 -0.4929298
0.21485491 0.84527415 -0.19638118 1.582873 -2.5407093 0.23695114 -0.06870465 -0.1904282
1.576371 4.336015 -1.1305932 -1.2073667 -6.82289 1.5294913 0.4164354 -0.4372462
1.8366574 -1.23003 4.1878276 0.30690002 2.4965527 1.7155828 5.678457 1.6034763
-1.6764216 -1.2401617 0.5141877 -0.644499 1.2902554 1.3969356 -0.50190634 -0.4607768
2.8629074 -1.2886846 -0.8382122 0.53481936 -0.2545174 -1.6436421 0.47700956 0.9270821
0.6756628 2.817946 0.3382804 0.8749128 1.5920875 3.684836 -0.35459006 -1.1718183
-0.61765844 -2.0700183 -0.8357956 -0.05755984 -2.322437 -1.2802851 2.8146024 -0.6966285
2.0852883 -2.1823144 -0.50187427 -0.5521892 -0.04033347 -0.6201365 -0.08285439 0.71942794

lstm.weight_hh_l0 f4 [400, 100]
00000000: 3535 71bd 80fd c13e 787e 48bf ad90 cabe
00000010: cd4e 2d3f 9ad1 2abd d433 003f cc7c 183f
00000020: 1a26 d83e 8103 50bf 30f1 62bf a61f 0a3f
00000030: a405 40bf a9be 423f bbae 82bd d0e1 27bf
00000040: 3127 533e abb3 0b3f 8cab 55bd 6913 b73d
00000050: 6224 043f 14f4 c6be ea4c 78be 6ace 3d3f
00000060: 3329 523f 3dea 493d f99a 74bf bcfb 0a3f
00000070: 1d60 9dbe 4363 5bbd f0de 493f f8ae cfbe
00000080: 4604 a73e ae1c 493f 54cc 283f 4c20 25bf
00000090: e516 29bf 4bd3 4abf a5a3 05bf 0f8f 26bf
000000a0: df1c 45be f4b5 9fbe 1e91 1d3f 90b3 2fbf
000000b0: ef39 22bf 0573 febe 196f 853f 1ffb 94be
000000c0: 44bf 053f b702 18bf 20f6 1f3f 5c98 3cbf
000000d0: b863 15be af5d 023f 0cdd 193f 1d4d 163f
000000e0: ef19 0bbf 4796 a13e 2756 523d 8c23 80bf
000000f0: 4d93 1e3f 7432 d03a 2c51 143f ae8f 67bf
00000100: 29e2 00bf 9d4b 08bf d9e7 303f 2a9f 343f
00000110: 81a5 293f 82dd 9a3e 1416 8dbe ce95 0fbf
00000120: b8ec 29bf 85f3 343f 3a50 153e fc09 c0be
00000130: 9bfa 33bf 746d 0e3f 5ba3 d1be 2dea 25be
00000140: 832a d8be 3b05 e4bd 838d 04bf a80f 113f
00000150: d215 3dbf 31ed 3c3f 4afd 023f 17ff 17be
00000160: 27db 073f 661a 48bf f695 503e 6b1d 5e3f
00000170: 2cff 92bf 30ab 923e a072 6cbf 9ec3 333e
00000180: a3a1 2ebf 5679 3dbf af06 62bf 6ff6 71bf
00000190: 4025 063f ffe3 f4be 09b5 a73f 4d8d 023f
000001a0: f823 103f e0e6 5b3e 55ea 09bf 589f 34bf
000001b0: 0d00 8fbe d097 373f 8177 b2be 86cc 333f
000001c0: c59c 3d3f a2e9 34bf b5dd 4e3e 999b f4be
000001d0: 1486 9cbd f0f0 22bf f7be 243f 704d 9a3e
000001e0: c3dc bf3e 51b2 23bf 9cb1 313f 5e53 fdbe
000001f0: 90ab 46bf 7662 b93e 7f13 053f 2c8d 5fbe
00000200: 80d9 51bf 9a84 d33e adbd 13bf 4ab3 9f3e
00000210: c9d6 babe 0454 22bf e3e7 10bf 2e77 19be
00000220: 7642 113f eb09 553f 0853 793f c504 033f
00000230: 6a58 13bf bfa6 22bf 15df 3cbf c710 463f
00000240: edc2 013f ecca 623f 8578 3dbf a057 123f
00000250: 334c 33bf 3603 f53e 8ad4 0d3f f528 66bf
00000260: abfe 5b3f 6c96 2c3f c4ee 36bf 3ab3 28bf
00000270: f4fd 353f 78d5 03bf dc04 1e3f 8e99 203f
00000280: a7d0 7dbf 3627 3dbf b1cf 2bbf 08e8 673d
00000290: ae2d c1bd a1cd 74bc 195b 1ebf 3e8f cfbe
000002a0: f425 16bf f7ea 2bbf 60f6 4fbf f916 073f
000002b0: cc15 323f fcc5 233e e91b 633f 08ae 5c3c
000002c0: 953c 21bf e082 123f b315 ec3e 35d6 d23d
000002d0: 3762 51bf 11f7 4cbf 001b 3e3f 680d 49bf
000002e0: f817 51be 362b 39bf f445 87be f03b a13e
000002f0: 419a b2bd 7c7a 343f 306e 2bbf 2ac2 0dbf
00000300: 62a7 553f 824a fdbe b3c5 5b3f 1a95 e3be
00000310: 3d4a bf3e e93f cabe fce5 01bf aac3 bd3d
00000320: 22bc 653d 264a e73e 83a9 2d3e b23e 383f
00000330: 691e bf3e 564f 16bf e9ba 383f eb9f 31be
00000340: 0ed8 b0be be05 92be d3da 003f 478f be3e
00000350: efbb bebe 7806 40be 9044 07bd 74c5 b43e
00000360: 7372 1fbf 5d82 543f 4c55 25bf 0fc4 6d3f
00000370: dc8d 393f c672 b03e c4f6 a4be f73a 233f
00000380: cdf5 853f 3bb3 ec3e ac1b 51be 1838 023f
00000390: 18c1 233f c42a 79be aff7 323f 7a51 0bbf
000003a0: 39b5 0abd c673 433f 04e5 353f 1a0f 08bf
000003b0: 843c 3ebf 4058 a13d 1624 e13e 1a2e 3abf
000003c0: 1d81 b8be 9968 2e3f 4088 843d f7a8 31bf
000003d0: 856f 55bf 7f75 63bf 5333 243f 9a70 dabe
000003e0: 932a 61bf 2257 2fbf 3634 06bf 477b 0f3e
000003f0: 6c33 d63e 3337 4f3f 62bf fd3e 5ab0 4b3f
-0.058888633 0.37888718 -0.78317976 -0.39563504 0.67698365 -0.041703798 0.50079083 0.59565425
0.4221657 -0.81255347 -0.8864927 0.5395454 -0.75008607 0.76072174 -0.063809834 -0.6557894
0.20620419 0.54571027 -0.052165553 0.08939249 0.51618016 -0.38858092 -0.2424809 0.7414309
0.82094115 0.049295653 -0.9554897 0.54290366 -0.3073739 -0.05356146 0.788558 -0.40563178
0.32620448 0.78559387 0.6593678 -0.64502406 -0.6605056 -0.7922866 -0.52202827 -0.6506204
-0.19249295 -0.31193507 0.61549556 -0.68633366 -0.6336965 -0.49697128 1.0424529 -0.2909784
0.52244973 -0.5937914 0.6248493 -0.7366998 -0.14588821 0.509242 0.60102916 0.58711416
-0.54336447 0.31559965 0.051351693 -1.0010848 0.61943513 0.0015884177 0.5793636 -0.9045361
-0.50345093 -0.53240377 0.6910377 0.70555365 0.66268164 0.30247122 -0.27555907 -0.5608796
-0.6637683 0.7068408 0.14581385 -0.37507617 -0.7030427 0.5563576 -0.40944943 -0.16202612
-0.42219934 -0.1113381 -0.5177843 0.56664515 -0.7386142 0.73799425 0.5116774 -0.14843403
0.53068775 -0.7816528 0.20369706 0.8676364 -1.1484122 0.2864623 -0.92362404 0.17555091
-0.6821539 -0.7401327 -0.8829145 -0.9451665 0.5240059 -0.47830197 1.3102123 0.5099686
0.56304884 0.2147479 -0.5387319 -0.7055564 -0.27929726 0.7171602 -0.348568 0.70233953
0.74067336 -0.70668995 0.20201762 -0.47774962 -0.07642761 -0.6364889 0.6435389 0.30137205
0.37473115 -0.63943964 0.69411635 -0.49477667 -0.77605534 0.36207932 0.51982874 -0.21831197
-0.81972504 0.41312104 -0.577113 0.31191474 -0.36491993 -0.6340945 -0.5660383 -0.1498687
0.56742036 0.8321826 0.9739232 0.5117915 -0.57556784 -0.63535684 -0.73777896 0.7736935
0.5068806 0.88590884 -0.74012023 0.57164955 -0.70038146 0.47854012 0.55402434 -0.89906245
0.8593547 0.67417026 -0.7145808 -0.6589848 0.71090627 -0.514976 0.61726165 0.62734306
-0.99146503 -0.73887956 -0.67113787 0.056617767 -0.09432541 -0.014941604 -0.61857754 -0.40538973
-0.5865166 -0.671554 -0.81235313 0.5276943 0.6956451 0.15993494 0.8871446 0.013469227
-0.62983066 0.5723095 0.46110305 0.10294763 -0.8179049 -0.80064493 0.7425995 -0.7853608
-0.204193 -0.7233156 -0.26420557 0.3149104 -0.08720828 0.70499396 -0.6696501 -0.55374396
0.8345853 -0.49470907 0.8584854 -0.44449693 0.37361327 -0.39501885 -0.50741553 0.092658356
0.05608762 0.45173758 0.16959195 0.71970665 0.3732789 -0.5871481 0.721602 -0.1734616
-0.34539837 -0.28520006 0.503339 0.37218687 -0.37252757 -0.18752468 -0.03302437 0.35306895
-0.6228401 0.8301142 -0.6458328 0.92877287 0.72482085 0.34462565 -0.32219517 0.6376185
1.0465637 0.46230492 -0.20420712 0.5086684 0.6396651 -0.2433272 0.69909185 -0.544212
-0.033864234 0.7634853 0.71052575 -0.53148043 -0.7431109 0.078781605 0.43972844 -0.72726595
-0.36036006 0.68128353 0.064713 -0.69398445 -0.8337329 -0.8885116 0.64140815 -0.42664033
-0.8795559 -0.6849233 -0.5242342 0.1401187 0.41836107 0.809436 0.49560076 0.79565966

lstm.bias_ih_l0 f4 [400]
00000000: 5d46 7d3f 3da0 4abf ab6c 2b3f bccc 25bf
00000010: 6aea 533e b115 4dbf 62cb 37c0 cc06 02c0
00000020: a71c 9e3e a0e5 c9bf 3286 3abf ef5e ad3e
00000030: 6287 87be 5142 53bf 924e 84bf 2773 8bbf
00000040: f8c5 37bf d20a b3be 498f babf 2bd0 16bf
00000050: 37e6 64be fb43 5ebf 50ba 36bf c220 dfbd
00000060: eda2 25bf f0e8 2fbe ac6d 41bf b445 6f3f
00000070: 43b6 473e f19d 1ebf 9147 21bf c7ae ffbe
00000080: 5a74 74bf 1dd7 09c0 f96e 9bbf 2ad8 493f
00000090: f6e9 c6bf b0c2 7dbe a176 46bf c692 b0be
000000a0: d1da c5be 2928 993e 58f6 09be fd4d 313e
000000b0: 799e d2be 11ff e1be d23f bebe 10ee 3ebf
000000c0: 0977 f3bf 3922 99bf 97d0 18bf 8c25 803e
000000d0: 4ad1 04bf 69c2 29bf 3b6f 143f 71c3 3bc0
000000e0: a3ca 5ebf b214 b43e 725d df3e 8aa2 30bf
000000f0: d573 433e e577 6dbf fe6f d2bf e426 2bbf
00000100: 4c3a 4ac0 0cee 393e 0637 4abf f586 683f
00000110: f16a 2e3f 7db2 7ebf f59d fdbe ff45 41bf
00000120: 7e26 81bf cce2 69bf b17c a9be 7bd3 29bf
00000130: 7359 843f ba81 68c0 9f0e b639 d33e 80bf
00000140: d609 1ebf eb10 cabe 4e01 3ebd 790e 073e
00000150: aa25 14bf f75f 1fbf 18a7 eebf 7cdd 4abf
00000160: 49c2 803f fa9b 05bf 756b 32bf e0e4 2d3f
00000170: edfd 9e3d 5bf7 173f aac8 1f3f 3be2 92bf
00000180: c9ee 63bf 792c 74bf c9ff 78bf 5f13 c73e
00000190: 65c1 0f3f 7b89 67bf 58eb 63bf 242c 41be
000001a0: 344c 94be 52c3 49bf 35a9 a33f 7fee 363f
000001b0: 0fd5 5e3e 7cc8 9a3e e283 25bf 389d adbe
000001c0: 4716 6bbe 2773 11be 6661 85bf db84 21bf
000001d0: bc5d 87be 9249 8b3e 7c4a 763f 70b4 59bf
000001e0: cf88 86be 3311 f43e 8a4a f73e 9a31 2f3e
000001f0: 52ca 373c 029d f2be 9499 3bbe afcd 3c3d
00000200: c974 1bbf 647d 64bf d1f4 cdbe 2175 87bf
00000210: 67e9 6abf b96f 0f3f 8ffd 993e a6a5 113f
00000220: 1db3 093f 9fe2 57bf 89e0 54be a3a2 ba3d
00000230: c8d9 8e3d 441b c53d 6ace 99be 4bf9 26be
00000240: f18e 843e 218d c13e d1a4 8abf e3f4 40bf
00000250: 28f8 92bf b0b6 29bf 6285 34bf 89ca 03bf
00000260: 15bc a7be 055b 5cbe 79bf 63be f77d 743f
00000270: 718f 50bf 5726 1b3e a578 17bc 4371 33bf
00000280: f94b ce3d 8e7e 22bd 2b49 443e 3ed6 23bf
00000290: cede 933f b7bb 0b3f fbfc 19bf 4c8d 303f
000002a0: 66f0 2d3f fb0f 17bf d283 f4be cca9 0dbf
000002b0: 2bbe 48bf a40d f73e 82b6 44be ea89 55bf
000002c0: 15b9 5b3f dfc1 933f 0b92 e23e 11f5 5cbf
000002d0: 93ab 3f3e c66a 87bf ac04 0abf 0827 8a3d
000002e0: 9e9e cabe 1ace dcbe f325 3bbf 764e 46bf
000002f0: 664e 243f d533 08bf 1c04 13bf a15a b13e
00000300: 5519 fe3e 765d 713e 6428 163f 5e0c 5a3f
00000310: d351 6fbf 241e 0ebf c5c8 32bf c873 54bf
00000320: 872c e7be b479 f13e 8382 21bf 9161 d5be
00000330: 0362 84be fb9f 603e 781c 6b3f 8861 b53e
00000340: e5ea 5dbf 85f7 72bf 0109 ccbe af93 40bf
00000350: f2a6 0fbf cf78 49be f6f6 2abf 9ce8 063e
00000360: 9968 4bbd 97d5 de3e 2241 6abf bd40 f03d
00000370: 8a27 5c3d 3fce 053f e00f 0fbd 2a3a 4c3f
00000380: 9036 693f b548 20bf 986f b13e 0070 143f
00000390: cb1e 133f d2c5 b7be 6ebf 273f 80ec c4bd
000003a0: a3e1 c43e ed92 723f 06dc 443f 138f 10bf
000003b0: 49de 7ebf 5ee7 473f 0e2f 393f 8861 5bbf
000003c0: 1c78 edbe c261 083f 8772 babc 00f9 023e
000003d0: e17a 2dbf 9d25 3cbf 7ccf e13d 7169 f4be
000003e0: c554 03bf e320 59bf 77aa 1dbf d452 8f3e
000003f0: 9f6b 09bf 8c8c 93be d4c0 49be 0bad b13f
0.9893549 -0.79150754 0.6696269 -0.64765525 0.2069489 -0.80111223 -2.8717885 -2.0316648
0.30881235 -1.5773201 -0.72861016 0.3386149 -0.26470476 -0.82523066 -1.0336478 -1.0894517
-0.7178645 -0.34969193 -1.4574977 -0.5891139 -0.22353445 -0.8682248 -0.7137804 -0.1089492
-0.6470173 -0.17178702 -0.7555797 0.93465734 0.19503121 -0.6195975 -0.62999827 -0.49938032
-0.9549004 -2.1537545 -1.2143241 0.78845465 -1.5540149 -0.24781299 -0.77524763 -0.3448698
-0.38643506 0.29913452 -0.13472879 0.17314906 -0.4113653 -0.44139913 -0.37158066 -0.74582005
-1.9020702 -1.1963569 -0.5969328 0.25028646 -0.5188185 -0.6631227 0.57982224 -2.9338038
-0.8702795 0.3517204 0.4362598 -0.68998015 0.19087155 -0.9276107 -1.6440427 -0.6685622
-3.1598082 0.18157214 -0.7899021 0.9083093 0.6813193 -0.994911 -0.49534574 -0.7549743
-1.0089872 -0.9136169 -0.33102944 -0.6633832 1.0339798 -3.632918 0.0003472464 -1.0019172
-0.6173376 -0.39466032 -0.046387963 0.13189115 -0.5786997 -0.62255806 -1.8644743 -0.7924421
1.0059291 -0.52191126 -0.69695216 0.6792736 0.07763276 0.5936181 0.62415564 -1.147529
-0.8903623 -0.9538036 -0.972653 0.38881966 0.5615447 -0.90444154 -0.8903098 -0.18864495
-0.28964388 -0.7881366 1.2786013 0.71457666 0.21760963 0.30231082 -0.6465436 -0.3390901
-0.22957717 -0.14204083 -1.0420349 -0.63093346 -0.264387 0.27204567 0.96207404 -0.8504095
-0.26276252 0.47669372 0.48299056 0.17108765 0.0112176705 -0.47385412 -0.18320304 0.046094593
-0.60725075 -0.8925383 -0.40225843 -1.058262 -0.91762394 0.5602985 0.30076262 0.56893384
0.5378893 -0.8433017 -0.20788778 0.09113052 0.06975132 0.09624341 -0.30040294 -0.16306035
0.25890306 0.37802985 -1.0831548 -0.7537367 -1.1481981 -0.66294384 -0.70516026 -0.5148092
-0.32760683 -0.21519096 -0.2224101 0.9550471 -0.81468874 0.15151344 -0.0092450725 -0.700947
0.100730844 -0.039671473 0.19168536 -0.6399878 1.155237 0.54583305 -0.6015164 0.689656
0.67944944 -0.5900876 -0.4775682 -0.55337214 -0.78415173 0.48252594 -0.19210246 -0.83413565
0.8582929 1.154354 0.44252047 -0.8631144 0.18717794 -1.057946 -0.5391338 0.06745726
-0.3957414 -0.43125993 -0.7310478 -0.7746347 0.64182127 -0.5320409 -0.57428145 0.34639457
0.49628702 0.23570809 0.5865538 0.8517512 -0.9348423 -0.5551474 -0.698376 -0.8298917
-0.4515116 0.47163165 -0.6308977 -0.41676 -0.25856027 0.21936028 0.91840315 0.35425973
-0.86686546 -0.94908935 -0.3985062 -0.7522535 -0.56114113 -0.19674991 -0.6678308 0.13174671
-0.0496603 0.4352233 -0.91505635 0.11731098 0.053748645 0.5226783 -0.03492725 0.7977625
0.9109888 -0.6261094 0.34655452 0.579834 0.5746886 -0.35893112 0.65526474 -0.09615421
0.38453397 0.9475544 0.7689823 -0.56468314 -0.9955793 0.78087413 0.72337425 -0.85695696
-0.463807 0.53274167 -0.022759689 0.12790298 -0.67765623 -0.73494893 0.11025903 -0.47736695
-0.51301223 -0.84815806 -0.61588234 0.2799288 -0.5367984 -0.28818166 -0.19702464 1.3880934

lstm.bias_hh_l0 f4 [400]
00000000: 32fe 7f3f 6624 5abf cd0e 453f 1b19 2bbf
00000010: bccf 5f3e e118 68bf 3580 3fc0 cef8 01c0
00000020: 6f94 c63e 658e debf fbbe 40bf c06a 6f3e
00000030: 072f 9dbe 37c7 35bf 88ad 89bf 5255 82bf
00000040: c575 23bf a8b4 eabe 7665 b4bf 8038 39bf
00000050: 49f6 49be 5547 5fbf caf8 33bf 150f 65be
00000060: bdae 11bf 12ce 2ebe 04a0 52bf 4ec1 5c3f
00000070: 49cd fd3d baba 00bf fba6 04bf fad3 edbe
00000080: 5497 77bf 9dcb 0ec0 9cf3 afbf fe23 4d3f
00000090: cb00 b8bf 5553 60be 1263 3abf 0f78 ccbe
000000a0: 5c90 87be d1cd 893e 1a8c 2ebc 893d 4a3e
000000b0: c882 0dbf 28a0 0dbf 9381 c9be 17de 65bf
000000c0: ccb6 01c0 48db 97bf 79ad 1dbf 31a7 213e
000000d0: accd 06bf 51c2 26bf 06bc e03e 8400 3fc0
000000e0: c18e 73bf 596c c93e f127 be3e 3ef2 3ebf
000000f0: 3383 833e 06af 49bf 693f bcbf 6dc7 37bf
00000100: cf48 4fc0 9662 bd3e be85 4bbf f523 683f
00000110: 0dd4 463f 1d34 75bf 17c4 14bf 353b 43bf
00000120: 2b6b 81bf c5c5 6fbf 0e01 bdbe a987 0abf
00000130: 672d 823f 6b66 69c0 7399 c93d 63a3 5dbf
00000140: 065f 2dbf e888 06bf b586 6abd 489d 323c
00000150: 203f 20bf 3c9b 0bbf 9baa f1bf f83d 38bf
00000160: 8506 833f d050 14bf 27d6 04bf 707c 2c3f
00000170: 1cf4 a2bd 824d 193f 3f86 2c3f 0b19 8dbf
00000180: 4730 52bf 687a 6dbf 4144 7abf b894 a93e
00000190: 6fa9 dc3e 3473 7dbf 600a 6fbf 2149 37be
000001a0: 9e1b 4dbe 8046 57bf ae83 a73f b741 2a3f
000001b0: 24db 9b3e fff5 e03e b70c 30bf 72c5 92be
000001c0: 205e 80be a3b3 f2bd 48a1 8ebf 328a 03bf
000001d0: 2916 afbe 7a9f 9b3e 22a7 643f 40c2 60bf
000001e0: 484e 50be 17f2 f33e 1e97 0f3f 1a2e 983e
000001f0: 1434 70bd 907b ddbe f1b0 3fbe 69c7 71bb
00000200: a48e 19bf 8921 62bf 52cb 8dbe 32c2 80bf
00000210: b971 76bf fd1c cb3e 8248 a93e fc42 173f
00000220: c877 c83e 60bf 67bf d52f 58be a736 ff3c
00000230: a441 d33d f2b6 0f3e 5b2b b3be dee7 49be
00000240: d0ac 753e 1101 c43e 0d05 8abf a45a 35bf
00000250: 4c2b 87bf 279b 2dbf 51ea 52bf d726 1abf
00000260: 7fe7 b7be 9659 2fbe 8835 71be 114f 883f
00000270: b94d 56bf eb42 9d3c 7c00 073e 4e25 17bf
00000280: 68a7 8b3e d2b2 ffbc b1a0 8f3e bc5c 0fbf
00000290: 22c1 8b3f b7ba 363f 6bfa 0dbf aa62 373f
000002a0: 9d57 453f ed30 32bf 5f77 aebe 744c eebe
000002b0: 4f16 36bf b13f fe3e 45a1 87be d6c3 4cbf
000002c0: a156 5b3f 5b99 993f 1087 993e 5eeb 79bf
000002d0: 10ed 1f3e f375 7bbf a259 0ebf 859a 0b3d
000002e0: 1e67 bdbe ec2a 01bf 274a 43bf f13c 41bf
000002f0: a730 163f c96f d8be b6ef 00bf b8c9 a93e
00000300: e038 d13e 3fb3 8b3e 459e 2e3f 05a7 4b3f
00000310: b807 69bf 4fe0 2ebf 3251 5bbf 4190 53bf
00000320: cc53 d7be 97ef 913e ced0 2bbf 53b7 cebe
00000330: 490c c4be 7630 743e b80d 883f 48b4 dc3e
00000340: b52d 4fbf 9555 7dbf 0f19 02bf 35ad 2abf
00000350: fdac 22bf ac64 d6bd 6028 3fbf 630d 073e
00000360: 4ad3 c4bc cf81 d63e b977 57bf 4d26 79bd
00000370: 67a5 993d c343 ce3e 67f4 563d 3af8 633f
00000380: 98eb 7d3f 5c0d 1abf 96a6 813e a71a e13e
00000390: b24f 173f 151e e0be 32b5 513f 15b6 04bd
000003a0: dd9b e13e 0ca6 503f 428a 453f 6a37 ecbe
000003b0: 8ef4 5cbf a60e 673f 2c39 1c3f 109d 68bf
000003c0: 246c 04bf f177 de3e d0bd 1c3e 1362 8d3e
000003d0: e749 57bf 1995 61bf 80e4 313d 7410 a7be
000003e0: b8dc e8be c99f 6abf c7ef 1cbf bd37 423e
000003f0: b214 f0be 0a43 88be 893c 53be e992 a33f
0.99997246 -0.8521179 0.7697571 -0.6683518 0.21856588 -0.9066296 -2.9922001 -2.0308108
0.3878512 -1.7387205 -0.75291413 0.23380566 -0.30699942 -0.710071 -1.0756083 -1.0182288
-0.6385158 -0.45840955 -1.4093463 -0.7235184 -0.19722857 -0.8721822 -0.70301497 -0.22369035
-0.56907254 -0.17070797 -0.82275414 0.8623246 0.12392671 -0.5028492 -0.5181729 -0.46450788
-0.96715283 -2.2311776 -1.3746219 0.80133045 -1.4375242 -0.21906789 -0.7280742 -0.39935347
-0.26477325 0.26914838 -0.01065352 0.19750036 -0.5527768 -0.55322504 -0.3935667 -0.8979201
-2.026782 -1.1863794 -0.61592823 0.15786435 -0.5265758 -0.65140253 0.4389345 -2.9844065
-0.951397 0.39340475 0.37139848 -0.7458838 0.25686035 -0.7878269 -1.4706851 -0.71788675
-3.238819 0.36989278 -0.7950095 0.90679866 0.77667314 -0.95782644 -0.5811171 -0.7626222
-1.011083 -0.9366115 -0.36914867 -0.5411325 1.0170106 -3.646876 0.09843721 -0.86577433
-0.6772312 -0.5255265 -0.057257373 0.010901757 -0.6259632 -0.54533744 -1.888019 -0.71969557
1.0236365 -0.5793581 -0.5188927 0.67377377 -0.079567164 0.5988389 0.67392343 -1.1023268
-0.82104915 -0.927649 -0.977604 0.33121276 0.43098018 -0.9900391 -0.93375206 -0.1789899
-0.20030066 -0.8409195 1.308706 0.6650652 0.3044063 0.4393768 -0.687694 -0.28666264
-0.25071812 -0.11850669 -1.1142969 -0.51382744 -0.34196594 0.30395108 0.89317524 -0.877964
-0.20342362 0.47645637 0.5608996 0.29722673 -0.058643416 -0.43258333 -0.18719842 -0.003689254
-0.5998328 -0.8833242 -0.27694184 -1.0059264 -0.96267277 0.39670554 0.33063132 0.59086585
0.39153886 -0.9052639 -0.21111996 0.03115399 0.10315254 0.14034632 -0.34994015 -0.19717357
0.23991704 0.38282064 -1.0782791 -0.7084143 -1.0560088 -0.6781487 -0.8238879 -0.60215515
-0.35918805 -0.17124018 -0.23555577 1.0649129 -0.83712345 0.019196948 0.13183779 -0.590413
0.27276158 -0.031213198 0.28052285 -0.56000876 1.0918314 0.71378654 -0.5546023 0.71634924
0.7708681 -0.69605905 -0.34075448 -0.46542704 -0.7112779 0.49657968 -0.26490226 -0.7998632
0.8567906 1.1999925 0.29985857 -0.97624767 0.15617776 -0.9822685 -0.5560552 0.03408291
-0.36992735 -0.5045612 -0.7628502 -0.75483614 0.5866799 -0.42272785 -0.5036577 0.33161712
0.40863705 0.2728519 0.6821025 0.79551727 -0.910274 -0.6831102 -0.8567077 -0.8264199
-0.4205612 0.28503105 -0.67115486 -0.4037424 -0.38290623 0.23846611 1.0629187 0.43106294
-0.8092912 -0.9895871 -0.50819486 -0.6667054 -0.6354521 -0.104684204 -0.7467098 0.131887
-0.024026532 0.4189591 -0.8416706 -0.060827542 0.07502251 0.40286073 0.052479174 0.8905064
0.9918761 -0.60176635 0.25322407 0.43965647 0.5910598 -0.4377295 0.8191711 -0.03240021
0.44064227 0.8150337 0.7716409 -0.46136028 -0.8631066 0.90256727 0.6102474 -0.9086466
-0.5172751 0.43450883 0.15306783 0.27613887 -0.8409714 -0.8811813 0.043430805 -0.3262974
-0.45480895 -0.9165006 -0.6130337 0.18966575 -0.4689079 -0.26613647 -0.20628561 1.2779208

fc.weight f4 [2, 100]
00000000: 3664 4dbd fad3 ecbe dbc9 a93d 965e 093f
00000010: b5b1 1fbd 66b3 84bf 81cb 9c3c 8d9d abbe
00000020: e533 2b3d eb2f 0abf 440e 983e 5cab 4ebe
00000030: 2b2f a8bd f0c1 edbe f2e6 173f be16 6f3f
00000040: a87a 77be c49c 5fbe 77e6 36be 8373 043f
00000050: a21e 0b3e 56a1 343f bcc4 35be f404 033e
00000060: 9015 c63d b678 be3d 5d29 2abd 64bb 373e
00000070: a11a b43d 24f5 ff3e a36a ddba fdfb 723f
00000080: c7bc 34bf 4170 c1bd 3e5a adbd 8c42 453e
00000090: ca47 8bbc cc5a 8e3e b3c2 be3e 44bd 2a3e
000000a0: 24e6 6ebe af71 78bc a556 973e 4b56 b73c
000000b0: 7777 c1bd 7cbb 503d 4199 32be f600 c3be
000000c0: 42dc 1c3f 3ec6 cdbd 9e20 43bf d06e 19bf
000000d0: 1c77 733e b7d1 913e 32dd b3be 61fe 523d
000000e0: 19fd 083f b999 8fbe 4a47 c83d 1706 e33e
000000f0: 5813 b4bc 0860 a5bd 2a8a 603e 8de1 c93e
00000100: 311a bdbb fc7e 8abe f7cb 62be da8b a5be
00000110: 7e2c 943d 47fb 9dbe 698c 2dbe 3284 bfbe
00000120: 4b5b 943b ac2c dfbc c7d6 b23e c3fd bfbe
00000130: 7f59 ed3e d479 d83d df7d 353f 0e32 1d3f
00000140: cec5 c53e b45c 83bc 554b 91be 78d7 41be
00000150: ed6a e3bd 44b7 9a3e 3e2a ad3f 98a8 86be
00000160: e2b4 1f3e e757 9c3e f4f2 96be e5ba 7ebe
00000170: 9acb 4d3e 6955 6bbc c9cd 12be 5f10 563e
00000180: aef2 f63e 916a ad3e 8c80 d13e f93a 39bc
00000190: a81d 9dbd 9de6 b33e a126 953d 5bf8 1cbf
000001a0: 44c7 52bc e238 9c3f cd9b 593c 3559 d03e
000001b0: c9b0 9a3d fa57 093f 34a6 40be 910b 203e
000001c0: 244c 4abd d42e d33e caa6 10bf 2fd2 56bf
000001d0: dda2 7e3e ab26 a73e 5f04 083e 8e4d dbbe
000001e0: 2ee4 ddbc faa2 16bf 5e62 873e b53e 0abe
000001f0: 68d8 92bc 9170 fcbc cc0c 873c a7ca 07be
00000200: f131 b4bd c514 00bf 88b8 c83b ddff 72bf
00000210: a667 133f 16c8 083e a3b6 2dbc 6f58 49be
00000220: c641 623d 57fc 14be f26a d4be 424a 36be
00000230: c029 a13e bef9 87bb bdbd 81be e28c c73c
00000240: 61c6 4c3e 388a a0bd e7b1 4d3e c5c4 ab3e
00000250: 9ca1 28bf 25b2 0e3d 9bd0 553f 73f5 153f
00000260: 4960 54be c72a 9cbe 380b d93e cfae 26be
00000270: 9cba 2cbf 93cd d63e 6ac2 59bd 5af7 febe
00000280: 6078 0a3e b8c7 103d 1e90 c6bd 2350 9dbe
00000290: e7f4 d13d 42d4 813e 105c 8a3e 8a62 143e
000002a0: aade 85bc c609 b23e 4349 813e 61b0 af3e
000002b0: 8702 e2bb c0f6 80bd ba80 87be ebbc c33e
000002c0: 1bb0 02bf fd5a 33be 1e1d 1ebf 18d8 0fbf
000002d0: c478 e6be 2b8f c33d 94ea 493e fe18 723e
000002e0: e259 7c3d 9ceb f7be e63a 9fbf 2b9a c43e
000002f0: 9c01 6cbe 88f6 c4be fd39 b73e 4ad8 b33e
00000300: 9988 8dbe 2e3a 783d 325f 433c 8a17 5abe
00000310: 260e c7be bb9f ccbe a1a5 c5be 510c cf3c
-0.050144397 -0.46255475 0.08290454 0.5365995 -0.038987834 -1.0367248 0.019140007 -0.3351864
0.041797537 -0.53979367 0.29698384 -0.20182556 -0.082121216 -0.46437025 0.5933677 0.93394077
-0.24167883 -0.21837145 -0.17861353 0.51738757 0.13585904 0.7055868 -0.1775083 0.12794858
0.096720815 0.093003675 -0.041543353 0.17942578 0.087941416 0.49991715 -0.0016892742 0.94915754
-0.7060055 -0.09445239 -0.08464478 0.19263667 -0.017002005 0.27803648 0.3725792 0.16673762
-0.23329979 -0.015163823 0.29558292 0.022380015 -0.09446614 0.05096005 -0.17441274 -0.3808667
0.61273587 -0.10047577 -0.76221645 -0.5993471 0.23775905 0.28480312 -0.35129696 0.051512126
0.53511196 -0.2804697 0.09779222 0.44340584 -0.02198188 -0.08074957 0.21927705 0.39429894
-0.0057709445 -0.27050006 -0.22148119 -0.3233326 0.07235049 -0.30855772 -0.16948093 -0.37405545
0.0045274845 -0.02724298 0.34929487 -0.37498292 0.46357343 0.10570112 0.7089519 0.614045
0.38627476 -0.016035415 -0.28377786 -0.18929851 -0.11104379 0.30217946 1.3528516 -0.26300502
0.15596345 0.30535814 -0.29482234 -0.24875982 0.20097199 -0.014363625 -0.14336313 0.20904683
0.48232025 0.33870366 0.40918386 -0.011305564 -0.07671672 0.3513688 0.072827585 -0.6131646
-0.012864891 1.2204859 0.013281775 0.4069306 0.0755325 0.53649867 -0.18813401 0.15629412
-0.04938902 0.41246665 -0.565045 -0.83914465 0.24866815 0.3264669 0.13282917 -0.42832607
-0.027086344 -0.5884243 0.26442236 -0.13500483 -0.017925456 -0.030815395 0.016485594 -0.132609
-0.08798588 -0.5003169 0.0061255135 -0.94921666 0.5758003 0.13357577 -0.010602626 -0.19662641
0.055238508 -0.14549385 -0.41487843 -0.17801765 0.31477165 -0.0041496446 -0.2534007 0.02435917
0.1999755 -0.07838863 0.20087396 0.3354856 -0.65871596 0.03483786 0.8352143 0.5857765
-0.20739855 -0.30501387 0.42391372 -0.16277622 -0.67472243 0.41953716 -0.053163923 -0.4979809
0.13522482 0.035346717 -0.09695457 -0.30725202 0.102517895 0.25357252 0.27023363 0.14490715
-0.016341526 0.34773082 0.25251207 0.34314254 -0.006897274 -0.06297064 -0.26465398 0.3823007
-0.51049966 -0.17515178 -0.6176318 -0.5618911 -0.45014012 0.095487915 0.1971839 0.23642346
0.061609156 -0.48421943 -1.2439849 0.3839887 -0.23047489 -0.38469338 0.3578643 0.35125953
-0.27643278 0.06060236 0.011924552 -0.21298042 -0.38877982 -0.39965615 -0.38602927 0.025274428

fc.bias f4 [2]
00000000: 1da9 253e 5811 3ebe
0.16177793 -0.18561304
