results/lstm/lstm_hidden_50_layers_1_bidirectional_False_length_64_batch_64_lr_0.001.pth (torch, 84948 bytes, 6 tensors)

lstm.weight_ih_l0 f4 [200, 50]
00000000: 2478 3c3e 8b95 9b3e 1cd2 8ebd af1f 63be
00000010: ebbe 60be e6d8 a93d 63ed 363e 7d3d d1bd
00000020: 0f52 9dbd 95c4 e73d b7fe 533e deff 16be
00000030: dc2f 2a3d 0cfa 41be 4329 f4bd d8ad 4bbe
00000040: 4c99 89bc 82fa 98be c08d 693c 88b1 acbe
00000050: 27fc db3d 6391 9fbd 95c8 87bd b77c 1abf
00000060: ee94 e6bd 43fd 4dbe fe7c 4ebe 910a fe3c
00000070: fafc 6d3d ab63 60be e6cf ee3d 29ea d1bc
00000080: 5e52 acbd 8d40 16be e0a1 f5bd 6efe 30be
00000090: f79c a9bd daa8 c4be f386 c53c 0c97 b1bd
000000a0: affd 943b 84b1 59be 3cf4 1f3e 4338 c4bd
000000b0: a926 583e c37c 9d3e d5b5 453b 9751 e83d
000000c0: 8cc1 833b edba 363e f8cb 123d d628 f93e
000000d0: dee3 853e 9c33 e73d 16d1 3d3c ff23 93be
000000e0: 785e 1c3f b2cc b93c a656 60bc 682b 4dbd
000000f0: 64bb 78be 3a90 61be 6afd 31be 3f19 bbbe
00000100: 87d5 aa3e 128a 99bb 2d3e 2fbd cfb5 26bd
00000110: fcbb 4d3d 0533 833e 87a7 ce3d 702d 2ebe
00000120: 1af6 9f3e 0001 9cbe 8d55 66be d3c7 003e
00000130: 1f7e 7a3e 1cb9 42be d7e2 e3bd c968 5cbe
00000140: 23f3 2abd c561 64bc 1853 f53d 5082 92bd
00000150: e92d f4bd d843 0c3e 995f aebe e406 c0bd
00000160: 16b9 8d3d ad16 7e3e af92 ebbd 1395 d33c
00000170: 299d 32bb e0ef 5c3e 70fd 99bd 7c27 abbe
00000180: 931b ca3c 1378 793b 7941 6abe 8fdb a63d
00000190: 21ea 7e3e 3ceb 663e 21e8 333e 9181 5fbe
000001a0: 372a 803d 2ac4 a2bd 0060 2a3e 051b 553e
000001b0: df10 553c 748f d23e a20a 5dbe dd22 09be
000001c0: 4eb0 40be d8dd 193d 3136 993d 5bf9 3abe
000001d0: c647 3c3e 35ab 5d3e 2448 d5bd 3b72 bb3e
000001e0: 4bc3 e3bd 2194 523d 0814 5abe 5910 63bd
000001f0: 361d 19be 44c9 d53d 2a29 893e 6d8f d83d
00000200: 5151 71bd 1c97 c73c f930 45be 77a6 1cbd
00000210: 58c9 dbbd 207c cc3d 4186 5bbe 7aa8 82bd
00000220: cf2e acbd c51e 0c3f af8b 26be 8592 8b3e
00000230: b0ec 2abe bb3c 123e 0ce9 f4bd 513a 6c3e
00000240: f839 9cbe 5649 3bbe 3a79 14be 7cf3 183d
00000250: ebd5 42be f14a 0abe 54fb be3d abb5 c33d
00000260: b540 c03d 252d 283c 6387 523d f39f 6abe
00000270: 7501 a1be 7a42 e2be b37f fcbd a965 ddbd
00000280: 24ca 46bc c79a fcbc 06d9 81bd e700 aebc
00000290: 40b7 583e 1af4 65be 3585 bcbd 335a 693e
000002a0: c320 e53d f852 1abe ce9f 39be 6251 47be
000002b0: e8c4 abbc 0dda 343e 7145 cdbd 318c 2d3d
000002c0: 1d99 f3bd f96e 45be bc64 673d 99ba dcbd
000002d0: 7ee3 1abe 6eb9 9bbc 82f1 5fbc 1472 16bb
000002e0: 1cac 73be 7f97 1a3e b221 4cbe ba26 463e
000002f0: 0d71 d4bc 1353 50be f59f dc3b 18ee 62bb
00000300: 3cb9 573e dad2 85be 51c1 713d c7aa a2be
00000310: 360d fabd 7912 3f3e 20cd 173b 6577 6dbe
00000320: fcfd 02be 12eb 773d 1068 68be 4d74 da3e
00000330: 2563 63be 47ca f8be a812 c1be dc42 dbbd
00000340: 4086 a63c 7d50 a33e 410c 58be 0dfa 58be
00000350: 796c 06be 5ba4 723d 5cf7 9cbe 6b32 cc3d
00000360: 5508 aabd 1b71 18be a8be 023e cca1 0fbf
00000370: 2fea 17bd 83b0 3a3c 10d6 1c3e fb3d 033e
00000380: 821b 02bf 4f03 913d 9e65 323d ef88 af3d
00000390: 20d7 1bbe b049 b1be 41fd 3ebe 9853 38bc
000003a0: 6057 013d 18f0 393e 4a03 babd b01b 1f3e
000003b0: f2ed e3bc fbbf cabd 2595 9abd 529e 033e
000003c0: 92de 993d 6c2a d8bc 72e5 a7be c032 203f
000003d0: 3c41 fcbe c311 4dbd 6334 4c3d ca17 2f3e
000003e0: a9b3 0c3d 1a69 68be 9a95 0dbd 920c d6bd
000003f0: 302f 90bd b4e3 533c bb1e 7fbe 00b7 b13d
0.18405205 0.3038753 -0.06973669 -0.22180055 -0.2194783 0.08293323 0.17863993 -0.10216806
-0.07681667 0.11316792 0.20702635 -0.14746043 0.04154955 -0.18943042 -0.119219325 -0.19890535
-0.01679673 -0.29878622 0.014254987 -0.33729196 0.107414536 -0.07791402 -0.06630055 -0.6034655
-0.11258875 -0.20116143 -0.20164868 0.031010898 0.058102585 -0.2191302 0.11660747 -0.025624352
-0.08414148 -0.14673062 -0.11993766 -0.17284557 -0.08281892 -0.38410074 0.0241122 -0.08671388
0.004546843 -0.21259123 0.15620512 -0.095810436 0.21108498 0.30759248 0.0030168195 0.11343687
0.0040208753 0.17844744 0.03583905 0.48663968 0.2615041 0.112891406 0.0115854945 -0.287384
0.6108165 0.022680614 -0.013692534 -0.050090224 -0.24290234 -0.22027674 -0.17381826 -0.365427
0.33366033 -0.0046856487 -0.042783905 -0.04070073 0.050228104 0.25624862 0.10090547 -0.1700952
0.31242448 -0.30469513 -0.22493573 0.12576227 0.24462174 -0.19015926 -0.11127251 -0.21524347
-0.04173578 -0.013939326 0.119787395 -0.071537614 -0.11922819 0.13697755 -0.3405731 -0.09376314
0.06920068 0.24813338 -0.11502587 0.02582792 -0.002725432 0.2157588 -0.075190425 -0.33428562
0.024671352 0.0038065955 -0.22876538 0.08147346 0.24894 0.22550672 0.17569019 -0.2182677
0.06258052 -0.079475716 0.16638184 0.20811088 0.013004511 0.4112507 -0.21586087 -0.13392206
-0.18817255 0.037565082 0.07481039 -0.18259184 0.18386754 0.21647342 -0.1041415 0.36610588
-0.111212336 0.051410798 -0.21296704 -0.055435512 -0.1495255 0.10438779 0.26789218 0.10574231
-0.05891544 0.024364047 -0.19256963 -0.03824469 -0.10731763 0.099846125 -0.21437933 -0.063797906
-0.084073655 0.5473445 -0.16264223 0.27260223 -0.16691852 0.1428098 -0.11958513 0.23069121
-0.30512977 -0.18289694 -0.1449937 0.03734158 -0.19026916 -0.1350515 0.09325281 0.09556135
0.09387342 0.01026467 0.051398646 -0.22912578 -0.31446424 -0.44191343 -0.12329044 -0.10810406
-0.012133155 -0.030835522 -0.06340222 -0.021240665 0.21163654 -0.22456399 -0.09205095 0.22788315
0.111878894 -0.15070713 -0.18127367 -0.19464639 -0.020967916 0.17661305 -0.100230105 0.042370025
-0.118944384 -0.19280614 0.056492552 -0.10777778 -0.15125844 -0.019009318 -0.01366842 -0.002295618
-0.23796123 0.15096854 -0.19934729 0.1935071 -0.025932813 -0.2034419 0.0067329356 -0.0034626778
0.21066755 -0.2613743 0.05902225 -0.31770918 -0.12209551 0.1865939 0.0023163036 -0.23190077
-0.127922 0.060526915 -0.22695947 0.42666855 -0.2220579 -0.48591825 -0.37709546 -0.10706112
0.020327687 0.31897345 -0.21098424 -0.21189137 -0.13127317 0.059238773 -0.3065747 0.09970554
-0.083023705 -0.14886896 0.12768042 -0.5610626 -0.03708857 0.011394623 0.15316033 0.12816612
-0.50823224 0.07080709 0.04355394 0.0857104 -0.15218782 -0.34626532 -0.18651296 -0.011250399
0.031577468 0.18157995 -0.090826586 0.15537906 -0.027823422 -0.098998986 -0.07547978 0.12853363
0.07513155 -0.026387416 -0.3279224 0.6257744 -0.4926852 -0.050065767 0.049854647 0.17098919
0.034351025 -0.22696343 -0.0345665 -0.10451616 -0.0704025 0.012932707 -0.24914066 0.086774826

lstm.weight_hh_l0 f4 [200, 50]
00000000: 5bfe 83be 65dc 183d 5050 b33c ce2e 2fbd
00000010: 4935 47be 4fd9 f83c 3893 05be 9a26 61bd
00000020: d51a 3e3e 8bc9 cebd c237 f13d 38e9 893d
00000030: cdc1 e6bd 4174 f43c c90b 91bd e2d9 013e
00000040: 4314 04be 4988 c1bd fc9c 0a3e a4f1 a0bb
00000050: f272 1a3e 1540 18bd eec4 b2bd e118 b1bd
00000060: 4934 513d 9896 a3bc c1c7 03be cef7 2f3d
00000070: 1051 473c f9a9 533e 8c83 adbd f277 fc3d
00000080: 5747 d83d 047d b63d 69cc e53c a472 a2bd
00000090: 1791 873c d1dc 813c 892c 023e 29b8 4ebe
000000a0: 20f5 a53d 307b 25bd 33ca 7e3e 537f 593e
000000b0: 810d 1cbd 12ee ad3d 7411 1a3e 2a91 b83e
000000c0: 6b1b 473e 69de 4dbd e1c9 44be fa7b 613d
000000d0: 3d4f 2bbe 47d7 143e 826e 9bbc 8851 5fbc
000000e0: 14e9 70bc 8606 49bd 4dea 8d3e c9d1 aebd
000000f0: 2ed1 0f3e 267e 39be c3ff 8fbd d7ef 363d
00000100: a741 093e 4445 b3bc b0e3 1fbe f2e9 c33d
00000110: d92f d63d e219 a03d e3d0 ba3d 8a01 353c
00000120: 0546 31bd e5a0 70bd 17b4 ba3d d3d0 e63d
00000130: fd82 0c3d be33 13bd 3200 f23d eeca df3d
00000140: cd23 cf3d 72a2 5dbe f430 3abe f001 293e
00000150: d920 f8bd 6cf3 db3a b0a8 40be 8d6d 24bd
00000160: 5c00 613d e79e 24bc f7b6 763d bc14 e13d
00000170: fb2d bd3d ba64 6a3e 6dc2 5a3d 528c bdbd
00000180: a0ca ef3d e818 1cbd 9fcf cabc 4768 413d
00000190: 6c58 eebd 64fd 22be 3bb6 e8bc 95b1 133e
000001a0: 8055 35be 8c68 343d 8d11 8e3e f8d7 5bbd
000001b0: 5108 2aba 3160 dc3c 1373 1b3d f103 80bd
000001c0: f94d 97bd 5dc8 8abc 8797 82bd 7354 f03c
000001d0: 3077 893d 0546 35be e5c6 9b3d e782 bbbc
000001e0: 26ee 893d bf6f 433d a68d ae3d 6e8b 1abe
000001f0: d8d2 d73d 71ae 8bbb d186 ad3d dac7 14bd
00000200: 631f 94bd d9b0 2f3e a278 a3bd 62de 863d
00000210: 76e5 d13d 7204 563e 7007 d7bd e3c2 3a3e
00000220: 3e98 c5bd dc86 123e abc6 133c c274 4cbd
00000230: 6ab7 27bd 00f1 e5bd 6737 0ebe e1a2 223c
00000240: f953 a73d d357 98bc 862e 573c afc7 a33d
00000250: 6201 d4bd c344 8bbd d16e d93d 2adb 0a3e
00000260: eff7 083c e5a7 633d 8e6d 0ebd dd90 e9bd
00000270: d53b 323d f905 083d 3b5a acbc 9199 2c3d
00000280: 2fd1 393e aafc 68bd f50e 0ebe 9cac 083e
00000290: 017f 82bc 37e4 20bc a8d5 5a3d 772f 1c3e
000002a0: bf21 a6bd a987 c43d 38de ac3d 1ea9 913d
000002b0: 2216 a03d 0b41 983e a289 a03b 86bc 8f3d
000002c0: 20f2 0c3e 5928 4d3e aa3e 95bc f9ee 913d
000002d0: 2d31 b3bd 3def 813a 498e 22be dde9 273d
000002e0: 4b0e 8bbe 55cc b4bd e021 4d3d 0e18 8f3d
000002f0: c76a e1bc 00e4 70bd a551 b73c ee71 39bd
00000300: 37ad 25bd 447b 70bc 6a34 173d d30c dbbd
00000310: d14e fd3d b8ce d9bd 24ca 22be cb6c 653c
00000320: 3f9d 10be 436d a0bc 0aeb 28be cb29 593e
00000330: 0139 d33c b04d 17bc 51cc 443d 6599 3f3d
00000340: 8735 b4bd ed9c 12be 0782 2cbd 0272 19bd
00000350: 05d3 7abc 3f4e d4ba 5035 123e dda6 f63d
00000360: 6a67 36be a2db 28bd 1795 543d 4561 203e
00000370: c8cc a53d 15a2 6a3d 3814 9f3d 4fdb e2bd
00000380: 73f6 1c3e a0bb 203e e856 4a3d ce5c 98bd
00000390: c9b0 28be bcd6 fcbc 33a3 253d d385 b1bd
000003a0: 59c3 f63c 558c 243e 3925 553b e594 233d
000003b0: b5ec 0c3c be2f 463a f1c0 d63d dec1 db3e
000003c0: f042 02be b863 e6bc ccda e3bd 6c61 693d
000003d0: ff16 8ebd ef7a b43e f435 3e3d fbf1 59be
000003e0: 8193 43be d4b3 cf3d 3864 aabe b08a 423d
000003f0: e699 01be 4dbe 02be c9ad 20be 4f48 24be
-0.25779995 0.03731956 0.021888882 -0.042769246 -0.1945392 0.030377058 -0.13044441 -0.054968454
0.18564923 -0.10097035 0.11778213 0.06733936 -0.11267433 0.02984059 -0.07082326 0.12680772
-0.12898354 -0.094498225 0.13536447 -0.0049116183 0.1508291 -0.03717049 -0.087289676 -0.086473234
0.051075254 -0.01996927 -0.12869169 0.042960934 0.012165323 0.20670308 -0.08472356 0.12327565
0.10560482 0.089105636 0.028051572 -0.07932022 0.016548676 0.015852364 0.12712301 -0.20187439
0.081033945 -0.040400684 0.2488182 0.21239977 -0.038098816 0.08492674 0.1504572 0.3604825
0.19444053 -0.050260935 -0.19217636 0.055049874 -0.16729446 0.14535247 -0.018973593 -0.013630278
-0.014704008 -0.049078487 0.2771782 -0.08536107 0.1404464 -0.18114528 -0.070312046 0.044662323
0.1340395 -0.021883614 -0.156142 0.09566106 0.10458345 0.07817437 0.09121873 0.01104773
-0.043279666 -0.05874719 0.09116381 0.11270299 0.034304608 -0.035938017 0.118164435 0.10927378
0.1011425 -0.21643999 -0.18182737 0.16504645 -0.1211564 0.0016780919 -0.18814349 -0.04014354
0.054931983 -0.010047651 0.060233083 0.10990283 0.09237286 0.22889987 0.053408075 -0.092552796
0.117085695 -0.03810969 -0.024757205 0.047218587 -0.11637959 -0.15916973 -0.028407207 0.14423211
-0.17708397 0.044045016 0.27747765 -0.05367276 -0.00064862246 0.026901336 0.03795154 -0.06250752
-0.07387919 -0.016941244 -0.06376558 0.029337144 0.06712186 -0.17702492 0.076062955 -0.022889568
0.06734876 0.04771399 0.08523111 -0.1509225 0.10538262 -0.0042627384 0.0847298 -0.036323406
-0.07232549 0.17157306 -0.07981993 0.06585385 0.10248844 0.20900133 -0.104994655 0.18238406
-0.096481785 0.14309257 0.009019534 -0.049916036 -0.0409464 -0.11227608 -0.13888322 0.009926529
0.081703134 -0.018596565 0.013133651 0.07997071 -0.10351826 -0.06800225 0.1061684 0.13560167
0.008359893 0.05558004 -0.03477245 -0.114045836 0.04351409 0.03320882 -0.021039119 0.04213864
0.18146203 -0.056881584 -0.13872893 0.13347095 -0.0159297 -0.009820036 0.053426415 0.15252481
-0.08111905 0.095961876 0.08440822 0.07112335 0.078167215 0.29737124 0.0048992196 0.0701838
0.13764238 0.20034923 -0.018218357 0.071256585 -0.08749614 0.0009913218 -0.1587459 0.040994514
-0.27159342 -0.08828036 0.050081134 0.0698701 -0.027516736 -0.058811188 0.022377798 -0.045274667
-0.040448394 -0.014677826 0.03691522 -0.106958054 0.12368549 -0.106351316 -0.15897423 0.014002989
-0.14122485 -0.01958335 -0.1649591 0.21207349 0.025784018 -0.009234831 0.048046414 0.046777148
-0.08799272 -0.14317675 -0.04211619 -0.037462242 -0.0153091 -0.0016197636 0.1427815 0.120435454
-0.17812887 -0.041225083 0.051899996 0.15662105 0.080956995 0.05728348 0.07767528 -0.11076986
0.15328388 0.15696573 0.049399287 -0.07439576 -0.16473688 -0.030864112 0.040438842 -0.08668103
0.030122446 0.16069157 0.0032523407 0.03993692 0.008601357 0.0007560215 0.104860194 0.42921346
-0.12720847 -0.028123721 -0.111257166 0.056977674 -0.0693798 0.3525004 0.046438172 -0.21283714
-0.19099237 0.10141721 -0.33279586 0.047495544 -0.12656364 -0.12767906 -0.15691294 -0.16043209

lstm.bias_ih_l0 f4 [200]
00000000: 43ce d9bc b74c 83bd 128d 28be 89b3 65be
00000010: 1e86 04be 0f7a d0bd 73b6 3fbd c01b 7cbd
00000020: 35f7 f03d d128 8bbd 3ed3 59bd 43b1 633d
00000030: 3ac1 c4bd 0e2d c1bd a575 05be a95a cdbd
00000040: eb5e c7bd cac2 e73c 40ec b33b 1cd5 dbbd
00000050: b391 2b3e 28d7 16bc e101 9fbd 5cb0 553c
00000060: 5b2d 08be b736 cabd 6d6b 6ebd 5f95 b1bd
00000070: 7e09 66bd 4027 983d e17a afbc ddc8 90bd
00000080: c0e4 a9bd bb2b a6bc 2828 603d 7f36 a9bd
00000090: a8a9 82bb 010b d0bd 0a33 903c 1347 843d
000000a0: 3caf 053d 73ce 903d 3f20 823c 26c0 92bd
000000b0: 7528 9cbd ee90 95bd 93f9 78bd ecee 61bd
000000c0: c03c 4f3d edc4 e03d 7443 4dbd 7a37 f2bc
000000d0: c793 a13d 7c31 183e f576 0d3c 674e 903d
000000e0: 5cd4 28bd 0365 f03a 7610 2f3e def3 ce3c
000000f0: 9936 143d 840a d43e 9209 81bd d401 8dbd
00000100: 6158 e73d 8e9c f3bc e4e3 073e e1b1 033d
00000110: 5120 333e 2020 1cbd 9d1a e8ba 4b76 b7bc
00000120: 19bf ff3d da1d 013e 3341 bdbd b279 893d
00000130: dfbe 673b 6eeb 65bd 76bc 00bd 2000 fd3d
00000140: a697 66bd 39da debd fd68 9a3d 3319 32bc
00000150: 3d70 dd3d 7009 b63d a1af 8bbd 646e 813e
00000160: 109c 9a3e 5663 32bc b80d fb3d fca8 e3bd
00000170: 50ea 9b3c 6710 07be 2fd5 03ba f794 333e
00000180: 9eb0 e4bc d90b 8e3d c516 a3bd 2b64 3bbb
00000190: bbf3 ae3d fb20 35bd 2f2e e7bd d4b8 98bd
000001a0: 0006 0c3e 4fb0 26bd bb76 153d 3233 ca3d
000001b0: bd0a b73d 1f88 65bd 0d2b e73d 4069 dc3d
000001c0: a3e4 263b 891c 3a3d d3d5 863d 23eb d5bc
000001d0: 85b0 c6bd ef6f fd3d a77b 5bbd caf8 763d
000001e0: 013e 4abd e7f9 70bd c721 b5bd f6c0 e7bd
000001f0: 260a 9b3d 7c32 1e3d f8e1 283d 9333 fabd
00000200: bfa2 babb ef13 68bd e42e 133d 25a8 a53d
00000210: 9466 013e 3787 c6bd e3f2 eabc 3fe8 473c
00000220: 40e0 5fbd b514 9cbd 4a67 a3bb 1a4e fd3d
00000230: 987a 44bd 65d8 cebd 374f 053e 006a 52bd
00000240: 4bdd 7c3d ddd3 50bd b272 9f3d f066 68bc
00000250: e13c 733d b14c 91bd d89c e1bc 0c2a 0e3d
00000260: 78e6 5abd 1b0b abbd cb6e 373d f945 3f3e
00000270: 148e 353e c3ea 4d3d 5b53 6c3d 62cd 0fbd
00000280: 5c74 0bbe 08b6 323e 139b d73d cfac d2bd
00000290: 7201 25be ec36 2fbd 6d6d 433e ecf8 21bd
000002a0: 5dd2 8abc 1c88 3ebd 0f68 903c 6024 d63d
000002b0: fa9e 23bd fbfd aabd d41f afbc 4bcb c43b
000002c0: 929c ccbd 691f b2bd e22f 0abe f1f4 573d
000002d0: 7103 503c d4b1 a0bd 793a 9e3c e2c6 89bd
000002e0: 60ad 16bd 858f db3d 1707 0e3e f994 033e
000002f0: f193 363e 205b 20bd 1cca ec3c a2c6 27bd
00000300: 4a03 cf3d c703 6f3d 0783 083e f6ed df3d
00000310: 9d8d adbd 7cd9 acbd c391 aa3c 48bb 13bd
-0.026587611 -0.064111166 -0.16460064 -0.22431768 -0.12941787 -0.10179531 -0.046804857 -0.061549902
0.11765901 -0.067948945 -0.053179972 0.05558897 -0.096071675 -0.094324216 -0.13033159 -0.10027058
-0.09734901 0.028291125 0.0054908097 -0.10734007 0.16754799 -0.009206571 -0.0776403 0.013042536
-0.13298552 -0.09873717 -0.058207918 -0.086710684 -0.056161396 0.07429361 -0.021420898 -0.07069562
-0.08295584 -0.020284524 0.054725796 -0.082623474 -0.0039875098 -0.10158349 0.017602462 0.06458869
0.03263782 0.07070627 0.015884517 -0.07165556 -0.07624904 -0.07303034 -0.060784888 -0.055159494
0.050595045 0.109750606 -0.050113156 -0.029567469 0.078895144 0.14862627 0.008634319 0.07046204
-0.041218147 0.0018340651 0.17096123 0.02526277 0.03618488 0.41414273 -0.063006535 -0.06885114
0.11296154 -0.029737737 0.13270527 0.03215206 0.17492796 -0.038116574 -0.0017708127 -0.022395274
0.12487621 0.12609044 -0.092409514 0.06712665 0.003536157 -0.056132726 -0.03142973 0.123535395
-0.056296967 -0.108814664 0.07539556 -0.010870266 0.108124234 0.08888519 -0.06820608 0.25279534
0.3019719 -0.010887941 0.12258476 -0.111162156 0.019032627 -0.13189851 -0.000502902 0.17537294
-0.027916249 0.069358535 -0.07963327 -0.002859364 0.08542582 -0.044220906 -0.11288106 -0.07457128
0.13674164 -0.040695485 0.036490183 0.09873046 0.08937595 -0.05603802 0.11287508 0.10762262
0.0025465868 0.04543737 0.065837525 -0.026113098 -0.09701637 0.12374865 -0.05358472 0.060295857
-0.049375538 -0.058832075 -0.08844333 -0.11316101 0.07570295 0.038622364 0.041231126 -0.12216868
-0.0056956704 -0.056659635 0.03593339 0.08088712 0.12636787 -0.09693759 -0.02868027 0.012201368
-0.05465722 -0.07621137 -0.0049866783 0.12368412 -0.047968477 -0.10099868 0.130185 -0.05137062
0.06173448 -0.0509833 0.07785548 -0.014184698 0.05938423 -0.07094706 -0.02754061 0.034708068
-0.05344245 -0.083517276 0.044783395 0.18679036 0.1772998 0.050272714 0.05769668 -0.035107978
-0.13618606 0.17452252 0.10527625 -0.10286867 -0.16113833 -0.042776987 0.19084711 -0.03954403
-0.016946012 -0.046516523 0.017627744 0.10456157 -0.039946534 -0.08349224 -0.021377482 0.0060056797
-0.09990801 -0.08697397 -0.13494828 0.05272383 0.012696133 -0.07846418 0.019314991 -0.06727387
-0.036786437 0.107207336 0.13869892 0.12849797 0.17829873 -0.039149404 0.028904967 -0.040960915
0.10108049 0.05835321 0.13331233 0.10934059 -0.08474276 -0.08439919 0.020821458 -0.036067277

lstm.bias_hh_l0 f4 [200]
00000000: acbd 993d 1ff5 49bd 6711 e5bd cb33 64be
00000010: a6b9 afbd 07e5 753d 67a1 24be e274 243d
00000020: 00b3 d63c aeab f3bd dc2e 993d fb2c dd3c
00000030: 018a 3ebd ef62 9cbd 2161 e53c 8009 3ebe
00000040: ff4a f3bd c593 983d 4f54 1ebe d921 d0bd
00000050: a9c3 383d b3c1 463d 6af1 943d d219 47be
00000060: 475e 27be a796 77b9 4c05 0cbe c669 67bd
00000070: 6da5 973d e1c1 f0bd 6c97 90bd 34fd 10be
00000080: e903 4fbd 3738 27be 3a26 0e3e b8f5 c8bd
00000090: 2a71 dfbb c01e 12bd 03d4 01be 0990 213e
000000a0: ac81 34be b998 843d 4579 08be 8925 3fbd
000000b0: f056 7d3c e94f edbd cf2a 33be c1f8 15be
000000c0: e386 06bd fdf5 923c 2c0c 1abe 8902 f73d
000000d0: d682 ee3a 1534 853e 85f5 a2bd cdde 113e
000000e0: 0137 c23d 7b23 9fbd f6dd 9b3c 15a8 9fbd
000000f0: 0c52 693d cae7 5a3e b10d 123e a97b 5c3d
00000100: 1db7 c63d 53bf a83d 0b78 f63d 9564 d2bd
00000110: 168e 173e 1015 ab3d e61a 603d cdb6 083e
00000120: 193e 3abd 0e46 59bd 1a5b 863d d9de f23d
00000130: 2e0c 173e 171c 37bd 45ac 693d 5265 d83c
00000140: cdce a83d 5131 17bd cf1f 343e c4e5 993d
00000150: 7b60 6abc d1d8 69ba adb4 b6bd fb0d 4f3e
00000160: 1c27 193e f7ac 5a3d 499f bc3d 0eb0 c6bc
00000170: 0ceb 623e 49d6 d9bc 6e62 353e d370 663d
00000180: 79ef 783d f8e3 1bbe da5b c43d a31d df3d
00000190: e4a4 853d 1766 843d 3b2f e93d 797d b3bc
000001a0: 3916 aebd 853a a1bd 014f 9bbc 8e69 d43c
000001b0: 9228 cb3c 20f8 cc3c 8d7f 16bd f20e 51bc
000001c0: d496 8a3d 3472 8fbd 6416 513d 12f1 593d
000001d0: 6aeb 673d 791b f7bd d52e 04bd 490f 613d
000001e0: 2c97 b4bd bf0a 823d 81f1 173e a6a3 d8bc
000001f0: 06d1 103d bc55 ca3c 5fec cdbd 0cc8 d93d
00000200: cd07 a53d aaad aebd bd48 643d afd6 763d
00000210: 97e5 97bd 17b9 d3bd b4fa 253d 4743 7dbd
00000220: e41e dc3c c7d9 3f3d 3478 133d b7b1 84bd
00000230: 590f 2bbd 19bc d73d c87f b73b a71e 623d
00000240: d2f5 163d 7d90 4bbd 35db 4e3c f28c 803d
00000250: 093f 843c 53af 693d 7ac8 053d 6a88 05be
00000260: 5708 863d 86ad 9a3d eb16 5bbc 0793 3bbd
00000270: 55f7 6a3e efff 5f3d 421a 0c3e 36a8 fb3d
00000280: 6748 7f3c b5bf 2cbb e520 f1bc d9fe 8b3d
00000290: 57c4 bbbc 4f09 90bc e707 253e 6ffd f13d
000002a0: 6502 a23d 6e80 6cbd c12c 9e3b 8fc6 bbbc
000002b0: a271 283d 93bd 15be 7056 0d3e b0e8 d73d
000002c0: 7ddc 91bc 15f3 abbd 53d0 d3bd ba22 953d
000002d0: eccf d03d 7bcb db3d c598 0c3e 03d3 c2bc
000002e0: 50b5 d4bd 0358 493d b6a5 9cbd 27b1 fa3d
000002f0: f30d 513e 2489 51bb f054 0c3d 3aa2 c23d
00000300: 1290 ec3d 7f23 79bb 6201 aa3d a253 d13d
00000310: a745 d83d c80e cbbd ac49 1bbd 6066 4d3d
0.0750688 -0.04930603 -0.1118496 -0.22285382 -0.085803315 0.06003287 -0.16077195 0.04015053
0.0262084 -0.1189798 0.07479641 0.026998987 -0.04651833 -0.076360576 0.028000416 -0.18558311
-0.11879539 0.0745006 -0.15461849 -0.10162706 0.04510847 0.04852457 0.072726086 -0.19443443
-0.16344558 -0.00023611878 -0.13673896 -0.056497358 0.07404599 -0.117557295 -0.070601314 -0.1415909
-0.05054084 -0.16330038 0.1388177 -0.09812492 -0.00681891 -0.035673857 -0.12678532 0.15777601
-0.17627591 0.06474442 -0.1332751 -0.046666656 0.015462622 -0.11587507 -0.17496799 -0.14645673
-0.03284348 0.017939562 -0.15043706 0.120610304 0.0018196951 0.26016298 -0.079569854 0.14245148
0.094831474 -0.07770439 0.019026738 -0.07795731 0.05696301 0.21377483 0.14263035 0.05382887
0.09702895 0.08239617 0.12034615 -0.10273091 0.14800295 0.08353627 0.054713152 0.13350983
-0.045469377 -0.053045325 0.06560345 0.11858911 0.1475074 -0.044704523 0.057049055 0.0264155
0.08242569 -0.036912266 0.17590259 0.075145274 -0.014305229 -0.0008920553 -0.0892118 0.20220177
0.14956325 0.05338761 0.09210069 -0.024253871 0.22159976 -0.026591437 0.17713329 0.05625994
0.060775254 -0.15223682 0.09587832 0.10894325 0.06525591 0.064647846 0.113859616 -0.021910416
-0.085003324 -0.0787249 -0.01895857 0.025929239 0.024799619 0.025020659 -0.036742736 -0.012759911
0.067670494 -0.070042044 0.051046744 0.05320842 0.056620993 -0.12065787 -0.032271225 0.054946218
-0.08817896 0.06349706 0.1483822 -0.026445221 0.03535559 0.024699084 -0.1005485 0.10633859
0.080581285 -0.085292175 0.05573343 0.060263332 -0.07416838 -0.103380375 0.040522292 -0.06183174
0.026870199 0.046838548 0.036003307 -0.06479209 -0.041762684 0.10533924 0.0055999495 0.055205014
0.036855526 -0.04969834 0.012625505 0.06276883 0.016143339 0.057051968 0.032661892 -0.13040319
0.065445594 0.07552628 -0.013372163 -0.045794513 0.22945912 0.054687437 0.13681892 0.12287943
0.015581227 -0.0026359383 -0.02943463 0.06835718 -0.02292077 -0.017582564 0.16116296 0.11815917
0.07910613 -0.057739668 0.0048271124 -0.022921829 0.041123994 -0.14623098 0.13802505 0.105424285
-0.017805332 -0.083959736 -0.10342469 0.07282014 0.10195908 0.1073217 0.13730152 -0.023782259
-0.10386145 0.0491562 -0.07648794 0.122408204 0.20415477 -0.0031972611 0.03426069 0.095035985
0.11550917 -0.0038015542 0.08301045 0.1022103 0.1056016 -0.09914929 -0.037912056 0.05014646

fc.weight f4 [2, 50]
00000000: a0bb 4bbe fa17 743e 1567 783e c87a 0dbd
00000010: 2470 163e 1163 c9bd 9710 133e cb25 f73d
00000020: 8dab 07be a2d9 12be be1e ff3d d6c4 63bd
00000030: 2e93 3b3e 2638 733e 1368 ab3d 8997 5ebe
00000040: 2583 8a3e 5e18 a13d b92d 363e 23b4 923d
00000050: 9942 3c3e d5ff 8b3e d04d a73d 2deb db3d
00000060: 20e0 88be 2f42 f6bd 3604 563e eacb 673e
00000070: 4e01 3a3e 13d3 f83d 0ef8 c4bd b1bf 83bd
00000080: d1c7 47be 7db3 07be 446c 0fbe 1ef3 423e
00000090: fd20 983e dc14 2abe a7b0 92bd d413 e9bd
000000a0: 57bc 593e b27d 823e 46c4 853d 3365 a6be
000000b0: f4d1 06be 9c4f 24be a408 18be 946e 913d
000000c0: 2830 ee3d 83d8 3437 1ddc 763e a3cc cfbd
000000d0: 6e15 09be 5e3b 5d3e efa3 73be b781 593d
000000e0: 5d69 2bbe f1f3 1cbe 4572 983d 3aa8 703e
000000f0: 4f2f 1bbe aab8 df3d a99c 26be b43f 80be
00000100: 604a 82be 89f1 9c3d 1b63 e6bd 9b7b 78be
00000110: 23a1 0ebe f35c 25be 022b a6bd 29b3 08be
00000120: 6099 30be 3d5c f3bd 1c62 853d a812 5d3e
00000130: 4884 62be e262 33be a739 49be 3c97 ecbd
00000140: cdd4 953e 2a2d 733e e6dd 153e 41b0 133e
00000150: 4d20 543e 44da 11be 55c9 85be a154 2f3e
00000160: 0f95 d33d fd88 593e 2fde 1dbe 1b26 5abe
00000170: 090f 30be 87a7 7b3e fafb 433e 3c22 a83d
00000180: 76c5 2c3e d90b 1dbe f185 46bd bf51 db3d
-0.19895792 0.23837271 0.24258073 -0.03454092 0.14691216 -0.098333485 0.14361797 0.12067755
-0.13249035 -0.14340833 0.124570355 -0.05560764 0.18317863 0.23751888 0.0836946 -0.21737494
0.2705318 0.07865976 0.1779088 0.071632646 0.1838478 0.27343622 0.081691384 0.107382156
-0.26733494 -0.12024342 0.20900044 0.22636381 0.1816456 0.12149634 -0.09617625 -0.064330466
-0.19509818 -0.13252063 -0.14006144 0.19038054 0.29712668 -0.1660952 -0.071626 -0.11380735
0.21263252 0.25486523 0.06531577 -0.32499084 -0.13166028 -0.16045994 -0.14847046 0.07101169
0.11630279 1.0779247e-05 0.24107404 -0.10146453 -0.13387081 0.21604678 -0.23793004 0.05310222
-0.16739412 -0.15327431 0.0744367 0.23501673 -0.15154766 0.10923894 -0.16270699 -0.25048602
-0.2544737 0.07663257 -0.112493716 -0.24265902 -0.13928656 -0.16148739 -0.08113672 -0.13349594
-0.17246008 -0.118828274 0.065128535 0.21589148 -0.22120774 -0.1751819 -0.19650899 -0.11552283
0.29263917 0.23747697 0.14635429 0.14422704 0.20715447 -0.14243418 -0.26130167 0.17122127
0.10331165 0.21243663 -0.15416788 -0.21303599 -0.17193235 0.24575625 0.1913909 0.08209655
0.168722 -0.15336551 -0.04846758 0.10708951

fc.bias f4 [2]
00000000: 1434 563a e316 893b
0.00081712124 0.0041836365
