results/lstm/lstm_hidden_100_layers_2_bidirectional_False_length_64_batch_64_lr_0.001.pth (torch, 570587 bytes, 10 tensors)

lstm.weight_ih_l0 f4 [400, 50]
0	0x3dccbf30	0.099974036
1	0x3d1859e9	0.03719512
2	0xbe44573d	-0.19173904
3	0xbe04e682	-0.12978557
4	0xbe1ef6b9	-0.15523805
5	0xbe03c19b	-0.12866823
6	0xbe436299	-0.19080581
7	0xbea5ae91	-0.32359746
8	0x3be8ed96	0.0071084006
9	0x3e821e78	0.2541387
10	0x3d04802c	0.032348797
11	0xbd7ed819	-0.062217806
12	0x3d812647	0.06306129
13	0xbe5cbd8a	-0.21556678
14	0xbc0c94b3	-0.0085803745
15	0xbd7df477	-0.062000718
16	0x3e78adfb	0.24285118
17	0xbe315be0	-0.17320204
18	0xbe3a0eb1	-0.18169667
19	0x3e7a141a	0.2442173
20	0x3ca25b92	0.019819055
21	0x3e0d1034	0.13775712
22	0x3e147166	0.14496383
23	0xbda38aa2	-0.079854265
24	0xbcc95902	-0.024578575
25	0x3dc39429	0.09549744
26	0xbd14e205	-0.03634836
27	0xbcddd718	-0.027080104
28	0x3e83a596	0.2571227
29	0xbecc8ca2	-0.39951044
30	0x3bfd76ec	0.007735124
31	0x3d8558ea	0.065111
32	0xbe6cdb58	-0.23130548
33	0xbb5ce0e8	-0.003370339
34	0xbe3c6258	-0.1839689
35	0x3e18d02b	0.1492316
36	0x3ce3ee68	0.027823642
37	0x3bc4df34	0.006008053
38	0x3e4e8207	0.20166789
39	0xbd824488	-0.063607275
40	0x3e51b9c0	0.20481014
41	0xbe1aa04c	-0.15100211
42	0x3e396b61	0.18107368
43	0xbe9759f5	-0.2956082
44	0xbe77af0f	-0.24187873
45	0x3c66467b	0.01405489
46	0xbd319f54	-0.043364838
47	0xbd8476fc	-0.06468007
48	0x3dc1f7d6	0.09471099
49	0xbd5c8ad3	-0.05384333
50	0x3c046e06	0.008082872
51	0x3d945041	0.0724187
52	0xbe9a95e0	-0.3019247
53	0x3db34573	0.08753481
54	0xbe9a9f1e	-0.30199522
55	0xbe959a6d	-0.2921938
56	0xbd887eff	-0.066648476
57	0xbd0189c7	-0.031625535
58	0x3e0c0a8e	0.13675901
59	0xbd999822	-0.0749972
60	0x3dc9c564	0.098521024
61	0x3e85d7ed	0.261413
62	0x3e3586fd	0.17727275
63	0x3e4a156e	0.19734737
64	0x3bfee41a	0.0077786567
65	0xbe2fd01e	-0.17169234
66	0x3d9faacd	0.077962495
67	0x3e027b36	0.12742314
68	0xbed0c270	-0.40773344
69	0xbd1e37ab	-0.038627308
70	0xbea6980b	-0.32537875
71	0x3e27b459	0.16377391
72	0x3e3105de	0.17287394
73	0xbdf940b7	-0.121705465
74	0x3d91ae85	0.07113365
75	0x3d21e1bd	0.03952192
76	0xbd08128b	-0.03322081
77	0x3d596f14	0.053084448
78	0x3d49a567	0.049230006
79	0xbf21facc	-0.6327331
80	0xbe02f152	-0.12787369
81	0x3e8dd3fd	0.27700797
82	0xbe86be9c	-0.26317298
83	0xbe28df43	-0.16491418
84	0x3d4a433b	0.049380522
85	0x3e702e0d	0.23455067
86	0x3dba7b7a	0.091055825
87	0x3e4c3672	0.19942644
88	0x3dcdd26b	0.100499
89	0x3ca38047	0.019958628
90	0x3e38e849	0.1805736
91	0xbca6d19f	-0.020363627
92	0xbe20308d	-0.1564352
93	0x3e51a3b3	0.20472603
94	0x3e7a8bb4	0.24467355
95	0x3eba91a5	0.36439243
96	0xbe1a9904	-0.15097433
97	0xbd657679	-0.056021187
98	0x3d0e6c4f	0.03477126
99	0xbe9421db	-0.2893208
100	0xbd38b296	-0.045092188
101	0xbced18e2	-0.02894253
102	0x3df3ccbe	0.11904286
103	0xbdad8e4f	-0.08474409
104	0x3d8022ae	0.062566146
105	0xbe1b73e4	-0.15180928
106	0xbd417cfb	-0.04723833
107	0xbd1cc342	-0.03827215
108	0xbd9c9fa3	-0.07647636
109	0xbdd357da	-0.10319491
110	0x3d13be75	0.036070306
111	0xbc760902	-0.015016796
112	0xbc5cda4c	-0.01347978
113	0x3c592932	0.013254451
114	0xbdac7d58	-0.08422345
115	0x3d2c48a3	0.04206146
116	0xbde79218	-0.11307162
117	0xbcf8dcc1	-0.030378701
118	0xbd7d3ebe	-0.061827414
119	0xbdffe227	-0.12494307
120	0xbd6b82df	-0.057497855
121	0xbc85a4e1	-0.016313972
122	0xbd8e06d8	-0.06934899
123	0x3d958c85	0.073021926
124	0x3dc69bc0	0.09697676
125	0x3dd7396c	0.10508999
126	0xbe514c4f	-0.20439266
127	0xbdae5fe2	-0.08514382
128	0x3dc320ff	0.09527778
129	0x3b991532	0.004671716
130	0xbdd1287d	-0.10212801
131	0x3da674c6	0.081277415
132	0x3d8bc249	0.06824166
133	0x3c8f42c7	0.017487897
134	0xbdbbe002	-0.091735855
135	0xbc9290e4	-0.017891355
136	0xbc3e6a12	-0.011621969
137	0x3d9ebc3c	0.077507466
138	0xbc784414	-0.01515295
139	0xbcdfeb09	-0.027333753
140	0x3cba14fb	0.022715082
141	0xbbc56d5b	-0.006024999
142	0xbb81c8f2	-0.003960722
143	0xbc9763be	-0.018480178
144	0xbc62aff2	-0.013835894
145	0xbd7f918a	-0.062394656
146	0x3d9c85d9	0.07642717
147	0xbdaad207	-0.08340841
148	0x3d2812be	0.0410335
149	0xbdd1b2f2	-0.10239209
150	0xbd3631f1	-0.04448122
151	0xbd2df041	-0.042465452
152	0xbe748b14	-0.23881179
153	0xbd6fb260	-0.05851972
154	0xbe324286	-0.17408189
155	0xbee45384	-0.44594967
156	0xbcf42c22	-0.0298062
157	0xbe48951a	-0.19588128
158	0xbdae6980	-0.08516216
159	0xbb3809fc	-0.0028082123
160	0x3ca6b9dd	0.020352298
161	0x3d51a17f	0.051179405
162	0x3da86ee2	0.08224274
163	0xbdff6ce4	-0.12471941
164	0xbce48205	-0.02789403
165	0x3dbe9959	0.093065925
166	0x3e8a116e	0.26966423
167	0x3e086861	0.13321067
168	0xbe3245e7	-0.17409478
169	0xbe7eae22	-0.24871114
170	0xbddca4d0	-0.10773623
171	0x3e0701da	0.131843
172	0x3e0ae106	0.13562402
173	0xbe9c5e8c	-0.30540884
174	0x3e78c485	0.24293716
175	0xbd341d1e	-0.04397308
176	0xbc0b738c	-0.008511435
177	0xbde23ad4	-0.11046377
178	0xbcc2943d	-0.023752326
179	0xbefca7ec	-0.49346864
180	0xbd281d55	-0.0410436
181	0x3e30ee30	0.17278361
182	0x3a33f925	0.00068654335
183	0xbd7be519	-0.06149778
184	0xbd815d8a	-0.06316669
185	0x3e2e04ff	0.16994093
186	0x3e6ed366	0.2332283
187	0x3d4bc3c2	0.049747236
188	0xbdd9f386	-0.106421515
189	0x3dd068e9	0.1017626
190	0x3e9bf097	0.30456993
191	0x3c8f1a8e	0.017468717
192	0xbd4f7e29	-0.050657425
193	0xbdf97be6	-0.12181835
194	0xbdf48676	-0.11939709
195	0xbdce30e5	-0.1006792
196	0x3d1a1d02	0.03762532
197	0xbd5fefdf	-0.05467212
198	0x3caec5f1	0.02133462
199	0xbe0bad1c	-0.13640255
200	0xbdb3dcc1	-0.0878234
201	0xbd845014	-0.06460586
202	0x3d32d6e9	0.043661986
203	0xbd2e6001	-0.042572025
204	0xbed6d935	-0.4196259
205	0xbe9242e9	-0.28566673
206	0xbe86c3cc	-0.26321256
207	0x3df3d997	0.11906736
208	0xbdad9329	-0.08475334
209	0xbe165513	-0.1468089
210	0x3d38f0a8	0.045151383
211	0x3e424f41	0.18975545
212	0x3d1f89c1	0.03894973
213	0x3e582767	0.21108781
214	0xbe6a524c	-0.22882956
215	0xbda9c66d	-0.082898
216	0x3e9ca1c4	0.30592167
217	0x3dd7d87c	0.10539338
218	0x3d7d55be	0.06184935
219	0x3dea39cd	0.11436806
220	0xbe2cafb8	-0.16863906
221	0x3dbb1f02	0.09136774
222	0xbdf11566	-0.117716596
223	0xbb8d5375	-0.0043129274
224	0xbab7bad3	-0.001401747
225	0x3c053481	0.008130194
226	0xbe290fd3	-0.16509943
227	0xbe28ffd7	-0.16503845
228	0xbda74cc9	-0.081689425
229	0x3d4f321a	0.05058489
230	0xbe8acbfb	-0.2710875
231	0x3e203a0c	0.15647143
232	0xbe064f8c	-0.13116282
233	0xbd3513f9	-0.0442085
234	0x3d46d828	0.048545986
235	0xbe114451	-0.14186217
236	0x3cd7234d	0.02626195
237	0x3e8eadc8	0.2786696
238	0xbe1372a5	-0.14399202
239	0x3e06a0f2	0.13147333
240	0x3c5993a8	0.013279833
241	0xbd5cf2bd	-0.05394243
242	0xbe100257	-0.14063393
243	0x3eb94194	0.36182845
244	0x3e7a1051	0.24420287
245	0xbd8978b5	-0.06712476
246	0xbcee97c3	-0.0291251
247	0x3d97d3e2	0.0741346
248	0xbe5e7c75	-0.21727164
249	0xbe608fe2	-0.21929887
250	0xbdaf9269	-0.085728474
251	0xbd3049b8	-0.043039054
252	0xbe8fa34b	-0.2805427
253	0xbd36e7ff	-0.044654842
254	0xbd9bd645	-0.07609228
255	0x3e353a2b	0.1769797

lstm.weight_hh_l0 f4 [400, 100]
0	0x3c802f06	0.015647423
1	0xbde333e6	-0.11093883
2	0x3b5f0a1d	0.0034033128
3	0xbe43c944	-0.19119745
4	0xbe5b7894	-0.21432716
5	0x3d44a5d4	0.04800971
6	0x3cc8e284	0.024522074
7	0x3e138fa3	0.14410262
8	0xbd94d7ac	-0.07267699
9	0xbdaffe80	-0.08593464
10	0xbd6b0bcc	-0.057384297
11	0x3d8423ff	0.06452178
12	0xbddafd82	-0.10692884
13	0x3d49ec41	0.049297575
14	0x3d9b1ca5	0.07573823
15	0xbd338402	-0.043827064
16	0xbd8e7d21	-0.0695746
17	0x3d9f7896	0.07786672
18	0xbd69f127	-0.057114746
19	0x3ddf23de	0.10895513
20	0x3e02ee5d	0.12786241
21	0xbbfaf26e	-0.0076582944
22	0xbdabe3a7	-0.083930306
23	0xbbf42647	-0.007450852
24	0xbdb61d2c	-0.08892283
25	0x3e1397d2	0.14413384
26	0xbda359b1	-0.07976092
27	0xbd75cb2b	-0.06000821
28	0xbba38db7	-0.004991259
29	0x3d8532cf	0.065038316
30	0xbe0f7138	-0.14008033
31	0xbdde4eb5	-0.10854856
32	0xbe505d15	-0.20348008
33	0x3e1bacae	0.15202591
34	0xbe397aa1	-0.18113185
35	0x3d4fd9b9	0.050744746
36	0xbddd3068	-0.108002484
37	0xbb8e2ba7	-0.0043387
38	0x3cc00f97	0.023444934
39	0x3d8d8469	0.06910021
40	0xbe475f0d	-0.19469853
41	0xbdcde5e8	-0.10053617
42	0xbb582f4c	-0.0032987176
43	0xbd1f30cb	-0.038864892
44	0x3ca4106a	0.020027358
45	0x3d8b73f4	0.06809226
46	0xbd087415	-0.03331383
47	0xbcbc6b4d	-0.023000384
48	0xbca84cec	-0.020544492
49	0x3cab3409	0.020898836
50	0xbde6f807	-0.11277776
51	0xbd1258de	-0.03572928
52	0x3de4e47e	0.11176394
53	0x3c71a525	0.014748846
54	0xbe14ff5a	-0.14550534
55	0x3d27f5a0	0.04100573
56	0x3d64b0fb	0.055832844
57	0x3da7590d	0.08171282
58	0xbd38ca6c	-0.04511492
59	0xbb67627f	-0.003530651
60	0xbca6cd8c	-0.020361684
61	0xbd7cf604	-0.061758056
62	0x3dbf4dbb	0.09340998
63	0xbd1fe3dc	-0.039035663
64	0xbd85bb66	-0.06529884
65	0xbdfaea0f	-0.122516744
66	0x3dd79a73	0.10527506
67	0xbcc4bf2d	-0.024016941
68	0x3d91f937	0.07127612
69	0xbd306099	-0.043060873
70	0xbda01586	-0.07816605
71	0xbc9b23e4	-0.018938012
72	0xbdf3bf94	-0.11901775
73	0xbddd3127	-0.10800391
74	0xbcf66158	-0.030075714
75	0x3d05991c	0.03261672
76	0xbd04c769	-0.032416735
77	0xbe1b6d69	-0.15178455
78	0xbca15561	-0.019694032
79	0xbd13834b	-0.036013883
80	0xbd95593e	-0.07292412
81	0xbe025a45	-0.12729748
82	0xbcfe0063	-0.031006044
83	0x3d9092b8	0.070592344
84	0x3c71afee	0.014751418
85	0xbdd982f2	-0.10620679
86	0x3d840831	0.06446875
87	0xbcf0d97b	-0.029400578
88	0xbd2f96b9	-0.04286835
89	0x3d1334d8	0.035939068
90	0xbbb0af2e	-0.005391977
91	0xbd26015b	-0.040528636
92	0x3e180a46	0.14847669
93	0x3d4a2443	0.049350988
94	0x3dbd52a8	0.09244281
95	0xbcc9b002	-0.02462006
96	0xbc56307d	-0.013073084
97	0x3e0e6cba	0.13908663
98	0xbd1adf41	-0.037810568
99	0x3d0a331b	0.033740144
100	0xbe041515	-0.12898667
101	0xbd7582d4	-0.05993922
102	0x3c56934a	0.01309664
103	0xbd9b1aea	-0.07573493
104	0xbd32d1ce	-0.043657117
105	0xbc9936bd	-0.018702859
106	0x3df510ab	0.1196607
107	0x3c97cc3a	0.01853
108	0x3de153c5	0.11002306
109	0x3d816213	0.06317534
110	0xbc89010b	-0.01672413
111	0xbdf53d97	-0.11974638
112	0x3c5cc15c	0.013473835
113	0x3d97ab30	0.07405698
114	0x3e68810d	0.22705479
115	0x3d8015d2	0.06254162
116	0xbe2cfc92	-0.16893223
117	0x3e06134c	0.13093299
118	0x3d93be63	0.07214048
119	0x3c70d4cd	0.014699173
120	0x3dce0d82	0.1006117
121	0xbdb89730	-0.09013212
122	0xbe17710e	-0.1478922
123	0x3cfc06ff	0.030765055
124	0x3deeaa06	0.11653523
125	0x3cb39203	0.02192021
126	0x3d6ade25	0.05734076
127	0xbd8dea3e	-0.06929444
128	0xbdaaaf3a	-0.08334203
129	0x3e34b3c4	0.176467
130	0x3d1694c6	0.036762975
131	0xbe2008eb	-0.15628402
132	0x3d25faf1	0.04052252
133	0x3e5d5a03	0.21616368
134	0x3d22d39a	0.03975258
135	0xbc527aa8	-0.012846626
136	0xbc95279a	-0.01820736
137	0x3e156ce7	0.14592324
138	0xbc22fee3	-0.009948465
139	0xbdfeb45d	-0.12436745
140	0x3cb13a56	0.021634262
141	0xbcacd8f8	-0.021099553
142	0xbdc972c9	-0.09836347
143	0x3e1bf053	0.15228395
144	0xbe1358b0	-0.143893
145	0xbd21529f	-0.039385434
146	0xbc882765	-0.016620347
147	0x3d3c0ca2	0.045910485
148	0xbdaf7c90	-0.0856868
149	0x3e13ad11	0.14421488
150	0xbd33dc22	-0.043911107
151	0x3e4f8c80	0.2026844
152	0x3df3e0e2	0.11908127
153	0xbcb726a9	-0.022357302
154	0xbde62a58	-0.11238545
155	0xbd855d86	-0.06511979
156	0xbcec927c	-0.028878443
157	0xbd620b75	-0.055186708
158	0xbd1f8eba	-0.038954474
159	0x3c7d8f1e	0.015476016
160	0x3cc4fa4e	0.024045136
161	0xbd8ea21b	-0.06964513
162	0x3e807b85	0.25094238
163	0x3d65cf06	0.056105636
164	0x3e38bc36	0.18040547
165	0x3da8c6d4	0.082410485
166	0xbca8af95	-0.020591537
167	0x3d0b1b86	0.033961795
168	0x3c9d82ba	0.019227374
169	0xbdd96d7d	-0.10616586
170	0x3ddc1ba7	0.10747462
171	0x3dc85c82	0.097832695
172	0x3d291266	0.04127731
173	0xbe23068d	-0.15920468
174	0xbde42563	-0.111399435
175	0x3d1049b2	0.03522653
176	0x3d4482fe	0.047976486
177	0xbdbfc0e9	-0.093629666
178	0xbc979da9	-0.018507795
179	0xbd82ef77	-0.063933305
180	0x3b91dc5f	0.004451319
181	0x3c93e1eb	0.018052062
182	0x3de47ef9	0.111570306
183	0x3e4c62f7	0.19959627
184	0x3de49cd6	0.111627266
185	0x3e0b3c31	0.1359718
186	0x3e3381f8	0.17530048
187	0x3d857d02	0.06517984
188	0x3d950483	0.07276251
189	0x3dbabaab	0.09117635
190	0xbccb985d	-0.024852926
191	0xbdb7c877	-0.089737825
192	0x3c748cb5	0.014926125
193	0xbdfb78d7	-0.12278908
194	0xbe594d1b	-0.2122082
195	0xbdbd6dda	-0.09249468
196	0xbda5251f	-0.08063721
197	0xbd5b8e21	-0.05360234
198	0xbc276501	-0.010216952
199	0x3d92acb9	0.071618505
200	0x3ab1d0be	0.0013566238
201	0x3af16545	0.0018417021
202	0xbdaa8ee2	-0.08328034
203	0xba19caf6	-0.00058667304
204	0x3d96eede	0.07369779
205	0x3dc33f28	0.095335305
206	0x3da2b7f6	0.07945244
207	0x3dcc27e6	0.099685475
208	0xbcb31c41	-0.021864058
209	0xbd1073f6	-0.03526684
210	0x3cacad68	0.02107878
211	0x3de443f1	0.11145771
212	0x3d1aebe2	0.03782261
213	0x3da09393	0.078406475
214	0x3dab67ce	0.083694085
215	0x3db091b1	0.086215384
216	0xbe083acf	-0.13303684
217	0x3c3883ef	0.011261924
218	0xbd0bb0fe	-0.03410434
219	0x3d3b9f49	0.045806203
220	0x3e137438	0.14399803
221	0xbd4a7c7d	-0.049435128
222	0x3cc95bdd	0.024579937
223	0x3d16f3e0	0.03685367
224	0xb91c4538	-0.00014903105
225	0x3da7582f	0.081711166
226	0xbdc8e15c	-0.09808609
227	0x3d8eef66	0.069792554
228	0x3e26a14d	0.16272469
229	0xbd1499be	-0.036279432
230	0x3e33a501	0.17543413
231	0xbdb4b9e6	-0.0882452
232	0x3cdcfb93	0.026975429
233	0x3ce0f190	0.027458936
234	0xbe0b20cc	-0.1358673
235	0x3cdff368	0.027337745
236	0xbde0b34d	-0.10971699
237	0xbd48fa30	-0.049066722
238	0x3d3c6b26	0.046000622
239	0x3d9baa20	0.07600808
240	0xbe05f227	-0.13080655
241	0xbd7b1e27	-0.061308052
242	0xbd5d9e12	-0.054105826
243	0xbd8cf886	-0.068833396
244	0x3d446d2d	0.04795568
245	0x3d3fa373	0.046786737
246	0x3c76a7cc	0.015054654
247	0x3d43d745	0.04781272
248	0xbdff885b	-0.124771796
249	0x3e6cec95	0.23137124
250	0xbc9222ea	-0.017838914
251	0xbd35fc2c	-0.044429943
252	0x3db485be	0.08814572
253	0x3cebf585	0.028803596
254	0x3e04e3b6	0.1297749
255	0x3cf8bd1b	0.03036361

lstm.bias_ih_l0 f4 [400]
0	0xbe02aa0f	-0.12760185
1	0xbd92202d	-0.07135043
2	0x3da0e40a	0.07855995
3	0xbdeb52cf	-0.11490404
4	0xbd017e97	-0.031614866
5	0x3dc499f1	0.095996745
6	0xb9845bed	-0.00025245492
7	0x3d6e330a	0.058154143
8	0xbda106ee	-0.0786265
9	0x3d8633db	0.065528594
10	0x3d1222a2	0.03567756
11	0xbda4b2f2	-0.080419436
12	0x3d9fa058	0.07794255
13	0x3c17dc22	0.009268792
14	0xbe162e66	-0.14666137
15	0xbb781d83	-0.0037859387
16	0xbdc77c26	-0.09740476
17	0xbddae0c5	-0.10687403
18	0x3e2080df	0.1567416
19	0x3d5b32c7	0.053515222
20	0xbc8b61d4	-0.017014422
21	0x3d996a8c	0.07491025
22	0x3de32efd	0.11092947
23	0x3dcb6901	0.09932137
24	0xbd13574d	-0.03597193
25	0x3dd8bc7e	0.10582827
26	0x3d145ac6	0.03621938
27	0xbcc81b43	-0.024427062
28	0x3cd1e431	0.025621505
29	0xbd219988	-0.03945306
30	0xbdb0b7cc	-0.086288065
31	0xbd8f9862	-0.070114866
32	0x3c8f62ce	0.017503168
33	0xbdce8e38	-0.1008572
34	0xbdafb6a3	-0.08579757
35	0xbd585e6c	-0.052824423
36	0x3db6f4d6	0.089334175
37	0x3d3c0800	0.045906067
38	0xbc402c4e	-0.011729313
39	0x3bd7e23d	0.006588249
40	0xbde6fd70	-0.11278808
41	0x3d144018	0.036193937
42	0x3daba9fb	0.083820306
43	0xbdf22d5f	-0.1182506
44	0x3d51f92e	0.051263027
45	0xbd81d5ec	-0.063396305
46	0x3d74cf46	0.059767984
47	0xbd909a6a	-0.07060702
48	0xbcbb1dff	-0.022841452
49	0x3d83fc67	0.06444626
50	0xbd30983a	-0.043113925
51	0xbddf467f	-0.10902118
52	0xbc74a662	-0.014932247
53	0xbd6ff9cd	-0.058587838
54	0xbcc90706	-0.024539482
55	0x3b78b24e	0.0037948075
56	0x3d0c498b	0.034249824
57	0x3d2c68d3	0.042092156
58	0xbd0ebc7c	-0.03484772
59	0x3e197938	0.14987648
60	0x3e067e18	0.13134038
61	0xbe2929b2	-0.16519812
62	0x3bd8614f	0.006603397
63	0xbbd8ef4a	-0.0066203224
64	0x3d2df0fa	0.04246614
65	0xbced6962	-0.028980915
66	0x3c78b3d7	0.015179596
67	0x3d3cca33	0.04609127
68	0x3cc3520b	0.023842832
69	0x3a3d9e48	0.00072333636
70	0x3bc97078	0.0061474405
71	0x3be5290c	0.0069934186
72	0x3be64e6e	0.0070283925
73	0x3c921c68	0.01783581
74	0xbd3a3975	-0.04546495
75	0xbda77ae0	-0.081777334
76	0xbdf4fd5f	-0.11962389
77	0x3c64f69c	0.013974812
78	0x3d216fba	0.03941319
79	0xbbf70cd5	-0.0075393715
80	0xbb83bc7b	-0.0040202714
81	0xbd8e41a6	-0.06946115
82	0x3d06fb5a	0.03295455
83	0xbe0e314b	-0.13885991
84	0xbb5b0075	-0.003341702
85	0x3e0acb7b	0.13554184
86	0x3dd14c8f	0.102196805
87	0xbdc52126	-0.09625463
88	0x3bd9d9a5	0.0066482597
89	0x3d8679bd	0.065661885
90	0xbd1ec850	-0.03876525
91	0x3c7ff306	0.015621906
92	0x3d89088a	0.06691082
93	0xbd716a8a	-0.058939494
94	0xbd8a965d	-0.06766961
95	0x3dbfb7a6	0.093612
96	0xbc48679d	-0.012231735
97	0x3c80553c	0.015665643
98	0x3b396441	0.0028288516
99	0xbd0168c9	-0.03159407
100	0x3dd5b7a9	0.10435421
101	0x3d50f97d	0.05101918
102	0x3e0c5e87	0.13707934
103	0x3d949f51	0.0725695
104	0x3ded4486	0.115853354
105	0x3dfc9d78	0.12334722
106	0xbd06cfee	-0.03291314
107	0x3d9a8967	0.07545739
108	0xbd9f34ce	-0.077737436
109	0x3d3e7a55	0.046503384
110	0x3d4c51ef	0.049882825
111	0x3c233f0e	0.009963764
112	0x3d833d2f	0.06408154
113	0xbc0f3a86	-0.00874198
114	0x3e130560	0.14357519
115	0xbd65f6fa	-0.05614374
116	0xbd920aa6	-0.07130937
117	0x3d6ce740	0.057837725
118	0x3d5400bb	0.05175851
119	0xbdb26fea	-0.08712752
120	0xbdbd365d	-0.092388846
121	0x3d7b53bf	0.061359163
122	0x3d0f9b54	0.03506024
123	0x3e10f41d	0.14155622
124	0xbd3816a4	-0.044943467
125	0xbc5d344c	-0.013501238
126	0xbde346b3	-0.11097469
127	0xbcfee3b3	-0.031114435
128	0x3d6bd5b3	0.057576846
129	0xbcbbe4a4	-0.022936173
130	0x3da34328	0.079717934
131	0x3cf41bb3	0.029798364
132	0x3dc300b9	0.09521622
133	0xbdc20244	-0.094730884
134	0xbd1ff557	-0.039052334
135	0xbd7ee723	-0.062232148
136	0xbd787d77	-0.060666528
137	0xbcc24d42	-0.02371848
138	0x3d3258f2	0.043541856
139	0x3d897aa7	0.06712847
140	0xbd15668e	-0.036474757
141	0x3d7195d2	0.05898077
142	0xbdad3cfe	-0.08458899
143	0x3dabcab4	0.08388272
144	0x3d37243f	0.0447123
145	0xbd902a40	-0.070393085
146	0x3d317d5f	0.043332454
147	0x3d1aef88	0.03782609
148	0xbccf1d26	-0.025282454
149	0x3dba56b3	0.09098568
150	0x3dc49dd2	0.09600414
151	0xbdc1b34d	-0.09458027
152	0x3dba088a	0.0908366
153	0x3c2dde38	0.010612063
154	0x3c65e852	0.01403244
155	0xbd8e3e46	-0.069454715
156	0xbd958006	-0.07299809
157	0x3d4d2601	0.05008507
158	0x3ba44f9b	0.0050143725
159	0x3e274e72	0.16338518
160	0x3d7f3646	0.06230762
161	0x3cf77b98	0.030210301
162	0xbbdda591	-0.006764122
163	0xbc104a5b	-0.00880679
164	0xbc0cf3a1	-0.0086030075
165	0x3d682e2e	0.056684665
166	0x3d338cb4	0.043835357
167	0x3cf83116	0.030296843
168	0xbc5701fe	-0.013123034
169	0xbd1688b8	-0.03675148
170	0x3dd5dcff	0.10442542
171	0x3e219b96	0.15782008
172	0xbdb43046	-0.0879827
173	0x3d653863	0.055961978
174	0x3dac507f	0.08413791
175	0x3e0009cf	0.12503742
176	0x3ddd1446	0.107948825
177	0xbdd187b8	-0.102309644
178	0x3c34382a	0.010999719
179	0xbd5ba989	-0.05362848
180	0x3e3fdd95	0.1873687
181	0xbd1a1496	-0.03761729
182	0x3d61afed	0.055099417
183	0x3d40b396	0.047046266
184	0x3d357e20	0.044309735
185	0xbd6546aa	-0.055975594
186	0x3e029a08	0.12754071
187	0x3d82978c	0.063765615
188	0xbddf4834	-0.109024435
189	0xbc071605	-0.008244996
190	0x3ddf1598	0.108927906
191	0xbd199f20	-0.03750527
192	0xbaa99096	-0.0012936767
193	0x3dd18cab	0.102319084
194	0xbd7ae42c	-0.061252758
195	0x3dd5525e	0.10416101
196	0x3d1f5ebc	0.038908705
197	0x3b41141e	0.0029461454
198	0x3c769dfc	0.015052315
199	0xbd53b7ed	-0.051689077
200	0xbd654dc0	-0.05598235
201	0xbd33c600	-0.04389
202	0xbd1bfff3	-0.03808589
203	0xbd8d3b96	-0.06896131
204	0xbd34e126	-0.04416003
205	0xbd1e3b6f	-0.0386309
206	0xbc5da92c	-0.013529103
207	0xbd3f2a64	-0.046671286
208	0x3d9d2f32	0.076750174
209	0x3c1459e1	0.009054632
210	0xbd580517	-0.05273923
211	0x3c9808fe	0.018558975
212	0xbddcf045	-0.10788015
213	0x3b56c9cc	0.003277409
214	0x3d8d90f4	0.06912413
215	0xbda200d0	-0.07910311
216	0x3dda5a6d	0.106617786
217	0xbd81b76c	-0.06333813
218	0xbcbf0dba	-0.023321975
219	0xbdad1fc4	-0.084533244
220	0x3d09728f	0.033556517
221	0x3cf4209f	0.029800711
222	0xbd261d0d	-0.04055505
223	0xbc825639	-0.015910255
224	0xbe02707e	-0.12738225
225	0x3d65e43f	0.056125876
226	0x3c8add66	0.016951274
227	0x3d6f6083	0.05844165
228	0x3be91d46	0.0071140854
229	0x3d80caa5	0.062886514
230	0xbd589cac	-0.05288379
231	0xbcdfc8b3	-0.02731738
232	0x3d1dafb4	0.03849764
233	0x3d9e89a0	0.07741094
234	0x3d98f15b	0.0746791
235	0x3d1f1800	0.038841248
236	0x3d964cd1	0.0733887
237	0xbd91b3a5	-0.071143426
238	0xbd471443	-0.048603307
239	0xbda5eb0a	-0.08101471
240	0x3d5894e3	0.052876364
241	0x3d2acbb7	0.041698184
242	0x3dce4518	0.10071772
243	0xbccd4162	-0.025055591
244	0x3bb6a4aa	0.0055738287
245	0x3d115760	0.035483718
246	0xbe0739a9	-0.1320559
247	0xbd8db8a6	-0.069199845
248	0xbda6852a	-0.08130868
249	0xbc6898f9	-0.014196628
250	0x3d049416	0.03236779
251	0xbdb3dc8c	-0.087823
252	0xbd85e7c7	-0.06538349
253	0x3d32c967	0.043649103
254	0xbd71f6df	-0.059073325
255	0x3bb75710	0.0055950955

lstm.bias_hh_l0 f4 [400]
0	0x3d0778c8	0.03307417
1	0xbbe0a457	-0.0068555283
2	0x3d0766f0	0.033057153
3	0xbc981121	-0.018562855
4	0x3d922e53	0.07137742
5	0x3d9bf543	0.07615139
6	0x3d6c0bd3	0.057628464
7	0x3d2d4e97	0.042311277
8	0xbd601a5a	-0.05471263
9	0x3be780ab	0.007064899
10	0x3d8bc61a	0.06824894
11	0xbd83ade1	-0.06429649
12	0xbd9a4289	-0.07532222
13	0xbd83b1b9	-0.06430382
14	0xbddaee36	-0.106899664
15	0x3b391bda	0.002824536
16	0xbdb76a65	-0.0895584
17	0x3ae61a00	0.0017555356
18	0x3c9ab70b	0.01888611
19	0xbdbe7c42	-0.09301044
20	0x3cb0d695	0.021586696
21	0x3dc1313b	0.09433218
22	0x3df4def7	0.1195659
23	0x3db4b874	0.08824244
24	0x3dc05863	0.093918584
25	0x3cabbfd1	0.020965489
26	0xbe0c7b6d	-0.13718958
27	0xbdcc7137	-0.099825315
28	0xbced9172	-0.029000018
29	0xbb9ecfd0	-0.0048465505
30	0x3d82bc3c	0.06383559
31	0xbdb99129	-0.0906089
32	0xbd88c56a	-0.06678279
33	0x3cd4bb19	0.025968121
34	0x3d3b8b53	0.045787167
35	0xbccf9dfd	-0.02534389
36	0x3d936fa3	0.071990274
37	0x3d0bdd4a	0.034146585
38	0x38e72a51	0.000110228204
39	0xbc8fc815	-0.017551461
40	0x3cca1ccf	0.02467194
41	0x3d247c4d	0.040157605
42	0x3d7fa61a	0.062414266
43	0xbd154dce	-0.036451153
44	0xbd817991	-0.06322015
45	0x3d48bc1d	0.049007524
46	0xbcf6868e	-0.030093458
47	0xbd50101e	-0.05079662
48	0xbdabc8ce	-0.0838791
49	0xbd2412e5	-0.04005708
50	0x3ce5e4e5	0.028063247
51	0xbd8603a8	-0.06543666
52	0xbcb9ab72	-0.02266476
53	0xbdf93abd	-0.121694066
54	0xbdc18117	-0.0944845
55	0xbd965f91	-0.073424466
56	0xbc469c14	-0.012122173
57	0x3c3a81a2	0.011383446
58	0x3dbd9ded	0.092586376
59	0x3e054726	0.13015422
60	0x3c64232f	0.013924404
61	0xbe13b72c	-0.14425343
62	0xbb8b4dd7	-0.0042512226
63	0x3c290aa0	0.010317475
64	0x3d038f75	0.032119233
65	0x3d7006c8	0.058600217
66	0x3d60afa0	0.05485499
67	0xbb83c28c	-0.0040209945
68	0xbd74832e	-0.059695415
69	0x3d2eada6	0.042646073
70	0x3cb7eb2b	0.022451004
71	0xbd8e9fb2	-0.06964053
72	0xbd83745d	-0.06418679
73	0xbb5daff3	-0.0033826798
74	0xbdaa5aab	-0.08318075
75	0x3dd3e2e7	0.103460126
76	0xbcaa4419	-0.020784425
77	0xbd807638	-0.062725484
78	0x3d350388	0.04419282
79	0x3df96d64	0.12179068
80	0xbc70d51a	-0.014699245
81	0x3d183f47	0.03716972
82	0xbcb16caf	-0.02165827
83	0x3c79abaa	0.015238682
84	0x3db298c5	0.08720545
85	0xbd678f52	-0.056533165
86	0x3cea8845	0.028629432
87	0x3c29635c	0.0103386305
88	0xbdc438bd	-0.095811345
89	0x3bff9411	0.0077996333
90	0x3dacf3e2	0.084449545
91	0xbcf86dbd	-0.030325765
92	0x3dbca8a0	0.0921185
93	0x3be8b658	0.007101815
94	0xbcf5120b	-0.02991583
95	0x3ca6e599	0.020373153
96	0xbd1fd4fd	-0.03902148
97	0xbd5caf19	-0.053877924
98	0xbd922606	-0.07136159
99	0xbe1929da	-0.14957371
100	0x3d92a55c	0.07160446
101	0x3dd2c4dd	0.10291455
102	0x3cdce561	0.026964845
103	0x3d736151	0.05941898
104	0x3dbd29b2	0.092364684
105	0xbca07d96	-0.019591134
106	0xbd0c00e8	-0.03418055
107	0x3be63776	0.0070256544
108	0x3c37979f	0.011205583
109	0x3c13ed4e	0.009028746
110	0x3d492f80	0.049117565
111	0xbd00e91e	-0.031472318
112	0x3c6d8a72	0.01449834
113	0x3e28517d	0.16437335
114	0x3e18c6b8	0.14919555
115	0x3e09063a	0.13381281
116	0xbd682811	-0.056678835
117	0x3cbb3af1	0.022855254
118	0x3e19bd0f	0.15013526
119	0xbc09f8a9	-0.008421102
120	0x3db44cce	0.08803712
121	0x3dd791ed	0.1052588
122	0x3de9ad6e	0.11410032
123	0x3c824bfc	0.015905373
124	0xbcb8def0	-0.022567242
125	0x3dcc9a2c	0.099903435
126	0x3cd50c9c	0.02600699
127	0xbc26e804	-0.010187153
128	0x3d7a7a3d	0.06115173
129	0xbd764697	-0.060125913
130	0x3d09a510	0.03360468
131	0xbc3d43b9	-0.011551791
132	0x3e34f733	0.17672424
133	0xbd8216f7	-0.063520364
134	0x3df33746	0.11875777
135	0x3d6498e8	0.055809885
136	0x39e13554	0.00042955077
137	0x3d8bfd12	0.06835379
138	0x3c81085b	0.015751055
139	0xbcc3586b	-0.023845872
140	0x3d061e4c	0.032743737
141	0xbc81a2f2	-0.015824769
142	0x3c59f29b	0.013302471
143	0x3d44616e	0.04794448
144	0xbd943f0c	-0.07238588
145	0xbd6f2f03	-0.058394443
146	0xbd660068	-0.05615273
147	0x3bdbd4c6	0.006708714
148	0xbdc44327	-0.09583121
149	0x3dfeccd1	0.124414094
150	0xbcb4e1a7	-0.022080256
151	0xbd13f5a2	-0.036122926
152	0x3e2d2817	0.16909824
153	0x3d085bbd	0.033290613
154	0x3d79c2cf	0.0609768
155	0x3d591b14	0.05300434
156	0xbce79c95	-0.028272906
157	0x3dbc7f89	0.09204013
158	0x3c9613ee	0.01832005
159	0x3da06bed	0.07833085
160	0xbaf4ae6b	-0.0018667703
161	0xbdc4cf2d	-0.09609828
162	0xbd6f3172	-0.058396764
163	0xb91afa66	-0.00014779865
164	0xbd1c643f	-0.03818154
165	0x3be27b0f	0.0069116424
166	0x3c8b1635	0.016978363
167	0xbca6e4e4	-0.020372815
168	0x3d15ee1f	0.036604043
169	0x3e010618	0.12599981
170	0x3e3fe2f1	0.18738915
171	0x3d8d87bf	0.06910657
172	0xbd9cf6e4	-0.07664278
173	0xbd4cbbe3	-0.04998387
174	0x3dd8aa62	0.10579373
175	0x3e0793dc	0.13239998
176	0x3cbbbfbb	0.022918573
177	0xbdeee28f	-0.11664306
178	0xbd7ee41f	-0.062229272
179	0x3bc8fd40	0.0061337054
180	0x3d7cbf11	0.061705653
181	0xbcb33f3e	-0.021880742
182	0x3dd0d9e9	0.10197813
183	0x3d92cb66	0.071677014
184	0xbda1d39c	-0.079016894
185	0x3d892d9a	0.06698151
186	0x3e0d5432	0.13801649
187	0xbdee7867	-0.11644059
188	0x3d8923b8	0.06696266
189	0x3d3a4e20	0.045484662
190	0x3d3da430	0.04629916
191	0x3d2f668d	0.04282241
192	0xbc964287	-0.01834227
193	0x3da9b52a	0.082865074
194	0xbd91c152	-0.07116951
195	0xbd72ec90	-0.059307635
196	0x3bfd4f17	0.0077303755
197	0xbd252680	-0.04031992
198	0x3d3306fb	0.04370783
199	0xbd52ac7f	-0.051434036
200	0x3c5e2d26	0.013560569
201	0x3da15918	0.078783214
202	0xbda10ba9	-0.07863552
203	0x3db80c3d	0.08986709
204	0xbc8d2a7a	-0.017232168
205	0xbd913a52	-0.07091202
206	0xbd3e23bd	-0.0464208
207	0x3ca61de5	0.020277927
208	0x3cde33cb	0.027124306
209	0xbd9e73d4	-0.07736936
210	0xbda80835	-0.0820469
211	0xbdd03dbd	-0.10168026
212	0xbdb91d21	-0.09038759
213	0x3d7177e2	0.05895222
214	0xbd166ca1	-0.03672469
215	0xbaa2eb3b	-0.0012429723
216	0x3c5895da	0.013219321
217	0xbde6cf58	-0.112700164
218	0x3b511e29	0.0031908846
219	0x3ba3b185	0.004995527
220	0xbc84762a	-0.016169626
221	0xbd5ba726	-0.053626202
222	0x3df77bb3	0.12084141
223	0x3df00e96	0.11721532
224	0x3d240206	0.040040992
225	0x3d0839a6	0.033258103
226	0x3dbe1214	0.09280792
227	0xbd2adf70	-0.041716993
228	0xbc31c9f9	-0.010851377
229	0x3d67168e	0.056417994
230	0xbc728506	-0.014802223
231	0xbd161a99	-0.03664646
232	0x3daabbaf	0.08336579
233	0xbd44aa98	-0.048014253
234	0x3d2b137a	0.04176662
235	0x3db09df5	0.08623878
236	0x3cf1d329	0.029519634
237	0xbdc8b6f4	-0.098005205
238	0xbdc44fbb	-0.0958552
239	0xbd69f43b	-0.057117682
240	0x3d920b4c	0.07131061
241	0xba9fb9a6	-0.0012186065
242	0xbdbb38a5	-0.091416635
243	0x3ce0abac	0.02742561
244	0x3c5876ed	0.013211948
245	0x3bd1b8eb	0.006400218
246	0x3d474de9	0.048658285
247	0x3d6a78df	0.057244178
248	0x3cd1cb4f	0.02560964
249	0xbdcdedf6	-0.10055153
250	0x3c8c1321	0.017098965
251	0xbc864979	-0.016392456
252	0xbc00d941	-0.007864297
253	0x3d0cb34b	0.034350675
254	0x3c96abf5	0.018392542
255	0x3d37ee08	0.04490474

lstm.weight_ih_l1 f4 [400, 100]
0	0xbda4f9d0	-0.080554605
1	0x3d940501	0.07227517
2	0xbc18d5f2	-0.009328352
3	0xbc13864d	-0.009004188
4	0x3db188c6	0.086686656
5	0xbe63698b	-0.2220823
6	0xbe5087c1	-0.20364286
7	0x3cbe65c9	0.023241894
8	0xbc4d615e	-0.012535421
9	0xbcbee663	-0.023303216
10	0xbc1d7386	-0.009610062
11	0xbd1ebc10	-0.03875357
12	0x3e356a85	0.17716415
13	0xbd7f0d39	-0.06226847
14	0xbd5bbe5c	-0.053648338
15	0xbc01f648	-0.007932253
16	0xbd2e22e3	-0.04251374
17	0x3db83a34	0.08995476
18	0xbe18b38b	-0.1491224
19	0x3d8ca6b5	0.06867734
20	0xbd7661c3	-0.060151827
21	0x3df65338	0.120275915
22	0xbdd74499	-0.10511131
23	0x3da093e3	0.07840707
24	0xbd0f009a	-0.034912683
25	0xbc32b52c	-0.010907453
26	0xbe5f6161	-0.21814491
27	0x3c81902c	0.015815817
28	0x3caa1b42	0.02076495
29	0x3d4ce3ce	0.05002194
30	0xbe1359f5	-0.14389785
31	0x3e5c9733	0.21542053
32	0xbd96f3aa	-0.07370694
33	0xbdc59005	-0.0964661
34	0xbdae0871	-0.08497704
35	0x3e0564ee	0.13026783
36	0xbc803964	-0.015652366
37	0x3afa617a	0.0019102537
38	0x3e15ea87	0.14640246
39	0xbe3ab054	-0.18231326
40	0xbc2e7a58	-0.010649286
41	0x3d938c6a	0.07204516
42	0x3cdf8284	0.027283914
43	0x3db16732	0.08662261
44	0x3e016f8b	0.12640207
45	0x3cac6578	0.021044478
46	0xbd7f3199	-0.06230316
47	0xbc7ba148	-0.015358277
48	0x3df911d0	0.121616006
49	0x3d134141	0.035950903
50	0x3d3cc967	0.04609051
51	0x3c1d80e6	0.009613251
52	0x3d64646b	0.05575983
53	0xbdaa109c	-0.08303949
54	0x3b576b11	0.0032870213
55	0x3d5c93ef	0.053852018
56	0xbd8bd69e	-0.06828044
57	0x3cba01d3	0.022705948
58	0xbd8b73e0	-0.06809211
59	0xbd1125b1	-0.035436336
60	0x3c3d4f0c	0.011554491
61	0x3d3156a6	0.043295525
62	0xbd42236e	-0.04739707
63	0xbd9d43ba	-0.076789334
64	0xbd65ab61	-0.056071643
65	0xbdb56ea9	-0.088589974
66	0x3d99d929	0.07512123
67	0xbd46db16	-0.04854878
68	0x3dca1e82	0.098691
69	0xbd1bc42e	-0.03802889
70	0xbd9f29a0	-0.07771611
71	0x3de7e57c	0.113230675
72	0x3d1d83ee	0.038455896
73	0x3ca85a28	0.020550802
74	0x3daf950c	0.0857335
75	0xbdbcee0a	-0.0922509
76	0xbd3d31e2	-0.04619015
77	0x3cb9a783	0.022662884
78	0x3c31787b	0.010831947
79	0x3baf94d1	0.0053583165
80	0x3c957916	0.018246215
81	0xbd264422	-0.04059232
82	0xbe1afdfd	-0.15135951
83	0xbda90303	-0.082525276
84	0x3b69ddd9	0.003568521
85	0x3bc01fe8	0.0058631785
86	0xbe45d6b4	-0.19320184
87	0xbd5498c3	-0.051903497
88	0xbdb9b7ea	-0.09068282
89	0x3dc512f9	0.09622759
90	0xb961072e	-0.00021460347
91	0xbe42094d	-0.1894886
92	0xbd292c02	-0.041301735
93	0xbdca741a	-0.09885426
94	0x3e27bd1e	0.16380736
95	0x3ca49e72	0.020095084
96	0x3d0db642	0.034597643
97	0x3d75664f	0.059912022
98	0x3dc33c3d	0.09532974
99	0x3e671e3b	0.22570126
100	0xbd953234	-0.07284966
101	0xbde24e2f	-0.110500686
102	0xbd647cbe	-0.055783026
103	0x3cffc103	0.031219965
104	0xbd7ff3ea	-0.062488474
105	0xbe4bef02	-0.19915393
106	0xbd17607a	-0.03695724
107	0x3dca3004	0.098724395
108	0x3d3aa58b	0.04556803
109	0x3bd867e8	0.0066041835
110	0xbe1c52ee	-0.1526601
111	0x3cde569f	0.027140914
112	0x3ded8f41	0.11599589
113	0xbd3f8bde	-0.046764247
114	0xbc1bde06	-0.009513384
115	0xbe169515	-0.14705308
116	0x3dc0eb50	0.09419882
117	0x3d93085d	0.071793295
118	0xbd27f909	-0.041008983
119	0xbe317af1	-0.17332055
120	0xbc593a02	-0.013258459
121	0x3d79e305	0.06100752
122	0x3c3b7050	0.011440352
123	0x3d4e72ca	0.05040244
124	0x3d2d915b	0.04237495
125	0x3dc67979	0.09691138
126	0xbd061527	-0.032735016
127	0x3c873096	0.01650266
128	0x3d223127	0.039597657
129	0xbd2e9adb	-0.04262815
130	0xbd5f98e6	-0.054589175
131	0x3ca31bb0	0.019910663
132	0x3d56a509	0.052403484
133	0x3d25f6bb	0.040518504
134	0xbd952a72	-0.072834864
135	0x3dc0449b	0.093880855
136	0xbd7e560b	-0.062093776
137	0xbdb70601	-0.08936692
138	0x3c3d83e0	0.011567086
139	0xbd0eb580	-0.03484106
140	0x3e5bf97c	0.2148189
141	0x3e06143f	0.13093661
142	0x3dfbea1a	0.12300511
143	0xbb78475f	-0.0037884337
144	0x3c8ceeae	0.017203655
145	0xbe065dbe	-0.13121697
146	0xbe0115a3	-0.1260591
147	0xbd62b758	-0.05535063
148	0xbcf8dee4	-0.03037972
149	0xbcc91e5e	-0.024550613
150	0x3bd163e4	0.0063900817
151	0x3c5afd67	0.01336608
152	0xbe1c21d4	-0.1524728
153	0xbcb9b674	-0.022670008
154	0x3c1c0db3	0.0095247505
155	0x3cc70f8f	0.024299411
156	0xbd37688a	-0.04477743
157	0x3dcfa306	0.10138516
158	0xbd86b9c6	-0.06578402
159	0x3d9cae3f	0.07650422
160	0xbd8ad1e9	-0.067783184
161	0x3ca62e6e	0.020285811
162	0xbc8360ba	-0.016037334
163	0xbddeb942	-0.10875179
164	0xbab910c6	-0.0014119379
165	0x3dc44cfc	0.09584996
166	0xbcaac627	-0.02084644
167	0x3d28a152	0.041169472
168	0xbd5bdfb8	-0.05368015
169	0x3cc96889	0.024585979
170	0xbbcbd90c	-0.0062209424
171	0x3de36329	0.11102898
172	0x3d920205	0.071292914
173	0xbc234322	-0.009964736
174	0xbdbce67b	-0.09223648
175	0xbd4ebe6f	-0.05047458
176	0x3d0a50c4	0.03376843
177	0xbcbbfe53	-0.02294842
178	0xbdd79f3c	-0.105284184
179	0xbcca10c7	-0.024666203
180	0x3dc00591	0.09376062
181	0x3dbeeac6	0.09322123
182	0xbd1dc6f5	-0.03851982
183	0x3d094554	0.033513382
184	0x3d330183	0.043702614
185	0xbdc19f4f	-0.09454214
186	0xbd72174e	-0.059104256
187	0xbd2379bb	-0.039911013
188	0x3da1bd75	0.07897464
189	0x3ddbb18a	0.10727222
190	0x3d1f7bc8	0.038936406
191	0xbdaab573	-0.0833539
192	0xbdd44cee	-0.10366236
193	0x3d10f157	0.03538641
194	0xbc08d59b	-0.008351709
195	0xbc8cfb5e	-0.017209705
196	0xbd9e7e68	-0.07738954
197	0xbc5bae13	-0.013408202
198	0x3da9ff81	0.08300687
199	0x3c232875	0.009958376
200	0xbddd4bae	-0.108054504
201	0x3d80dd04	0.062921554
202	0xbd99949e	-0.074990496
203	0x3d4634ef	0.048390325
204	0x3d89db9f	0.067313425
205	0xbd41958a	-0.047261752
206	0xbc92aaa1	-0.017903628
207	0xbd2dc3b7	-0.042422976
208	0x3a1ea392	0.00060515956
209	0x3d17ac0c	0.03702931
210	0xbd23a528	-0.039952427
211	0x3dbd2080	0.092347145
212	0xbe04340e	-0.12910482
213	0x3d81f045	0.06344656
214	0x3e0c05dd	0.13674112
215	0xbda355b1	-0.07975329
216	0x3d3d7387	0.046252754
217	0x3da0c5a4	0.07850197
218	0x3d04d86e	0.032432966
219	0xbcef7b25	-0.029233525
220	0xbcb15746	-0.02164806
221	0x3cae05b4	0.021242954
222	0x3e0d5722	0.1380277
223	0x3a46a161	0.0007577148
224	0x3da08e8d	0.078396894
225	0xbdc8c90b	-0.09803971
226	0x3e13ffb0	0.14453006
227	0xbda29d48	-0.07940155
228	0xbb20bbaf	-0.002452593
229	0xbcc5f9fd	-0.024167055
230	0x3de034f2	0.109475985
231	0xbcfe978e	-0.031078126
232	0x3df0ddc1	0.11761046
233	0xbd70e5b0	-0.058812797
234	0xbd6e6b38	-0.05820772
235	0xbae14e03	-0.0017189387
236	0x3d22525b	0.03962932
237	0xbde3cc9c	-0.111230105
238	0x3df5ffc5	0.12011675
239	0xbdca9bf1	-0.09893025
240	0xbd2ef54c	-0.042714402
241	0xbd7348f5	-0.05939575
242	0x3c1f1564	0.00970969
243	0x3d30ade5	0.04313459
244	0x3e4999c6	0.19687566
245	0xbdc2e4d9	-0.095163055
246	0xbdc68300	-0.09692955
247	0xbd21e169	-0.03952161
248	0xbd99a9a1	-0.07503057
249	0xbdb840a7	-0.089967065
250	0x3de8e169	0.113711186
251	0xbdbf01b5	-0.093264975
252	0x3ce92b60	0.028463066
253	0xbdf0e8ca	-0.11763151
254	0x3e092535	0.133931
255	0x3d4ee2f4	0.050509408

lstm.weight_hh_l1 f4 [400, 100]
0	0xbd541a07	-0.051782634
1	0x3e09fb6d	0.13474818
2	0xbe433184	-0.19061857
3	0x3dc10316	0.09424417
4	0x3cd9f85a	0.026607681
5	0xbd9b5501	-0.075845726
6	0x3e3b5bbb	0.18296711
7	0x3da49329	0.08035881
8	0x3e0e2cb7	0.13884245
9	0xbe450636	-0.1924065
10	0xbc2e40f4	-0.010635603
11	0x3e40fee6	0.18847236
12	0x3d36bee4	0.04461564
13	0x3ddcc9b8	0.10780662
14	0x3c557c75	0.013030161
15	0xbd92c8f8	-0.07167238
16	0xbd066972	-0.032815404
17	0xbc50755e	-0.012723295
18	0xbc8132d2	-0.015771303
19	0xbdbc3888	-0.0919047
20	0x3dbb7931	0.09153975
21	0x3d8fcb77	0.0702123
22	0x3e0adc5f	0.13560627
23	0x3c260fe4	0.010135625
24	0x3e532fda	0.20623723
25	0x3e850e45	0.2598745
26	0xbdb1e81f	-0.08686852
27	0x3e170d39	0.14751138
28	0xbd8f28d7	-0.069902115
29	0x3e12409b	0.14282458
30	0xbdeb7a5e	-0.11497949
31	0xbd6473ab	-0.055774372
32	0x3dc6f96a	0.09715541
33	0xbd554a8c	-0.052073047
34	0xbe1f0d4b	-0.15532415
35	0x3b8442b4	0.004036272
36	0x3e2f7fce	0.17138597
37	0x3cf75974	0.030194022
38	0x3e3d6fb9	0.1849965
39	0xbd17d8a8	-0.037071854
40	0xbe471cd6	-0.19444594
41	0x3e0a8553	0.13527422
42	0x3d9dd16f	0.07705962
43	0xbcaf72c9	-0.021417039
44	0xbdb21428	-0.08695251
45	0xbdf6829b	-0.1203663
46	0x3cafc1b1	0.021454664
47	0xbbba9a71	-0.0056946804
48	0xbe305c18	-0.17222631
49	0x3e3c4366	0.18385085
50	0xbe67de7e	-0.22643468
51	0xbdf54ed5	-0.11977927
52	0x3d8f5bc5	0.069999255
53	0xbe3d0568	-0.18459094
54	0xbda72b6b	-0.08162578
55	0x3c9a6aff	0.018849848
56	0xbe028b05	-0.12748344
57	0xbdf534aa	-0.119729355
58	0x3e3082a1	0.17237331
59	0xbdb5b020	-0.08871484
60	0xbcfe8fae	-0.031074371
61	0x3d34d4b5	0.044148166
62	0xbdc49540	-0.0959878
63	0xbde50cc8	-0.111840785
64	0x3d2792ac	0.04091136
65	0x3cd4b698	0.025965974
66	0x3b8db794	0.0043248627
67	0x3e21efae	0.15814087
68	0x3d3ae09f	0.04562437
69	0x3bb6453b	0.005562452
70	0x3cab3ef2	0.020904038
71	0x3e19f1bc	0.1503362
72	0xbd833dad	-0.06408248
73	0xbc6ebb02	-0.014570953
74	0x3e329aaf	0.1744182
75	0xbd36f9fa	-0.04467199
76	0xbc6a636d	-0.0143059315
77	0x3d164767	0.03668919
78	0x3e0f151f	0.13972901
79	0x3ddf12b8	0.10892242
80	0x3e11f802	0.14254764
81	0xbc94a9bd	-0.018147344
82	0x3e2321f7	0.15930925
83	0x3d243257	0.04008707
84	0x3cc9feec	0.024657689
85	0xbd53ae97	-0.051680174
86	0xbd5fe2f9	-0.054659817
87	0xbdf036d5	-0.117292084
88	0xbc9108b3	-0.017704343
89	0x3da63f15	0.08117501
90	0x3b64022c	0.0034791334
91	0xbd8c5b03	-0.068532966
92	0x3ce4dfe4	0.02793879
93	0xbc26d8e5	-0.010183548
94	0x3d31a012	0.043365546
95	0xbe170efc	-0.1475181
96	0xbd70dc4d	-0.058803845
97	0xbd49af10	-0.04923922
98	0xbdb50a05	-0.08839802
99	0x3e215bf7	0.15757738
100	0x3d7f99b1	0.06240243
101	0x3e020664	0.1269775
102	0x3c9dc167	0.01925726
103	0xba6644fd	-0.0008784084
104	0x3d28ec90	0.04124123
105	0xbc9de719	-0.019275235
106	0x3d57b52c	0.052663013
107	0x3d77a617	0.06046113
108	0xbdec9b50	-0.11553061
109	0xbe329e0d	-0.17443104
110	0x3e6e6c63	0.23283534
111	0x3cae0651	0.021243246
112	0x3b9c6894	0.004773209
113	0x3dc4f102	0.09616281
114	0xbdbb78ee	-0.09153925
115	0xbd72d0a9	-0.059281025
116	0xbe26789b	-0.16256945
117	0xbd26dc3a	-0.04073737
118	0xbdd84264	-0.10559538
119	0xbd35c686	-0.04437878
120	0x3d5913b6	0.052997313
121	0x3cc98cbb	0.024603238
122	0x3cde8306	0.027162086
123	0xbb3c2a56	-0.0028711758
124	0x3c24ca00	0.010057926
125	0x3e183664	0.14864498
126	0x3d181969	0.037133608
127	0xbd282336	-0.041049205
128	0x3e14d756	0.14535269
129	0x3dd787ee	0.105239734
130	0xbdcd2f5e	-0.100188
131	0x3d2a8ae3	0.04163636
132	0xbd81d32e	-0.063391075
133	0xbc559418	-0.013035797
134	0xbdf7614a	-0.12079103
135	0x3d99fb1d	0.07518599
136	0x3d84c619	0.06483097
137	0xbc9ab2dd	-0.018884117
138	0x3e3cc42f	0.18434213
139	0x3bced113	0.0063115447
140	0xbe41f730	-0.18941951
141	0xbe0745ed	-0.13210268
142	0xbdae527d	-0.08511827
143	0xbbfc7012	-0.0077037895
144	0xbe4744d0	-0.19459844
145	0xbd4c3a33	-0.04986019
146	0xbdf02aed	-0.117269374
147	0xbc401054	-0.011722643
148	0x3ded306a	0.115815
149	0xbd5a4f3e	-0.053298227
150	0xbced9f3c	-0.029006593
151	0xbd91628c	-0.070988744
152	0x3e2a588c	0.1663534
153	0x3d55a5f6	0.052160226
154	0xbdac041d	-0.08399222
155	0xbd4739b8	-0.04863903
156	0xbd9c68a4	-0.07637146
157	0xbcb6c9a6	-0.02231295
158	0xbc8732e1	-0.016503753
159	0x3db031ea	0.0860327
160	0xbd220f49	-0.03956536
161	0x3d946e29	0.07247574
162	0xba17fd97	-0.00057979807
163	0x3d79273b	0.06082843
164	0xbe1cef47	-0.15325652
165	0xbdc2629e	-0.09491466
166	0xbdd869a2	-0.10567023
167	0x3d4c59da	0.049890377
168	0xbd0e7755	-0.034781773
169	0x3d611495	0.05495127
170	0x3d2768f5	0.04087158
171	0x3cb28bb8	0.021795139
172	0x3d8a60fc	0.067567796
173	0x3da42bae	0.08016144
174	0x3db7c18f	0.08972465
175	0xbb1b5b8e	-0.0023705694
176	0xbc6104dc	-0.013734069
177	0x3d1cb6b5	0.03826018
178	0x3bafb97a	0.0053626867
179	0x3d494921	0.049142007
180	0x3d3cb924	0.046075
181	0xbd11dedd	-0.03561293
182	0x3e251323	0.16120581
183	0x3bb5e5a9	0.0055510593
184	0xbe2bbdea	-0.16771665
185	0x3c851300	0.016244411
186	0xbd905a9a	-0.07048531
187	0xbd0e5a60	-0.034754157
188	0xbc0218ee	-0.007940514
189	0xbce60a14	-0.028080977
190	0xbdb0e4a9	-0.086373635
191	0xbe20c31a	-0.15699425
192	0x3d5b291b	0.053505998
193	0xbd814f14	-0.06313911
194	0xbd0c239b	-0.034213644
195	0xbd237157	-0.03990301
196	0xbdd57605	-0.10422901
197	0xbde62f95	-0.11239544
198	0xbce55d7c	-0.027998678
199	0x3d418e46	0.047254823
200	0x3d37eb16	0.04490193
201	0xbd1379d6	-0.036004864
202	0x3d97856e	0.073984966
203	0x3d1e271b	0.038611513
204	0x3dcfc516	0.10145013
205	0x3d0a1a2e	0.033716373
206	0xbd738679	-0.059454415
207	0xbd7f656e	-0.06235259
208	0x3cb6b921	0.022305073
209	0xbdc899ca	-0.09794958
210	0x3db3a78b	0.08772191
211	0x3cb4d0a5	0.022072146
212	0x3c86d742	0.016460065
213	0xbd0d3849	-0.034477506
214	0xbdbd1d6e	-0.09234129
215	0xbe227652	-0.15865448
216	0x3dc45127	0.09585791
217	0x3c87c887	0.016575111
218	0x3dc1618c	0.09442434
219	0x3b7bbff4	0.0038413974
220	0xbd9f21ca	-0.077701166
221	0xbc98495d	-0.01858967
222	0xbda7430c	-0.08167085
223	0xbd326f21	-0.043563012
224	0x3ceae5de	0.028674062
225	0x3b10bc05	0.0022084725
226	0xbb91e85d	-0.0044527487
227	0x3c588978	0.013216369
228	0x3c77dd3b	0.015128429
229	0x3e1c6a7a	0.15274993
230	0xbd5ac593	-0.053411078
231	0xbdc3e470	-0.09565055
232	0xbdd553ac	-0.1041635
233	0x3c8d8e67	0.017279817
234	0xbd8749e6	-0.06605892
235	0x3d750d53	0.05982716
236	0xbdcc5ace	-0.09978257
237	0x3ded60a8	0.11590701
238	0x3de241ed	0.110477306
239	0x3cd3895d	0.025822336
240	0xbe1326c6	-0.1437026
241	0xbe057372	-0.1303232
242	0xbc5ec350	-0.013596371
243	0x3cb07276	0.021538954
244	0x3b001515	0.0019543816
245	0xbdb9afd4	-0.0906674
246	0x3e35389a	0.17697373
247	0x374ee1c0	1.2331118e-05
248	0xbe0904e1	-0.13380767
249	0x38b6b49a	8.712076e-05
250	0x3d6db219	0.058031175
251	0xbdcf452a	-0.10120614
252	0x3cfff6a8	0.031245545
253	0xbdc527b0	-0.096267104
254	0x3cccf081	0.025017025
255	0x3c53d536	0.012929251

lstm.bias_ih_l1 f4 [400]
0	0xbd8fc2c5	-0.07019571
1	0xbd89a733	-0.06721344
2	0xbd59c26f	-0.053163942
3	0xbdcdedfa	-0.10055156
4	0xbe0ad344	-0.13557154
5	0x3d9b5452	0.07584442
6	0x3d8c76ee	0.068586215
7	0x3af634c5	0.0018784037
8	0xbd2d51f9	-0.042314503
9	0x3b7c248b	0.003847393
10	0xbe2e6cf3	-0.17033748
11	0xbdbcd440	-0.09220171
12	0xbd4d3c1d	-0.050106157
13	0xbca57bab	-0.020200571
14	0xbc784055	-0.015152057
15	0xbe157eb8	-0.1459912
16	0xbe09f51c	-0.13472408
17	0xbd0815e4	-0.033224
18	0xbe2a4471	-0.16627671
19	0x3c8cc334	0.017182924
20	0xbe0cb04d	-0.13739128
21	0x3c91716f	0.017754285
22	0xbd933d95	-0.0718948
23	0x3d856fc8	0.06515461
24	0xbe10a9f8	-0.14127338
25	0xbdc319e1	-0.095264204
26	0x3c8e3b0f	0.017362146
27	0xbe480b93	-0.19535665
28	0xbdfb70f6	-0.12277405
29	0xbcaad94e	-0.020855572
30	0xbe56b65f	-0.20968007
31	0xbda828fe	-0.08210944
32	0xbd09f58c	-0.033681437
33	0xbd82c9b9	-0.06386132
34	0xbc75dd8d	-0.015006435
35	0xbd5cc5af	-0.053899463
36	0xbd290381	-0.041263107
37	0xbc2c0628	-0.010499515
38	0xbb844fda	-0.0040378394
39	0x3d1e7eec	0.03869526
40	0xbd34980f	-0.044090327
41	0xbe1e9796	-0.15487513
42	0xbddd6fb8	-0.10812324
43	0xbe08907b	-0.13336365
44	0xbd9d70d6	-0.07687537
45	0xbd02e343	-0.031955015
46	0xbe332d04	-0.17497641
47	0xbcac6875	-0.021045903
48	0xbc22e4da	-0.009942258
49	0xbdb72b1a	-0.08943768
50	0xbb1f752e	-0.002433132
51	0xbd8ab66b	-0.06773075
52	0xbd2c4458	-0.042057365
53	0xbd5ef71a	-0.054434873
54	0xbe13554e	-0.1438801
55	0xbe04eafb	-0.12980263
56	0xbda3c172	-0.07995881
57	0xbd855cfb	-0.06511875
58	0xbb24b093	-0.002512966
59	0xbc34f813	-0.011045474
60	0xbe16b17e	-0.14716145
61	0xbbdf2190	-0.006809421
62	0xbc71c3fe	-0.014756201
63	0xbce3b39d	-0.027795607
64	0xbe47272b	-0.19448535
65	0x3ce0068e	0.027346876
66	0xbbfce538	-0.0077177547
67	0xbc817deb	-0.015807113
68	0xbd9e73b3	-0.077369116
69	0xbd040856	-0.032234512
70	0xbe369920	-0.1783185
71	0xbdd0c63c	-0.1019406
72	0xbdf7fca5	-0.12108735
73	0x3c966462	0.018358413
74	0x3ddb2817	0.10701006
75	0xbd3f1ebb	-0.046660166
76	0xbe304637	-0.17214285
77	0xbe11bc27	-0.1423193
78	0xbe1d9266	-0.15387878
79	0xbd741d1e	-0.05959808
80	0xbab72250	-0.0013972018
81	0xbda99cfe	-0.08281897
82	0x3dd4377e	0.10362147
83	0xbd9486e2	-0.07252289
84	0xbd6ce1b9	-0.057832453
85	0xbe4d1b5b	-0.20029967
86	0x3c9112d1	0.017709168
87	0xbdff0d79	-0.124537416
88	0xbbd66abe	-0.0065434864
89	0x3b16441b	0.0022928778
90	0xbc50bf10	-0.012740865
91	0x3d8da569	0.06916315
92	0x3cac4951	0.021031054
93	0xbe536b9e	-0.20646521
94	0xbe6c3116	-0.230656
95	0xbd0a2718	-0.03372869
96	0x3c1b39ea	0.009474257
97	0xbd1ef7c9	-0.038810525
98	0xbdf949be	-0.12172268
99	0xbe29c2f4	-0.16578275
100	0x3cb6666e	0.02226564
101	0xbd0cb105	-0.034348506
102	0xbdcf4d4c	-0.10122165
103	0x3c9f0a34	0.019414045
104	0xbd1d5d50	-0.038419068
105	0xbc809b89	-0.015699165
106	0x3d5c9d47	0.05386093
107	0xbd3b554f	-0.045735653
108	0xbceb1707	-0.028697504
109	0xbdd84aa2	-0.1056111
110	0xbd8f7ae6	-0.07005863
111	0xbe229b9d	-0.15879674
112	0xbb2d3822	-0.0026431163
113	0x3e5c2665	0.21499021
114	0xbc19840f	-0.009369864
115	0x3d34cdd1	0.044141594
116	0xbc73731f	-0.01485899
117	0x3da5737b	0.08078667
118	0x3e0533bd	0.13008018
119	0xbdfcb86c	-0.12339863
120	0x3d578be3	0.05262364
121	0xbd4e5fed	-0.05038445
122	0xbd8c5ab8	-0.06853241
123	0xbcef086e	-0.029178824
124	0xbdae47d9	-0.085097976
125	0xbd9dd434	-0.0770649
126	0xbde04075	-0.10949794
127	0xbdd8ed68	-0.10592157
128	0x3e097407	0.13423167
129	0x3e59646a	0.21229711
130	0xbe0a7b7a	-0.13523665
131	0x3e11982f	0.1421821
132	0xbd4e19fe	-0.050317757
133	0xbdcb42d5	-0.099248566
134	0xbc145597	-0.009053609
135	0xbd1bf104	-0.038071647
136	0x3bfcb3c1	0.007711858
137	0xbe077697	-0.13228832
138	0xbd902284	-0.07037833
139	0xbcf33443	-0.029688006
140	0xbe206882	-0.15664867
141	0xbdf59fc6	-0.11993365
142	0xbd12e1ed	-0.03585999
143	0xbe1a3b98	-0.15061796
144	0xbd746ee3	-0.059676062
145	0x3dc9cbed	0.09853349
146	0xbdaac18b	-0.08337697
147	0xbe2e6f6a	-0.17034689
148	0xbdb5c867	-0.08876114
149	0xbd67d872	-0.056602903
150	0x3bcc5707	0.0062359604
151	0x3c55524c	0.013020109
152	0xbd12a27e	-0.035799496
153	0x3d8fe74f	0.070265405
154	0xbd7a4c2d	-0.061107803
155	0xbe1bdc97	-0.15220867
156	0xbe1ac9ae	-0.15115997
157	0xbdea2038	-0.114319265
158	0xbe20630a	-0.1566278
159	0xbd30b2be	-0.04313921
160	0x3e1552f3	0.14582424
161	0xbbaa280d	-0.0051927627
162	0x3cb49239	0.02204238
163	0xbceedea9	-0.029158907
164	0xbe01265c	-0.12612289
165	0xbcc66aed	-0.024220908
166	0xbd7c001b	-0.061523538
167	0x3d206d7a	0.039166905
168	0xbd2f1046	-0.04274013
169	0x3d6aabbf	0.057292696
170	0x3d8d68c7	0.0690475
171	0xbd446d9d	-0.047956098
172	0xbd44b249	-0.04802159
173	0x3d9eab58	0.07747525
174	0x3d6fe0fa	0.058564164
175	0xbd898969	-0.06715662
176	0xbe3e9fa0	-0.1861558
177	0xbd90a9c3	-0.070636295
178	0xbe167a84	-0.14695174
179	0xbd3e15a3	-0.046407353
180	0x3d8dbf02	0.069211975
181	0x3c89a97a	0.016804446
182	0x3d0e882a	0.034797825
183	0xbd8e1892	-0.0693828
184	0x3c526665	0.012841796
185	0xbdbe76c6	-0.09299998
186	0x3df42d1b	0.11922666
187	0x3d305b2d	0.043055702
188	0xbe0b18ae	-0.13583633
189	0x3e0f7c01	0.14012147
190	0xbcf9610d	-0.030441785
191	0xbc2baf9b	-0.010478879
192	0x3ccfcf15	0.0253673
193	0x3d1fa328	0.038973957
194	0xbe20c94d	-0.1570179
195	0xbc997c83	-0.01873613
196	0xbd7944e5	-0.06085672
197	0x3d0169cf	0.031595048
198	0xbdc6b273	-0.09702005
199	0x3d55d489	0.052204642
200	0xbd5ecf0a	-0.054396667
201	0x3d0625c8	0.032750875
202	0x3c5a81eb	0.013336639
203	0x3d64b61e	0.055837743
204	0x3c493d5f	0.012282698
205	0xbd2cbef1	-0.042174283
206	0x3dbd950b	0.09256943
207	0x3d2dab97	0.04239997
208	0xbdf59e5c	-0.11993095
209	0xbd0df543	-0.034657728
210	0x3df3318c	0.11874685
211	0xbd678887	-0.056526687
212	0x3d053a3e	0.032526247
213	0x3db52c98	0.08846396
214	0x3c097550	0.008389786
215	0x3da4881f	0.080337755
216	0xbbfed7cf	-0.0077771912
217	0xbc5f1277	-0.013615242
218	0x3d923629	0.071392365
219	0xbc63ccfe	-0.013903854
220	0xbce92f82	-0.028465036
221	0x3cc0306c	0.02346059
222	0x3d7c84ed	0.061650205
223	0x3dbf8249	0.09351022
224	0xbc2f238b	-0.010689626
225	0x3d527d02	0.051388748
226	0x3d16f774	0.036857083
227	0xbd682f5b	-0.056685787
228	0xbd66f6a2	-0.05638755
229	0xbb392b4c	-0.0028254567
230	0xbd42328d	-0.04741149
231	0xbd922e33	-0.07137718
232	0x3cf4c687	0.029879821
233	0xbc16cc89	-0.009204038
234	0xbc472ad7	-0.01215621
235	0x3d7bdf86	0.061492465
236	0xbc8bbd18	-0.01705794
237	0x3e10cf10	0.14141488
238	0xbba3dc68	-0.0050006397
239	0x3da53ba4	0.08068016
240	0xbcfb961f	-0.030711232
241	0x3d0627d4	0.032752827
242	0xbb9bd760	-0.0047558993
243	0x3e02888a	0.12747398
244	0xbcf5fc60	-0.030027568
245	0xbd889678	-0.06669325
246	0xbc794eb7	-0.015216521
247	0xbdec80d5	-0.1154801
248	0x3db5e58d	0.08881674
249	0xbd909792	-0.0706016
250	0x3d4047d4	0.0469435
251	0xbd18700a	-0.037216224
252	0x3d8e398b	0.06944569
253	0x3c5dd4c5	0.013539498
254	0xbd2d0ba6	-0.042247437
255	0xbd0ff3da	-0.035144664
