results/gru/gru_hidden_100_layers_1_bidirectional_False_length_50_batch_64_lr_0.001.pth (torch, 186888 bytes, 6 tensors)

gru.weight_ih_l0 f4 [300, 50]
-0.11168279 -0.042670824 0.030914707 0.134601 0.076188415 0.058929533 -0.022719935 -0.08947057
0.03344238 0.18269151 -0.024706382 0.027847376 0.06845713 0.020818569 -0.03231222 -0.25896424
-0.08293111 0.08156396 0.1296371 0.07951644 -0.043858882 -0.10806027 0.01566879 0.052513666
-0.10941025 0.10842588 -0.09708535 0.10762074 0.045799866 -0.13728686 -0.015510685 0.08797579
0.09492256 0.07996083 0.054902177 -0.10665739 -0.00979592 0.13850302 0.0067783166 -0.047379907
-0.00031692174 0.1176191 0.028102899 0.14039649 -0.081865475 -0.06458199 0.11869758 -0.059182398
0.013322664 0.09768745 0.030395059 0.1971151 0.11524063 -0.08796313 -0.12979864 -0.093341626
0.06677299 -0.010278995 0.10369372 0.1126318 0.007895835 0.0072056656 0.0069170613 0.027482053
0.10827404 -0.09689205 -0.0066817654 0.048481613 -0.024461757 0.065072455 0.075889915 -0.011165243
0.06320325 0.0015174738 -0.07786789 0.008864138 0.16514966 0.0061091664 0.064682186 -0.15259092
0.13270041 0.036227398 -0.08845614 -0.059912093 -0.013089492 -0.057715494 -0.029206883 0.2100482
-0.16945557 -0.00064469257 -0.054847784 0.0752358 -0.14945778 0.15441394 0.027698161 -0.014458345
0.009656418 0.036403876 0.0057812305 0.024576692 -0.079580985 -0.10464424 -0.019583756 0.1534991
0.01979306 0.08617363 0.015733445 -0.14230923 -0.031079995 0.032456983 0.009428518 -0.08348348
0.11119426 -0.055420905 -0.040315676 -0.035759106 -0.10607865 -0.00920224 0.045797892 0.052568257
-0.062625855 -0.10104322 -0.08036696 -0.005096256 0.054596417 0.005602399 -0.036627814 -0.025149979
-0.03871675 -0.035253447 0.04536303 -0.12465757 0.05431847 -0.08575612 -0.013020747 -0.07663953
-0.15672375 0.06964492 -0.06021425 0.118812315 -0.016603759 0.061747678 -0.08253692 0.003236785
0.034486998 0.018336186 0.08610981 0.0056531653 -0.049222466 0.009071342 -0.08594682 -0.1286618
0.07776563 0.03167305 0.01602174 0.1322986 -0.11821425 -0.092225015 0.04056652 -0.012979862
0.138504 -0.035726476 -0.021426545 0.038197443 0.09792853 -0.03979972 -0.104814656 0.021206459
0.028575625 0.03941609 -0.06741485 0.03853529 -0.0399887 -0.057848122 0.11162935 -0.083085716
-0.13105847 -0.030579079 0.056252144 0.027984807 0.03942501 0.007893953 -0.104740806 0.00070282683
-0.1349632 -0.12218288 -0.07964564 0.17687452 -0.071071416 0.05001427 -0.119054295 -0.0531383
-0.18005562 -0.031813703 -0.038874146 -0.056065314 -0.06413133 -0.03364836 0.059545215 0.12381986
0.06681974 0.045534752 0.10376971 -0.05690389 -0.16480583 0.16477388 -0.085939504 -0.021617124
0.12407764 0.14940292 -0.02897895 0.013795303 0.045287997 0.06336844 0.019303633 -0.09861988
-0.13012286 0.023583706 -0.034789212 0.026695445 -0.045664627 -0.06326703 -0.1349821 0.044908654
-0.07513035 -0.06275723 -0.046402562 0.00029797177 0.04968084 -0.042276513 0.05060815 -0.035587125
0.0016184666 0.012084163 0.07253568 0.045016047 -0.018808747 0.09271219 -0.072334036 0.0043760794
-0.051133964 0.075807385 -0.084404215 -0.019538285 -0.10444557 0.07482717 -0.118910395 -0.02416668
-0.0054448536 0.034843516 -0.07623655 0.121427014 -0.06369585 0.082071185 -0.023834495 0.10517753
00000000: f2b9 e4bd 9ac7 2ebd d740 fd3c d8d4 093e
00000010: ac08 9c3d 1860 713d 281f babc 593c b7bd
00000020: e1fa 083d 7c13 3b3e 0a65 cabc 2e20 e43c
00000030: 4033 8c3d b48b aa3c d259 04bd f696 84be
00000040: c9d7 a9bd 010b a73d 97bf 043e 84d9 a23d
00000050: 5fa5 33bd b44e ddbd d65b 803c 9218 573d
00000060: 7b12 e0bd 630e de3d afd4 c6bd 4368 dc3d
00000070: a498 3b3d ed94 0cbe 8720 7ebc a72c b43d
00000080: c266 c23d 81c2 a33d 1be1 603d 316f dabd
00000090: 117f 20bc bcd3 0d3e a41c de3b 6f11 42bd
000000a0: 8428 a6b9 48e2 f03d 0d38 e63c 19c4 0f3e
000000b0: 16a9 a7bd 9043 84bd b817 f33d 3e69 72bd
000000c0: 4e47 5a3c 5c10 c83d 0fff f83c 8ad8 493e
000000d0: 4803 ec3d 0326 b4bd efe9 04be e529 bfbd
000000e0: 47c0 883d 3b69 28bc 605d d43d 80ab e63d
000000f0: 885d 013c 811d ec3b 84a8 e23b 0b22 e13c
00000100: c8be dd3d 576f c6bd b6f2 dabb a894 463d
00000110: 0664 c8bc b544 853d 2c6c 9b3d 6cee 36bc
00000120: b570 813d f9e5 c63a 3379 9fbd e43a 113c
00000130: fe1c 293e 672f c83b 1878 843d cb40 1cbe
00000140: 9ee2 073e 2e63 143d 7e28 b5bd 6266 75bd
00000150: 4f75 56bc 1567 6cbd 4643 efbc e016 573e
00000160: c385 2dbe 9600 29ba 12a8 60bd 3a15 9a3d
00000170: 760b 19be b01e 1e3e 41e7 e23c b2e2 6cbc
00000180: f435 1e3c 3b1c 153d 7a70 bd3b 0f55 c93c
00000190: 5bfb a2bd b84f d6bd 1d6e a0bc de2e 1d3e
000001a0: 0e25 a23c cd7b b03d 6de3 803c 83b9 11be
000001b0: 799b febc 9df1 043d 127a 1a3c 63f9 aabd
000001c0: d1b9 e33d 0801 63bd 0d22 25bd 2478 12bd
000001d0: c33f d9bd fec4 16bc 9296 3b3d d051 573d
000001e0: fc41 80bd bfef cebd 6f97 a4bd 7efe a6bb
000001f0: 7ea0 5f3d 5494 b73b 0c07 16bd 5407 cebc
00000200: 7495 1ebd eb65 10bd 96ce 393d 784c ffbd
00000210: 0b7d 5e3d e8a0 afbd f954 55bc 30f5 9cbd
00000220: 317c 20be ffa1 8e3d 38a3 76bd df53 f33d
00000230: 9b04 88bc 22eb 7c3d 1e09 a9bd 3e20 543b
00000240: 3d42 0d3d c535 963c 575a b03d 303e b93b
00000250: 7f9d 49bd f79f 143c e304 b0bd ebbf 03be
00000260: 9643 9f3d 9abb 013d 0640 833c 4979 073e
00000270: 501a f2bd 78e0 bcbd 1429 263d 7da9 54bc
00000280: fed3 0d3e ed55 12bd b986 afbc ec74 1c3d
00000290: c18e c83d 0805 23bd 11a9 d6bd 2bb9 ad3c
000002a0: 6e17 ea3c c472 213d cc10 8abd 2ed7 1d3d
000002b0: 31cb 23bd 27f2 6cbd ee9d e43d d828 aabd
000002c0: 3134 06be fa80 fabc a668 663d 6540 e53c
000002d0: 1f7c 213d a355 013c 5982 d6bd e93d 383a
000002e0: cb33 0abe 053b fabd 411d a3bd 981e 353e
000002f0: e48d 91bd c3db 4c3d bdd2 f3bd 8ca7 59bd
00000300: 8060 38be 164f 02bd 7f3a 1fbd bea4 65bd
00000310: 4957 83bd ddd2 09bd afe5 733d 4495 fd3d
00000320: cad8 883d a682 3a3d 3785 d43d 0e14 69bd
00000330: dcc2 28be 7cba 283e 0d01 b0bd 6516 b1bc
00000340: 6b1c fe3d 14fd 183e 4365 edbc b205 623c
00000350: e87f 393d 50c7 813d a722 9e3c 38f9 c9bd
00000360: ed3e 05be 9e32 c13c 227f 0ebd 68b0 da3c
00000370: d50a 3bbd 2592 81bd bf38 0abe 23f2 373d
00000380: f1dd 99bd dd86 80bd 9d10 3ebd 1839 9c39
00000390: 237e 4b3d 232a 2dbd 7e4a 4f3d cec3 11bd
000003a0: ba22 d43a a7fc 453c 968d 943d bf62 383d
000003b0: cd14 9abc e3df bd3d de23 94bd 3765 8f3b
000003c0: d971 51bd e740 9b3d 1edc acbd c10e a0bc
000003d0: 8fe7 d5bd fd3e 993d 4b87 f3bd 34f9 c5bc
000003e0: be6a b2bb 13b8 0e3d e921 9cbd baae f83d
000003f0: f872 82bd f014 a83d 8f40 c3bc 5167 d73d

gru.weight_hh_l0 f4 [300, 100]
-0.008192115 -0.03496303 0.046986435 -0.030463254 0.04232636 0.010367365 -0.07038918 0.09777921
-0.045112297 -0.11814464 0.07768202 0.044268213 -0.008705499 -0.09209698 0.018338194 0.06365119
0.032718573 -0.20809858 0.074168555 0.08288614 0.040564127 -0.124099806 0.060240626 0.071726896
0.09005737 0.023163967 0.04093165 -0.053046424 0.058572207 0.07213451 -0.03599312 0.039766345
0.03862936 -0.009924111 -0.047979258 0.11591811 0.06597753 -0.07904712 -0.053998753 0.07021931
-0.066472225 0.06478188 0.040838476 -0.007067326 0.11060925 -0.033551052 0.07064926 -0.010168136
-0.0771026 -0.102735035 -0.0897383 -0.049297437 -0.07223631 -0.08246792 -0.030214315 -0.108938865
-0.00904637 -0.11658465 -0.11182505 0.05472522 -0.042441335 0.08579168 -0.06136778 -0.06586497
-0.06201265 -0.017475467 0.0188338 -0.08455971 0.11084002 0.12463238 0.11275978 0.12552826
-0.034463983 0.09131865 -0.08360383 0.02716633 0.047198612 -0.006083147 -0.018400244 0.02227188
-0.22462857 0.029433157 -0.08080171 -0.0029343425 0.07628636 0.11923996 -0.07486861 -0.08233641
-0.054995373 -0.06726964 0.095110945 -0.0021750615 -0.062039062 0.017900767 0.14351574 0.077190064
0.014708039 0.067032754 -0.03931127 0.10422205 0.08104046 0.11323716 0.082829595 -0.12945136
0.030045029 0.041480325 0.010879471 0.02995388 0.0722744 0.09351718 -0.07177685 -0.015243704
-0.012147278 0.09463593 0.028026769 -0.027896417 -0.07282841 0.046464592 0.021327363 0.029828342
-0.025831409 -0.060448337 -0.14236027 0.033145495 -0.029624937 -0.047572926 -0.11077218 0.10441555
-0.027298778 0.018885028 -0.03553447 -0.06438932 -0.10170371 -0.026820246 -0.0381673 -0.0051881485
0.0028865612 0.026512524 0.087661676 0.06869063 -0.023124037 0.07820937 -0.011182707 -0.07752161
-0.07734359 -0.006957011 -0.031578932 -0.04922835 -0.018389435 -0.027512342 -0.07574044 -0.06344064
-0.019768028 0.035832603 0.12173024 -0.01696045 0.013990706 -0.023101341 -0.054558292 0.0053503006
-0.06829692 0.070126705 0.056811415 -0.009992902 0.11681543 -0.13729209 0.017444879 0.06910679
-0.020146282 -0.084403604 0.05190233 -0.057241812 0.016865171 0.06160033 0.11525229 -0.03457729
0.08113555 0.092691265 0.09495107 -0.051366225 0.12313202 0.0053366236 -0.065803714 0.08286212
0.0067228065 0.016093658 0.0104141245 0.026655415 0.05863315 0.0474743 -0.058015056 0.020294262
-0.16046254 0.013458059 -0.037176996 -0.042345382 -0.06234844 -0.05141987 0.11004262 -0.03248408
0.051714655 0.020635167 0.030844891 0.06979097 -0.10600232 0.03051681 -0.041545562 0.018303148
-0.016485916 -0.054509882 0.024910301 0.08346246 -0.009471096 0.11682475 0.11756273 0.11142618
0.058662284 -0.1304047 0.0069641834 -0.0046711466 -0.01389395 -0.016455151 0.08779798 0.050313976
0.032345437 -0.005989317 -0.031460132 0.04337654 -0.07441189 0.020971192 0.011436932 -0.032081015
0.056265138 0.0030614992 -0.017462833 0.064727284 0.03001183 -0.11379688 0.0138105815 -0.12721933
-0.019461693 0.043424338 -0.10714725 0.004852525 -0.08058036 -0.06283678 -0.04968478 0.07299408
-0.11491055 0.01984583 -0.04947037 0.02695669 0.089890145 -0.013005217 0.08612796 -0.06616067
00000000: 3938 06bc 6535 0fbd d974 403d 138e f9bc
00000010: 685e 2d3d e1db 293c 3428 90bd 7740 c83d
00000020: acc7 38bd d1f5 f1bd c017 9f3d 9652 353d
00000030: 82a1 0ebc 579d bcbd fb39 963c 8e5b 823d
00000040: e903 063d cb17 55be afe5 973d 35c0 a93d
00000050: 9226 263d 0a28 febd e0be 763d 8de5 923d
00000060: 0070 b83d 5cc2 bd3c f2a7 273d 3547 59bd
00000070: 69e9 6f3d 42bb 933d 866d 13bd 09e2 223d
00000080: d239 1e3d bd98 22bc e685 44bd 7966 ed3d
00000090: 3a1f 873d 75e3 a1bd cc2d 5dbd 24cf 8f3d
000000a0: 9722 88bd 5dac 843d 3f46 273d 0795 e7bb
000000b0: 1a87 e23d d46c 09bd 8fb0 903d 4198 26bc
000000c0: f8e7 9dbd bf66 d2bd b7c8 b7bd 1cec 49bd
000000d0: a1f0 93bd f1e4 a8bd 0384 f7bc 571b dfbd
000000e0: 3a37 14bc efc3 eebd 8804 e5bd 8d27 603d
000000f0: f7d6 2dbd 8cb3 af3d c85c 7bbd 37e4 86bd
00000100: fa00 7ebd b628 8fbc 5749 9a3c a42d adbd
00000110: 1800 e33d 433f ff3d 99ee e63d 7b8a 003e
00000120: 1b2a 0dbd 4605 bb3d 7c38 abbd ec8b de3c
00000130: 5553 413d 2355 c7bb 1cbc 96bc 8573 b63c
00000140: 0805 66be ce1d f13c 5e7b a5bd 194e 40bb
00000150: 063c 9c3d 1534 f43d b754 99bd fe9f a8bd
00000160: d442 61bd aac4 89bd 87c9 c23d 7a8b 0ebb
00000170: ac1c 7ebd a1a4 923c caf5 123e d315 9e3d
00000180: fdf9 703c 7848 893d db04 21bd 5f72 d53d
00000190: 8af8 a53d e2e8 e73d 90a2 a93d e68e 04be
000001a0: fe20 f63c 46e7 293d cf3f 323c d761 f53c
000001b0: 9a04 943d ef85 bf3d beff 92bd bbc0 79bc
000001c0: 6005 47bc 7cd0 c13d 6598 e53c 0787 e4bc
000001d0: 1027 95bd a851 3e3d b9b6 ae3c 915a f43c
000001e0: 649c d3bc ad98 77bd e4c6 11be 92c3 073d
000001f0: ffaf f2bc d4db 42bd 86dc e2bd d2d7 d53d
00000200: b0a1 dfbc c6b4 9a3c 988c 11bd 8cde 83bd
00000210: 094a d0bd 22b6 dbbc 5155 1cbd 5801 aabb
00000220: 762c 3d3b cb30 d93c f787 b33d acad 8c3d
00000230: 9f6e bdbc 3c2c a03d ac37 37bc a6c3 9ebd
00000240: 5166 9ebd a3f7 e3bb e958 01bd aba3 49bd
00000250: 71a5 96bc 9061 e1bc ce1d 9bbd 2bed 81bd
00000260: 8ff0 a1bc 35c5 123d b44d f93d a4f0 8abc
00000270: 4639 653c 063f bdbc 8478 5fbd 9351 af3b
00000280: 41df 8bbd 979e 8f3d 16b3 683d 45b9 23bc
00000290: ee3c ef3d 4c96 0cbe 90e8 8e3c dc87 8d3d
000002a0: d109 a5bc ccdb acbd 8a97 543d 6476 6abd
000002b0: d428 8a3c a150 7c3d 6509 ec3d eba0 0dbd
000002c0: 652a a63d ebd4 bd3d b575 c23d 6465 52bd
000002d0: a42c fc3d d8de ae3b 19c4 86bd 9db3 a93d
000002e0: fd4a dc3b d9d6 833c 01a0 2a3c 755c da3c
000002f0: 5029 703d 6974 423d 32a1 6dbd 2740 a63c
00000300: 4b50 24be 317f 5c3c e846 18bd 5a72 2dbd
00000310: 1461 7fbd a49d 52bd 065e e13d 070e 05bd
00000320: bfd2 533d 150b a93c 6dae fc3c 91ee 8e3d
00000330: bf17 d9bd 64fe f93c ae2b 2abd 7cf0 953c
00000340: 790d 87bc c145 5fbd b010 cc3c 5eee aa3d
00000350: a82c 1bbc d141 ef3d bbc4 f03d 6933 e43d
00000360: dd47 703d cf88 05be ce33 e43b 6b10 99bb
00000370: 73a3 63bc f4cc 86bc 6dcf b33d 0716 4e3d
00000380: a67c 043d 0842 c4bb 57dc 00bd 99ab 313d
00000390: 4365 98bd c7cb ab3c f861 3b3c 6267 03bd
000003a0: 4676 663d 6fa3 483b 370e 8fbc bd8f 843d
000003b0: 5fdb f53c 570e e9bd c745 623c c945 02be
000003c0: 216e 9fbc b8dd 313d 0470 dbbd ee01 9f3b
000003d0: 5107 a5bd 92b0 80bd 4582 4bbd ec7d 953d
000003e0: 3956 ebbd b993 a23c 71a1 4abd 47d4 dc3c
000003f0: 5318 b83d d513 55bc db63 b03d 3f7f 87bd

gru.bias_ih_l0 f4 [300]
-0.033376694 -0.045531392 0.030447023 -0.027187292 -0.09569741 -0.10863595 0.07077287 -0.090279706
0.06906783 -0.013479638 0.047948316 -0.02007828 0.08523435 -0.07330845 -0.033956945 -0.017336724
-0.10608052 0.07717469 0.07139021 -0.012527296 -0.0003699513 0.006372409 -0.07450526 0.053498495
-0.06674847 -0.19220465 0.03752508 0.022639068 0.076412104 0.027257554 -0.085641235 0.01424923
-0.024461955 -0.06903788 -0.044663537 -0.047539074 -0.010983004 -0.011463646 0.010904237 0.09062736
0.043768946 -0.11364238 0.0620104 0.026772253 -0.046464417 -0.057982802 0.054143354 -0.017371861
0.02790054 0.0061561572 -0.042317264 -0.082600966 -0.090312935 -0.15091552 -0.051961653 0.043033116
-0.12088382 0.010033574 0.016475778 -0.11402686 -0.05282598 -0.11274631 -0.005094618 0.019547718
0.09026617 -0.0134909535 0.09942584 -0.03879468 0.023112463 -0.1571217 0.08770552 0.026759008
0.09684003 0.023766175 -0.066787764 -0.00010921173 -0.09160023 -0.04742626 -0.017589781 -0.1263886
-0.039655853 0.024673777 -0.023617119 -0.138524 -0.09964465 0.0840626 0.032043643 -0.07687259
0.05825541 -0.009127381 -0.17551027 0.10819583 -0.1819389 -0.0788301 -0.049339 0.033514712
0.033596147 -0.13363619 -0.09341508 0.07812024 0.3187436 0.12685326 0.3290901 0.09561041
0.26300046 0.26733136 0.41041926 0.3923983 0.3598476 0.40320265 0.13787015 0.1957514
0.016214455 -0.012436007 0.3379369 -0.06521261 0.3722601 0.00887679 -0.008077897 0.4747227
-0.10862928 0.21293537 0.5116807 0.27692753 0.26264578 0.043524675 -0.024261946 0.32399273
0.3635384 0.3958945 0.35534889 0.3835452 0.47317535 0.2974893 -0.48487923 -0.04974072
0.32298043 0.17337923 0.4702285 0.33948496 0.12208322 -0.070634186 0.15080899 0.30590928
0.31480783 0.24002233 0.4010205 0.24181929 0.31470618 -0.22842422 0.46023574 0.38746154
-0.06448411 0.3777446 0.55155206 0.20210455 0.47745514 0.09532255 0.23067516 0.2036173
-0.106519595 0.23981318 0.3394336 0.37319884 0.3891647 0.3922495 0.436531 0.4064148
0.36847776 -0.13853769 0.3692988 -0.13296984 0.4178799 0.15212186 0.08679155 0.3285506
0.37820655 0.37803298 0.38102162 -0.059476282 0.31509334 0.08825155 0.08581101 0.05848591
0.032454435 0.2801301 0.039486367 0.18124992 0.48761854 0.6622657 0.15004426 -0.08630806
-0.027715422 0.5069222 0.114285 0.18518628 0.31267998 -0.11962763 0.09145564 0.123135515
0.06314116 -0.008077205 0.0015013908 -0.02526092 0.108582444 0.09826913 -0.027719673 -0.09169949
-0.07841836 -0.0728315 0.090015344 -0.06354135 0.019707697 -0.03858623 -0.07081427 -0.011628218
0.051068287 0.005161203 0.06414976 0.059029188 -0.013767194 0.021869449 0.09284944 -0.056822088
0.078271456 0.06224017 -0.06247283 0.023443578 -0.018541811 0.038213518 0.043975998 -0.022233464
0.057776872 0.031880762 0.1375237 0.05810553 -0.049213696 -0.07551474 0.018745517 0.084239095
0.0110551715 -0.03535415 0.071434714 0.0152805615 -0.0054802815 -0.006412065 -0.045196738 -0.034157183
-0.000601224 -0.06648256 -0.07443267 0.02253948 -0.034120396 0.07289459 -0.06908598 -0.0017428733
00000000: 00b6 08bd 207f 3abd 096c f93c e2b7 debc
00000010: 01fd c3bd 867c debd 5ef1 903d 91e4 b8bd
00000020: 6f73 8d3d b3d9 5cbc 7465 443d 347b a4bc
00000030: 598f ae3d be22 96bd 7016 0bbd bf05 8ebc
00000040: be40 d9bd c40d 9e3d 0835 923d 4a3f 4dbc
00000050: 06f6 c1b9 a4cf d03b 3796 98bd 3d21 5b3d
00000060: 6cb3 88bd 4cd1 44be e6b3 193d 9175 b93c
00000070: f37d 9c3d 3c4b df3c ac64 afbd 9a75 693c
00000080: 7064 c8bc bb63 8dbd 1df1 36bd 55b8 42bd
00000090: 0ff2 33bc 04d2 3bbc afa7 323c d69a b93d
000000a0: 1147 333d 56bd e8bd 9efe 7d3d 7c51 db3c
000000b0: 7951 3ebd 607f 6dbd 6cc5 5d3d 6f4f 8ebc
000000c0: ac8f e43c 97b9 c93b de54 2dbd b22a a9bd
000000d0: fdf5 b8bd 9989 1abe bed5 54bd 7e43 303d
000000e0: f091 f7bd dc63 243c 36f8 863c ea86 e9bd
000000f0: 0e60 58bd 8ae7 e6bd c1f0 a6bb 8922 a03c
00000100: 78dd b83d 2909 5dbc c69f cb3d 2ce7 1ebd
00000110: 5956 bd3c 83e4 20be f49e b33d b535 db3c
00000120: 1154 c63d 48b1 c23c 06c8 88bd 9a08 e5b8
00000130: e798 bbbd 0a42 42bd 7218 90bc 036c 01be
00000140: 2d6e 22bd a920 ca3c b078 c1bc 3cd9 0dbe
00000150: 7f12 ccbd 0329 ac3d 3240 033d 606f 9dbd
00000160: 3a9d 6e3d 038b 15bc f7b8 33be c695 dd3d
00000170: 314e 3abe ad71 a1bd b117 4abd b946 093d
00000180: 1d9c 093d edd7 08be 6850 bfbd 81fd 9f3d
00000190: 5c32 a33e d2e5 013e 7f7e a83e 64cf c33d
000001a0: ffa7 863e a8df 883e 7922 d23e 6ee8 c83e
000001b0: f23d b83e 9470 ce3e d52d 0d3e 0e73 483e
000001c0: 2dd4 843c 65c0 4bbc 1106 ad3e 308e 85bd
000001d0: e098 be3e f56f 113c 2859 04bc db0e f33e
000001e0: 0779 debd bb0b 5a3e 82fd 023f 72c9 8d3e
000001f0: 8279 863e ee46 323d fdc0 c6bc 60e2 a53e
00000200: b521 ba3e afb2 ca3e 4af0 b53e 0960 c43e
00000210: 0a44 f23e 8450 983e 1742 f8be edbc 4bbd
00000220: b15d a53e 538a 313e cac1 f03e f9d0 ad3e
00000230: c406 fa3d a8a8 90bd ac6d 1a3e 24a0 9c3e
00000240: 7e2e a13e 6ac8 753e 8f52 cd3e 7a9f 773e
00000250: 2b21 a13e 0ae8 69be 05a4 eb3e 5c61 c63e
00000260: 3f10 84bd bd67 c13e 8432 0d3f 7ff4 4e3e
00000270: 0075 f43e 7838 c33d 1c36 6c3e 0e81 503e
00000280: f226 dabd 9691 753e 3eca ad3e eb13 bf3e
00000290: 9840 c73e edd4 c83e fe80 df3e 9a15 d03e
000002a0: 1ea9 bc3e d3dc 0dbe bb14 bd3e 3f29 08be
000002b0: 5bf4 d53e d5c5 1b3e c5bf b13d c937 a83e
000002c0: 4aa4 c13e 8a8d c13e 4415 c33e 679d 73bd
000002d0: ea53 a13e 3bbd b43d afbd af3d ec8e 6f3d
000002e0: f1ee 043d 366d 8f3e 75bc 213d 9499 393e
000002f0: 23a9 f93e 3f8a 293f 34a5 193e 48c2 b0bd
00000300: 740b e3bc a7c5 013f 410e ea3d 79a1 3d3e
00000310: 9717 a03e 55ff f4bd 184d bb3d 792e fc3d
00000320: 2750 813d 4156 04bc 51ca c43a fdef cebc
00000330: 7960 de3d 5341 c93d 5e14 e3bc f1cc bbbd
00000340: ce99 a0bd ae28 95bd f759 b83d f821 82bd
00000350: 0972 a13c 980c 1ebd 1207 91bd 4884 3ebc
00000360: fb2c 513d 4f1f a93b f360 833d 97c8 713d
00000370: cc8f 61bc 8f27 b33c d927 be3d 47be 68bd
00000380: c94c a03d 8cef 7e3d 83e3 7fbd bf0c c03c
00000390: ffe4 97bc c785 1c3d 2d20 343d f422 b6bc
000003a0: 71a7 6c3d 6795 023d 03d3 0c3e 1000 6e3d
000003b0: 4d94 49bd 79a7 9abd 3390 993c 8c85 ac3d
000003c0: c020 353c 83cf 10bd 5d4c 923d 525b 7a3c
000003d0: ef93 b3bb 4d1c d2bb 3720 39bd 67e8 0bbd
000003e0: 769b 1dba 0228 88bd 2870 98bd b7a4 b83c
000003f0: d4c1 0bbd c249 953d f37c 8dbd 2071 e4ba

gru.bias_hh_l0 f4 [300]
-0.03217485 0.067898005 -0.081122935 -0.10589615 0.052921083 0.043759182 -0.0987346 0.07735071
-0.069820546 -0.054947853 0.09426292 0.05675538 -0.049555145 0.0522838 0.00053705834 -0.047085606
-0.11055977 -0.04804553 -0.03893247 0.0075923842 -0.0041510477 -0.09612085 -0.07571723 -0.12206572
-0.044845972 -0.13462442 -0.11069707 -0.10019073 -0.09038099 0.0026113195 -0.062338367 0.050203174
-0.054417618 0.0792801 0.0656882 0.026976163 -0.07737045 0.08709061 -0.044099357 0.07389096
-0.066101134 -0.020431321 0.043793842 -0.04116375 0.013903334 0.070447706 -0.020496124 0.0057558576
-0.10044963 0.0050931456 -0.01790001 0.07795374 0.029189516 0.032036312 0.029398216 0.00038107976
0.05287908 -0.024757275 -0.11925614 -0.11469883 0.029324247 -0.08389525 -0.09167236 -0.102224685
-0.08298211 -0.051306486 -0.034904957 0.060031544 0.07773862 -0.04637675 -0.06662443 -0.03358721
0.035950497 -0.083832115 -0.044869658 -0.007103282 0.071362205 -0.050537523 -0.0917021 -0.17339468
-0.112927645 -0.017452706 0.021444649 -0.068689406 0.04986112 -0.06208395 0.010770648 -0.08774521
-0.051747914 0.040903278 -0.12841347 -0.054330915 -0.09447599 0.03944206 -0.074798584 -0.036012862
-0.010186568 -0.060714845 -0.07927464 -0.05192364 0.255862 0.11797329 0.29544201 0.1695101
0.21091309 0.22684643 0.40652636 0.3226756 0.25631082 0.33656338 0.079167075 0.20527823
0.06237898 0.10431252 0.44209206 -0.12954065 0.26609582 -0.023779012 0.10273034 0.50571793
0.0045536566 0.22027688 0.61674434 0.27128845 0.39504114 0.1503911 -0.034581475 0.24493283
0.34846413 0.5013746 0.34945676 0.38685185 0.43071905 0.23459905 -0.413626 -0.1788501
0.20448574 0.2691491 0.4538442 0.28596213 0.18686253 -0.028347341 0.15424064 0.2513189
0.42994243 0.3416325 0.3278514 0.18512835 0.39089748 -0.23166981 0.4336549 0.23749936
-0.07777488 0.25026134 0.5170047 0.2749894 0.54049736 0.007513147 0.31472272 0.2538944
-0.04671062 0.21910158 0.33721748 0.2338833 0.46901858 0.47563547 0.361932 0.47324297
0.4045566 0.0071083717 0.2504688 -0.13511673 0.4042518 0.0062713344 0.22564228 0.34604532
0.33860773 0.47887847 0.30718732 -0.0043419786 0.32602113 0.068848655 0.0043389834 0.013936219
0.024139933 0.2533201 0.110201836 0.049421452 0.40140897 0.5610233 0.03238322 0.01968003
-0.082196586 0.4965362 0.0987329 0.29165563 0.23497514 -0.24323197 0.15252799 0.23090693
-0.02268218 0.07418864 0.08676293 -0.07264618 -0.0022924687 0.07800824 0.004033172 0.03555929
0.020363767 -0.029463481 0.10262401 -0.07841966 -0.08377329 -0.08950605 0.009979829 0.05847079
-0.014674885 0.002125004 -0.015804153 -0.040764667 0.014471712 0.007697105 0.10089023 -0.029226115
0.10423834 0.010391592 -0.07681532 -0.06406504 -0.03629291 0.07795986 -0.029961832 -0.04349583
0.07542004 -0.027056517 0.1449297 -0.0043729674 -0.030075883 -0.055396516 -0.08111092 -0.058858767
-0.00091182394 0.06262721 -0.084192805 0.049313314 0.04337845 -0.07547991 -0.053560067 0.032776423
0.0054331394 0.062476348 0.034614317 0.05940448 -0.121227756 -0.0120821055 -0.03515749 -0.024867317
00000000: c7c9 03bd 1c0e 8b3d c823 a6bd 15e0 d8bd
00000010: c7c3 583d d43c 333d 5e35 cabd 0d6a 9e3d
00000020: 13fe 8ebd 0011 61bd eb0c c13d 5478 683d
00000030: 56fa 4abd 8a27 563d 60c9 0c3a d6dc 40bd
00000040: 296d e2bd 64cb 44bd a777 1fbd 89c9 f83b
00000050: 8305 88bb 02db c4bd a311 9bbd 98fd f9bd
00000060: 69b0 37bd fcda 09be 25b5 e2bd cc30 cdbd
00000070: ab19 b9bd ac22 2b3b 8456 7fbd d8a1 4d3d
00000080: 02e5 5ebd 9b5d a23d 8987 863d 1dfd dc3c
00000090: 6674 9ebd 905c b23d 87a1 34bd 2554 973d
000000a0: 0860 87bd 965f a7bc 2c61 333d 529b 28bd
000000b0: cfca 633c e346 903d 7de7 a7bc a29b bc3b
000000c0: 89b8 cdbd 67e4 a63b 0ba3 92bc 36a6 9f3d
000000d0: da1e ef3c 8238 033d 87d4 f03c a9cb c739
000000e0: bc97 583d c5cf cabc 903c f4bd 38e7 eabd
000000f0: 6739 f03c 46d1 abbd b8be bbbd 2d5b d1bd
00000100: 86f2 a9bd c026 52bd 80f8 0ebd a3e3 753d
00000110: 6d35 9f3d 8cf5 3dbd 6472 88bd be92 09bd
00000120: d440 133d 2cb0 abbd 3fc9 37bd a6c2 e8bb
00000130: 5926 923d 6f00 4fbd 50ce bbbd 608e 31be
00000140: 9c46 e7bd faf8 8ebc b0ac af3c 08ad 8cbd
00000150: 2c3b 4c3d bd4b 7ebd 5f77 303c c3b3 b3bd
00000160: 9ff5 53bd 328a 273d d27e 03be 188a 5ebd
00000170: a17c c1bd ff8d 213d 0030 99bd 3982 13bd
00000180: 90e5 26bc 21b0 78bd be5a a2bd e2ad 54bd
00000190: 5800 833e fb9b f13d 2d44 973e 0e94 2d3e
000001a0: 9af9 573e 6e4a 683e 3924 d03e bc35 a53e
000001b0: 2c3b 833e 0952 ac3e 5922 a23d 7534 523e
000001c0: 1a81 7f3d cda1 d53d e459 e23e 4ea6 04be
000001d0: b63d 883e 34cc c2bc 4964 d23d bb76 013f
000001e0: d736 953b 4390 613e f5e2 1d3f 52e6 8a3e
000001f0: d542 ca3e 2000 1a3e 4ea5 0dbd accf 7a3e
00000200: e469 b23e 165a 003f ffeb b23e 7211 c63e
00000210: 3587 dc3e bc3a 703e c9c6 d3be 7b24 37be
00000220: b664 513e e9cd 893e 445e e83e a169 923e
00000230: e458 3f3e af38 e8bc 42f1 1d3e dfac 803e
00000240: 6a21 dc3e 74ea ae3e 24dc a73e 4992 3d3e
00000250: b723 c83e da3a 6dbe 0408 de3e 0833 733e
00000260: 7048 9fbd 4122 803e 6c5a 043f 69cb 8c3e
00000270: 095e 0a3f d830 f63b 5623 a13e 72fe 813e
00000280: a353 3fbd 2a5c 603e c5a7 ac3e 1b7f 6f3e
00000290: 3423 f03e 7e86 f33e 274f b93e e74c f23e
000002a0: 0b22 cf3e 58ed e83b 723d 803e 0a5c 0abe
000002b0: 18fa ce3e c47f cd3b c50e 673e da2c b13e
000002c0: fe5d ad3e 8f2f f53e a847 9d3e 2847 8ebb
000002d0: 3eec a63e 8600 8d3d 082e 8e3b bd54 643c
000002e0: 1cc1 c53c 2cb3 813e 80b1 e13d 266e 4a3d
000002f0: 7a85 cd3e 399f 0f3f 44a4 043d 0438 a13c
00000300: af56 a8bd fe39 fe3e 7a34 ca3d e353 953e
00000310: 539d 703e cd11 79be 4c30 1c3e de72 6c3e
00000320: fbcf b9bc 37f0 973d c3b0 b13d 85c7 94bd
00000330: 3e3d 16bb c9c2 9f3d b328 843b 9ea6 113d
00000340: ead1 a63c 665d f1bc 892c d23d 7d9a a0bd
00000350: 5591 abbd f34e b7bd 7082 233c 117f 6f3d
00000360: ee6e 70bc a743 0b3b b677 81bc daf8 26bd
00000370: c21a 6d3c ff37 fc3b 899f ce3d 9b6b efbc
00000380: e97a d53d 7f41 2a3c 5a51 9dbd 8834 83bd
00000390: e0a7 14bd 6ba9 9f3d 8472 f5bc af28 32bd
000003a0: d275 9a3d a1a5 ddbc 7468 143e 1c4b 8fbb
000003b0: b361 f6bc 75e7 62bd 7b1d a6bd e415 71bd
000003c0: 7807 6fba b242 803d 476d acbd c2fc 493d
000003d0: 9aad 313d 3695 9abd cd61 5bbd 9240 063d
000003e0: 7a08 b23b 33e7 7f3d bec7 0d3d 1d52 733d
000003f0: 4246 f8bd 06f4 45bc 4d01 10bd 8bb6 cbbc

fc.weight f4 [2, 100]
-0.034596678 0.086301364 -0.06752179 0.052942332 0.13018954 -0.027706217 0.115153395 -0.16424736
0.07108907 0.11964769 0.03804608 0.112095036 0.059022393 -0.013144341 0.19488019 0.10182855
0.077730045 -0.004431705 -0.08533526 0.03208236 -0.16074874 -0.15213156 0.033354715 -0.1185724
0.033806715 -0.05169684 0.042256374 -0.061065096 0.058953688 0.16027863 -0.024946095 -0.13508292
-0.122993305 0.12356282 0.08510591 0.16501668 -0.054260265 -0.06971489 -0.11438341 -0.037363604
-0.06267488 -0.08471215 -0.1126161 -0.114661455 0.046151847 0.045520477 0.10880492 0.01988808
-0.039131675 -0.007679213 -0.0015836825 -0.0755744 0.08620565 -0.008521588 -0.114203274 -0.11471902
0.07694714 -0.06416029 -0.08438143 -0.07202015 0.031947386 -0.0035776945 0.11317375 0.02653884
-0.008925106 0.056535937 -0.041655954 0.10674765 -0.119253 -0.16455187 -0.069325656 0.026757544
-0.097764954 0.114828795 0.087239265 0.06568543 -0.16857278 -0.035147175 0.059220534 0.10893713
-0.03441807 -0.054437958 0.122479975 0.06279807 -0.1178159 0.101921126 0.03178827 0.08865771
0.03405868 0.15975155 0.018546183 0.092273176 0.07137151 0.0029188688 -0.003057634 0.06714779
0.0004287539 0.044860534 -0.05858987 0.020038513 0.12455926 -0.057871707 0.08530136 -0.07439722
-0.10484822 -0.071358144 -0.100731544 0.053376988 -0.10849192 -0.010308151 -0.013628828 -0.061681595
-0.011535276 -0.057734586 -0.057510253 -0.10800063 -0.023314113 0.08612731 0.07867016 -0.107499726
0.07084514 0.059635464 -0.10587048 0.03467445 0.089162186 0.05028069 -0.1061798 0.1651615
-0.11814844 -0.06459003 0.13488516 0.18936346 -0.004378614 -0.06870858 0.057786286 -0.081172094
-0.11059482 0.09193813 0.029368987 0.08889609 0.107288145 0.12400619 0.022003215 0.07276574
-0.14809774 -0.032990016 -0.011424044 -0.11269543 0.11692983 -0.09218823 -0.17283066 0.0763312
0.04371147 -0.03796451 0.08650259 0.034012947 -0.07837043 -0.017149651 0.011190511 0.035138633
0.0022084755 -0.0085393395 -0.042157017 -0.14155819 0.113245055 -0.07275368 0.12085848 -0.12586713
0.102770105 0.104838595 0.103495784 -0.0007777023 0.053010117 -0.04137961 -0.12873454 -0.10164743
0.04823418 -0.15154573 -0.0976653 -0.13635468 0.029189564 0.075787134 -0.06589289 -0.098820224
0.12236744 0.032645803 -0.14286695 -0.053315658 -0.10536971 -0.124365546 -0.088149264 -0.13359313
-0.08448728 0.12748198 0.03800418 -0.098067656 0.10788066 -0.10893458 0.1336473 -0.16219214
00000000: 3fb5 0dbd c5be b03d dd48 8abd 0fda 583d
00000010: 6850 053e 26f8 e2bc 8bd5 eb3d 7630 28be
00000020: 2597 913d d909 f53d 35d6 1b3d 1592 e53d
00000030: 77c1 713d 5d5b 57bc ac8e 473e 7d8b d03d
00000040: ee30 9f3d d637 91bb 41c4 aebd cb68 033d
00000050: 519b 24be 60c8 1bbe f49e 083d 16d6 f2bd
00000060: e978 0a3d 11c0 53bd 0515 2d3d 651f 7abd
00000070: 6c79 713d 1520 243e c15b ccbc 2d53 0abe
00000080: eae3 fbbd 810e fd3d 024c ae3d 22fa 283e
00000090: 0340 5ebd aec6 8ebd d941 eabd 940a 19bd
000000a0: b05b 80bd 907d adbd 45a3 e6bd a0d3 eabd
000000b0: b809 3d3d ae73 3a3d 1dd5 de3d 54ec a23c
000000c0: 8948 20bd e8a1 fbbb 9193 cfba c0c6 9abd
000000d0: 968c b03d 219e 0bbc 68e3 e9bd cef1 eabd
000000e0: 7696 9d3d 7866 83bd 2cd0 acbd 4d7f 93bd
000000f0: 43db 023d c177 6abb a4c7 e73d fb67 d93c
00000100: 9c3a 12bc 3a92 673d 6f9f 2abd 839e da3d
00000110: eb3a f4bd 4980 28be 9cfa 8dbd a332 db3c
00000120: fe38 c8bd 5c2b eb3d 80aa b23d 1586 863d
00000130: 589e 2cbe 7cf6 0fbd 3b91 723d 6e1a df3d
00000140: f6f9 0cbd 56fa 5ebd c8d6 fa3d 469c 803d
00000150: 7649 f1bd 06bc d03d 6b34 023d 2c92 b53d
00000160: 1d81 0b3d e995 233e 2aee 973c b8f9 bc3d
00000170: 3a2b 923d 7e4a 3f3b 9662 48bb c884 893d
00000180: 60ca e039 aebf 373d eefb 6fbd cf27 a43c
00000190: ed18 ff3d e20a 6dbd 7bb2 ae3d 925d 98bd
000001a0: aaba d6bd 3824 92bd 574c cebd d4a1 5a3d
000001b0: 0331 debd 85e3 28bc 734b 5fbc d7a5 7cbd
000001c0: 74fe 3cbc 1a7b 6cbd df8f 6bbd 6f2f ddbd
000001d0: 3dfd bebc 8463 b03d d21d a13d d128 dcbd
000001e0: 4217 913d 5144 743d 9fd2 d8bd cc06 0e3d
000001f0: aa9a b63d 20f3 4d3d cc74 d9bd 1920 293e
00000200: cff7 f1bd c747 84bd 561f 0a3e 7fe8 413e
00000210: 7a7a 8fbb 16b7 8cbd 50b1 6c3d 8e3d a6bd
00000220: 897f e2bd 0f4a bc3d 3b97 f03c 270f b63d
00000230: e3b9 db3d f5f6 fd3d 1640 b43c 3406 953d
00000240: efa6 17be 8a20 07bd ea2b 3bbc ddcc e6bd
00000250: e878 ef3d 2fcd bcbd 85fa 30be 8853 9c3d
00000260: cc0a 333d ad80 1bbd 4528 b13d 2951 0b3d
00000270: ad80 a0bd 6d7d 8cbc 6858 373c 87ed 0f3d
00000280: 12bc 103b 96e8 0bbc d6ac 2cbd a1f4 10be
00000290: 06ed e73d e2ff 94bd a784 f73d 50e3 00be
000002a0: 2279 d23d 9eb5 d63d 99f5 d33d b8de 4bba
000002b0: 2321 593d aa7d 29bd fdd2 03be 872c d0bd
000002c0: 3491 453d ce2e 1bbe bf04 c8bd 90a0 0bbe
000002d0: f41e ef3c 4936 9b3d daf2 86bd 4262 cabd
000002e0: c89b fa3d 9bb7 053d b74b 12be 8561 5abd
000002f0: 13cc d7bd 5db3 febd 9a87 b4bd a3cc 08be
00000300: ab07 adbd a38a 023e 45aa 1b3d b2d7 c8bd
00000310: 89f0 dc3d 1819 dfbd d6da 083e b215 26be

fc.bias f4 [2]
0.013715991 -0.06057042
00000000: 09b9 603c b018 78bd
