results/gru/gru_hidden_100_layers_1_bidirectional_False_length_64_batch_64_lr_0.0001.pth (torch, 186203 bytes, 6 tensors)

gru.weight_ih_l0 f4 [300, 50]
00000000: a87a be3d f938 9dbc cfde 7fbb e9d6 b0bb
00000010: 2826 f63d a5c1 0e3d 15a2 2ebd 5b74 a9bd
00000020: 974a 0f3e 1669 2abd 814a 283e 0da8 bc3b
00000030: 92e4 803b 5218 aabc 5bfb 47bd 38e5 afbd
00000040: a4a5 72bd cc0d be3d f821 1fbd cf28 d33d
00000050: 647c ebbd 8d4d 6cbd 32b2 07be afb0 5abd
00000060: 9e30 3c3d 976f d3bd dee0 91bd 14ec cbbd
00000070: 2992 593d 6b16 d63d b307 1d3d 0b7d e839
00000080: f9b5 883c 6cfa ccbc fa4c 58bc 9f72 8ebd
00000090: 662b e5bc 3949 b2bc 98ab 703d 7f01 cbbd
000000a0: ec7e 48be 74cb acbd 386f 7cbd 6d2d 8bb8
000000b0: 37e1 b7bd 0353 b23d e64f f83d 5829 c5bd
000000c0: d87e 633d 4b24 723d 52e7 b53d 214c 953d
000000d0: faa7 15bd 405e 203b 1a55 153d 35bb 8a3d
000000e0: 029d 093e 3942 67bc fd85 47bc 1eda 64bd
000000f0: 58cc 4a3c e398 94bd 232a 873d 9657 c5bd
00000100: 14e4 ec3c 75d0 b8bd 2281 17be 5f08 a23c
00000110: d989 e53c 203f fe3d 7516 f73d 4398 e83c
00000120: 93e1 5cbc 68b1 7cbd 0047 a53d 66c2 5bbd
00000130: b347 15be 51d3 3c3c 2649 883d 05d4 243d
00000140: 4cab b5bd 667b 8e3d c2e2 483d d6e2 05bd
00000150: f6eb 063b f685 3f3c 442c e9bd 71c0 443d
00000160: 4268 493d 8644 083d d3f0 86bd 71f5 32bd
00000170: 2549 60bc 0945 e53c 22a2 883c 7885 023e
00000180: 250d 333d 49e3 9a3d 0ba0 5fbd 37f3 b0bd
00000190: d86d 8a3d bc3b ad3c 274d 073e 56da 59bd
000001a0: ff71 9dbc c0f9 373d ae12 593d 79e3 e8bc
000001b0: 2df7 cabd a7ed 87bd ca43 883c 4563 723d
000001c0: 6a02 e8bb 2bc6 6dbd 2a78 913d b3c7 0ebe
000001d0: 96a6 653d 48b3 04bd 7374 9f3d 657a 003e
000001e0: cc3f eabb ba73 91bd 41df 723c 8c92 673c
000001f0: 10d1 87bd c47f c03d b6e3 883d 2823 e13d
00000200: 0a4d cf3b 1fd6 8b3d bebd c6bd 5cd8 f9bb
00000210: e9a9 0f3d ded1 edbc 96bf 15bd 6604 c0bc
00000220: 0884 643d 16d0 ef3d 4b92 263e 9ef6 8cbc
00000230: ee81 b93c 1221 3d3c bca4 3d3d 2cfd 643d
00000240: 4cf3 8e3d c57d 953d 3477 123d d350 663d
00000250: 0ba9 c43c c682 81bd b2df 29bd 3870 f73c
00000260: 81c2 cd3d 33a0 823c fcac 143d 6834 5cbd
00000270: 477a b33c 2e3e 7d3c 12e2 973c 8777 aa3d
00000280: 72ff 76bd ea77 31bd 2def a53d 97ea c6bc
00000290: ac7a 0f3e d116 5b3c 2fbd 7e3d f0f9 153d
000002a0: e0f3 c83d 7c95 0e3e 20d0 353c a17a bc3c
000002b0: 2b0d 323d 8880 bcbc e276 933d e1bf 57bd
000002c0: 7b1a bb3d 47fe e53c 6f47 cdbc 0b68 88bd
000002d0: ebf8 95bc 0a79 b4bd bcfd bb3c 7ab7 00bd
000002e0: cf7a 08bd a80a 233e f78b 2e3e eef0 2b3b
000002f0: 007e 20bd e7e3 6cba 1884 35bd bb8c 023e
00000300: a0ad aabd 5a37 b33d 3721 67bd 7a92 febd
00000310: 3f66 bd3b 4259 8fbd 3c79 d6ba 5d06 8dbd
00000320: 608b b33d 2813 bd3d b97c a3bd 383d 4b3d
00000330: 4812 4a3d 3bc6 ba3d 05af 013e 13a3 41bd
00000340: b241 91bc d9f3 163c 5295 0bbc 1c73 98bd
00000350: b106 c63d c235 cdbd c27b 6a3b 5ab1 e2bd
00000360: 270c efbc b132 79bd 4e65 213d c1d3 2d3d
00000370: fda6 b6bd 77c6 8abd 62bb 5b3d 6e70 d0bc
00000380: db12 b23d 2888 013e 222c a6bd a9f6 d1bd
00000390: 0b87 4cbd 582e 89bd a912 c73d 10ab b4bc
000003a0: 6703 523d eac7 233d c5ef 44bb 5e50 8abd
000003b0: 36a4 23bd 3987 833c a093 c73c b596 18bc
000003c0: b380 1d3d 4b07 5cbd 40ea f63d aa04 0038
000003d0: 9612 e2bd 7fb1 a3bd 09f6 10bd 2816 3e3d
000003e0: 3b1d 823d e77f 403c 9d4f cdbd 5a91 493e
000003f0: bc9d 053c 8356 32bd 8097 2dbd fb71 923d
0.093007386 -0.019192206 -0.0039042716 -0.005396713 0.120189965 0.034852643 -0.042635042 -0.08274146
0.13993298 -0.041604124 0.16434671 0.005757338 0.0039334977 -0.02076355 -0.048823696 -0.08588642
-0.05924 0.09279975 -0.038850754 0.10310518 -0.11498335 -0.057691146 -0.1325157 -0.053391155
0.045944802 -0.103240184 -0.07122968 -0.09957138 0.053117905 0.10453495 0.03833742 0.00044343653
0.016688334 -0.025021754 -0.013201946 -0.06955456 -0.027974796 -0.02176343 0.058757395 -0.09912395
-0.19579667 -0.08437243 -0.061629504 -6.636498e-05 -0.08978503 0.087072395 0.121246144 -0.09627026
0.05554089 0.059116643 0.088820115 0.07289911 -0.036537148 0.002447024 0.036458112 0.06773988
0.134388 -0.01411491 -0.012177941 -0.055872075 0.012377821 -0.07255723 0.06599834 -0.09635846
0.02891735 -0.09024135 -0.14795354 0.019779382 0.028019832 0.12414384 0.1206483 0.028392917
-0.013481515 -0.061692625 0.08070183 -0.05365219 -0.14578132 0.011524991 0.06654577 0.04024126
-0.08870563 0.0695713 0.049044378 -0.03268703 0.002058742 0.011689654 -0.11385396 0.04803509
0.049171694 0.033268474 -0.06588902 -0.043691102 -0.013689314 0.02798702 0.016678873 0.12746227
0.043713707 0.075628825 -0.05459599 -0.086401395 0.06759232 0.021146648 0.13213025 -0.053186737
-0.019219397 0.044915915 0.05299633 -0.02842878 -0.09910426 -0.066371255 0.016633887 0.059176702
-0.007080366 -0.058050316 0.071029976 -0.13943367 0.05606707 -0.03239754 0.07785883 0.1254669
-0.0071487185 -0.07102151 0.014823736 0.014134061 -0.066316724 0.09399369 0.066840574 0.10993034
0.0063263224 0.0682795 -0.09704159 -0.007624669 0.03507415 -0.029030737 -0.036559664 -0.023439597
0.055789977 0.11709611 0.16266744 -0.01720744 0.022644963 0.011543529 0.04629968 0.055905506
0.06979999 0.07299379 0.035758212 0.056229424 0.024006387 -0.06323771 -0.041473098 0.030204877
0.10046864 0.01594553 0.036297783 -0.053760916 0.021908892 0.015456719 0.018540416 0.08323579
-0.060302205 -0.04332725 0.0810226 -0.024281783 0.1401164 0.013372139 0.06219214 0.036615312
0.098121405 0.13924211 0.011096984 0.023007693 0.04346959 -0.023010507 0.072004095 -0.052673224
0.0913591 0.02807535 -0.025058476 -0.066604696 -0.01830717 -0.08812149 0.022948138 -0.031424977
-0.033320244 0.15922034 0.1704558 0.0026236135 -0.039182663 -0.00090366456 -0.044315428 0.12748997
-0.083338976 0.08750792 -0.05642816 -0.12430282 0.005780011 -0.069994465 -0.0016363035 -0.06885979
0.08766818 0.092321694 -0.07982773 0.04961893 0.04933384 0.09119841 0.12664421 -0.04727466
-0.017731521 0.009213411 -0.008519487 -0.0744383 0.09669245 -0.10020019 0.0035779332 -0.110689834
-0.0291806 -0.06083936 0.039403252 0.042438272 -0.08918569 -0.067761354 0.0536455 -0.025444236
0.08695003 0.12649596 -0.081138864 -0.10252125 -0.049933475 -0.066982925 0.09720356 -0.022054225
0.051272776 0.039985575 -0.003005014 -0.0675361 -0.039951526 0.01605569 0.024362385 -0.009313275
0.038452815 -0.053717893 0.120563984 3.0521922e-05 -0.11038701 -0.07992839 -0.035390887 0.04640785
0.063532315 0.011749244 -0.10024951 0.19684353 0.008155283 -0.043539535 -0.04238081 0.07150646

gru.weight_hh_l0 f4 [300, 100]
00000000: 078b 2d3d c297 9dbd 3536 d6bc be94 edbd
00000010: 7fc5 a5bc 4440 90bd 486e 8fbb fc81 7c3d
00000020: 6dd1 12be add3 363d f15e 7cbd 5f9d 143c
00000030: 42a9 62bd 2232 903d e9a3 fb3d 8d83 cfbd
00000040: 0cbf 33bd ef49 44bc fc93 99bd 39d0 bebd
00000050: 776f b9bd 3fb2 21bd ede8 6f3d b866 3dbd
00000060: 1e33 95bd 580b a3bc 59a8 8d3d 00c5 4e3d
00000070: de7c ec3d 03b6 853d a035 ebbb d252 243c
00000080: 836c 7d3d 9e4f e7bd 91ea 5bbd 0acf 89bd
00000090: 1b6a b8bc 1dbf 13be cbcd f53c 99df fb3c
000000a0: 9b11 3d3d 337c 7d3d ede0 ccbb be8f 84bc
000000b0: 75b9 903b cce1 62bc 23bc 28bd 139a 8b3c
000000c0: 88f5 9cbd 951b c13d d762 963d 79c5 173d
000000d0: d902 8b3d 99e6 16bd 766f 253d 4cc3 7d3d
000000e0: 0b77 f63c b9e8 9f3d 9917 8c3d 152d 423d
000000f0: 6e5a 933d 2e25 323c f53e 2fbc 2259 77bd
00000100: fb8e 943d 259f 8dbd b8d7 053d b0b2 60bd
00000110: 4d20 a93d c13c f53d e4c8 d6bc 91ed 90bd
00000120: 73ed 02bc d713 bbbb 9a66 a33d 6f38 1abd
00000130: 1638 4ebd 0c17 cbbc 63bf 7bbd 7566 aebd
00000140: 170e 843d ada3 cfbd 24a2 b2bc 3de2 58bd
00000150: ae3a ae3c 6050 903d 919f ebbd 25f1 f2bd
00000160: 166c c8bd f13c c0bd 32e0 66ba 1352 b9bb
00000170: 8a71 5b3d d5e4 803d fc00 463d e275 0b3e
00000180: 86e8 4dbc 523e 00bb c56c ac3c 269f 18bd
00000190: c70e 513d d980 2ebd ab65 d3bc f1ed f63c
000001a0: f521 d5bb 8c86 953d 0195 3a3d 1a76 cbbd
000001b0: b756 5dbd 6a8e 823c a824 d8bd b6c2 46bd
000001c0: 6e40 7dbd 03b8 703d c98a 823d 8a18 823d
000001d0: c39d 6b3c c963 c73d e91e 3d3c ce79 933d
000001e0: e8b9 b13d 84d0 4c3d f70f 183d cc98 b13c
000001f0: 2ac3 e33b 8a85 3ebd a3a4 633d 2d6f 633d
00000200: 93a8 1bbd e4a5 e33c a29f 37bd d2bd c0bd
00000210: 0aed 0c3d dac9 d7bc 6af3 70bc 5a0f 12be
00000220: 0383 27bd 6d7a e7bd e3e4 d43c b824 e23b
00000230: 5211 b03d f9ff 363d e036 f9bd b558 dbbd
00000240: 1b87 573c c311 c33d 182a 98bd f620 6dbb
00000250: c077 82bd dc88 7bbd 2285 a4bd 35aa 9abd
00000260: 58c7 1c3d fb3d d6bc e93f b7bd 4f3e bd39
00000270: 36d9 30bd 2e24 83bd 042f 07bc fac0 7c3d
00000280: 0c7f c5bd 404e 253c 9d0d 44bc 52dc ca3d
00000290: 942a a33c ab56 93bc 7cfe 51bd 48d8 f93b
000002a0: d3f2 b8bc f505 9e3d 6205 89bd 407a d93d
000002b0: 86f4 bd3d f475 8a3d 149b c23d 1693 f03d
000002c0: 58cf 12bd a232 a5bb f7db 65bd b6de 143c
000002d0: 5c9e 8d3d e4b1 eb3b a93a a93d 44ce c0bd
000002e0: 4d21 5a3d 383e dbbd 5a47 4d3d 2dd2 833d
000002f0: 8e92 1b3c ed48 59bc 6d72 e83c ce21 4e3d
00000300: a1c3 f93c 4de3 8abc e6bd 1e3d 2f5a 22bd
00000310: c088 60bd 3d9a 8fbd 068b be3d 8754 793c
00000320: 4b37 0ebd 1da9 b13d 984e b53d 55b6 273d
00000330: e0a0 97bd c593 ec3d d463 a63d c689 e13d
00000340: 4e74 e83c 1647 973b 7f2c b73c 4fae 533d
00000350: 8174 89bd 54d4 303d e8bd 983d 2574 d7bc
00000360: 79f5 993c e110 183d aab7 56bd 1adb 553d
00000370: 8a28 943c c413 e83c 7870 7b3d 7fa6 afbc
00000380: 74c1 223d 376c 3b3c 6e2a e83c 95e4 903d
00000390: 998d 97bd 9953 b0bd f199 e33c b138 8dbd
000003a0: a7bd d33a d59a d8bd ffaf d5bc 7dd0 a1bd
000003b0: 0da8 aebd b4b4 30bd 6a8f 7ebd 85cc e1bd
000003c0: bdd1 103d 2460 f3bc 0b6e c4bc 7d99 17bc
000003d0: 8745 4b3d 7d56 a93d be5b 613d 7feb c23d
000003e0: 2937 5cbd cdd3 f53d 3db3 60bd 2725 133c
000003f0: b8d3 23bd 32ab adbd 80d0 d2bd b170 a03c
0.042368915 -0.07694961 -0.026148895 -0.11600636 -0.020235775 -0.07043508 -0.00437716 0.0616474
-0.14337702 0.044635464 -0.06161398 0.009070723 -0.055337198 0.07040812 0.12287123 -0.10132513
-0.04388337 -0.011980518 -0.07498929 -0.09317059 -0.09054463 -0.03947663 0.058571745 -0.04624054
-0.072851405 -0.01990287 0.069168754 0.050480843 0.11547254 0.065288566 -0.0071780235 0.0100295115
0.061871063 -0.11294483 -0.053690497 -0.06728943 -0.022511533 -0.14428373 0.030005356 0.030746268
0.046159368 0.061886024 -0.006252399 -0.016181823 0.0044166395 -0.0138477795 -0.041195046 0.017041242
-0.07664019 0.09429089 0.07343071 0.03705356 0.067876525 -0.03684101 0.0403895 0.061953828
0.030086061 0.0780806 0.068404384 0.047406275 0.071949825 0.010873122 -0.0106961625 -0.060387738
0.07253834 -0.0691512 0.03267643 -0.05485791 0.08258114 0.119744785 -0.026218839 -0.07076562
-0.007991183 -0.005709152 0.07978554 -0.037651476 -0.050346456 -0.024791263 -0.061461817 -0.08515636
0.06448 -0.101386406 -0.02180583 -0.052950133 0.021268215 0.0704658 -0.11505044 -0.11862401
-0.09786241 -0.09386624 -0.00088072114 -0.005655536 0.053575076 0.06293646 0.048340783 0.13619187
-0.012567645 -0.0019568396 0.02104796 -0.03726115 0.051039483 -0.042603347 -0.025805315 0.030142756
-0.006504292 0.073010534 0.045552257 -0.099346355 -0.054037776 0.015937049 -0.105538666 -0.048525535
-0.061829023 0.058769237 0.063741274 0.06352337 0.014380875 0.097358294 0.011543014 0.07200967
0.08678037 0.050003543 0.0371246 0.021679305 0.0069507556 -0.04651407 0.05557693 0.055525947
-0.03800256 0.027789064 -0.044829972 -0.09411205 0.034405746 -0.026341368 -0.014706472 -0.14263669
-0.040896427 -0.11302648 0.025988048 0.00690135 0.085970536 0.04467771 -0.1216867 -0.10710279
0.01315477 0.09524872 -0.07429904 -0.0036182976 -0.06370497 -0.061409816 -0.080332056 -0.07551996
0.038276047 -0.026152601 -0.08947737 0.00036095313 -0.0431759 -0.06403385 -0.0082509555 0.061707474
-0.09643373 0.010089457 -0.011966136 0.09905304 0.019917764 -0.017985662 -0.051268086 0.0076246597
-0.022576725 0.0771598 -0.0669048 0.106190205 0.09275155 0.06760779 0.09502235 0.117468044
-0.03584227 -0.0050414363 -0.056117978 0.009086302 0.0691497 0.007192837 0.08263142 -0.09414342
0.053254414 -0.10705227 0.050116874 0.06436572 0.009495391 -0.013262016 0.028374875 0.050325207
0.030488791 -0.016954089 0.03875532 -0.039636787 -0.054817915 -0.070118405 0.0930386 0.015217907
-0.0347207 0.08674834 0.08852881 0.04094537 -0.07403731 0.11551622 0.081245095 0.11012606
0.02837577 0.0046166284 0.022360085 0.051679906 -0.067116745 0.043171242 0.07458097 -0.0263005
0.018793808 0.037125472 -0.05242125 0.052210905 0.018085737 0.028329737 0.061386555 -0.021441696
0.039735273 0.011439375 0.028340545 0.070748486 -0.074000545 -0.08609695 0.027783366 -0.06895579
0.0016154543 -0.10576407 -0.026084898 -0.07901094 -0.08528147 -0.043141082 -0.06214849 -0.11025337
0.035356272 -0.02970893 -0.023978254 -0.009252903 0.049626853 0.082684495 0.055019133 0.095175736
-0.053763542 0.120032884 -0.054858435 0.008981026 -0.039996833 -0.084799185 -0.102936745 0.019584985

gru.bias_ih_l0 f4 [300]
00000000: 10ed 953d d30d 2bbd ac03 e03c 9f57 bdbc
00000010: 10e1 c63d dc94 3bbc 7590 abbd 1bd5 acbc
00000020: 9696 6e3d 2ed6 b83d d3fb 69bc ba3a 44bd
00000030: 8a98 64bc a6e2 7a3d aeab f13c 95ec 133e
00000040: afdf 84bd d16b 453d 2b4b 5cbd 6905 9cbc
00000050: 2f26 b93c bbd3 57bd 780e 643d 7538 5e3c
00000060: fb09 2d3d 6490 2c3d 1808 80bd 3324 423d
00000070: 4a82 76bb 4d6a 8bbd d677 f03d 4fb0 81bd
00000080: 951e 803d 441b bb3d a0f8 ae3c 47f6 1c3c
00000090: 2115 883c 7e15 cfbc 7d22 d13d e4e5 723a
000000a0: 7427 e73d eac5 a23d 01a1 79bc 24d5 5b3d
000000b0: ea1c 093d 7d80 af3d 7d08 dfbc 4f1e 9abd
000000c0: 9c70 23bd ebb4 93bd cec2 c13d 0838 7abd
000000d0: 9135 6f3d 1992 ac3d 05ae 0a3d 41af 573d
000000e0: 7331 c73d d3c0 673d 40cf f0bc d391 c83d
000000f0: e325 8b3d 8610 c13a e678 b13d 86ce 99bd
00000100: 1717 efbc 270f 4a3d 3c02 743d 4708 613d
00000110: 0f5e 5f3d 35b6 1bbc 7fa2 a4bc c7a3 fd3b
00000120: bbb6 863d a1f6 8bbd 67c8 a43c 99ee 9dbd
00000130: c636 0d3d cabf 2339 ab72 d2bb 948e adbd
00000140: 37ca a13d 25cd 26bd efb7 99bd 6ddf d03c
00000150: 6376 a93d d318 f4bc 4f54 17bd 1f07 4e3d
00000160: ace3 9fbd 187c 38bd add4 923d 7c81 853d
00000170: 360e 62bd f7a8 183d c3e1 3cbd d94f 0c3d
00000180: ae11 a3bd 3652 843d 8064 93bd fcb3 93bd
00000190: 494e 9a3d f399 1d3e 1c56 b83d 7d61 a93d
000001a0: a9cb 153e 76d8 f03b b030 393e 7524 41bd
000001b0: f46e 803e de11 0e3e 532a 603e 9378 963d
000001c0: 2317 a8bc c10a ccbc 272b f03d c278 a4be
000001d0: 826d 11be ed54 4d3e 07b7 003e 3384 293d
000001e0: adcc 2d3d 732e a23d 71cd 4c3e 38c4 e93d
000001f0: 3e5b 0b3e 37ad 7bbc 76dd 563e 8c1c 883e
00000200: 9008 a83d 1e4e f03c ab50 983d 43b7 6fbb
00000210: a49f 15be 470d cc3d f48d 8a3d 4f07 683d
00000220: 079e 77bc 3609 773d a244 5d3e 774b 333e
00000230: 6095 113e 0907 b93d d84d 563c dd07 afbd
00000240: 304d 8c3d 26db c0bc 4d4d 61bd 19ab 583e
00000250: 41d3 c53d cbbd 96bc 0365 7a3e e83f 303e
00000260: 1bfb 143e 7ce7 643d 6577 8abc 15a8 00be
00000270: 6459 7bbc 5147 703e 7841 3fbd 3cce dbbd
00000280: 1580 9c3d 18b2 773d 74db 6bbe 435a 07be
00000290: 90be 393e f920 79be aa4a 103e 4959 c53d
000002a0: 784d f23d 608c 503e e800 c2bd 8014 80bc
000002b0: 87e9 b83d 8b8d 433e b014 7d3d f9a8 953d
000002c0: 35fa 593e 6bab 6b3e 10b1 ae3c d7cf ac3e
000002d0: 085d 9b3e 36fd e63d f0fe 013e 3866 873e
000002e0: 8471 373d 9e5d 4a3e 1018 c33d 6c9a 643e
000002f0: 13c4 0f3e f72b 453e 4158 0b3e 499e 97bd
00000300: fd06 423e 1643 dc3d 7822 cc3d c625 8d3e
00000310: ca18 143d 56b8 473e 1577 d13c b082 a53d
00000320: 6918 a1bd fd7a 303d 1391 79bd 6fa7 84bd
00000330: 8212 a13d ba6c b2bd 3309 c6bd 3c80 623d
00000340: 8567 b03d 5e09 3cbd 546d eebc 55ef a1bc
00000350: 3ce1 373d c24e 98bd bea3 9dbd 7020 c7bc
00000360: 2685 523d 71bc 0a3d d23d 203d 44c6 303d
00000370: 582f a5bd 53bf db3c 5e30 a63b 6a96 5bbd
00000380: ef7e b03d 8779 ab3d 98b3 563d ba5d 5b3d
00000390: a2f7 d53c af03 5ebd 8307 f93c a314 b0bd
000003a0: e6ff 95bb be8b 6f3c c45d 543d 9260 c1bc
000003b0: d1e9 073d af1c 1dbd 07c8 34bd 240d 893b
000003c0: fc78 4bbd 0f8c f53c 6b2d acbd d841 9cbd
000003d0: 1d92 ddbb dbe6 4e3d 3668 3abd a68f 7b3d
000003e0: 55a7 bf3d 71ef 033c 0621 a2bc 1d08 853d
000003f0: 6acb 563d 830e 4abd f649 b6bc 618e b7bb
0.07320607 -0.04176123 0.0273455 -0.02311307 0.09710896 -0.011449065 -0.08377162 -0.02109771
0.05824908 0.090252265 -0.014281231 -0.04790757 -0.013952384 0.061251305 0.029500809 0.14445718
-0.06487977 0.048198525 -0.053782623 -0.019045549 0.022601215 -0.052692156 0.05567786 0.013563265
0.042245846 0.04212989 -0.06251544 0.047397804 -0.003761428 -0.06807385 0.11741607 -0.06332456
0.06255833 0.0913606 0.021358788 0.0095802015 0.016611638 -0.025278803 0.10211656 0.0009265824
0.11286822 0.07947905 -0.01523614 0.053670064 0.03347484 0.08569429 -0.027225727 -0.07525312
-0.039902315 -0.07212242 0.09460984 -0.06108859 0.058400694 0.084263034 0.033857364 0.05265737
0.097262286 0.056580376 -0.0293957 0.09793439 0.06794336 0.0014729656 0.08665638 -0.07510094
-0.029185815 0.049330857 0.059572443 0.054939535 0.05453306 -0.009503891 -0.020097015 0.007740471
0.06577822 -0.0683415 0.02011509 -0.077115245 0.034476064 0.00015616338 -0.006422361 -0.0847446
0.078998975 -0.040722985 -0.07505786 0.025497163 0.082745336 -0.029796993 -0.036945637 0.05029976
-0.07807097 -0.04504022 0.07169471 0.06518838 -0.055189334 0.037270512 -0.04611374 0.034255836
-0.079623565 0.06460993 -0.07196903 -0.07212064 0.07534463 0.15390758 0.09000799 0.082705475
0.14628471 0.007350023 0.18084979 -0.04715391 0.2508465 0.13874003 0.21891145 0.073472165
-0.020518845 -0.024907472 0.11726981 -0.3212338 -0.1420193 0.20051928 0.1256982 0.04138584
0.042431522 0.07919016 0.20000245 0.11414379 0.13609025 -0.015361122 0.20982918 0.2658428
0.08204758 0.029334124 0.07437261 -0.0036577738 -0.1461168 0.0996347 0.06765357 0.056647595
-0.01511336 0.06031152 0.21608213 0.17509256 0.14217138 0.09034545 0.013080083 -0.08546422
0.0685066 -0.023541998 -0.05500536 0.21159019 0.09659434 -0.018401047 0.24452595 0.17211878
0.14548914 0.055884823 -0.016902635 -0.12564118 -0.015341137 0.23464705 -0.046693295 -0.107326955
0.07641617 0.060472578 -0.23032933 -0.13218026 0.181391 -0.24328984 0.14090982 0.096361704
0.11831182 0.20366049 -0.09472829 -0.015634775 0.09028917 0.19096963 0.061787307 0.073076196
0.21286853 0.2301461 0.021324664 0.3375232 0.30344415 0.11278765 0.12694907 0.26445174
0.04478599 0.19762275 0.09526074 0.22324532 0.1403964 0.19255053 0.13607885 -0.074032374
0.18947978 0.10754983 0.09967512 0.2756788 0.036156453 0.19503912 0.025569478 0.08081567
-0.07865984 0.04308604 -0.06092937 -0.06477248 0.07864858 -0.08712144 -0.09669723 0.055298075
0.08613495 -0.04590737 -0.029104866 -0.019767443 0.044892535 -0.07436897 -0.07697247 -0.02430746
0.05139651 0.033871118 0.039121456 0.04315783 -0.08065671 0.026824629 0.005071684 -0.053610243
0.08617961 0.08372789 0.052417368 0.05355618 0.026119057 -0.05420273 0.03039909 -0.08597686
-0.0045776246 0.0146207195 0.051847234 -0.023605619 0.03318197 -0.038357433 -0.044136073 0.0041824747
-0.049675927 0.029974012 -0.084071 -0.07629746 -0.006761803 0.05051313 -0.04550954 0.06141629
0.09358088 0.008052693 -0.019791137 0.06495688 0.052440085 -0.049330246 -0.022252064 -0.0056016897

gru.bias_hh_l0 f4 [300]
00000000: f7a1 d0bc 26a5 883d 9a30 b03d 3a8c 333d
00000010: f4d4 993d 00ec 4e3d c063 bf3b 06bd 04bd
00000020: b9ac f73c 090f a83d 45be 623c 25ae f53c
00000030: ec9c 883c 8d68 993c 04bd 303d 9665 42bc
00000040: 2cbb 82bd efe5 5c3d 3b71 a73d a3ca 0d3e
00000050: a53a 75bd a7c4 06bd 2602 ef3d 356f 873d
00000060: 8118 1cbd ddbe 203d 673b 443c 9b3a 32bd
00000070: 3a31 c83d 432e d73c 3a83 7c3d 91cc b73d
00000080: 790c 62bd 178a cc3d afdb a23d 1a11 b7bc
00000090: f536 b23d a995 963d 14ef 1fbd b331 dc3c
000000a0: 3151 b53d dd70 1e3d 94b9 7bbb 742d ca38
000000b0: 127a bbbc 47f7 a63d 03a5 023c eca8 44bd
000000c0: b92e 623d 1623 403d 56d4 753d 65a5 4dbc
000000d0: c5c0 afbb 2873 773d 77d8 c33d 17d2 2dbd
000000e0: 0e75 913b c2a6 4d3d 8aef 1abd aed4 973d
000000f0: b818 92bc 83c2 ff3d ebf3 4abc 0b02 523d
00000100: a4a0 7abd baf3 113d a49f 943d 67f1 8f3d
00000110: 7d45 063e 30a2 98bd d875 0b3c eb54 793d
00000120: b512 8ebc 9e71 b13d fa04 073d d533 cbba
00000130: df24 52bd 14d8 e03d 0c64 113c bc5f 9fbd
00000140: 671c b03d e2f2 ea3c 1dfe b73d 501f cc3d
00000150: c22c a9bd bd51 023d 08ae fd3d f70a 323d
00000160: 8f8d acbc 11af be3d 78ea ac3c f198 8fbd
00000170: 673e e13d 072b d43d 5413 5cbd 4d37 4ebd
00000180: 25f3 6a3d a0cd a23d 5e5b 53bd df92 0cbd
00000190: 30c6 123e 065f 0e3e fcbe e33d 5781 913d
000001a0: 8600 b53d 8e6b 5a3d efdf 263d c1d9 5c3d
000001b0: f2ce 5f3e be80 da3c ece7 663e 0b18 f63d
000001c0: 1992 f13d afa7 d83c d653 b63d e04b 94be
000001d0: 0742 d7bd 2266 543e 4e71 3c3d bf47 c03d
000001e0: 0efa 3f3e b052 e93d 7995 643e c2a1 603e
000001f0: 4c0a 273e b169 153e bc6b 1e3e d1e5 a53e
00000200: e4f5 03bd 9eb4 763d 8278 d03d 5001 ca3d
00000210: af0b f4bd 8ee7 643d 66b5 5f3c 2c55 3f3d
00000220: e0bb bb3c e27d 3b3e 5842 aa3d daed 2e3e
00000230: 45e6 723e 5ce8 443d cb8b a4bb 0a8d e4bc
00000240: 2f1a 953c 7602 753d c9b5 4abd fa0f 123d
00000250: e6e8 083c be46 9f3d b752 5e3e feaf dd3d
00000260: 64ec de3d 9bdf 893b 5770 223e 33a8 e5bd
00000270: afc6 2fbb 76f0 743d 54c7 d1bd fc05 113d
00000280: 4a8a 6c3e 108c 583d 0a77 22be 84ea 12bc
00000290: 3e4f 8e3e f30f 70be 0de1 4b3e 8f0b 5f3c
000002a0: 7fec c83d 47f3 aa3d 1d19 91bc 2b6c 08be
000002b0: 5219 16bd 1212 6b3d 237c cd3d b893 6fbd
000002c0: 71bf 223d 2941 273e 5a28 053e 5cc6 a63e
000002d0: 7abb 393e a498 303e e9f1 fa3d 0cae 743e
000002e0: f27a 383e 1d93 523e 74ca 583e 64da 5a3e
000002f0: 442c 9d3d 7ee3 213e 749b 8b3c 539f f5bd
00000300: 1c4e 143e 2fde 833c cb1f e93d b3af 263e
00000310: ae11 0d3e 0c0c 333e 34e9 0d3d ea9b 233e
00000320: 062a 69bc 7ab9 d2bc 3091 393d 9b34 303b
00000330: bcaa 203c 85a0 b33d 701e 0c3d 92bd d93c
00000340: 3356 713c 8b70 f83b 8a0b 933d 299f 253d
00000350: e3a1 babd f01e 4dbd 0a7d 67bd 2208 8bbd
00000360: 90dc 8c3d fffc 523d f1f5 9cbd 12c5 c23c
00000370: c4ce 313d 6066 af3d 8b94 90bd 1504 57bd
00000380: 47f7 a9bd 1797 10bb d029 783b 0bc8 3a3d
00000390: 27d3 f4bc 85c9 06bd 1927 bebd 4752 21bd
000003a0: e551 5b3d 7958 b5bb 6fe5 b4bd 8cf4 9cbd
000003b0: fff7 bc3d 1b49 4d3b 9d85 82bd aca3 cabc
000003c0: b348 393d af5d bebd 909e 893d e8c8 b0bd
000003d0: 1941 1f3d 508d a6bd 8232 cabd 381f 293d
000003e0: 4c64 6e3d 9a3f 7ebd 65e9 a13d 61bb d2bd
000003f0: 2605 abbc b54f 4b3d e772 79bd 8302 393d
-0.025467856 0.066721246 0.0860302 0.043834902 0.07511321 0.050518036 0.0058407485 -0.03240683
0.030233728 0.08205993 0.013839309 0.029990265 0.016676389 0.018726612 0.04314901 -0.01186504
-0.063833565 0.05393022 0.08175894 0.13846831 -0.05987038 -0.032902386 0.11670332 0.06613008
-0.038109306 0.03924452 0.011977053 -0.04351292 0.09775014 0.026267176 0.061648585 0.08974565
-0.055187676 0.09987276 0.079520576 -0.022347022 0.087018885 0.07352764 -0.039046362 0.026879167
0.08853377 0.038681854 -0.0038410174 9.640577e-05 -0.022885356 0.08152633 0.007973912 -0.04801266
0.05522034 0.04690846 0.060016952 -0.01255164 -0.005363556 0.060412556 0.09562772 -0.042436685
0.004439003 0.05020786 -0.0378261 0.07413612 -0.017834052 0.12488272 -0.012387256 0.05127148
-0.061188355 0.035632826 0.072570115 0.07028466 0.13112445 -0.0745281 0.008511983 0.060872
-0.017342905 0.08664249 0.03296373 -0.0015503118 -0.051304694 0.10978714 0.008873951 -0.07781932
0.08599167 0.028680269 0.08984015 0.0996691 -0.0826049 0.031816233 0.123867095 0.04346749
-0.021063594 0.09310735 0.021107897 -0.07011593 0.109982304 0.10359769 -0.05372937 -0.050345708
0.057360787 0.07949376 -0.051600806 -0.034319755 0.14333415 0.13903436 0.11120412 0.07104748
0.088379905 0.05332523 0.040740903 0.053918604 0.21856287 0.026672717 0.22549409 0.120163046
0.11795444 0.026447145 0.08902709 -0.28964138 -0.105106406 0.20742086 0.046006493 0.093886845
0.18747732 0.113927245 0.22322644 0.21936706 0.16312522 0.145911 0.15470785 0.32401899
-0.03221692 0.060230844 0.10179235 0.098635316 -0.11916291 0.05588489 0.013654089 0.046712086
0.022916734 0.18309739 0.08313435 0.1708292 0.23720653 0.048073158 -0.0050215474 -0.027899284
0.018200962 0.0598168 -0.04948977 0.035659768 0.008356309 0.07777165 0.2171124 0.108245835
0.10884932 0.004207564 0.15863167 -0.11213722 -0.0026821306 0.059799634 -0.10243097 0.035406098
0.23099628 0.05286795 -0.15865722 -0.008967046 0.27794832 -0.23443584 0.19910069 0.013613596
0.09810733 0.08347183 -0.01771217 -0.13322513 -0.03664524 0.05739028 0.10033443 -0.058490485
0.039733354 0.1633345 0.13003674 0.3257321 0.18137923 0.17245728 0.12253172 0.23894519
0.1801565 0.20563932 0.2117098 0.21372372 0.076744586 0.15809438 0.0170419 -0.11993279
0.14482921 0.016097156 0.11383017 0.16277961 0.13776276 0.17485064 0.034646228 0.15977445
-0.014231211 -0.025723208 0.045304477 0.0026886824 0.009806331 0.08770851 0.034208715 0.026579652
0.014730024 0.0075817755 0.07179935 0.04043499 -0.09112909 -0.050078332 -0.05651573 -0.067886606
0.068780065 0.051510807 -0.07664097 0.023775611 0.043410078 0.08564448 -0.07059582 -0.052494127
-0.082991175 -0.0022062713 0.003786672 0.045600932 -0.029885842 -0.032907028 -0.09284801 -0.039385106
0.053544898 -0.0055342284 -0.088328235 -0.07663831 0.09226989 0.0031324092 -0.06373141 -0.024736248
0.045235347 -0.092952125 0.067196965 -0.0863207 0.03888044 -0.08132422 -0.09872915 0.04128954
0.05820112 -0.062072374 0.079058446 -0.10289646 -0.020876478 0.04963656 -0.060900595 0.04516841

fc.weight f4 [2, 100]
00000000: fdb8 133e c12a fbbd 8d06 00be 98ee b33c
00000010: 57b8 363d 5692 0c3e f64f 95bd ed3d ffbd
00000020: c59a 283e 3c9c 173e c6d0 4fbe 6bb4 d83d
00000030: 8a55 a13d aceb 043e 9c91 8bbd bd1a a1bc
00000040: 3dcf eebd 3485 383d a311 42be 5108 333d
00000050: 86fb df3d 7136 d3bd a8f4 0ebe 6c84 133e
00000060: 9406 113e 12fc ca3d 4a3b 1ebe 79e9 963d
00000070: b0a9 aabd 67a6 fcbd 357b 253e 3a97 c83b
00000080: 6417 a2bd f291 883c af43 1abe 7cb3 3cbd
00000090: 0a21 cebd 3aae 173e 7ea2 febb 6d45 953d
000000a0: 4698 d53d f1c9 92bd 9775 ef3d 9b44 1b3d
000000b0: 455a 1d3e 8774 833d 61c0 f93c f2b9 ddbd
000000c0: e055 92bd 53c1 0abe 6878 adbd 11e1 533c
000000d0: 4f9b d13b 9603 213e 2f93 4fbd 64eb 17be
000000e0: ae4c a4bd a796 f4bd 1633 b6bd 0d1d 963d
000000f0: aff5 32bd ee55 e33d a447 06bd 4be3 a6bd
00000100: f2d0 01be 13df 0f3e 3967 a43d 158c 8c3d
00000110: 7c65 a7bd 7803 62bd fea6 5e3d 7fa7 d03d
00000120: 93d9 7f3c c4e1 87bd ae72 a7bc 4f85 c73d
00000130: c1a9 2dbe aee6 ad3d b8ef 073e 887c c63c
00000140: 06f7 2cbc 440c 3c3e 568f 03be 6b8f 1b3e
00000150: 6de5 97bd 2784 f7bd cf03 093e ecf1 613c
00000160: a4d3 0c3e f972 873d 6bd2 4a3d 133a 293d
00000170: dac1 cebd 0845 aa3b cc43 fe3d 65e3 83bd
00000180: 6dc0 c2bd 3f32 0cbe 4895 98bd a142 d5bc
00000190: 11be 16bd 3277 e13d 6d06 093d c672 e5bc
000001a0: 05a8 e4bd 160c f0bd 07fa 013e 5d59 183d
000001b0: 7837 b0bc 4b78 69bc e98f 5a3c d209 e7bd
000001c0: 6b5a 23be 43e2 4abd fc19 4e3c 81a7 bf3d
000001d0: ffb0 493d aaf1 f1bd d042 093e 9f85 07be
000001e0: 22e6 d0bd a870 fb3c 09aa c13c 1c68 8ebd
000001f0: a9a7 90bd d81a 0dbe bdd0 703d 5ac5 e6bd
00000200: 3bf9 5e3d 4a16 ec3c 9250 79bd 3f4d 05be
00000210: 7846 ca3d f9c7 29be 7e1a 633b 14aa d13d
00000220: 2232 9d3c 5842 c7bc f37a 30be 9f39 d9bd
00000230: 2214 cabd 27b3 d93d 4e9a 93bd 8cc7 e73c
00000240: be6c 12bd defa 10be 906f 74bd 1ced a03d
00000250: e3bf 003d 048d db3d cc7e 0b3e 41fe 203e
00000260: 8bbd 30be 218e 3e3c a7a6 b73d bc7a e93d
00000270: 1055 413d fb79 903d 0906 f13d 103b 98bd
00000280: 2c6a 1f3e 6949 03be 37bb 0f3e 5722 c03d
00000290: d42c 093d c1aa d8bd a3be d4bd 005f 8cbd
000002a0: 4eef 093e c734 01bd 8879 01be 8258 b0bb
000002b0: 7e64 dcbd 2892 37bd 7a51 df3d 7fd9 1fbd
000002c0: 4c27 9d3d e30d b73c 8eba ecbd 0d86 f1bd
000002d0: 741f 183e 7dfb cabc 1cb4 6c3d 689d 39bd
000002e0: 0a1a c43d 0c30 b73d 984d 01be 8e29 d0bd
000002f0: 8d36 cfbd 972e d9bd 8ba3 f03d 24c1 e93d
00000300: 0af6 d43d 843f e73d 3cf1 94bc 7270 f03d
00000310: 4481 913d 935e f93d 9f20 a63d 5f13 373e
0.14426036 -0.12264014 -0.12502499 0.021964356 0.044609394 0.13727698 -0.07290642 -0.12462983
0.1646529 0.14805692 -0.20294484 0.10581287 0.078776434 0.12980527 -0.06814882 -0.01966607
-0.11660621 0.045048907 -0.1895204 0.043709103 0.10936646 -0.10313118 -0.13960516 0.14405984
0.14162666 0.0991136 -0.15452304 0.0736875 -0.083331466 -0.12336426 0.16160281 0.0061215432
-0.07914618 0.016671155 -0.15064882 -0.046069607 -0.100648955 0.14812556 -0.0077708354 0.072886325
0.104294345 -0.071674235 0.1169235 0.037907224 0.15366466 0.0641871 0.030487241 -0.10826482
-0.071452856 -0.1355031 -0.08470231 0.012932078 0.006396688 0.15724024 -0.050677475 -0.14835888
-0.08022438 -0.11942797 -0.088964626 0.0732976 -0.043691333 0.11100374 -0.032783166 -0.081488214
-0.12677363 0.1404994 0.08027501 0.06862656 -0.081736535 -0.05517909 0.054358475 0.10188197
0.015615839 -0.06634858 -0.020440426 0.097422235 -0.16959287 0.08491264 0.13275039 0.024229303
-0.010556942 0.18364054 -0.12847647 0.15191428 -0.07416806 -0.12085753 0.13380359 0.013790589
0.1375261 0.06613726 0.049517076 0.04131515 -0.10095568 0.0051962174 0.12415275 -0.064398564
-0.095093586 -0.13691042 -0.07450348 -0.026032748 -0.036802355 0.11009063 0.033453394 -0.02800883
-0.1116486 -0.11721055 0.12693034 0.0371946 -0.021510825 -0.0142498715 0.013339975 -0.1128117
-0.1595246 -0.049532186 0.012579437 0.09358121 0.049241062 -0.11813672 0.13404393 -0.13234566
-0.10200144 0.030693367 0.02364065 -0.06953451 -0.07063229 -0.13779771 0.05879282 -0.112681106
0.054436903 0.028819222 -0.060867853 -0.13017748 0.09876722 -0.1658019 0.0034653242 0.10237518
0.019188944 -0.024323627 -0.17234401 -0.106066935 -0.09867121 0.10629874 -0.07207166 0.028293394
-0.035748236 -0.14158198 -0.059676707 0.07857725 0.031432997 0.10720256 0.13622588 0.1572199
-0.17259805 0.011630566 0.08967333 0.11400363 0.047200263 0.07054516 0.11768729 -0.0743314
0.15567845 -0.12820973 0.1403626 0.0938155 0.033490017 -0.10579444 -0.103879236 -0.06854057
0.13470194 -0.031544473 -0.12644017 -0.0053816447 -0.10761355 -0.04481712 0.10904212 -0.03902578
0.07673511 0.022345489 -0.1155902 -0.11793146 0.14855748 -0.024778122 0.057788953 -0.04531613
0.09575279 0.08944711 -0.12627256 -0.10164176 -0.101178266 -0.106045894 0.11749943 0.11413792
0.10398491 0.112914115 -0.018181436 0.11740197 0.071047336 0.12176242 0.08111691 0.17878483

fc.bias f4 [2]
00000000: 817f 59bb 7013 0abc
-0.003318757 -0.008427486
