results/gru/gru_hidden_150_layers_1_bidirectional_False_length_64_batch_64_lr_0.001.pth (torch, 367764 bytes, 6 tensors)

gru.weight_ih_l0 f4 [450, 50]
00000000: 1f4f acbd 704a e73d bf6a 283d a0d6 cebb
00000010: 3424 923d cce3 eabd 569c 66be 278a 443d
00000020: add0 e1bd 8a02 833e 2328 4bbd 4577 60bc
00000030: def8 9dbd 3e1d 38be 1d37 58bd 5f51 783d
00000040: 73b4 0e3d c2ba 8bbd c62f 49bd b2c9 3ebe
00000050: b87a aebd fda9 dfbd b8ef bebd b1dd ecbd
00000060: a84c f0bd aadf ca3d 9436 783c 9db6 f5bc
00000070: 69c7 de3d 8aca 10be 5c59 443d 8d2a 80bd
00000080: 51c3 0f3d f766 e6bb e164 d4bd 8a8d cc3c
00000090: b89f 973d 69d0 e43d f515 c13d ea16 b13d
000000a0: 990e 32bd b6c0 8e3d d449 2a3e 2eea b63c
000000b0: 4476 70bd 522c 013d 56b4 04be 4eba e73d
000000c0: f67c 7b3d d3cb 12bd e0ec 3abe e030 0dbe
000000d0: 8933 2d3c f680 08be 091e 43bd 156d 6f3d
000000e0: 061b aa3e 5e12 be3c 7c2c 94bd 818b f2be
000000f0: df31 24bd 5a50 ad3d cbd8 7cbc 8e20 fd3c
00000100: e367 dfbd 481f d1bc f89d debd 3f54 f1bd
00000110: 743b 3b3d 5acb 1f3e 9c5e bbbd f372 c7bd
00000120: 56e0 a5bd f336 30bd edcb f9bd 34f7 0ebe
00000130: 7083 8abe 2dcf dc3d a0b5 213c 831e 103e
00000140: 0456 59bd c342 1dbd bb47 dbbd cb99 f6bd
00000150: 20ea bbbd bf14 3ebd ee3d bfbe 2039 723c
00000160: c398 023b 06f3 863d fdbd 1b3d c480 863d
00000170: ce73 303e a28e dbbc 83e6 c53e 1694 473e
00000180: 0af0 89bd 679a a4bd ee9a aebd 5021 ab3d
00000190: 01b3 a6bd f2dd 753d 7970 a6be e0ff 413e
000001a0: de3f 1e3e afbc ac3e 7887 0dbe 330a 0cbe
000001b0: 042d a6bd 9baa 5d3e e382 0cbe 8c9a 8cbd
000001c0: aef4 f33b afb7 6fbc 9939 71bd 8c90 59be
000001d0: 971f 01bd a4c6 a33d 2536 a03e 0dbe d0bd
000001e0: bccb 783a d26e af3d 70e7 803c c296 f83b
000001f0: 89ce dd3b 1029 c2bd c39d 7f3d 65ec 663e
00000200: 7273 b63d a36a 88bd 5fd2 79bd 3bc2 df3d
00000210: 8448 bf3d dbc5 47bd d2cf 0dbd 9a04 80bd
00000220: 8bbe 893d 2375 4fbe e207 08be 8b7a e0bd
00000230: 4b07 613d 3728 e4bd 20c6 2ebd 11b7 f6bd
00000240: 9cab d53d 5cc0 97bd d572 9e3a 1797 88bc
00000250: 4f14 b33d 4294 883d 0394 03be 77ab cdbd
00000260: 9c61 7ebe d8a4 6cbe 02ef b63e d6d5 ea3e
00000270: 3c2d 363e 51a8 7c3d cd1a 073e 364b 0fbe
00000280: 540c 94bd 4cdd b03d 40cb e9bd 435a 3dbe
00000290: 00da 623e d431 8fbc 996f c4be b700 2dbd
000002a0: 46a5 cd3d cbf2 9e3d a237 24ba 31d5 bbbd
000002b0: 0fed 493e 0429 acbe fcc7 3a3e 6737 22be
000002c0: 41ac 913e 7850 9fbe 33ad 66bd 80da 8f3e
000002d0: 37f9 d7bd d291 29bd 0cdb d63b 16d1 0bbb
000002e0: b96f d63c 1e04 cd3d c247 11be 7ff4 233d
000002f0: c16d b6be a986 c0bd cbcb 953e 33ac a63d
00000300: 1c6b d2bd d521 be3d e8bd 953e 2d8f 103d
00000310: 90c4 9ebd a38d 8abd 8499 983d 3fde 013e
00000320: 2543 a73a b644 843d 95eb 3e3c 44ca ce3c
00000330: 7692 b0bd c1fd af3d 4b78 9e3d 8270 8cbd
00000340: 6292 253d 7bd6 253e 3277 e5bc 9676 0fbe
00000350: 59a5 d03d ade6 a93b 9220 2bbb f43e 0b3e
00000360: 7538 9bbd 150e b63c bea4 143e faac ac3d
00000370: 7e79 d13d 200b 12bd 1510 a0bd 3c24 d6bd
00000380: 0623 f8bc 87ec 8a3d ff7d 47be c3b8 97bd
00000390: f2c1 2cbb 7490 663c 7a8b 9d3d e412 653d
000003a0: 1d40 46bd d012 873d a430 9a3d b67c 1ebe
000003b0: f519 5ebd 7010 3abc ddc9 d53d 7590 9fbd
000003c0: be55 0abe 7d2f 873d 9cc6 133d 5d57 cabc
000003d0: 8932 513c 0b29 6c3d fdba 16bd e984 7d3c
000003e0: 3ad4 9b3d 27a1 58bc 7b08 ac3c 1d65 0dbd
000003f0: 7ef3 3f3c fcd5 283e 3640 a03d 0f4b 7b3e
-0.08413529 0.11293495 0.041117426 -0.0063122064 0.071358114 -0.1146923 -0.22520575 0.047983315
-0.1102613 0.25587875 -0.049598824 -0.013700311 -0.07713483 -0.17979905 -0.052786935 0.060624477
0.03484006 -0.068227306 -0.049117826 -0.18631628 -0.085195005 -0.109210946 -0.093230665 -0.11565722
-0.11733371 0.09905942 0.015149731 -0.029994303 0.10877878 -0.14139763 0.047936782 -0.06258116
0.035098378 -0.0070313173 -0.103708036 0.024969835 0.07403511 0.111725636 0.09428016 0.08646949
-0.043470953 0.069703504 0.16629726 0.022328462 -0.058706537 0.031536408 -0.12959418 0.11314832
0.06139847 -0.035838913 -0.18254423 -0.13788176 0.010571369 -0.13330445 -0.047636066 0.058453638
0.33223742 0.023202118 -0.07235047 -0.47372058 -0.040086623 0.084625915 -0.015432547 0.030899312
-0.10908487 -0.025527611 -0.10869974 -0.11783647 0.045710996 0.15604916 -0.09148905 -0.09738722
-0.08099429 -0.043021154 -0.12197099 -0.13961488 -0.27053404 0.10781703 0.009869963 0.1407414
-0.053060547 -0.038393747 -0.10707041 -0.120410524 -0.09175515 -0.046406504 -0.37351936 0.0147841275
0.001992748 0.06589322 0.038022984 0.06567529 0.17231676 -0.026801411 0.3865243 0.19490084
-0.06735237 -0.080372624 -0.08525644 0.08355963 -0.08139611 0.060026117 -0.32507685 0.18945265
0.15454051 0.33737704 -0.13821208 -0.13675766 -0.08114055 0.21647112 -0.13721804 -0.06865415
0.0074449396 -0.014631196 -0.05889282 -0.21246547 -0.031524267 0.07996872 0.3129131 -0.10192499
0.0009490808 0.08566059 0.015735358 0.007586331 0.0067690057 -0.09480488 0.062406313 0.22551115
0.08908738 -0.06660964 -0.06099164 0.109257184 0.09340003 -0.048772674 -0.03462202 -0.06250878
0.06725796 -0.20259528 -0.13284257 -0.10960873 0.054938596 -0.11140483 -0.042669415 -0.12046636
0.104331225 -0.074097365 0.0012088666 -0.016673608 0.08744108 0.06668903 -0.1284943 -0.1004247
-0.24841923 -0.23109758 0.35729223 0.4586627 0.17790693 0.061683957 0.13193817 -0.13993534
-0.07228914 0.08635959 -0.1141572 -0.18491463 0.22153473 -0.017479815 -0.38366392 -0.04223701
0.10041289 0.07761153 -0.00062643935 -0.091715224 0.19719337 -0.33625042 0.1824035 -0.15841447
0.28451732 -0.3111608 -0.05631752 0.2809639 -0.10545581 -0.04139883 0.006556874 -0.0021334342
0.02617632 0.10010551 -0.1418753 0.04002809 -0.3563061 -0.094006844 0.29257044 0.08138313
-0.10274336 0.09283797 0.2924645 0.035292793 -0.07752335 -0.06765296 0.07451156 0.12682436
0.00127611 0.06458418 0.011652847 0.025242932 -0.08621685 0.085933216 0.07737788 -0.06857397
0.040422805 0.16195099 -0.028010938 -0.1401008 0.101877876 0.0051849694 -0.0026111943 0.13598233
-0.07579128 0.022223512 0.14515969 0.0843143 0.10228251 -0.03565514 -0.078155674 -0.1045613
-0.030290138 0.06783395 -0.19481657 -0.074082874 -0.0026360718 0.014072526 0.07692619 0.05592622
-0.048400987 0.06595385 0.07528809 -0.15477261 -0.054223973 -0.011356458 0.10438893 -0.07791225
-0.1350927 0.066008545 0.03607808 -0.024699861 0.012768396 0.05765633 -0.03679942 0.015473583
0.076088384 -0.013222015 0.021000138 -0.034520257 0.011715768 0.16487879 0.07824747 0.24540351

gru.weight_hh_l0 f4 [450, 150]
00000000: d4dd debd 5550 2fbd 84d4 f5bc 4904 633d
00000010: 18c8 8c3d 128c 183e 0a72 ee3c 4eb6 eebd
00000020: 9dbe 793d fdb0 3dbe 2c99 7abc 3e20 1b3b
00000030: 47b6 6ebd e448 a1bc 28bb 5fbb e979 ae3d
00000040: 2777 16be ada9 d23c 7a73 5b3c a4a5 bc3d
00000050: 2101 88bd 300e 9e3d 1aa5 8c3c 9c8e d4bc
00000060: 7088 c9bb 40e6 87ba 6ca0 503e 79ee 98bd
00000070: db86 e83b e073 afbc 01d3 a13c fa00 d2bb
00000080: 3004 783d 8fbd 9f3d 9f5b d0bc 974e d9bc
00000090: 3b03 443d c31a 163d 942c b2bd 82a4 f0bb
000000a0: 8f62 34bd 26a8 5dbd c5ca a1bc f7cc 923d
000000b0: 223d cb3d 737d 233d be8e 3e3d 0a13 cf3c
000000c0: 3a91 0fbd 0984 b1bd 4d43 243d d743 e1bc
000000d0: 99ac fa3d e9dc aabc a0b9 75bc 8307 11be
000000e0: 633c cbbd 2937 2bbe 5b0d 1fbe 9259 4bbd
000000f0: 4228 963d 0dfd 1b3d 3ca4 9e3d f4e7 11be
00000100: 03d0 6cbd f163 20bc 32f2 e9bd 4311 8ebd
00000110: 10a2 923d 0639 05bd 549d 6fbd 33c9 403b
00000120: 50e9 e93d 034a f3bc d503 e4bb 9df3 a0bc
00000130: 1e44 803d 2706 173d 4db2 9c3c 5ed1 98bd
00000140: 5521 68bd 9a2e 81bc 4ed3 ae3b a9ab 5b3d
00000150: cea6 28bd 10f6 353d 9c89 2abd 84b2 c13d
00000160: 975f 093e ef06 b83d 0483 5f3d f1dd 84bb
00000170: 5f67 c3bc 8bcf 983d fb36 c33d dbe6 c83d
00000180: 2d4b 4cbd 971d 883c 39db 913d 9cb7 d7bd
00000190: 55dd e4bc 997e 0fbd f2cc c93d 64db 57bd
000001a0: 4e58 9f3d bbec 0e3d cc6e 413c 92ae 98bd
000001b0: 8961 dc39 bb7f 63be 5dea 20bc a97d f8b9
000001c0: b4c6 503c 1c55 45bd 7991 bbbd df8f bdbd
000001d0: 1bc6 8fba 45b0 8f3d c755 403d 05e4 18bd
000001e0: 0cfd cc3d d16e 92bb cb94 7abd 5800 cfbc
000001f0: 4688 0ebd ff22 86bc d78a b03d fdd2 213d
00000200: d8a7 18bd 912c a5bd 319b 4cbd 2023 3abd
00000210: 09b1 803d 7a72 0bbc c0ca b93c 4d70 723d
00000220: c49b 33bd 9a9a 023d 872f 9bbd 9d85 953c
00000230: 1624 d23c 60a9 82bc f1a4 a03c 6518 02be
00000240: 7174 b33d 26f7 12bd e926 8e3d 6047 1fbd
00000250: 5e33 c23d ac56 66bd aa67 183e e3fb 81bd
00000260: 7b0f 06bd c89e 8ebc ae06 8ebd f1fb d53c
00000270: 5bd7 2dbd 73b9 523d 930a e83d f492 3fbd
00000280: 2b04 3f3e 6188 6cbd 0c7b 6f3c 44e7 133c
00000290: 9760 f6bc 4de4 a93c 2258 9abd e095 5e3c
000002a0: 3c62 42bd 3435 06be 5ea3 1a3e e0e0 5d3e
000002b0: f77f 1e3e 68c6 263d c904 c33d c1d9 f7bd
000002c0: 9b57 263a 4885 f0bd 2d12 553c ff63 883d
000002d0: 69b3 3fbe 043b f5bb 8e77 89bd 0c96 873b
000002e0: 2f07 c83d 88e3 0bbc 1558 ad3c e86a 493b
000002f0: fdd0 81bd d424 3f3d 441a 983d ce75 6f3d
00000300: d485 c73d 0f0b b53c e1d8 62ba 6b35 1b3d
00000310: dae6 0d3e 3db8 80bd 68f8 ebbc 86e5 cfbd
00000320: 1eba 5d3c 6ccf b13d 7c0a 163e 5ef8 e1bd
00000330: 9e0a d93d ff78 4c3d e087 e23d 4ee2 cd3d
00000340: 8847 aabd d67e c93d c4e5 e0ba f2e6 fcbc
00000350: 0a0b 053e bb04 b9bd 67df dbbd 701a 043d
00000360: b82b 913c 7293 1c3e 31be 54be 54b7 7bbd
00000370: fe6a cebd 9a15 153b 10c5 1bbe 6126 56bc
00000380: b724 b5bd e526 b93d 7db0 41bd bc10 e43d
00000390: 421c 32bd 6790 b6bd a928 e8bc c142 033d
000003a0: bf8d 0bbd d684 87bb ed03 e2bc e801 07be
000003b0: 13c8 883d 5c75 eabc 557a 0f3c 45ae 80bd
000003c0: 3c3f c1bd 804c 13be af40 ed3d 943f edbd
000003d0: 6325 e3bc ff7a 13be 89a9 733d b2b1 fd3d
000003e0: afb3 9b3c ed94 6cbd b6cc 0ebe f31a 4d3d
000003f0: 4b80 ff3c f16f c6bc 3f29 aabc 9bf9 a33d
-0.10882154 -0.04280122 -0.030008562 0.05542401 0.06874102 0.14897183 0.029107112 -0.116558656
0.0609728 -0.18524547 -0.015295308 0.002367034 -0.058279302 -0.019688077 -0.0034138653 0.08519346
-0.1469389 0.025715673 0.013394231 0.09211281 -0.0664084 0.0771755 0.01716857 -0.025946908
-0.006150298 -0.0010368302 0.20373696 -0.0746736 0.007096154 -0.021417558 0.019753935 -0.006408808
0.06055087 0.07799827 -0.025434313 -0.026526732 0.047854643 0.036646616 -0.08699909 -0.0073438296
-0.044039305 -0.054115437 -0.019750008 0.07168 0.099237695 0.03991456 0.04652285 0.025277633
-0.03505061 -0.08667762 0.040103246 -0.027498169 0.12239952 -0.020857291 -0.01499787 -0.14163022
-0.09923627 -0.1672026 -0.15532438 -0.049645968 0.07331897 0.038083125 0.07746169 -0.1424864
-0.057815563 -0.009789453 -0.11423148 -0.06936886 0.07159817 -0.032525085 -0.05849965 0.00294168
0.11421454 -0.029698377 -0.0069584646 -0.019647414 0.06262992 0.0368711 0.01912799 -0.074618086
-0.056672413 -0.015769292 0.005335248 0.053630505 -0.041174702 0.044424117 -0.04163514 0.09457877
0.13415371 0.089856975 0.054568306 -0.004054778 -0.023853002 0.07461461 0.09531971 0.09809657
-0.04987638 0.016615672 0.071218915 -0.105330676 -0.02793757 -0.035032842 0.09853543 -0.05269946
0.07780515 0.034893733 0.011806201 -0.07455172 0.0004203434 -0.22216694 -0.009821502 -0.0004739587
0.012742687 -0.04817687 -0.09158606 -0.09255957 -0.0010969074 0.070160426 0.046956804 -0.03732683
0.10009202 -0.0044687768 -0.061177056 -0.025268719 -0.03479793 -0.01637411 0.086202316 0.039507855
-0.037269443 -0.08065141 -0.04995269 -0.045443654 0.06283767 -0.00851118 0.022679687 0.05918913
-0.04384972 0.03188572 -0.075774245 0.018252188 0.025651973 -0.015949905 0.0196099 -0.12704618
0.08762444 -0.03588023 0.06941015 -0.038886428 0.09482454 -0.056235 0.14883295 -0.06346872
-0.032729607 -0.017409697 -0.06934868 0.026121112 -0.042441707 0.05144639 0.11330142 -0.046771005
0.18653934 -0.05774725 0.014616739 0.009027306 -0.030075355 0.020738745 -0.07536341 0.013585538
-0.047456965 -0.13106233 0.15101382 0.21667814 0.15478502 0.04071656 0.09522397 -0.1210208
0.00063454517 -0.117441714 0.013004822 0.06659698 -0.18720783 -0.007483842 -0.06712256 0.00413776
0.09766995 -0.008538134 0.021160165 0.0030733887 -0.063386895 0.04666598 0.07426885 0.058461957
0.097423226 0.0221 -0.00086535333 0.03789274 0.13857594 -0.06285141 -0.028804973 -0.101512
0.013533143 0.08682141 0.14652437 -0.110337004 0.10597728 0.04992008 0.11061072 0.1005293
-0.08314425 0.09838645 -0.0017158319 -0.030871842 0.12992492 -0.090341054 -0.1073597 0.032251775
0.017721042 0.15290621 -0.20775677 -0.061454132 -0.10079001 0.0022748471 -0.15211892 -0.013070674
-0.088448934 0.09040622 -0.047287453 0.11136004 -0.04348398 -0.08914261 -0.0283397 0.032046083
-0.034070726 -0.0041357083 -0.027589763 -0.13184321 0.06678786 -0.028620414 0.008757194 -0.06283239
-0.09435889 -0.14384651 0.11584603 -0.11584392 -0.027727788 -0.14402388 0.059487853 0.12387408
0.019006578 -0.057759214 -0.13945279 0.05007453 0.031189105 -0.0242233 -0.02077162 0.08006593

gru.bias_ih_l0 f4 [450]
00000000: 7b99 0dbe 6ac2 10be cbc5 6cbd a2ff 7c3c
00000010: 1156 34bd ae49 dbbd 2606 bdbd a8a8 b9bc
00000020: 75b0 a0bc b1eb 3e3c 4e25 b0bc 8b9f c3bd
00000030: 273c abbd a385 c5bd 1326 79bd 17d5 f83c
00000040: cd64 49bd 83af ffba 571c bfbd e39d 4bbd
00000050: 08be 62bd 07da efbd 60b8 773d 669f 103d
00000060: db0f 37bd 6f00 a03c a1a0 04be eba4 4ebd
00000070: ef51 f2bd 8d86 febc e658 15be b153 fdbd
00000080: d843 1dbd ee68 01bd a0be 86bc 63d9 e9bd
00000090: 71cc d3bd 564a de3c 83ca 143c 1d1f 8fbd
000000a0: e4ae f8bd c063 51bd dddd eb3c b015 ccbd
000000b0: 688f 873c 3c02 0fbd 2432 0dbc b388 fdbd
000000c0: a324 89bc 8903 0cbd 53cf 9c3c 7f6e f8bd
000000d0: 3d42 02be 793e 0bbd 0c43 55bc a45d a63c
000000e0: 0cb6 6fbd 286f edbd d96c 5b3c 8d0f 7abd
000000f0: e7d1 06bd 9a4a a7bd 0516 043d cfa8 b93d
00000100: 590d e7bd 3188 8abd 33f9 8dbd 0185 ccbd
00000110: 28c0 87bd 1630 3d3c 719d b9ba 7a77 6cbc
00000120: 69cf e4bd 3279 3f3b a2f3 873a 5146 7abd
00000130: dbe2 c8bd f78d 3cbd ee95 803d 7aed c3bd
00000140: 7d80 d7bd 3386 4fbd 7f9a 4cbb e91c d7bd
00000150: 7914 a43c 5b3d 3bbd fb90 48ba 5b45 00bd
00000160: b74d a23c 7013 cdbb b09c c4ba e3e6 09be
00000170: 656f 27bc 9b77 b03c 067e b8bd ff7c abbd
00000180: e107 a7bd 405a ad3c 619c f3bd 923e e8bd
00000190: 3b81 213d be21 57bd c50f e5bc cb5c a4bd
000001a0: 541d 10bd 4bde d53c fd78 cbbd ef42 08be
000001b0: 4af4 e3bd 8830 1abe f9b0 23bd c63a 45be
000001c0: 56a4 c83b 1962 c13d 4b7b d9bc 4287 303d
000001d0: c28a ee3c 92c2 3d3d b9bd 87bd 9f89 aebd
000001e0: d574 efbd 6f68 a1bb 526c ebbb 3cb8 e8bd
000001f0: c720 2fbd 1ecb 81bb a734 cebc 5099 6dbd
00000200: c18c a13c 9f86 013d 32ec ad3c fb7c bbbd
00000210: 88cb 77bd ae7a a6bd bf6a 05bd ad76 013e
00000220: 302c d8bc 1cdc 82bd f845 88bd 3ae8 eabd
00000230: ac10 3dbd 81f8 21be 4f9a 25bd 5d9d 96bb
00000240: 4e02 9dbd 9d66 80bc a01c 3fbe c077 dfbc
00000250: 923e 6bbb 32b0 89bd 7930 f53c dc51 5a3d
00000260: 68cf 873d c399 7ebd 4784 103e 9a2f f43e
00000270: ca20 e63e d807 2bbe 09e4 f73e 703d 813e
00000280: f0b7 ca3e 5604 bbbd f6fa 1e3e 6361 9c3e
00000290: e3c9 7c3d ff98 fbbd 3900 b53e f6ba a73e
000002a0: f8db c6bb 7c19 b8bd e022 ee3c 55a5 0d3f
000002b0: f2f1 943d d270 853e c012 4ebd c1d1 e33e
000002c0: 0712 003e 517e 873d 2d43 d93e da21 b93c
000002d0: 662f 143f e97e 103f 6716 003e b67c be3e
000002e0: 804c c6bd fbcb ac3e 7f16 1fbd ab5d 863e
000002f0: a529 cb3c 5118 343d 27da 0a3f b30f 6dbc
00000300: 105c 853e 3513 383f 8779 a93b 79ab fdbb
00000310: e5f0 d33e e9c4 a93d 1050 b73e b58b 3a3e
00000320: 93c7 d33d 4de2 dc3d c7f4 02bd bead 483e
00000330: 47fe ed3d f092 093e 0439 bcbc db56 1c3d
00000340: 771f a93e 5c0c c33e 7092 11bc 51b5 183e
00000350: 6a5d e03d b1ff 163f c0af 4b3d 26ab 2f3e
00000360: 38f5 9b3b 645c 283f ec4b 2fbe 7309 303e
00000370: e338 8abd 1d74 eebc 43cd c63d 3276 ffbd
00000380: ff38 583e 8bb8 053e b802 9d3e 2f50 d93e
00000390: 39af 183e 3095 483d b47f ae3e 42fa dcbc
000003a0: c462 8f3e a2ef 11be 3f3a 653d 3024 0a3e
000003b0: 4988 563e 8c4f 913e dff8 e43d a9fb c93e
000003c0: 28ef c63e 8a24 783e a7c8 a73d 8948 ff3c
000003d0: a02d 85bb 8f5c 72bc d088 7f3d 1b69 7bbb
000003e0: 3edf 373e 14a3 6d3e 6e37 d63c 513c 65bd
000003f0: 5b1c 6ebc dbd5 bb3e 3e13 e13d ff83 a83e
-0.1382808 -0.14136663 -0.057805818 0.015441807 -0.04402739 -0.10707413 -0.09229688 -0.02266343
-0.019615391 0.011652873 -0.021502163 -0.09551915 -0.083610825 -0.0964463 -0.060827326 0.030375047
-0.049168397 -0.0019507263 -0.09331577 -0.04971112 -0.05535701 -0.11711507 0.060478568 0.035308264
-0.044692855 0.019531457 -0.129519 -0.050450247 -0.11832034 -0.031070018 -0.14584693 -0.123694785
-0.03839478 -0.03159421 -0.016448319 -0.11418416 -0.103417285 0.027135056 0.009081486 -0.06988356
-0.12142733 -0.05112052 0.028792316 -0.09965074 0.016547874 -0.03491424 -0.0086179115 -0.12379589
-0.016741103 -0.03418306 0.019141829 -0.121304505 -0.1272058 -0.033995125 -0.0130164735 0.020308323
-0.058523223 -0.11593467 0.0133926505 -0.061049987 -0.032915022 -0.08168526 0.032247562 0.09065401
-0.11281843 -0.06764258 -0.069322966 -0.09986306 -0.06628448 0.011547109 -0.0014161301 -0.014432782
-0.11172373 0.0029216525 0.0010372291 -0.061102215 -0.09808894 -0.046033826 0.06278597 -0.095667794
-0.10522554 -0.05066509 -0.0031220017 -0.10503561 0.020029293 -0.04571281 -0.00076509983 -0.031316143
0.019812448 -0.0062584206 -0.001500031 -0.13466983 -0.01021943 0.021541407 -0.09008412 -0.083734505
-0.081558 0.021161199 -0.11895061 -0.11340059 0.039429884 -0.052522413 -0.027961621 -0.08025511
-0.03518422 0.026106974 -0.09935186 -0.13306783 -0.11130579 -0.15057576 -0.039963696 -0.19260702
0.006123106 0.09442539 -0.026548048 0.043097742 0.0291189 0.046328135 -0.066279836 -0.08522343
-0.11692206 -0.0049257795 -0.0071845436 -0.11363265 -0.04275587 -0.003960981 -0.025171591 -0.05800754
0.019720437 0.031622525 0.02123079 -0.091546975 -0.060496837 -0.08128868 -0.032572504 0.12642927
-0.026388258 -0.06389639 -0.066539705 -0.11470075 -0.046158478 -0.15817453 -0.040430363 -0.004596396
-0.07666455 -0.01567393 -0.18663263 -0.027278781 -0.003589545 -0.0672306 0.02993034 0.053300723
0.066313565 -0.062158357 0.1411296 0.47692567 0.4494689 -0.16702211 0.48416165 0.25242186
0.39593458 -0.091316864 0.15525422 0.3054305 0.06171597 -0.12285041 0.35351732 0.32759827
-0.006068703 -0.08989236 0.029069364 0.553304 0.0727271 0.26062638 -0.05031085 0.44495967
0.12506877 0.0661589 0.42434064 0.02259915 0.57884824 0.5644365 0.12508546 0.37204522
-0.0968256 0.33749375 -0.038839813 0.26243338 0.024800131 0.043968502 0.54239124 -0.014469075
0.260468 0.7190431 0.005171958 -0.0077413884 0.41394725 0.08289511 0.3580327 0.18217357
0.103408 0.10785351 -0.03197172 0.19597527 0.11620765 0.13434958 -0.022976406 0.03816877
0.33031818 0.38095367 -0.008885011 0.14912917 0.10955317 0.58983904 0.049728155 0.17155132
0.004759457 0.65765977 -0.17118806 0.17191105 -0.067491315 -0.029108102 0.09707119 -0.12473716
0.21115492 0.13058679 0.30666137 0.42443988 0.14910592 0.0489704 0.34081805 -0.026974801
0.2800504 -0.14251569 0.05596375 0.13490367 0.20950426 0.28381002 0.11180281 0.39449814
0.38854337 0.24232689 0.08192568 0.031162517 -0.004064277 -0.0147925755 0.062386334 -0.0038362208
0.17956254 0.2320674 0.026149478 -0.055965725 -0.014533128 0.36686596 0.10989998 0.32913205

gru.bias_hh_l0 f4 [450]
00000000: 7516 dfbd 3c0e 4bbd 533b 24bd 9552 ecbc
00000010: dd6d 2c3d fdec a53c 6c05 d4bd f7c1 90bd
00000020: 0805 8b3d 4f3a 99bd b778 4c3d 7d00 61be
00000030: c407 30bc 1f81 0d3d 4f44 b7bd 01d5 a3bc
00000040: b709 cabd 4315 86bd 23df 153c 7450 3cbc
00000050: 9aca 523d 97a9 bfbb 3217 9bbc f8c8 773d
00000060: c73f 02be ef39 9dbc 8c82 33be fdf8 153d
00000070: 5dd4 91bd c054 1ebd e37f eabd 3a55 60bd
00000080: 3c0f 63bc e538 a83b 87b7 a9bd 6500 83bd
00000090: f28d eebd cbea ebbc 7a67 ba3b fed3 abbc
000000a0: 37fa e9bd cf1e 28be a839 f4bb 62e1 80bd
000000b0: 47a6 f2bc e3e2 07bc a61a 663c 374c bbbd
000000c0: 0368 a0bd 71a4 cdbb e427 433d 44bc 043c
000000d0: 861f 09be b91b ddbd d170 95bd ba48 a2bd
000000e0: 56a9 e8bd 4c71 2dbb 1055 3e3d 73a3 bfbd
000000f0: be1a 22bb a9ad 373c e488 c9bd 7076 f53d
00000100: 21a4 a2bd 53e6 413b 234d 49bd 5f6b 9fbd
00000110: d46e dfbd 444f adbc f574 89bd 81b8 853c
00000120: 99fe f9bd 0387 6abd 7a6c 06be 3402 a33b
00000130: 99bf 40bd 0fac 8f3b fdbe c4bd b9f1 88bd
00000140: 9011 c3bc f454 023d 5890 edbd a0a9 d4bc
00000150: 5f54 dc3c 403b 983d e117 1ebe 726c c1bd
00000160: c3b2 05bd ec33 b4bd 6832 dbbd 8295 55bd
00000170: 2ada b6bd 1d9e 88bd 1122 debd 8194 ebbd
00000180: c5bc 003d ad2f fd3c 70fa f0bc 08ab ddbc
00000190: c200 8a3c e0b4 10be 230f b8bc f85a 93bb
000001a0: cdb7 813c 72b4 17bd 4be5 90bd 6b97 8ebd
000001b0: b356 87bd 7773 80bd ec01 00bd 096e a5bd
000001c0: 2d24 b9bd 2ca1 933d 4b07 033d 178c 4a3d
000001d0: 3a61 ba3c 5360 c6bd 666d b1bd b33c f2bd
000001e0: f31c a0bd c492 163d 0109 02be 7408 fdbc
000001f0: 3e42 d9bc ef8e 04bd 5af1 27bd 238b 21bd
00000200: 46bf 683d 15be 9cbd 0804 f7bb 43b2 abbd
00000210: a550 ddbc a517 cebd 4e67 1cbe 48ae 9c3d
00000220: 25b1 42bd b857 083d 0858 edbd a9ee a4bd
00000230: 8243 89bd 91a7 7dbd f20d 553d c7d0 95bd
00000240: bbdd 8bbd 2ccc 2a3d 4bc1 44be 2cc0 e23c
00000250: fffc ef3c b963 26bc 8edf 06bd 7d43 423d
00000260: 7dc5 b5b9 778c 6dbd 80d6 843d 4a1f e43e
00000270: 038e e63e fd5f 36be bd4b 043f 8bae 953e
00000280: 0be6 b03e 17b6 3cbe 670c 7e3d 2453 1e3e
00000290: 9c84 f63c 2580 12be 8daf a53e 960b 9c3e
000002a0: 5e31 c63a 2ee3 27be 8671 95bd e27f f13e
000002b0: 1cfa d73d 271d 123e 07e3 84bd f4d2 083f
000002c0: 36f2 e63d f59d f93d 372e d43e c989 32bd
000002d0: 250e 093f 3ee4 273f d17f 2f3d 6ab6 c83e
000002e0: cabd 3a3c a4cc ab3e 3193 5d3d b968 7c3e
000002f0: 4ff1 89bd 06af fa3c ff59 de3e 38e4 35bd
00000300: 5a72 523e 77c4 1b3f cc9d abbd de57 4cbd
00000310: 5ea6 f73e fe11 b93d da20 c63e 9460 ce3d
00000320: c319 1d3e ee13 9e3c d94d 0dbd aef5 7a3e
00000330: cf4c 083e d82c ca3d b650 a43c 303d c43d
00000340: a7c2 8d3e e54b ed3e af1c 883d 27e0 143e
00000350: ec23 5b3e 3496 fa3e 4910 ecbc 63d6 113e
00000360: 5d0a 51bd e08e 0f3f a8b3 0fbd 16f1 963e
00000370: 3996 93bc e587 2e3d 6e7f 743d 51a1 bfbc
00000380: 0be1 5b3e 7b5a 323e a465 9d3e 8bbb e33e
00000390: bc51 4a3e ec34 903d 4dbc cf3e 715e 9b3a
000003a0: 5c86 af3e 645f bebd ed16 4b3d c231 fd3d
000003b0: 075c 9b3d 6569 813e d5dd 163e 51c7 a53e
000003c0: 6b32 8d3e 0308 4b3e e35c 003d eaa3 d6bb
000003d0: 87c7 0fbd e02a 913d 1310 c03d 09f2 003e
000003e0: 102f d43d 45f0 593e 7342 82bd c48b 7dbd
000003f0: 0307 843d 02ed bd3e 03fc 0a3e 504d 9b3e
-0.10892955 -0.04957412 -0.04009564 -0.028847972 0.04209696 0.020254606 -0.10352597 -0.07068246
0.06788069 -0.074818246 0.04991981 -0.21972843 -0.010744039 0.034546968 -0.08948576 -0.01999903
-0.09865134 -0.06547024 0.009147438 -0.011493791 0.051462747 -0.005849074 -0.018931959 0.060494393
-0.12719642 -0.019192664 -0.17530268 0.036614407 -0.07120583 -0.038655043 -0.11450174 -0.05476878
-0.013858613 0.0051337355 -0.08286958 -0.063965596 -0.11648168 -0.028798481 0.005688605 -0.02097511
-0.11424678 -0.16418003 -0.007453162 -0.06292988 -0.029620303 -0.00829384 0.014044439 -0.09145396
-0.07832339 -0.0062757065 0.047645465 0.008101527 -0.13390931 -0.10796303 -0.07296909 -0.07924028
-0.11360423 -0.0026465235 0.04646784 -0.09357347 -0.0024735178 0.011210837 -0.09840563 0.11985481
-0.07941461 0.0029586747 -0.04914583 -0.07784151 -0.10909811 -0.02115596 -0.06711761 0.01632333
-0.12206764 -0.057257663 -0.13127318 0.004974628 -0.04705772 0.0043845247 -0.096067406 -0.0668673
-0.023812085 0.0318193 -0.11599797 -0.02595979 0.0268957 0.07433176 -0.15438797 -0.094445124
-0.032641184 -0.08798966 -0.107029736 -0.052144535 -0.0892833 -0.06670783 -0.108463414 -0.11502934
0.031430025 0.030906523 -0.029416293 -0.027059093 0.016846064 -0.14131498 -0.022468155 -0.0044969283
0.015834713 -0.03703732 -0.07074984 -0.069624744 -0.066083334 -0.06272023 -0.031251833 -0.08077628
-0.09040103 0.072084755 0.031989377 0.049450006 0.02275144 -0.09686341 -0.08663444 -0.11827984
-0.078180216 0.03676106 -0.12698747 -0.03088782 -0.026520845 -0.032362875 -0.041001655 -0.03943933
0.056823038 -0.07653443 -0.0075383224 -0.0838361 -0.027015993 -0.100631036 -0.15273783 0.07650429
-0.04753222 0.03328678 -0.11589056 -0.08053333 -0.06702329 -0.061927382 0.052015252 -0.07315212
-0.06829401 0.04169862 -0.1921436 0.027679525 0.029295443 -0.010155612 -0.032928042 0.047427643
-0.0003467015 -0.057995286 0.06486225 0.44555122 0.4503022 -0.17810054 0.5167807 0.29234728
0.3455051 -0.18428837 0.062023547 0.15461403 0.03009253 -0.14306696 0.32360497 0.3047759
0.0015120914 -0.16395256 -0.072970435 0.4716788 0.105457515 0.14268933 -0.064886145 0.5344689
0.11276667 0.12188331 0.4144151 -0.043588433 0.5353721 0.65582645 0.042846505 0.3920167
0.011397788 0.33554566 0.05409545 0.24649324 -0.06735479 0.030601036 0.43428037 -0.0444071
0.20551434 0.60846657 -0.08379707 -0.049888484 0.48369116 0.09036635 0.3869694 0.100770146
0.15341859 0.019296613 -0.03449807 0.24507782 0.1331055 0.098718345 0.020058017 0.09581983
0.2768757 0.46346965 0.06646096 0.14538632 0.21400422 0.4894272 -0.02881636 0.14241938
-0.051035274 0.56077385 -0.035083443 0.2948081 -0.018015968 0.042610068 0.05969184 -0.023392351
0.21472566 0.17417328 0.30741608 0.4447902 0.19757742 0.07041344 0.4057335 0.0011853707
0.34282196 -0.09295538 0.04958241 0.12363006 0.07585912 0.25275722 0.1473306 0.3237863
0.27577528 0.19827275 0.031338584 -0.006550302 -0.035102393 0.07088256 0.09378066 0.12592329
0.10360539 0.21283062 -0.063603304 -0.06190087 0.0644665 0.37094885 0.13572697 0.30332422

fc.weight f4 [2, 150]
00000000: 0ce7 cd3c 6f91 9f3d 4cc8 38bc 49a6 4a3d
00000010: 2927 313c a590 debd e971 913d 7290 c1bd
00000020: 4bf7 10be fc04 b2bd c2a6 993c 8bde c03d
00000030: eae2 ed3d 52b3 6a3d b417 81bc cf71 d83d
00000040: 02cc 89bd 6033 a6bd e97f ed3d f4ba 823d
00000050: 0222 8dbd 1fd4 d9bd 5a4f 103d c43a 993c
00000060: 6224 51be 7434 25bc 5230 3a3d 2b92 993d
00000070: fc95 813c e192 2cbd dcca b6bd 831a dabc
00000080: 0226 38be b305 cf3d 2261 06be 5a0f 053e
00000090: 971a ccbb af83 1cbe e228 903c b41b 01be
000000a0: aa5d 8dbd c99d 81bd 5b29 d4ba 020d f5bd
000000b0: f6b0 c5bd 45b1 08bd 3482 a1bd b02b 653d
000000c0: 833e 51bd 66b7 883d c922 9ebd a543 08bd
000000d0: 90fb adbd 5c5f 12bd cfe8 003e 4840 18bb
000000e0: 7be0 7d3d fd45 e13d b38a 8f3d 4d8d 3dbd
000000f0: 9883 9b3d 5665 dcbd 9a77 a4bc 40f9 8a3d
00000100: 3727 023d e10c be3d c160 b93c b457 7b3d
00000110: 82fd b8bd 2d91 9fbd 774a 88bc b47a a8bd
00000120: a345 d8bd 9eb5 af3d 69a1 b93d 89e0 57bd
00000130: 31e4 05be a239 cc3d a908 cd3d 9ccc 35bd
00000140: ca53 19bd dfab 433d 0a3f a23d 8a30 3cbc
00000150: 6c8d 5dbd 93c4 f93d 6393 5e3d b18a 74bd
00000160: 7f22 b2bd 5296 053d 4580 09be 8078 a9bd
00000170: ce8a 0ebe b4b4 683d 7c15 94bd 3ed3 32bc
00000180: 6e5d 1d3e 52d4 013d 7308 35bc c99d e6bd
00000190: 4901 b23d 38c2 5f3d 81b5 1e3d 58ba 813c
000001a0: 6370 08be 53a6 c13a e3a6 483d 774f d23d
000001b0: fc9e c53c e980 4d3c 997d 433d 5407 c8bc
000001c0: 442b ae3d cdeb 733c 95da 2b3d f2d5 093e
000001d0: 22e5 db3d 7392 aa3d 7484 bb3c 32f3 053e
000001e0: 41d2 643d 3bef 263c 25c5 62bd 69b8 30bd
000001f0: e82d 5cbd e7f9 82bd a6aa 9d3d faf9 e63d
00000200: d8c1 90bd 7522 80bd f1c6 e3bd bfef 503d
00000210: bd96 ecbd b7d1 a8bd 4ed1 c63d 47ad e2bd
00000220: 0ff7 4e39 30a4 333d d421 abbc c719 f33d
00000230: b40a 3ebd d4ac 083d 1496 e4bd 9d7e 93bc
00000240: 255e 1dbd 4171 b23c 6407 cebc c034 383d
00000250: c57c 0ebe 2d96 65bd 91ba 5d3d eb1e 14bd
00000260: 59f1 3b3d df5f cf3c b430 d6bd ef38 8d3d
00000270: a8e7 f4bd 31f0 743d 00d5 f13d a076 d03d
00000280: 3db8 8bbd a851 f9bc 0daa 7b3b 8eb7 c5bd
00000290: 6e6c 10bd 900e 0dbe 5c1b f93c d53d c03d
000002a0: c9bc f2bd 6c6f 79bc ed16 f0bc ea11 033e
000002b0: 363e 12bd d1b1 8dbd 578d d93d cb0d cb3d
000002c0: ac86 11be b0c1 a9bc a2ac 7bbd e34c 0f3c
000002d0: 3d09 5d3d dfc0 4e3d dd01 603d 60c6 dbbd
000002e0: 4aaf eb3c 758f 18be 7fee bcbd df5a 8d3c
000002f0: e684 cfbc 7bf4 103e 20f1 683d 2e8e cd3d
00000300: bc4d 07be 5b75 dd3d e3ec bc3d d630 c03d
00000310: eda6 d73d 1879 cc3c d3a8 f53d a43a 23be
00000320: a84a 24bd e4b4 cb3c b38c b43d 2a4e cdbd
00000330: 1432 0dbe 135a aebd 4b73 80bd 41e6 f9bb
00000340: f984 a8bd 63b4 be3d 3d78 dcbb 44be bbbc
00000350: 052c 2b3d 3447 58bd 833f b1bc 3ace 65bc
00000360: 55ea 1ebe 69f0 bcbd f09d 133e 273c 0b3c
00000370: 600a 9f3d fe71 61bc bce6 273d ddd9 c6bd
00000380: b784 cbbd 4539 b23d 83d6 173d ec6b e2bc
00000390: 427f 313c 927b 603d daad 763d 9064 983d
000003a0: de67 abbd 18e3 573d a7e4 233d ed92 f4bd
000003b0: 7fe4 2fbe 2f4f 84bd 9dbc 203d 60e0 92bd
000003c0: f74f b63c 323f d43d e297 113d ca0e 69bd
000003d0: 1d31 fd3d 43ab 9bbd 27eb a4bd 5f2b d5bd
000003e0: 8fd5 15bd 297f c03d 465a 82bd dd09 4d3c
000003f0: 45c1 3dbd df2a dbbd 89c4 663d 3e59 b13d
0.025134586 0.07791411 -0.011278223 0.049474988 0.010812559 -0.108674325 0.07101805 -0.09451379
-0.14156835 -0.08692357 0.018756274 0.09417447 0.11615546 0.05729992 -0.015758373 0.10568582
-0.067283645 -0.08115268 0.115966626 0.06383315 -0.06891252 -0.10636162 0.035231926 0.01870478
-0.20424035 -0.010083307 0.045456238 0.074985825 0.015818588 -0.042132262 -0.08925411 -0.02662397
-0.17983249 0.10108509 -0.1312299 0.12994137 -0.0062287557 -0.15284608 0.01759762 -0.12608224
-0.069026306 -0.06328923 -0.0016186641 -0.11965372 -0.09652893 -0.033372182 -0.078861624 0.055949867
-0.051085006 0.066756055 -0.077214785 -0.033267636 -0.08495247 -0.035735473 0.1258881 -0.0023231674
0.06198166 0.10999677 0.07008877 -0.046277333 0.07593459 -0.10761516 -0.020076562 0.06785822
0.03177568 0.092798 0.022629144 0.061362937 -0.09032728 -0.07791362 -0.01663707 -0.08226529
-0.10560157 0.085795626 0.0906399 -0.052704368 -0.1307533 0.0997193 0.100114174 -0.044384584
-0.037433423 0.04777133 0.0792218 -0.011486182 -0.05408995 0.12195697 0.054339778 -0.05970258
-0.08697986 0.03261406 -0.13427837 -0.08274937 -0.13920137 0.056812957 -0.0723066 -0.010914622
0.15367672 0.031696625 -0.011049378 -0.11260564 0.086916514 0.05462858 0.038747314 0.015835926
-0.13324122 0.00147743 0.04898728 0.10269063 0.024123661 0.012542942 0.0477272 -0.024417557
0.08504346 0.014887762 0.041956503 0.1346052 0.10737063 0.08328714 0.022890307 0.13081053
0.055864576 0.010188873 -0.055363793 -0.043144617 -0.053754717 -0.06395321 0.07698564 0.11278148
-0.07068223 -0.06256572 -0.111219294 0.05100989 -0.115521885 -0.08243125 0.097078905 -0.11068206
0.00019737727 0.043857753 -0.020890154 0.11870151 -0.046396926 0.033367947 -0.11161438 -0.01800471
-0.03841986 0.02178252 -0.025150008 0.04497218 -0.13914783 -0.056051422 0.054133 -0.0361623
0.045884464 0.02531427 -0.10458508 0.06895625 -0.119582474 0.059799377 0.11808205 0.10178876
-0.0682225 -0.030434445 0.0038400919 -0.09654151 -0.035259657 -0.13775086 0.030408554 0.093867935
-0.11852414 -0.015224319 -0.029307807 0.12799802 -0.03570386 -0.069186814 0.106226616 0.0991474
-0.1421153 -0.02072224 -0.061443932 0.008746359 0.05396389 0.050476905 0.054689277 -0.107311964
0.028770108 -0.14898475 -0.09225177 0.017255245 -0.025331926 0.14155762 0.05687058 0.10036884
-0.13213247 0.108133994 0.0922487 0.09384315 0.105298854 0.024960086 0.11995091 -0.15940338
-0.04011026 0.024866529 0.08815899 -0.10024674 -0.13788635 -0.08513274 -0.062719904 -0.0076263254
-0.082284875 0.0931175 -0.0067282007 -0.022917874 0.041790027 -0.05280228 -0.02163673 -0.014026219
-0.15519078 -0.09225542 0.14415717 0.008498228 0.07765651 -0.013760088 0.04099153 -0.09709523
-0.09937423 0.087023295 0.03706981 -0.027639352 0.010833563 0.054805346 0.06022439 0.07441056
-0.083694205 0.052706808 0.04001298 -0.11942086 -0.17177008 -0.064604156 0.039242376 -0.071717024
0.022254927 0.10363616 0.035545237 -0.05689887 0.12362883 -0.07601025 -0.08052664 -0.10408663
-0.03658062 0.09399254 -0.063648745 0.012514559 -0.046326894 -0.107015364 0.056339774 0.086596

fc.bias f4 [2]
00000000: c676 b33d 160e 083d
0.087628886 0.03321656
