results/gru/gru_hidden_200_layers_1_bidirectional_False_length_64_batch_64_lr_0.001.pth (torch, 609300 bytes, 6 tensors)

gru.weight_ih_l0 f4 [600, 50]
00000000: f3d7 31be d986 33be ab6e b0bd 9230 a2bd
00000010: 7eef 99bc 1f0e 413e b0c8 f03c 9add 073d
00000020: b6f7 45bd cbe1 85be 0695 9cbd e737 a73d
00000030: 8783 7fbd ce05 a7bd 8ab7 93bd b161 c13d
00000040: fe2d 8bbd 531b 2fbe b159 b33d 3dd3 963d
00000050: fb11 b73c 64d0 83bd 1cb0 ce3c f255 04bd
00000060: ab3c adbd 5a3b b53c 6386 5bbb f911 933c
00000070: 2369 92bd 069a ea3d a414 33bd d222 01be
00000080: 6ab1 bebd 361f c1bd a72c adbd 5821 8ebd
00000090: d44c a0be 6a64 3bbb ec2e e5bd 7e2f 013e
000000a0: 7555 ac3d 0379 553e 60d2 233e b2ad a03d
000000b0: 5b7a a83e 8d79 d23d 41c5 2bbd 3506 ac3d
000000c0: 732d 0bbe 7589 263e c583 dabc de09 8fbc
000000d0: ffee ec3c 161a 173e cc96 693c 02e1 52ba
000000e0: 45d5 613d 76ec 0dbd cef0 0cbe 2d2d b2bd
000000f0: b4f0 83bc 49d9 793c 0d1c b9bc 9a7d 87bd
00000100: 3932 e8bd 2fe8 b13d 4226 8dbd e50e e03b
00000110: 7174 c43e 5d36 0b3e 5ca5 05bc 868d e9bc
00000120: d141 6b3b efc2 2c3d 563c a1bd d586 2b3c
00000130: 5c00 503a 5d3c a5bd 5caf 4abe e491 e03d
00000140: 13e8 863c cfe1 bebb 61fe d7bc e2d8 0cbe
00000150: b214 e0bd d59f 1dbd e074 febd b6ea bc3d
00000160: 170b 37bd 8986 b23d c0ec 0b3c 1968 9e3d
00000170: 1c75 1d3e fa85 80bd 5904 c6ba 8638 0d3c
00000180: d3b8 ba3d c580 2d3d 06a2 b4bd 4ebd d23d
00000190: b5fd 93bc f64e 2abe 3c0d 72bd 89b8 1d3d
000001a0: be52 ccbd a85d 883e 10a0 dbbc d642 12be
000001b0: b2a0 dabd a81f 07bd 8aa6 133c c51e 153e
000001c0: 9aa5 3d3c f5c8 e6bc e493 41bd 943b fabd
000001d0: 4c7f eabd 6c23 3cbd 5fc8 01be 166f f43d
000001e0: ed7f 63be e45c c4bd 7d7a 84bd 4bb0 963d
000001f0: f829 aabd 2bac 953d 39a3 56be a2e8 1cbd
00000200: d91e a1bd f6f3 483d 02a0 fb3c 266d 01bd
00000210: 153b 0cbe c176 71bd 3ff7 203c 8c76 e9bd
00000220: 0e3d 19be 3de8 1f3c 0420 c7bd 44aa 583d
00000230: 1852 c13c d6e5 593d 6081 c23c ee1b 7ebd
00000240: c4ad 15bd d83d 5fbb 235a 1bbe fffe 033c
00000250: 74bc dcbd 09aa 353c 9580 eebd 3514 cbbd
00000260: 1e74 2bbd 0cd2 d13d dc4d 71bd 5472 8dbc
00000270: c15c f23b 9337 a7bd 3be8 8bbd 8ac4 cabd
00000280: 74e4 103c 7841 093e 1b6f cdbc b178 2dbe
00000290: 5930 a0bd 5d2f d13c 995e 923c 32ed 03be
000002a0: 50e6 7abc ae5c e8bc dad4 adbb c7a9 1dbd
000002b0: dec9 0f3d 9916 6dbe 82e1 a3bd e6c8 be3d
000002c0: e521 71bd 6f58 423c 010f e8bd 2075 b43d
000002d0: ead5 8e3c 01cb 89bc 2448 22bd fa2e d1bd
000002e0: 7c3c a9bc 972c d23d 4589 a8bc 57a4 103d
000002f0: 8d17 21bd 9649 a03c bdcf f83c 9c54 4ebc
00000300: ed6a 05bd adfa bebb 7f38 cc3d d7e5 8f3d
00000310: d648 21bd fc9e 843d 11ec f3bd d24b 07bd
00000320: bd1a aa3b 54c5 c23c f8d9 53bc 3e31 d63d
00000330: cc24 aaba 22f7 f03d b4fb 2dbb 9f7b 1bbe
00000340: 3b04 8b3c ffc7 933d 3e32 5bbd ce2e f6bc
00000350: 8187 d5bc 9be2 b2bd 8ba5 bebd e609 dabd
00000360: 6aa8 11be 9529 27bd d29a d53d b42d 223e
00000370: 46eb 333e edf6 8abd 0042 0c3d cb6d ddbd
00000380: 143f 33bc 2d1e 893c 770d f9bd 45f4 03be
00000390: 580b 29bd 1a7d 02be 2e63 9c3c 945c 5bbd
000003a0: d78e 92bb 6544 403d 4a8f 363c e5fe fcbd
000003b0: 45e3 11be 6459 c03c d0be 94bd 84d3 0abd
000003c0: fa7d 9abc 1995 5e3c ed1e 583d 9dc0 51bb
000003d0: a2f2 ab3d c293 253d 9a3e aa3c 40c8 debc
000003e0: f0e5 02bd 9342 8e3d af30 efba 5f26 663d
000003f0: 9d1b d73d d705 ea3b 7a88 883c 0167 3cbd
-0.17367534 -0.17531909 -0.08614858 -0.0791942 -0.018790957 0.18853043 0.02939257 0.03317032
-0.04833194 -0.2614883 -0.076456115 0.081649594 -0.062381294 -0.08155404 -0.07212742 0.09442461
-0.06795882 -0.17100267 0.08757342 0.07364509 0.022347441 -0.06436232 0.02523046 -0.032308526
-0.08458837 0.022123028 -0.0033496849 0.017952906 -0.071489595 0.11455159 -0.043720856 -0.12610939
-0.09311183 -0.09429781 -0.084557824 -0.069399536 -0.31308615 -0.0028593787 -0.1119059 0.12615773
0.08414737 0.20846944 0.1599822 0.0784563 0.3290585 0.1027709 -0.041936163 0.083996214
-0.13591556 0.16263373 -0.02667416 -0.01746076 0.028922556 0.14756045 0.014257144 -0.0008044393
0.05513503 -0.034649335 -0.13763735 -0.08700023 -0.016105987 0.015249559 -0.022596383 -0.066157535
-0.11337704 0.08686864 -0.06892063 0.006837713 0.38370088 0.13594957 -0.0081571005 -0.028509866
0.0035897384 0.04217809 -0.07872836 0.010469158 0.0007934624 -0.08068154 -0.19793457 0.109653264
0.016468083 -0.0058252583 -0.026366415 -0.13754609 -0.10941447 -0.038482506 -0.12424636 0.09224455
-0.04468831 0.08717067 0.008540332 0.07734699 0.15376705 -0.06275554 -0.0015107497 0.008619433
0.09117284 0.042359132 -0.08819966 0.10290013 -0.018065313 -0.16631684 -0.059094653 0.038506065
-0.09976719 0.26633954 -0.026809722 -0.14283308 -0.106751814 -0.032989174 0.009011874 0.14562519
0.011575127 -0.028171996 -0.04726018 -0.12218395 -0.11450061 -0.04593222 -0.12674092 0.119352505
-0.22216769 -0.0958803 -0.06468675 0.07357844 -0.08308786 0.07308229 -0.20960702 -0.038307793
-0.07867212 0.049060784 0.030715946 -0.031598233 -0.13694413 -0.058951143 0.009824573 -0.11399564
-0.14964697 0.00975996 -0.09722903 0.052896753 0.023598716 0.053197704 0.023743331 -0.062038355
-0.03654267 -0.0034063961 -0.15171103 0.008056401 -0.10778132 0.011087903 -0.11645619 -0.099159636
-0.041858785 0.102451414 -0.058912143 -0.01726643 0.007396311 -0.08164897 -0.06831404 -0.09900768
0.00884353 0.1340388 -0.025077393 -0.16940571 -0.078217216 0.02553528 0.017867373 -0.12883452
-0.0153137 -0.028364506 -0.005304915 -0.03849199 0.035104625 -0.23153152 -0.080019966 0.09315662
-0.058870215 0.0118619045 -0.11330987 0.08811402 0.017435987 -0.016820433 -0.03961958 -0.10214038
-0.020658724 0.10262411 -0.020573268 0.035312977 -0.0393291 0.019566339 0.030372495 -0.012593415
-0.032572675 -0.0058282227 0.09971713 0.0702626 -0.039376102 0.06475636 -0.119102605 -0.033031292
0.0051911757 0.023775734 -0.012930386 0.10458611 -0.0012980937 0.11765887 -0.0026547732 -0.15183876
0.01696979 0.072158806 -0.05351471 -0.030051615 -0.02606559 -0.08734628 -0.093089186 -0.10646419
-0.14224401 -0.04081114 0.1042992 0.15837747 0.17570218 -0.067853786 0.03424263 -0.10811957
-0.010940332 0.016738022 -0.12160771 -0.1288615 -0.041270584 -0.12743035 0.019090261 -0.053555086
-0.0044725942 0.046940226 0.011142561 -0.12353305 -0.14246853 0.023480125 -0.07262957 -0.033893123
-0.018858898 0.013585352 0.052763868 -0.0032005676 0.08395888 0.040424116 0.020781804 -0.027195096
-0.031957567 0.06946292 -0.0018248762 0.056188937 0.10503314 0.0071418094 0.01666664 -0.04599667

gru.weight_hh_l0 f4 [600, 200]
00000000: 54ec e33d ea4b 2d3b f199 623d f5f0 963b
00000010: 9601 55bd 441b 04be d246 96bd 7123 233d
00000020: b6bf 433c 3cd0 aabc 6685 a9bd 9569 5f3b
00000030: f3d6 ccbb 4103 97bd 4e70 e23d 7b14 79bd
00000040: c798 d23d 7ad3 81bd bdd4 113d 744f a63d
00000050: 3f3c aabd 5306 ee3c 9556 d4bb 8088 39bc
00000060: a471 b2bb b338 f7bd 2f31 21bd 8b9f 943c
00000070: 4789 a53d 5293 4bbd d566 2f3b 0f50 733d
00000080: 7059 5a3d aa58 fe3d 2140 8e3c 3490 6e3d
00000090: 6e1a dcbd 373e 563d 1e35 403b 19c6 593d
000000a0: 3ade 92bd 4442 5bbc 7bc1 b03d 3636 f93a
000000b0: c354 55bd b06b b6bc bc32 fb3d b7a4 fcbc
000000c0: e170 6e3c 97f8 993c 20ef 003e 4580 033d
000000d0: fdff a7bd dc7a a03b e148 de3c d76d 1e3b
000000e0: 7fa7 8fbd f223 673d d67e a3bd 7c70 c23c
000000f0: a192 0cbd 1c0c 92bd 6294 86bd e5b8 a9bd
00000100: 6f47 0c3e 565a 913d 88a3 053d ac78 9d3c
00000110: 02b8 9a39 df57 6dbd 6286 c83b ac84 4fbd
00000120: ea4b babd 2d13 a1bd 9f36 073c e6e6 a33d
00000130: a868 d2bc 1df4 c63a f8cd 073e 0bc3 dd3c
00000140: e5a4 073e 8739 2abd 160a 733d 825b c6bb
00000150: 3fcb 37bd 7ec3 443d 8af1 9fbd d613 98bd
00000160: cf80 debc 799d 78bd 2c25 80bd c095 043e
00000170: 37ec d1bc 538e 92bb ed51 0a3d 1ff1 753d
00000180: 860a ed3d f94b 973c 9663 313d 7531 b6bd
00000190: d804 bd3c ff7e 073d 3394 b5bd f0c6 0dbd
000001a0: ad2f 77bd 5766 123d d401 c53d a5a8 c33c
000001b0: 5c0e bc3d a448 9c3d dd2b fb3d 1fb6 8abd
000001c0: ea7f 613d 6cbb 433d ea52 6bbd 60da 433d
000001d0: 57ba b53d 384e aa3d 964b 97bc 9542 15bd
000001e0: c98a c53b 32b4 bebb 30a2 393d ad62 223d
000001f0: bcfa b63d 7cc9 023e 8037 02bd c69d 90bd
00000200: 77be 86bb fc6b 48bc ed52 a5bc 1cbb 10bc
00000210: b7bd b03d dad3 bf3d c323 b0bc c5bb 1c3d
00000220: 831a 583d 7cbf a93d f39e 1a3c 68bd ea3b
00000230: 3527 283d ac65 3abd 1e0a 05bd a284 103d
00000240: 3716 6d3d f117 133d 7f67 d9bc 8a03 a33d
00000250: cbe7 a03d 6798 db3c 396d 1ebc b000 4cbc
00000260: cf19 b1bd 3221 2cbd 2695 ee3d 2022 1f3d
00000270: e8ab 363d b8f6 83bd dbd9 b1bd 7d79 c9bb
00000280: 1275 30bd 39d3 b8bc 8a5b ee3c b5fd 743d
00000290: ac05 89bd 2c17 dcbb 3743 56bd c91a b7bd
000002a0: c5c6 8b3d dd07 7d3b 0197 073a c232 20bd
000002b0: 8ac4 743b 82f9 2c3a 364a 5fbc 744c d6b7
000002c0: ca19 4e3d 6f7e 1e3d 1ce2 cdbd d558 4fbd
000002d0: 8481 393c cada 51bb d328 05bd c08d c63d
000002e0: 6241 07be adc0 353d b0ae 20bd 38a7 a63d
000002f0: 4545 ac3d ee64 4a3b 20f7 743d 50fe 2bbd
00000300: 8612 13bd 96bb e0bd 1fc4 8abd fa70 b23d
00000310: c84b 89bc 81e1 ab3d 6925 d83c 60ae a5bd
00000320: 867b 95bc dd18 2c3e 2583 13bb 9184 a13c
00000330: baf2 8c3d 399c e6bb 92e9 0e3d dc61 403b
00000340: 8318 5bbc af9c abbc ef21 843d 4be5 cbbc
00000350: 8ca9 063e ef7c 753d daed 723d a8a8 57bd
00000360: 8098 0a3c 221b 62bd a621 94bc 7fc4 983d
00000370: 0658 c03c f996 f73c ae48 2fbe aa58 143d
00000380: c44e 08bd 0e4b 8bbd ba5b be3c 7270 cf3d
00000390: 2b43 98bc ea0f 93bc 8a36 a3bd 9712 c33d
000003a0: d7a4 d43d a3f6 73bd e5c0 6f3d 3f0e 433d
000003b0: 8280 75bc c54c 3c3d 2b14 a6bd 32b9 1dbd
000003c0: 0dac f83c 03d8 80bd 2d9e 2abc 7c04 ae3c
000003d0: 7454 a23c 118d a93d 0068 ebbc db6d 35bd
000003e0: 1e08 56bd cca1 b43c 92e0 6c3c 7b1d babd
000003f0: 91e2 4e3c e685 bfbd a7b0 3c3c 24e2 cfbc
0.111290604 0.0026442953 0.05532259 0.004606361 -0.052003466 -0.12901026 -0.07337727 0.03982872
0.011947563 -0.020851247 -0.08277397 0.0034090031 -0.00625121 -0.073736675 0.11056577 -0.060810547
0.10283046 -0.06339164 0.035603274 0.08120623 -0.08312272 0.02905575 -0.006480048 -0.011324048
-0.005445676 -0.120713614 -0.039353546 0.018142482 0.08082824 -0.049701042 0.0026764174 0.05940252
0.05330795 0.12419255 0.017364563 0.05824299 -0.107472286 0.052305426 0.0029328535 0.053167436
-0.071712926 -0.013382498 0.086306535 0.0019013349 -0.05208279 -0.022268146 0.12265536 -0.03084026
0.01455328 0.018795295 0.12591219 0.03210475 -0.08203123 0.0048974585 0.02713436 0.0024174356
-0.07014369 0.056430764 -0.079831764 0.023735277 -0.034319524 -0.07131216 -0.065712705 -0.08287219
0.13699125 0.07097308 0.03262666 0.01922258 0.00029510265 -0.05794513 0.0061195353 -0.050663635
-0.09096511 -0.078649856 0.008252769 0.08003025 -0.02568467 0.0015178953 0.13262165 0.027070543
0.13246496 -0.04155877 0.05933579 -0.006053389 -0.044871565 0.048038 -0.07809742 -0.074256584
-0.02716103 -0.060697053 -0.0625709 0.1294775 -0.025625331 -0.004472533 0.033769537 0.060044404
0.11574273 0.018468844 0.043307863 -0.08896152 0.023073599 0.033080097 -0.088661574 -0.03461355
-0.0603482 0.03574213 0.09619489 0.023884127 0.09182426 0.076310426 0.12264226 -0.06773018
0.05505363 0.04778616 -0.05745212 0.04781568 0.08873432 0.083157 -0.01846866 -0.03644045
0.0060285074 -0.005819821 0.04532069 0.039644886 0.089345425 0.12772173 -0.03179121 -0.07061343
-0.0041120606 -0.012232777 -0.020181144 -0.008833673 0.08629935 0.09366579 -0.021501428 0.03826501
0.05275966 0.08288476 0.0094373105 0.0071636923 0.041053016 -0.045507118 -0.03248035 0.03528274
0.057882514 0.035911504 -0.026538609 0.079596594 0.07856711 0.02680607 -0.009669595 -0.012451336
-0.08647501 -0.042023845 0.116495416 0.038850904 0.044597536 -0.06443542 -0.08684131 -0.0061485157
-0.043080397 -0.022561656 0.029096384 0.059812266 -0.06690535 -0.0067166295 -0.052310195 -0.08940656
0.06825022 0.0038609423 0.00051723426 -0.039110906 0.0037348592 0.0006598459 -0.013628533 -2.554639e-05
0.050317563 0.038694795 -0.100528926 -0.050621826 0.011322383 -0.0032021278 -0.032509636 0.096950054
-0.13208535 0.044373203 -0.039229095 0.08137363 0.084116496 0.0030882913 0.05980599 -0.04199058
-0.035906337 -0.10973279 -0.067756884 0.08712955 -0.016759768 0.08392621 0.026385026 -0.080899
-0.018247377 0.1680636 -0.0022508588 0.019716533 0.06882234 -0.007037666 0.03489072 0.0029355204
-0.013372543 -0.020948736 0.06451785 -0.024889609 0.13150615 0.0599336 0.059308864 -0.052651078
0.00845921 -0.055201657 -0.018082451 0.07459354 0.023479473 0.030223357 -0.17117569 0.03621737
-0.03327824 -0.06801425 0.023237098 0.10128869 -0.018586716 -0.017951924 -0.07969387 0.0952503
0.10383003 -0.059561383 0.058533568 0.047621008 -0.014984252 0.04597165 -0.081093155 -0.038506694
0.030355478 -0.06291201 -0.010413689 0.021242373 0.019815661 0.082788594 -0.028736115 -0.04429422
-0.052253835 0.022049807 0.014457839 -0.09087654 0.01262726 -0.09351711 0.011516727 -0.025376387

gru.bias_ih_l0 f4 [600]
00000000: a636 66bd 4daa 97bc d897 c9bc a6fb 4a3d
00000010: 4935 d4bc 7e7f d43c 3ebc 53bd 3064 9ebd
00000020: 7397 c83c 8754 99bd b4fb f7bd 333d f0bb
00000030: 43db 09be fbcb 02be c1c7 37bc 5851 96bd
00000040: 75f4 e6bd b44e d0bc 5e53 c3bd d01e eb3c
00000050: 0c63 bcbd e905 55bd 00e7 80bd c0c3 8b3c
00000060: 8415 9ebd bf3f 623c ed43 08be b519 4abd
00000070: 47f5 27bd 5b89 d6bc 66b4 babc 7fe5 0b3d
00000080: 5de9 a9bd dd44 bebd 66c5 99bd 4b50 adbd
00000090: 0602 1d3c 3a38 83bc 8577 95bc abbc eb3b
000000a0: 209f 70bd 228f 3bbc 4c2b c3bd 88b6 3fbd
000000b0: b7ff 3fbd 0c41 a7bd ef4e f7bc 7104 b0bb
000000c0: 15a3 53bd b9bd bcbc 79c7 c1bc 77ad 74bd
000000d0: 6c2c 83bd 2f66 0dbd 5f58 f1bc 6ff4 b7bd
000000e0: 0041 b5bc 0184 c1bd d221 7fbd 810c e83a
000000f0: cadd 29bd cf91 843d d4e4 79bc 876a 84bd
00000100: 673b b3bd 7731 adbb 9403 9fbd 26a1 80bc
00000110: 3ad2 d5bc d23d d73b 7123 8abd d21b d83c
00000120: ab60 d63b b87a a7bd 557a 90bd 4027 14bd
00000130: 8aad 9c3c 573c e3bd 4187 d5bd 6a25 4abc
00000140: a391 f6bb 8afb 12be 9dd6 bdbd 1645 60bd
00000150: 1135 02bd d884 e6bb 6c84 9dbd 2517 fcbd
00000160: b5a5 94bd ee70 1a3d f8b7 17be 3334 453c
00000170: 39cd 59bb 89c5 903c a1f3 a2bc 4c7a 05be
00000180: 9df9 81bd 0db7 c5bd 5d3d 72bd 7771 2fbd
00000190: 2fea 76bd 45e6 f5bd f2a8 adbc f8f3 a0bd
000001a0: 5960 cdbd 710b 283a 38f1 42bd 98ee b03c
000001b0: d461 22bd 5d94 0e3d 60cc 91bc 3525 ba3c
000001c0: 614a 65bc 2088 72bd b196 20be 7ee3 dbbc
000001d0: 97f9 d9bd 7ce0 d9bd de7f 6dbd b6cd 883b
000001e0: 9c33 d9bd e49d 2abc 95b1 91bd 5753 dfbd
000001f0: a384 8fbc 9e52 01be 642f bf3b 491c 03be
00000200: 81e3 5abc c923 b3bd 7aac 233d d6a6 2ebd
00000210: 3fb2 01be 2a9a b0bd c5fe 8fbd bf76 0ebd
00000220: 11cb 80bd 99e9 0abe 936e e5bc b54f aabc
00000230: bba8 1cbd f6c8 afbd 0690 a43b ef2b b4bc
00000240: c1de 28bd 33a1 babd b85d 03bd 23b3 3dbd
00000250: 9812 04be aab1 82bc e73f 80bc cc73 33bd
00000260: f415 a1bd 6d9b 4e3c a77d 25be d508 4ebd
00000270: d77f c3bd 5454 05be cf52 b0bc 1370 4b3c
00000280: 2f78 35bd d56d 5c3d 6c98 cfbd 39cf b63c
00000290: 3259 c7bd 8c5d a3bd ffd3 b3bd 7a1d 2abb
000002a0: 80b6 e1bd 8857 69bd d7e8 aabd 64d9 3ebd
000002b0: 9ed6 c43c 9a36 913d f79b c43c 4042 52bd
000002c0: 83dd 5dbd a006 c9bd 3435 aebc b3bc 8bbd
000002d0: 6cb2 97bd cd2d 80bc 8900 a1bd ba19 a2bd
000002e0: 33e8 4abd ae61 9bbd 499b 82bd a141 d0bd
000002f0: 412a c53c 38a1 81bd b856 86bd 0906 d73c
00000300: 5f42 00be e7a8 0d3c 376c 78bd 5566 39bd
00000310: 2c0f dfbd bf44 343d 7cad 9ebc 4950 b1bc
00000320: 517c 0a3e c60b a73e 0130 543e 8d2e 353e
00000330: 2b1a c83e 7365 cdbc 89bc 453d de85 9a3e
00000340: 03c7 6cbc ac29 413e a605 fd3d 5c8b 6f3e
00000350: 8dae 9e3e 123d 383e 5595 41bd 7029 9e3d
00000360: 121c 833c 0c96 f03e f96b f03c 1e2f e13e
00000370: bb26 a53e 06b2 863d 437e 7fbe 0549 b23e
00000380: 88de 403e 4211 123e 5931 073d 3d00 163e
00000390: abc3 893d 9963 a33e 1b07 37bc e227 653d
000003a0: f667 4fbd 1f02 69bd 6415 8c3b 0e55 193e
000003b0: cc09 203d 99ac c03e 1eb1 023f fcd1 013d
000003c0: 8770 253e 2339 d0bd 65d1 7abd 6424 e63e
000003d0: 95d9 7e3e 159e 96bd 0634 02bd 67d3 dabd
000003e0: 0d28 403d 429a 8c3e f344 c63c 6a99 8dba
000003f0: bc68 4b3d 2bf3 933e c00e 8a3c 2b12 c8bd
-0.05620446 -0.018513823 -0.024608538 0.049556397 -0.025904315 0.0259397 -0.051693194 -0.07733953
0.02448628 -0.074868254 -0.121085554 -0.0073315143 -0.13462548 -0.12773125 -0.011217059 -0.07339734
-0.11277095 -0.025428154 -0.095373854 0.028701216 -0.09198579 -0.05200759 -0.0629406 0.017061114
-0.077189475 0.013809144 -0.13307162 -0.049340922 -0.0410054 -0.026188543 -0.022791099 0.03415441
-0.08296464 -0.092904784 -0.07508354 -0.0846258 0.009583002 -0.016018022 -0.018245468 0.007194122
-0.058745503 -0.0114477 -0.095297426 -0.046804935 -0.046874728 -0.081667036 -0.030189006 -0.005371623
-0.0516692 -0.023039686 -0.023654686 -0.05973574 -0.06404957 -0.034521278 -0.029461084 -0.08982169
-0.022125721 -0.09449006 -0.062288113 0.0017703922 -0.04147128 0.06473123 -0.015252311 -0.06465631
-0.087515645 -0.0052854377 -0.07764354 -0.015701842 -0.02610122 0.006568649 -0.06745041 0.026380453
0.0065422854 -0.081777036 -0.07054583 -0.036170244 0.019125719 -0.11095493 -0.10426188 -0.012338022
-0.0075246855 -0.14353767 -0.0926945 -0.054753385 -0.03178889 -0.007034879 -0.07691273 -0.12309102
-0.072581686 0.037705354 -0.14816272 0.012036371 -0.0033233895 0.017672317 -0.019891562 -0.13034934
-0.06346438 -0.09654055 -0.05914055 -0.042832818 -0.06028193 -0.12006811 -0.021198723 -0.07859033
-0.100281425 0.00064103963 -0.047593325 0.021598145 -0.039644077 0.03480946 -0.017797649 0.02272282
-0.013994784 -0.05921185 -0.15682484 -0.026841875 -0.106433086 -0.1063852 -0.05798327 0.0041749133
-0.10605547 -0.010413621 -0.07113949 -0.10904568 -0.0175193 -0.12629172 0.005834507 -0.12803759
-0.013359905 -0.0874706 0.03995941 -0.042639576 -0.12665652 -0.086231545 -0.07031015 -0.034781214
-0.06288732 -0.13565673 -0.028006827 -0.02078996 -0.03824685 -0.08583252 0.0050220517 -0.021993605
-0.04122806 -0.091127776 -0.0320718 -0.046313416 -0.12897718 -0.015953857 -0.015655471 -0.043811604
-0.07865515 0.012610299 -0.16161214 -0.05030139 -0.09545868 -0.1302045 -0.021523861 0.012416857
-0.04430407 0.05381568 -0.10136494 0.022315608 -0.097338095 -0.07976827 -0.087806694 -0.002595751
-0.11021137 -0.056968242 -0.08345192 -0.04659404 0.024028119 0.070904925 0.024000151 -0.051332712
-0.05416633 -0.09815717 -0.021265604 -0.06823101 -0.07407078 -0.01564684 -0.0786143 -0.07915063
-0.04953785 -0.0758699 -0.063772745 -0.10168768 0.024068 -0.06329578 -0.06559509 0.026247995
-0.12525319 0.0086462265 -0.060650077 -0.045263607 -0.10891566 0.044010874 -0.019369833 -0.021644728
0.13523985 0.3262617 0.20721437 0.17693539 0.39082465 -0.025072789 0.048275504 0.30180258
-0.014451745 0.18863553 0.12354593 0.23393005 0.30992547 0.17992046 -0.047261555 0.07722747
0.016004596 0.46989477 0.02934836 0.4398126 0.32256112 0.06576924 -0.24950509 0.34821334
0.18834889 0.14264396 0.033006046 0.14648528 0.06726774 0.31911924 -0.011171128 0.05594624
-0.050636254 -0.05688679 0.004275011 0.14973852 0.039071843 0.37631682 0.5105151 0.031694397
0.16156207 -0.10167148 -0.06123485 0.4494964 0.24887688 -0.073543705 -0.031787895 -0.10684853
0.046913195 0.2746144 0.0242028 -0.0010803167 0.04966043 0.2889646 0.016852736 -0.0976909

gru.bias_hh_l0 f4 [600]
00000000: be12 c5bd 569b e0bc 9dcb e2bc 324b c33c
00000010: 8ed3 2a39 2b69 21bd 5ad7 87bc 350d b4bd
00000020: cb62 93bd 127c 3fbd 93cc 57be 1f11 8ebd
00000030: 35bc 49bd 3ac1 b4bd 6262 893c 21ad d43c
00000040: af6c 98bd d63a edbd e5eb ff3c 37d9 8f3d
00000050: 4ea9 8cbd 5d94 57bd d653 02be ef28 ddbd
00000060: 4417 e7bd 3d09 b93c 1de1 05be 688f b3bd
00000070: 2477 8a3c 4ace ad3b b919 89bd 8797 66bd
00000080: e0be 163d 496b 04bd 4cd4 f1bd 1b38 0dbb
00000090: 9411 69bd 3a72 bfbd a112 46bd db12 aebd
000000a0: 4dc6 cfbc e6e1 02be 0b87 43be 1533 dfbc
000000b0: 2925 213c a92d babd 9ed7 5cbd e2b5 91bd
000000c0: 9564 47bd 3163 b9bd 4c75 2abd 231f e6bc
000000d0: cfdc 81ba dc4f acbd 950d dabc 9770 68bd
000000e0: d63a 7ebd a491 45bc 9b8c b0bd e14b e9bd
000000f0: d512 a0bd 1d67 a93d 15f6 0a3d 3447 acbd
00000100: 20bf cb3c b9ea 1fbd 9adc d0bd 5264 15be
00000110: 44c1 dabd 69df b0bc c1a7 52bd 2b35 1d3c
00000120: 4016 4b3c 033e babd 07c3 a6bd 70ae 9fbc
00000130: a6eb 0bbd 6f1f caba dd2b 08bd c055 cbbd
00000140: 29c7 9ebd 651b 08bd d949 66be df49 56bd
00000150: 6336 65bd a634 4abd 7afd cdbc 0f55 833c
00000160: 3daf 2fbd 702a f5bc 0f0c 86bd 1bb0 1abb
00000170: db80 30bc 8d3e 67bc dae1 77bd 606f fabd
00000180: 6678 86bd b2c4 c1bd 3639 1ebd f90d febd
00000190: fe05 1ebd 615e dbbd 985a 0ebe 58c2 aabd
000001a0: 2752 cebd 73e3 d03b 7c86 7cbd 341a 95bc
000001b0: 8cf3 4fbd 91de 2d3d fd32 e5bc 4331 54bc
000001c0: 1229 acbd addc 56bd eab5 a8bd ac0c 97bd
000001d0: 86be 8bbd 1960 a9bd a0c2 d1bd 6fb7 4fbd
000001e0: 1862 cdbd 8360 bbbc 8725 94bd e1b3 f7bd
000001f0: d059 26bd a58f cbbd 3cd4 2bbd a1b3 a1bd
00000200: 9ac2 aabc afb9 7abb 013f 08bd 54f8 b9bd
00000210: 26c7 12bd 100f 87bd d53f 903c 28e0 c6bc
00000220: f532 8fbd 2312 8cbd 8eab a2bb c625 2abd
00000230: b7fd 98bd dfed b3bb cedc b8bd f954 93bd
00000240: 95a8 f73c 29b7 03bd 4ae9 1abd c090 3a3c
00000250: 4c32 99bd 6df5 f8ba dbef f3bc 7d47 4fbd
00000260: d42c 14bc d086 e4bd 1067 20be cfb7 8bbc
00000270: 0952 0ebe 43f0 23be 5a3b 87bc d1a0 ddbd
00000280: 91c8 e5bd 8e11 743d 3ff2 68bc ce5d 5f3d
00000290: 0b32 6bbd 0812 91bd b478 24bd 813a 533c
000002a0: 8724 06be 2d79 743c 1015 05be d3c6 8dbc
000002b0: d1cd 10bd 4b0d 513c 39c5 8b3c 22ad 20bd
000002c0: bebe b4bd aa3b 74bd 244f b7bd 0361 033d
000002d0: 4a4b 68bd f2c0 073b 99d9 9dbd 79a8 dbbc
000002e0: 6ea7 86bd d173 33bd f47c 16bd 3c9a eebc
000002f0: bcb7 71bd 52b5 7fbc 0852 98bc 8735 e2bc
00000300: 61e4 17be 80bb cdb8 2ec2 00bd 041f 87bd
00000310: ead1 a9bd cf35 60bd f47d 603c 17ff 8ebc
00000320: 8826 973d edca 923e f1fd d33d 6693 6a3d
00000330: 4607 da3e a126 ddbd 2dd8 d03d 5821 bd3e
00000340: 1420 723d b3a1 8f3e d28e 303e 7e1a 173e
00000350: e284 a23e 76d2 503e bbe3 efbd 912e d13d
00000360: 2ff2 9a3d 68b3 c13e 6b0f a03a 6703 fd3e
00000370: caff b23e 2e1d a83d d1be 8abe b7db b73e
00000380: c459 2d3e c01f 023e eb31 163c 0039 dd3d
00000390: f33f f23d e87c 833e 8a47 253d 545d 8d3d
000003a0: fbc0 e03b 56ce 823c 2af5 b6bd 1496 bb3d
000003b0: 02a5 803d 37ea c83e bfa1 123f 2533 c53d
000003c0: 139f 6e3e 6886 02be b0b1 9cbd be32 ad3e
000003d0: 2a07 653e 264a d9bd a85c cebc 818c a8bd
000003e0: c1e9 903d 7f8d 8c3e 7ee8 273c aed7 b2bd
000003f0: 6a6a 8abc 03fd ae3e 05e6 863d 94d2 1fbe
-0.096227154 -0.02741782 -0.027684981 0.023839567 0.00016291274 -0.039406937 -0.01658218 -0.087915815
-0.07196578 -0.046749182 -0.21074133 -0.06936859 -0.049251754 -0.088259175 0.016770545 0.02596146
-0.07442605 -0.11583488 0.031240413 0.07023852 -0.0686823 -0.052631725 -0.12727293 -0.10798823
-0.112837344 0.022587413 -0.13074155 -0.08767587 0.016902514 0.0053041326 -0.06694359 -0.05629685
0.036803126 -0.032328878 -0.118080705 -0.0021548334 -0.05690153 -0.09347959 -0.04835761 -0.0849969
-0.025363112 -0.12781486 -0.19094484 -0.027246037 0.00983552 -0.0909074 -0.053916566 -0.071147695
-0.048679907 -0.090521224 -0.04161577 -0.028091019 -0.0009907725 -0.084136695 -0.026617805 -0.056748
-0.06206783 -0.012058649 -0.08620568 -0.11391426 -0.07816092 0.082716204 0.03392609 -0.084120184
0.024871409 -0.03904221 -0.101983264 -0.1458905 -0.10681394 -0.021590905 -0.051429514 0.009595196
0.0123954415 -0.09093859 -0.08142667 -0.019492358 -0.03416028 -0.0015420745 -0.033244956 -0.09928465
-0.077528305 -0.03322925 -0.22489108 -0.052316543 -0.05596007 -0.049366616 -0.025145281 0.01603177
-0.04289173 -0.029927462 -0.06545269 -0.0023603502 -0.010772909 -0.014114034 -0.060518123 -0.12228274
-0.06565933 -0.09461345 -0.03862878 -0.12405009 -0.038579933 -0.10711361 -0.13901746 -0.083378494
-0.10074263 0.0063747703 -0.06165169 -0.018200971 -0.050769374 0.042448584 -0.027978415 -0.012951198
-0.08406271 -0.052456547 -0.08237822 -0.07375464 -0.06823449 -0.08270282 -0.102422 -0.050712045
-0.100284755 -0.022873169 -0.0723372 -0.12094856 -0.040612996 -0.099395074 -0.04195045 -0.078955896
-0.020844746 -0.0038257649 -0.03326321 -0.09080568 -0.035834454 -0.0659467 0.017608562 -0.024276808
-0.06992141 -0.06839397 -0.0049642986 -0.04153993 -0.07470267 -0.005491003 -0.0902649 -0.071939416
0.030231753 -0.032157097 -0.037820138 0.01138705 -0.074802965 -0.0018994041 -0.029777458 -0.050605286
-0.009043891 -0.11158526 -0.15664315 -0.01705542 -0.13898481 -0.16009621 -0.016507793 -0.10821689
-0.11219896 0.059587054 -0.014217912 0.05453282 -0.05742077 -0.07083517 -0.040154174 0.012892366
-0.13099872 0.014921469 -0.12996316 -0.01730672 -0.03535253 0.012759517 0.017061817 -0.039227612
-0.08825444 -0.059627213 -0.08950642 0.03207494 -0.056712426 0.002071437 -0.07707519 -0.026813732
-0.065749034 -0.043811623 -0.03674026 -0.029126279 -0.059013113 -0.015607195 -0.018593803 -0.027613414
-0.14833213 -9.810086e-05 -0.031435184 -0.06597713 -0.08291991 -0.054738816 0.013701905 -0.01745562
0.07380396 0.28670445 0.1035117 0.057269476 0.42583674 -0.107983835 0.10197482 0.36939502
0.059112623 0.28053054 0.17241982 0.147562 0.31742007 0.20392784 -0.11713358 0.1021396
0.07565724 0.3783219 0.0012211626 0.49416658 0.34960777 0.082086906 -0.27098706 0.35909817
0.16928774 0.12707424 0.009167175 0.108018875 0.118286036 0.25681233 0.040351428 0.069025666
0.0068589426 0.01596753 -0.0893348 0.091594845 0.06281473 0.39241192 0.57278055 0.09628896
0.2330287 -0.12746584 -0.07651079 0.33827776 0.22366014 -0.10609846 -0.025190666 -0.08229924
0.07075835 0.27451703 0.010248302 -0.08732544 -0.016896445 0.34177408 0.065868415 -0.15607673

fc.weight f4 [2, 200]
00000000: 2918 babc 3d1b 8ebb fc2d c5bd 6400 bc3b
00000010: 9a59 dcbd 975c ab3d 532f d03d 0b1c 80bd
00000020: 0ecd 13bd d2e2 85bc 5a9e 163b efe3 4f3c
00000030: 4ecb b03d 5c1e 7b3d c2a0 21bd 6bf2 26bd
00000040: 6225 3dbd a557 32bd 123b 253c a5d4 d53d
00000050: 10db 1bbc f6b0 6cbd 0265 b3bd 264a 853d
00000060: 2f24 223d 1d5a b8bd c00e 313d c016 4b3d
00000070: b145 0cbd 9706 cabd 2fd3 1dba 584f 1ebd
00000080: 3430 99bd 4326 c53d 7bb2 02be da2e abbc
00000090: 4692 d83a a0e1 3ebd b9b0 6bbd ac83 683d
000000a0: 3336 b7bd b874 833d af0b 0e3d 26ed 74bd
000000b0: 75cb d43b ee5c 33bc 1e92 aabc 18ae cbbd
000000c0: 7389 89bc 33e8 f63c e5ef 5cbd 6f52 4c3d
000000d0: 0107 9dbd de8d a9bd 5c08 763d c10f c6bc
000000e0: 5868 af3d daa6 103e 9a64 a6bc 4c9c ec3d
000000f0: 7531 fd3c 8a03 813d d2ad 92bd 2e5d 7bbc
00000100: 7026 193d 7d35 953d 307a b53d d4f1 3d3d
00000110: 3a08 80bd 225e 8fbb 5a1a 863d 74cb 9dbd
00000120: 523c 87bd f380 96bd 2696 95bd 729e 59bd
00000130: 9c9e 8dbd ec57 babd 257f 00bd 14c1 a9bd
00000140: 6595 c1bc fa22 91bd aacc 9d3d 9b5b bb3d
00000150: b591 643d d2a1 f63d a19e c63a 53f4 423d
00000160: 6a75 7cbd 1ac4 243d 8f68 68bd 4510 82bd
00000170: 7ca0 59bc e964 663c a8a6 c33c 26fa 05bd
00000180: 1e6f a1bd 26b3 93bc c464 943d f469 cdbd
00000190: 4319 153d 4abf 2e3c 2a06 cb3d 5d84 3abc
000001a0: 5a43 bfbd a61e 3cbc 9480 603c 33a1 86bd
000001b0: 951d 90bd 1903 c83c 6f7f 44bd 83f7 ffbd
000001c0: 2761 44bd e483 783c 97ba 073b 3ad4 32bd
000001d0: 333a 173d b862 313c 382d 703d 1389 e5bd
000001e0: 4666 c43d b5a6 363d b7df 853d 6296 aabd
000001f0: 357c d53d a7c3 4cbd 562e ab3d 7dfc 2dbd
00000200: 295e a6bd 99d2 99bd edc0 163c c938 0c3e
00000210: d01c 843d 4ec3 083d 7731 3fbd d3fd 03bd
00000220: 572a 1cbc 6125 b0bb 0857 b5bd d4ca dfba
00000230: 2fd6 aebd 82a9 30bd bf9e 93bd 8d05 12be
00000240: 275a 45bd f2b1 b93d 6b19 233d 3a4e 5bbb
00000250: d7b5 55bc dea6 a73d 694a b1bb f6dd 683c
00000260: 7734 eebc ddda 8ebd 33bd efbd 46b5 9d3c
00000270: 4f17 1ebd c624 a63c 8320 703c 6405 e93c
00000280: 7ed1 af3d 05e8 b53d 084b 823d 1b39 873d
00000290: 3d65 4f3c 61f1 2cbd 6451 e6bd 2fb9 abbd
000002a0: 08ce d33c 8904 ac3d 22f7 44bc 825e f9bb
000002b0: ea09 b03d 449f a03d 3b97 a03d 926e d9bc
000002c0: 7413 a63c e933 483d b716 0ebd cec2 e63c
000002d0: 7570 883c c7f8 8b3d 3741 d63d bc04 8db9
000002e0: afff fcbd 69c5 ac3c ed55 13bd e984 99bc
000002f0: d75b fa3d e12d 40bd 42d1 003d 545b 983d
00000300: a8da 083d 6280 863b cdb2 e1bd ef61 4d3c
00000310: 4b9f 993d 2fc2 73bc 0e8b 923d a7bd df3d
00000320: 11a9 a83d 69cd a03c 858f 173e c8ce c1bd
00000330: ba56 2a3d 67a5 bbbd 0eb9 16bc db6b 9b3d
00000340: 7c02 d43c 707b c53d bd08 533d 01c7 983d
00000350: 8283 adbc 151f b3bd a89e 8cbb 4b11 743d
00000360: 0d05 e0bc 675e b43d 80f8 193d d1d3 63bd
00000370: 94c4 cf3d 5a83 8a3d 9be3 a3bc 7a5e be3c
00000380: 6e25 90bc ed63 1f3d bed8 4dbb f7c2 dabc
00000390: 4169 943c 5742 393c 9536 b9bc 72d4 533d
000003a0: 3409 5e3d ccb7 cbbc 0717 763d c58d e33c
000003b0: 69fd 073c 9d39 9e3d f7e7 8cba 660f 8abd
000003c0: 65ee f4bc 0338 90bd 694c 64bc 3de5 763d
000003d0: 3b6f aa3d f962 d3bb 5a99 a2bd 1b1f 7e3d
000003e0: 4013 8b3c e170 9a3d feb2 84bd e0bc 533d
000003f0: ed9a e13d 97e7 4d3d 6730 8fbd cb63 86bd
-0.022716599 -0.004336743 -0.096279114 0.0057373513 -0.10759278 0.083672695 0.101652764 -0.06255349
-0.036084227 -0.016343508 0.0022982568 0.012688621 0.08632527 0.06130825 -0.03945995 -0.04075853
-0.04617823 -0.043540616 0.010084884 0.10440949 -0.009512678 -0.05778595 -0.087595 0.06508283
0.03958529 -0.09001563 0.043226957 0.049582243 -0.03424615 -0.09864538 -0.00060205435 -0.038649887
-0.07479897 0.096264385 -0.12763397 -0.020896364 0.0016523085 -0.04660189 -0.057541583 0.056766197
-0.089458846 0.06418747 0.03467911 -0.059796475 0.0064939805 -0.010947449 -0.020821627 -0.09945315
-0.016789174 0.030140018 -0.05393972 0.049883302 -0.076673515 -0.08279012 0.060066566 -0.024177434
0.08564824 0.14126149 -0.020311642 0.11553249 0.030907372 0.06299503 -0.0716206 -0.01534204
0.037390172 0.07285593 0.08861196 0.046373203 -0.06251569 -0.004375235 0.06547995 -0.07704821
-0.06603302 -0.07348814 -0.07304029 -0.05312962 -0.06915018 -0.09098801 -0.031371254 -0.0828878
-0.023630807 -0.070867494 0.07705052 0.09148332 0.05580302 0.120425835 0.0015153476 0.047596287
-0.061635412 0.04022608 -0.05674034 -0.063507594 -0.013282891 0.014062145 0.023883179 -0.032709263
-0.07882522 -0.01802976 0.07245782 -0.100299746 0.036401045 0.010665724 0.09913285 -0.011384097
-0.09339018 -0.0114819165 0.01370253 -0.06573715 -0.07036892 0.02441554 -0.047973093 -0.12498381
-0.047944214 0.015168164 0.0020710581 -0.043659426 0.036920737 0.010826759 0.058636874 -0.112077855
0.095898196 0.044592578 0.06536811 -0.083294645 0.10424081 -0.049991276 0.08358447 -0.04247712
-0.081234284 -0.075108714 0.0092012705 0.13693537 0.06450808 0.033389382 -0.046678033 -0.032224488
-0.009531579 -0.0053755497 -0.088544905 -0.0017073997 -0.08536946 -0.043130405 -0.07208013 -0.1425993
-0.04818168 0.090671435 0.039819162 -0.0033463375 -0.013043842 0.08186124 -0.0054104817 0.014213076
-0.029077752 -0.069753386 -0.11706009 0.019251477 -0.038596448 0.020281207 0.014656189 0.028444953
0.08584879 0.08882145 0.06361967 0.06602689 0.012658414 -0.042222384 -0.11245993 -0.0838493
0.02585508 0.083993025 -0.012021812 -0.007610143 0.08595641 0.078428775 0.07841345 -0.026541982
0.020272948 0.04887763 -0.03468963 0.028169062 0.016655186 0.0683456 0.104616575 -0.00026897143
-0.12353455 0.021090226 -0.035970617 -0.018740134 0.12224548 -0.046918754 0.031449564 0.074392945
0.03341165 0.00410466 -0.11020432 0.012535556 0.07501086 -0.01487784 0.07155429 0.10924845
0.08235372 0.019629197 0.14800842 -0.094632685 0.041586615 -0.09162407 -0.009199394 0.07588931
0.02588009 0.096426845 0.051522005 0.07459832 -0.021180872 -0.08746163 -0.0042913742 0.059586804
-0.027346158 0.08807068 0.037590504 -0.055621926 0.10144916 0.067633346 -0.020005992 0.02323841
-0.017595973 0.038913656 -0.0031409706 -0.026704295 0.018116595 0.011307321 -0.022609035 0.051716276
0.054207996 -0.024867915 0.060080554 0.027777562 0.008300164 0.077258326 -0.0010750283 -0.06741218
-0.029898832 -0.070419334 -0.013934233 0.060277212 0.08321997 -0.0064510074 -0.07939406 0.062041383
0.016976953 0.07541061 -0.064794526 0.051693797 0.11015878 0.05026969 -0.06991654 -0.06562003

fc.bias f4 [2]
00000000: 76db 2dbd 29e0 d6bc
-0.042445622 -0.026229935
