results/gru/gru_hidden_100_layers_2_bidirectional_False_length_64_batch_64_lr_0.001.pth (torch, 428884 bytes, 10 tensors)

gru.weight_ih_l0 f4 [300, 50]
0	0xbe1a11da	-0.15045872
1	0xbe2201e4	-0.15821034
2	0x3d604e58	0.054762214
3	0x3e0fc0ea	0.14038435
4	0xbd93c656	-0.07215564
5	0x3d0c1c61	0.03420675
6	0xbe0e8d37	-0.13921057
7	0xbe454e33	-0.19268112
8	0xbd87b604	-0.066265136
9	0x3dea8722	0.11451556
10	0xbdc22f3c	-0.094816655
11	0xbe7caa2d	-0.24674292
12	0x3c96ccbd	0.018408174
13	0xbdb414b5	-0.08793012
14	0xbda6c738	-0.08143467
15	0xbb385527	-0.0028126927
16	0xbe4190e4	-0.18902928
17	0xbda2af56	-0.07943599
18	0x3e82a0e3	0.25513372
19	0x3e0a1f02	0.13488391
20	0x3e74a753	0.23891954
21	0xbe52730d	-0.20551701
22	0x3dadff62	0.08495976
23	0x3c180817	0.0092792725
24	0xbd84d5a6	-0.06486063
25	0x3e02655f	0.12733983
26	0xbde2b93e	-0.110704884
27	0x3c7b2a63	0.01532993
28	0xbe094e71	-0.1340883
29	0x3cf30af2	0.029668305
30	0xbd8d7e4a	-0.06908853
31	0xbc3e7cd6	-0.011626443
32	0x3dfe5daa	0.12420209
33	0xbd2de530	-0.0424549
34	0xbe5dcd65	-0.21660383
35	0xbe415a19	-0.18882026
36	0xbe1c5756	-0.15267691
37	0xbd4cd952	-0.05001194
38	0xbd9fef18	-0.078092754
39	0x3e0ae66e	0.13564464
40	0x3ce9e792	0.028552804
41	0x3d7bb726	0.06145396
42	0x3e201fc2	0.15637115
43	0xbe162882	-0.1466389
44	0xbdb351c9	-0.08755834
45	0x3db66d68	0.08907586
46	0x3df69ad1	0.12041248
47	0x3db51519	0.08841915
48	0x3d9c9ef4	0.076475054
49	0x3d3ffdf1	0.046873037
50	0xbce68d16	-0.028143447
51	0xbe8a04dd	-0.26956835
52	0xbe41cf7f	-0.1892681
53	0x3ea09cf7	0.31369755
54	0xbb1952d6	-0.0023395321
55	0x3da68e84	0.081326514
56	0xbc633066	-0.01386652
57	0x3d9e2e27	0.077236466
58	0xbde034c0	-0.10947561
59	0xbde31258	-0.11087483
60	0xbe042cda	-0.12907735
61	0x3e2f1bc8	0.17100441
62	0xbe2e7fe3	-0.17040972
63	0xbdd56086	-0.10418801
64	0xbdf7cde1	-0.12099815
65	0x3c9670f2	0.018364403
66	0xbe9219c3	-0.2853528
67	0x3d841eea	0.06451209
68	0xbde5d4d4	-0.11222234
69	0xbe137249	-0.14399065
70	0xbe50ac79	-0.20378293
71	0xbccb0b22	-0.024785582
72	0xbd4fef08	-0.050765067
73	0x3d9db948	0.07701355
74	0x3b924985	0.0044643306
75	0x3cc27a87	0.023740066
76	0x3d86c0d5	0.065797485
77	0x3cb15dc3	0.021651154
78	0xbbf6bbe4	-0.0075297225
79	0x3d1c34ff	0.03813648
80	0xbd1e724e	-0.03868323
81	0x3d595609	0.053060565
82	0xbd480ab1	-0.04883832
83	0x3c8c5a99	0.017133044
84	0xbd03309f	-0.03202879
85	0x3dad8cd3	0.08474126
86	0xbe06af73	-0.13152866
87	0xbe3ad24f	-0.18244289
88	0x3d1735b5	0.036916453
89	0x3dbffe52	0.093746796
90	0xbe0d7cef	-0.1381719
91	0x3e0c8873	0.13723926
92	0xbe8129f8	-0.25227332
93	0x3e34d12f	0.17657922
94	0xbd523063	-0.051315676
95	0x3d9186a8	0.07105762
96	0xbd9d4cf1	-0.07680691
97	0xbd6983de	-0.057010524
98	0xbd80e897	-0.06294363
99	0x3e4c885d	0.19973893
100	0xbdf61d3b	-0.12017294
101	0xbe83c304	-0.25734723
102	0xbda5244f	-0.08063566
103	0x3e54894d	0.20755501
104	0xbe5a27cd	-0.21304245
105	0x3cf2396d	0.029568398
106	0x3ca5f93a	0.020260442
107	0x3e35a643	0.17739205
108	0xbe61f34d	-0.22065468
109	0x3dab6fdb	0.08370944
110	0x3d13e016	0.036102377
111	0x3e33c7ff	0.17556761
112	0xbd9bd4f8	-0.0760898
113	0x3da4c160	0.08044696
114	0xbe4e71ae	-0.20160553
115	0x3e5af7ee	0.2138364
116	0xbe20af86	-0.15691957
117	0x3d0ad0db	0.033890586
118	0x3e0067a5	0.12539537
119	0xbcd62eb7	-0.026145322
120	0x3ebd179e	0.3693208
121	0x3cb95e52	0.022627983
122	0xbe06b7c3	-0.13156037
123	0x3d1a13a5	0.03761639
124	0xbc3ed10e	-0.011646522
125	0x3bb148ef	0.0054103057
126	0xbe6d93d6	-0.23200926
127	0x3ed0ee47	0.4080679
128	0x3e52a9a9	0.20572533
129	0xbd34e60f	-0.044164713
130	0x3c8f2191	0.01747206
131	0x3caa6761	0.020801248
132	0xbd1da4fb	-0.038487416
133	0x3d1ff7fc	0.039054856
134	0x3d1161b8	0.035493582
135	0xbe31b7d0	-0.17355275
136	0xbe57c652	-0.21071747
137	0xbc508059	-0.012725913
138	0xbd819c79	-0.06328673
139	0x3dcb35a8	0.099223435
140	0xbcc6c887	-0.02426554
141	0x3c278e4f	0.0102268
142	0x3e573281	0.2101536
143	0x3d48b156	0.048997246
144	0xbdcfb374	-0.1014165
145	0x3e5a02c7	0.21290122
146	0x3d3777ca	0.044791974
147	0x3cca2623	0.024676388
148	0xbd972bcb	-0.073814
149	0x3dd8183c	0.10551497
150	0xbd90dcd3	-0.07073369
151	0xbc0c0f45	-0.008548562
152	0xbbe8974e	-0.007098115
153	0x3e8e8da1	0.2784243
154	0x3d8f91b3	0.07010212
155	0x3e26f1da	0.16303197
156	0xbd9da77e	-0.07697962
157	0x3bb5c270	0.0055468604
158	0xbd4d7548	-0.050160676
159	0x3cec747c	0.028864138
160	0xbde100e2	-0.109864965
161	0xbe0a4505	-0.13502891
162	0xbd141908	-0.036156684
163	0xbd769406	-0.06019976
164	0xbe4207cb	-0.18948285
165	0xbdf63849	-0.12022454
166	0xbe4ae45a	-0.19813672
167	0x3ce31796	0.027721208
168	0x3e3f3b4a	0.1867496
169	0x3dc53bac	0.09630522
170	0x3dbcc405	0.09217075
171	0xbd83ef53	-0.06442132
172	0xbd401b70	-0.046901166
173	0x3e23991c	0.15976375
174	0xbd88d86e	-0.06681906
175	0x3c2fdc59	0.010733687
176	0xbdd423e8	-0.10358411
177	0x3e179931	0.14804532
178	0xbda74a53	-0.08168473
179	0xbccbe1d8	-0.024887964
180	0xbd8ba9f6	-0.06819527
181	0xbcb37d72	-0.021910403
182	0x3bfa3f74	0.0076369587
183	0xbdf31678	-0.1186952
184	0xbe1ba649	-0.15200152
185	0x3ce924c7	0.02845992
186	0xbe36870f	-0.17824958
187	0x3e2d8339	0.16944589
188	0x3c8f8f1d	0.017524296
189	0x3de8be71	0.11364449
190	0xbd3bcda5	-0.045850415
191	0x3e061f17	0.13097797
192	0xbdb024a2	-0.08600737
193	0x3d8d9044	0.06912282
194	0xbdef6343	-0.116888545
195	0x3dd9a741	0.10627604
196	0x3d8eb68f	0.06968414
197	0xbb8ef6d2	-0.0043629194
198	0xbd716cb9	-0.058941577
199	0x3c10dc4e	0.008841587
200	0xbca7c125	-0.02047784
201	0xbe5da10b	-0.21643464
202	0x3da37cf3	0.079828165
203	0x3eae4273	0.34035072
204	0x3d83cdba	0.064357236
205	0x3d3b9f68	0.04580632
206	0xbde60b24	-0.11232594
207	0xbe0b1eb6	-0.13585934
208	0xbdcad423	-0.09903743
209	0xbe5ce2d0	-0.21570897
210	0x3cf9ba03	0.030484205
211	0x3c8028db	0.015644481
212	0xbd076e3f	-0.033064123
213	0xbd3082c8	-0.043093473
214	0xbe333135	-0.1749924
215	0x3d238de7	0.03993025
216	0xbe1802ef	-0.14844869
217	0x3c9e510b	0.019325754
218	0x3e3014fc	0.17195505
219	0x3e577398	0.2104019
220	0xbc5d5a6f	-0.013510331
221	0xbc4e2027	-0.012580908
222	0xbe16cd1f	-0.14726685
223	0x3dc75184	0.09732345
224	0x3d3b0f6d	0.045669008
225	0x3dbfbddc	0.09362385
226	0xbe9e3257	-0.3089778
227	0xbda528a7	-0.080643944
228	0xbe1d93a4	-0.15388352
229	0xbc340ebd	-0.010989842
230	0xbe016338	-0.12635505
231	0xbd4ab66c	-0.049490377
232	0x3d620de0	0.055189013
233	0x3c155991	0.009115593
234	0xbe6a483a	-0.22879115
235	0xbe2b56c1	-0.16732313
236	0xbe078732	-0.13235167
237	0x3e1fa5ee	0.15590641
238	0xbe41049e	-0.18849418
239	0x3d069c33	0.032863807
240	0x3c667486	0.014065867
241	0xbd9e4387	-0.077277236
242	0x3da50abc	0.08058688
243	0x3d796062	0.060882933
244	0xbcde3cb4	-0.027128555
245	0xbda7d7fd	-0.08195493
246	0x3db5dea6	0.088803574
247	0x3d01c290	0.03167969
248	0xbdbd0724	-0.092298776
249	0x3c7e4173	0.015518534
250	0x3d2e8e75	0.042616326
251	0x3d2ac33e	0.041690104
252	0xbdff200b	-0.124572836
253	0x3dd74da6	0.10512857
254	0x3d861571	0.065470584
255	0xbc9bac76	-0.019003134

gru.weight_hh_l0 f4 [300, 100]
0	0xbe4ebec5	-0.2018996
1	0xbdfe9484	-0.12430671
2	0x3ca37d34	0.019957162
3	0xbdab073e	-0.08350991
4	0x3d10a717	0.0353156
5	0xbdd52cf6	-0.10408966
6	0xbd857979	-0.0651731
7	0x3d2cf0b3	0.042221736
8	0x3da73749	0.08164842
9	0x3d54f226	0.051988743
10	0xbdd34748	-0.1031633
11	0x3d44d25d	0.04805218
12	0x3de106e3	0.10987642
13	0x3cda695f	0.026661573
14	0xbd017323	-0.031603944
15	0x3ce21667	0.027598573
16	0x3c2b63ae	0.010460777
17	0xbe0b4b04	-0.13602835
18	0xbdd65264	-0.104649335
19	0x3d630a24	0.055429593
20	0x3dc0555d	0.09391282
21	0xbc92b838	-0.017910108
22	0xbd225535	-0.03963204
23	0x3dbc9d45	0.09209684
24	0xbdc79b6d	-0.09746442
25	0xbd3b70c9	-0.045761857
26	0x3dda407d	0.106568314
27	0xbe287f34	-0.16454774
28	0x3dbaa45c	0.0911338
29	0x3dda04f4	0.10645476
30	0xbe45f8a0	-0.19333124
31	0x3d6021b1	0.05471963
32	0xbd53769d	-0.05162679
33	0x3e28b8ec	0.16476792
34	0xbcb867ec	-0.022510491
35	0x3c076640	0.008264124
36	0xbb0f23f6	-0.0021841503
37	0xbdacc508	-0.08436018
38	0x3e19ff3b	0.15038769
39	0x3e06c8d0	0.13162541
40	0xbe68c93f	-0.2273302
41	0xbd0646c2	-0.032782324
42	0xbca1c4ab	-0.019747099
43	0xbdc84171	-0.09778107
44	0x3d6d11d2	0.057878323
45	0x3dccb896	0.099961445
46	0xbe2f4b69	-0.1711861
47	0x3e165d40	0.1468401
48	0x3d25011a	0.040284254
49	0x3e283492	0.16426304
50	0x3d2247a4	0.039619103
51	0xbb9ba43a	-0.004749802
52	0x3d93d129	0.072176285
53	0xbd6476ff	-0.055777546
54	0xbd168a8b	-0.03675322
55	0x3d658f11	0.056044642
56	0x3db3b754	0.087752014
57	0xbce6087b	-0.028080216
58	0x3ce9dc3f	0.028547404
59	0x3e0c6b98	0.13712919
60	0xbe4447a7	-0.19167958
61	0xbd806a50	-0.062702775
62	0x3d36581e	0.04451763
63	0xbcc98fd1	-0.02460471
64	0x3e4a7679	0.19771756
65	0x3d64f53e	0.055897944
66	0x3bc13380	0.005896032
67	0x3cc4d0f2	0.024025414
68	0xbe3abcfd	-0.18236156
69	0x3d36d7e8	0.044639498
70	0xbe129314	-0.14313918
71	0xbdefe234	-0.11713067
72	0xbd74b321	-0.059741143
73	0xbd190ad6	-0.03736385
74	0x3cba793f	0.022762893
75	0xbde87660	-0.11350703
76	0xbddfeee4	-0.10934237
77	0xbdb3deb9	-0.08782715
78	0xbd0a8ed7	-0.03382763
79	0x3bcb90fe	0.006212353
80	0x3c43e4b1	0.01195638
81	0xbe175e1c	-0.14781994
82	0xbe9a026f	-0.30079982
83	0xbcb9933e	-0.022653218
84	0xbd4e1690	-0.050314486
85	0xbe548d51	-0.20757033
86	0xba9fae39	-0.001218266
87	0x3d8406dc	0.06446621
88	0xbd65492b	-0.05597798
89	0x3e242f10	0.16033578
90	0xbde2c658	-0.11072987
91	0x3d4a97db	0.049461227
92	0x3d8ef6a3	0.06980636
93	0xbdc52d02	-0.09627725
94	0x3dd9b9cc	0.10631141
95	0xbe806a3f	-0.2508106
96	0x3e0b903b	0.13629238
97	0x3dbacbe5	0.09120921
98	0x3da0a5e6	0.078441426
99	0x3dcfaff7	0.101409845
100	0x3d857961	0.06517292
101	0xbd40c5c7	-0.047063615
102	0x3d32e854	0.043678597
103	0x3abec5c6	0.0014554791
104	0x3bcd4997	0.006264876
105	0xbcefe869	-0.029285626
106	0xbe1ba789	-0.15200628
107	0x3d6d88de	0.057991855
108	0x3d9b9e03	0.07598498
109	0xbc27e81f	-0.010248213
110	0xbcde5782	-0.027141336
111	0xbe39df8c	-0.18151683
112	0xbd871384	-0.06595519
113	0x3e5bf744	0.21481043
114	0xbe09fa13	-0.13474302
115	0xbcc91524	-0.024546213
116	0xbc852eb2	-0.016257618
117	0x3d09b09f	0.033615705
118	0x3cf98b73	0.030462002
119	0x3de0e5ef	0.10981356
120	0x3db63cba	0.088983014
121	0xbdac2fed	-0.084075786
122	0x3d74de68	0.059782416
123	0xbd100846	-0.03516414
124	0xbe0686ee	-0.13137409
125	0xbd66c2b5	-0.05633803
126	0x3c4b4048	0.012405463
127	0x3e16aa03	0.14713292
128	0x3d2c1666	0.04201355
129	0x3de2e180	0.11078167
130	0xbd8c0327	-0.06836539
131	0x3d1942e6	0.037417315
132	0x3d903f93	0.07043376
133	0xbb89354e	-0.0041872626
134	0xbe014344	-0.12623316
135	0x3d3c9a51	0.046045605
136	0x3b913080	0.0044308305
137	0x3dcc0f71	0.09963883
138	0xbd8e204b	-0.06939753
139	0x3d153eb6	0.03643676
140	0xbd12b746	-0.035819314
141	0xbe3176f2	-0.1733053
142	0xbce96623	-0.028491085
143	0x3e0feff6	0.14056382
144	0xbd209a70	-0.039209783
145	0x3d8f1157	0.06985729
146	0x3d76011a	0.060059644
147	0xbde62e36	-0.11239283
148	0xbe553149	-0.20819582
149	0xbde5c01f	-0.11218285
150	0xbe07aaf9	-0.13248815
151	0x3e2f56e1	0.17122985
152	0x3dab61ff	0.08368301
153	0x3c9081f6	0.017640095
154	0x3d60d16c	0.05488722
155	0xbd7bc210	-0.06146437
156	0xbda02cca	-0.07821043
157	0x3cc6730d	0.024224782
158	0x3dc147b2	0.09437503
159	0x3c855d1c	0.01627975
160	0xbda07f00	-0.07836723
161	0x3e02b6f8	0.1276511
162	0xbcc3292e	-0.023823347
163	0x3e7f8df7	0.24956499
164	0x3dc53c0e	0.09630595
165	0xbe071d53	-0.1319478
166	0x3d8d29ef	0.06892764
167	0x3cc7f6c9	0.024409669
168	0x3d6a167e	0.057150356
169	0x3da5879e	0.080825076
170	0xbe8309d0	-0.25593424
171	0xbdacb62c	-0.08433184
172	0xbdb30afb	-0.08742329
173	0x3db70745	0.089369334
174	0xbdcbd4dc	-0.09952709
175	0x3e43bc7e	0.19114873
176	0xbd9a1b7b	-0.07524773
177	0xbc6511dc	-0.013981309
178	0xbd5b8ced	-0.053601194
179	0x3c990797	0.018680377
180	0xbe1825eb	-0.14858215
181	0x3df3704d	0.11886654
182	0xbd894fd5	-0.0670468
183	0x3cdacb03	0.026708132
184	0x3c0777fe	0.008268354
185	0xbcd36d1b	-0.025808861
186	0xbc315aa8	-0.010824837
187	0x3dd60a4d	0.104511835
188	0x3d93f7d7	0.07225006
189	0xbe35f775	-0.17770179
190	0xbd5d981b	-0.054100137
191	0xbcb45f29	-0.022018032
192	0xbca6ab3a	-0.020345319
193	0x3df116d9	0.11771936
194	0x3d351748	0.044211656
195	0x3e05372f	0.13009332
196	0x3d0ee00c	0.034881637
197	0x3c6b9910	0.014379755
198	0xbd632223	-0.055452477
199	0xbe08753a	-0.13325968
200	0x3dc0f91e	0.09422515
201	0x3c75eebc	0.015010532
202	0xbdb5d3a6	-0.08878259
203	0x3dadee2e	0.08492695
204	0xbde61864	-0.11235121
205	0x3d48b47d	0.049000252
206	0x3d2aa32a	0.04165951
207	0x3d0717dc	0.03298174
208	0x3e0e6220	0.13904619
209	0x3d46a83b	0.04850028
210	0xbd3e6ea5	-0.046492238
211	0xbddc7b8f	-0.107657544
212	0xbe89c2e5	-0.26906505
213	0x3e5b777e	0.21432301
214	0xbe392fb7	-0.18084608
215	0xbc3e51b6	-0.011616161
216	0x3c3fd681	0.011708857
217	0x3cd8cb4f	0.026464133
218	0x3dc0b0ef	0.094087474
219	0x3dcb9528	0.09940559
220	0x3cf4eeef	0.029899089
221	0xbdc5f4cc	-0.09665832
222	0x3ea0bbcc	0.31393278
223	0x3d17437c	0.036929592
224	0xbd4f3889	-0.050591026
225	0x3c90f74d	0.017696047
226	0x3e1884ea	0.14894453
227	0x3dea4dcc	0.1144062
228	0xbdfd8ceb	-0.123803936
229	0x3eb4eca0	0.3533678
230	0x3d892200	0.06695938
231	0x3e447692	0.19185856
232	0xbc8de764	-0.01732225
233	0x3d2f9b9c	0.04287301
234	0x3d346286	0.04403927
235	0x3dff254b	0.12458285
236	0xbd0634da	-0.032765247
237	0xbd681ebe	-0.056669943
238	0xbe32e95a	-0.17471829
239	0x3c8e68d2	0.017383967
240	0xbcbb1bb7	-0.022840364
241	0x3e55c9bf	0.20877741
242	0x3e5ae997	0.2137817
243	0x3e049bd8	0.12950075
244	0x3e8fe444	0.2810384
245	0x3d099daa	0.033597626
246	0xbc9d1851	-0.019176634
247	0xbc10fba0	-0.008849055
248	0x3e1fed31	0.15617825
249	0xbe388a7d	-0.18021579
250	0x3c3a726a	0.0113798175
251	0xbe9665fd	-0.29374686
252	0xbdcc4566	-0.09974174
253	0x3c9d84ca	0.019228358
254	0xbd9986d8	-0.074964225
255	0xbe075150	-0.13214612

gru.bias_ih_l0 f4 [300]
0	0x3d42c652	0.047552414
1	0xbd9d14fe	-0.076700196
2	0xbda77b8e	-0.08177863
3	0x3d5be203	0.05368234
4	0xbc7ba864	-0.015359972
5	0xbd2b401a	-0.04180918
6	0xbe0d11e3	-0.13776354
7	0xbd593b64	-0.053035155
8	0xbce4f71e	-0.027949866
9	0x3d1865f5	0.03720661
10	0xbd07d73b	-0.033164244
11	0xbd75582a	-0.059898533
12	0xbdcf27aa	-0.10114987
13	0xbda0dd8d	-0.078547575
14	0x3d2ddbb6	0.04244586
15	0x3d92a717	0.07160776
16	0xbcb2e2c2	-0.021836642
17	0xbda4782d	-0.08030734
18	0xbc6a6055	-0.014305194
19	0xbc29aa37	-0.010355524
20	0x3cc45b97	0.023969455
21	0xbd41cdb2	-0.047315307
22	0x3d398beb	0.04529945
23	0xbcb1ed4b	-0.021719595
24	0xbd442b8c	-0.047893092
25	0xbd877d53	-0.066157006
26	0x3a2f7706	0.0006693456
27	0xbcf7e0f0	-0.030258626
28	0xbde45525	-0.111490525
29	0x3dbb84aa	0.09156163
30	0xbda39533	-0.07987442
31	0xbdcf4f7b	-0.101225816
32	0xbe498a5a	-0.19681683
33	0xbde6cecb	-0.112699114
34	0xbd0154e9	-0.031575117
35	0x3dce5155	0.100741066
36	0xbcd1a337	-0.025590522
37	0x3c87dc3f	0.016584514
38	0xbdb854e0	-0.090005636
39	0x3be7ff5f	0.007080003
40	0x3cbc8e10	0.02301696
41	0xbd319f41	-0.043364767
42	0xbdf92774	-0.12165728
43	0x3d23691c	0.039895162
44	0xbd8b187c	-0.067917794
45	0xbe131aca	-0.14365688
46	0xbde5e6cb	-0.11225661
47	0xbcb5eeed	-0.022208655
48	0xbdbec87d	-0.09315584
49	0x3d1964c4	0.037449613
50	0xbdf36681	-0.118847854
51	0x3d4396ee	0.04775136
52	0xbe292244	-0.16516978
53	0x3dca8a85	0.09889702
54	0xbdd5e402	-0.1044388
55	0xbd725070	-0.059158742
56	0xbded4904	-0.11586192
57	0xbdbd698c	-0.09248647
58	0xbdbf17bc	-0.09330699
59	0xbdc741af	-0.09729325
60	0xbd11c827	-0.03559127
61	0x3b946a1e	0.0045292517
62	0xba89add6	-0.0010504078
63	0xbdfa4167	-0.12219506
64	0xbd1cf332	-0.038317867
65	0xbdb27b76	-0.087149546
66	0xbd2e3820	-0.042533994
67	0xbe0b410d	-0.13599034
68	0x3cb3c060	0.021942317
69	0xbd1ca909	-0.038247142
70	0xbd94c7ae	-0.072646484
71	0x3d975181	0.073885925
72	0x3d5557f1	0.05208582
73	0x3d071f07	0.032988574
74	0xba45fe34	-0.0007552833
75	0xbcceee8f	-0.025260238
76	0xbd7fbdbc	-0.062436804
77	0xbc8620d0	-0.016373068
78	0xbd85d8f5	-0.06535522
79	0xbd41fa9c	-0.04735814
80	0x3d459656	0.048239075
81	0x3d952ca0	0.07283902
82	0xbba24823	-0.004952447
83	0xbe03b22c	-0.12860936
84	0x3d0697f2	0.03285975
85	0xbcd1c0be	-0.025604602
86	0x3cfbe87f	0.030750511
87	0xbe25bdd5	-0.16185696
88	0xbd70389a	-0.05864773
89	0xbd79adb2	-0.060956664
90	0xbc0445b0	-0.008073255
91	0xbcf490a1	-0.02985412
92	0xbdbadfdf	-0.09124731
93	0xbd1de704	-0.03855039
94	0xbc9f04f1	-0.019411536
95	0xbc4d4e8f	-0.012530937
96	0x3d406867	0.046974566
97	0x3d14c36f	0.036319192
98	0x3d05902a	0.03260819
99	0xbe3b608e	-0.18298551
100	0x3f2e320e	0.6804513
101	0x3f1399a5	0.5765632
102	0x3eb6bab0	0.35689306
103	0x3ea8923a	0.32924062
104	0x3edac61d	0.42729273
105	0x3dcb0642	0.09913303
106	0xbdc34774	-0.09535113
107	0x3e11d4ad	0.14241286
108	0x3d9df7ed	0.07713304
109	0x3d2180ac	0.03942935
110	0x3e23ff4c	0.16015357
111	0x3f09cf6c	0.53832126
112	0x3eb8830c	0.3603748
113	0x3d98d100	0.074617386
114	0x3d3aa418	0.04556665
115	0x3ebd7c67	0.37008974
116	0x3f050163	0.5195524
117	0x3f104370	0.563529
118	0x3f03a152	0.5141803
119	0x3db88103	0.09008982
120	0x3e64ba14	0.22336608
121	0x3ee6296f	0.44953486
122	0x3d96fd0f	0.07372486
123	0xbdbb6c7f	-0.09151553
124	0xbdcb110b	-0.0991536
125	0x3e6e93fa	0.23298636
126	0xbe1ec8b8	-0.15506256
127	0x3eeeb396	0.46621388
128	0x3ef84a31	0.48494104
129	0x3c66780e	0.014066709
130	0x3efa61c7	0.48902723
131	0x3e58fad4	0.21189433
132	0x3eb956e6	0.3619911
133	0x3e8174cf	0.2528443
134	0xbda04600	-0.078258514
135	0x3eee4393	0.4653593
136	0x3e82a2dc	0.25514877
137	0x3e966cde	0.29379934
138	0x3ec96ce2	0.39340883
139	0x3e65fe0d	0.22460194
140	0xbdae2479	-0.0850305
141	0xbdc1d492	-0.09464373
142	0x3eeb8217	0.45997688
143	0x3f0587ce	0.52160347
144	0x3e081fef	0.13293432
145	0x3e8933d9	0.2679737
146	0x3d54afe9	0.051925573
147	0x3ecae375	0.3962666
148	0x3e44e8ab	0.19229381
149	0x3ef2ffa1	0.47460654
150	0x3f0c06b3	0.5469772
151	0x3c130f86	0.008975869
152	0x3f031262	0.51199925
153	0x3f091dfb	0.5356137
154	0x3ed3a9fb	0.41340622
155	0x3f03ab0d	0.5143288
156	0xbd831067	-0.06399613
157	0x3e9b711c	0.30359733
158	0x3eeaaddd	0.45835772
159	0x3e971acd	0.29512635
160	0xbc867f19	-0.016418027
161	0x3e928476	0.28616685
162	0x3d68b156	0.056809746
163	0x3f00818c	0.5019767
164	0x3ed3adf4	0.41343653
165	0x3f04b46e	0.51837814
166	0x3e909c06	0.28244036
167	0x3bc0aab5	0.005879725
168	0x3ec77ff8	0.3896482
169	0xbdcbc3d0	-0.09949458
170	0x3cbdcaff	0.023168085
171	0x3f07eec4	0.530987
172	0x3eb1c04c	0.34717023
173	0x3f06d94f	0.52675337
174	0xbe939114	-0.28821623
175	0x3f007338	0.5017581
176	0x3e3d48d2	0.1848481
177	0x3d1dfc9e	0.038570993
178	0x3ebd8e02	0.37022406
179	0xbdf1d38b	-0.11807927
180	0x3e10faf3	0.1415823
181	0x3ece110e	0.40247387
182	0x3eeb7715	0.4598929
183	0x3d085d6e	0.033292226
184	0x3f002625	0.50058204
185	0x3ea5068b	0.32231554
186	0x3ec6a6dd	0.38799182
187	0x3e12f2c9	0.14350428
188	0x3dbc8a79	0.09206099
189	0xbe1f32f9	-0.15546788
190	0x3db61509	0.08890731
191	0x3e7792fb	0.24177162
192	0x3f2bc80f	0.6710214
193	0x3e5ef904	0.2177468
194	0x3f06f7d8	0.5272193
195	0x3f068ced	0.52558786
196	0x3d9dc908	0.07704359
197	0xbd2df0c5	-0.042465944
198	0x3f12c3fa	0.57330287
199	0x3e40e8dd	0.1883883
200	0x3d85b444	0.065285236
201	0x3ba27eb9	0.004958954
202	0xbcb9e8bd	-0.022693986
203	0x3ceaf74a	0.02868237
204	0xbd9f01bd	-0.077640034
205	0x3c863c16	0.016386073
206	0xbdcdcbff	-0.10048675
207	0xbdb244a8	-0.087045014
208	0x3d66de8a	0.056364574
209	0x3cb128a1	0.021625819
210	0xbdd07fa4	-0.101805955
211	0xbc1960c3	-0.009361449
212	0xb9878227	-0.00025846178
213	0x3d57acbf	0.052654978
214	0x3d2bfd0b	0.041989367
215	0x3db09d7a	0.08623786
216	0xbd1baeca	-0.03800849
217	0xbb93a8c8	-0.0045062043
218	0xbca1367b	-0.019679299
219	0xbda7693d	-0.081743695
220	0x3d8621bc	0.06549403
221	0x3da7babe	0.08189915
222	0x3b1a011c	0.0023499196
223	0x3daf52ed	0.08560739
224	0x3d6a4c53	0.057201695
225	0x3d0192b8	0.031634063
226	0xbd2d50f5	-0.042313535
227	0x3ccdb19a	0.025109101
228	0xbc2416c2	-0.0100151915
229	0x3dcb318f	0.09921562
230	0x3dd6084e	0.10450803
231	0xbd99378b	-0.07481297
232	0x3d8132ec	0.06308541
233	0x3d9617e5	0.07328776
234	0x3daa7aac	0.08324179
235	0xbd908c57	-0.07058018
236	0xbd75f816	-0.060051046
237	0x3d884585	0.06653885
238	0xbd8d1287	-0.068882994
239	0xbc9c529d	-0.019082362
240	0xbd01e013	-0.031707834
241	0x3dd0b34b	0.101904474
242	0x3ce4cd64	0.02792997
243	0xbda41a18	-0.080127895
244	0x3d1e8b97	0.038707342
245	0x3db12564	0.0864971
246	0xbd9a4c26	-0.075340554
247	0x3c5ac228	0.0133519545
248	0xbd84b4b7	-0.06479781
249	0x3d33df02	0.04391385
250	0x3d22d891	0.039757315
251	0x3dbb45fa	0.09144206
252	0x3d03f181	0.032212738
253	0xbc614f92	-0.013751881
254	0xbdb27efb	-0.08715626
255	0x3d299e52	0.04141075

gru.bias_hh_l0 f4 [300]
0	0xbd23f1d1	-0.040025536
1	0xbd69aa9e	-0.05704748
2	0xbddb8444	-0.10718587
3	0xbd1aaf70	-0.037764966
4	0x3d187590	0.03722149
5	0x3da49f03	0.080381416
6	0xbca3c39a	-0.019990731
7	0x3d9f9453	0.077919625
8	0xbc13d986	-0.00902403
9	0xbca653f0	-0.020303696
10	0x3dbf2d48	0.093348086
11	0xbda81907	-0.082078986
12	0x3befbf7c	0.007316528
13	0xbdbf9416	-0.09354417
14	0xbdc08675	-0.09400646
15	0x3d4611f8	0.04835698
16	0x3c9f5ec9	0.019454377
17	0x3ce77fc2	0.028259162
18	0xbdf691f8	-0.1203956
19	0xbd479d7c	-0.048734173
20	0xbe023bbd	-0.12718101
21	0x3d414588	0.04718545
22	0x3c7d4b95	0.015459915
23	0x3d89734a	0.06711443
24	0x3c81441d	0.01577955
25	0xbe0199a3	-0.12656264
26	0xbc5a47a1	-0.013322742
27	0x3d0c7144	0.034287706
28	0xbdea114d	-0.11429081
29	0xbd6c88e4	-0.057747737
30	0xbde4cfd5	-0.11172453
31	0xbd6b237f	-0.0574069
32	0xbd4d4bf9	-0.05012128
33	0xbdc76623	-0.09736278
34	0xbe47d4e1	-0.195148
35	0x3c2b1d47	0.010443992
36	0x3c8a31be	0.016869422
37	0x3cc8cebf	0.024512647
38	0xbe10eefd	-0.14153667
39	0xbdcd9d39	-0.100397535
40	0xbd552bfa	-0.052043892
41	0x3c280421	0.010254891
42	0xbd9aecbb	-0.07564684
43	0x3c5552d6	0.013020238
44	0xbe0bcff1	-0.13653542
45	0xbd4ac232	-0.049501605
46	0xbb9fc95f	-0.0048763
47	0xbd1dd055	-0.03852876
48	0xbe065eed	-0.13122149
49	0x3c586282	0.01320708
50	0x3c97e6e8	0.018542722
51	0xbd7d597a	-0.06185291
52	0xbcf23110	-0.02956441
53	0x3e140186	0.14453706
54	0x3d41d10c	0.047318503
55	0x3d87cfda	0.066314414
56	0x3b4c6bee	0.003119226
57	0x3d7509c0	0.05982375
58	0x3913ebd3	0.00014106864
59	0x398eec38	0.00027260347
60	0xbcb0fa19	-0.02160363
61	0xbd8bb744	-0.068220645
62	0x3d1421be	0.03616499
63	0xbe1130ec	-0.14178818
64	0xbd58f26a	-0.05296556
65	0xbe12f853	-0.1435254
66	0x3d296d99	0.041364286
67	0xbd7625e7	-0.06009474
68	0xbcda9e42	-0.026686791
69	0xbd0b7771	-0.034049455
70	0xbd8d3abc	-0.06895968
71	0xbd3ce50b	-0.04611687
72	0xbd70c7ed	-0.058784414
73	0xbd67902a	-0.05653397
74	0xbcb7115b	-0.022347143
75	0x3bdfda11	0.0068314155
76	0xbc20df49	-0.00981886
77	0xbb152149	-0.0022755435
78	0xbde85536	-0.11344378
79	0xbcaff6fd	-0.021480078
80	0x3d710652	0.05884392
81	0xbd6cb45d	-0.057789195
82	0xbc55aae1	-0.013041229
83	0x3bfb8caa	0.0076766806
84	0x3d952a43	0.072834514
85	0xbd1c62a1	-0.038179997
86	0xbdeec816	-0.11659257
87	0x3ca2c494	0.019869126
88	0xbd8f7be2	-0.07006051
89	0x3d199135	0.037491996
90	0xbd46986a	-0.048485197
91	0x3c00ef25	0.0078695165
92	0x3d87283a	0.065994695
93	0xbc344208	-0.011002071
94	0x3c8d3a38	0.017239675
95	0xbda82c74	-0.08211604
96	0xbc145e91	-0.0090557495
97	0xbcb713cb	-0.022348305
98	0xbd9af8d0	-0.075669885
99	0xbd539334	-0.051654056
100	0x3f1f1af3	0.62150496
101	0x3f229324	0.6350577
102	0x3edea933	0.43488464
103	0x3e9d6167	0.30738375
104	0x3eefe8b8	0.46857238
105	0x3d076571	0.033055726
106	0xbe0a5671	-0.13509537
107	0x3d1d78ef	0.03844541
108	0x3dd3969f	0.10331463
109	0x3ce8d250	0.028420597
110	0x3e8d81ae	0.27638
111	0x3f09552f	0.53645605
112	0x3eb774a9	0.35831192
113	0x3cbb663e	0.022875901
114	0x3d077ca9	0.03307787
115	0x3ea67f66	0.32519072
116	0x3f10cd08	0.5656285
117	0x3f14e1bc	0.58156943
118	0x3f0deb1b	0.5543687
119	0x3dc960a1	0.098328836
120	0x3e599026	0.21246395
121	0x3f0c411d	0.54786855
122	0x3d84fada	0.06493159
123	0xbd96321e	-0.07333778
124	0xbcf14c95	-0.029455462
125	0x3e25e503	0.16200642
126	0xbe1366d9	-0.14394702
127	0x3ecc1d10	0.39865923
128	0x3f0ad593	0.5423214
129	0x3c5aaa31	0.013346241
130	0x3f01fcb2	0.5077621
131	0x3dd11690	0.102093816
132	0x3ef31f29	0.4748471
133	0x3eb73ae7	0.35787126
134	0xbd38ba80	-0.045099735
135	0x3ece5dc9	0.40305927
136	0x3ea0f534	0.31437075
137	0x3ec6e63d	0.38847533
138	0x3ee7688b	0.45196947
139	0x3e5ee482	0.21766856
140	0x3c23682a	0.009973565
141	0xbda0438d	-0.07825384
142	0x3f0217bc	0.50817466
143	0x3f0b0c2b	0.5431544
144	0x3dd99932	0.10624923
145	0x3e462d18	0.1935314
146	0x3e4cc2ff	0.1999626
147	0x3ec57dc6	0.3857252
148	0x3e6ff32c	0.23432606
149	0x3ee6ed8e	0.45103115
150	0x3f0a9388	0.54131365
151	0xbd82cfa4	-0.063872606
152	0x3f0345c7	0.51278347
153	0x3efe1c2c	0.49630868
154	0x3ee3befb	0.44481644
155	0x3f02dc33	0.5111725
156	0xbc6e926c	-0.014561277
157	0x3e533dbf	0.20629023
158	0x3ed977d6	0.4247424
159	0x3e9f20c6	0.31079692
160	0x3d8e6c75	0.0695428
161	0x3e973068	0.2952912
162	0xbd3975c8	-0.04527834
163	0x3ee734a9	0.45157364
164	0x3eb83c1c	0.3598336
165	0x3f0411cb	0.5158965
166	0x3eb08fcb	0.34484705
167	0x3e159830	0.14608836
168	0x3edb2e42	0.4280873
169	0xbde28963	-0.11061361
170	0x3dff1fce	0.12457238
171	0x3f0afa43	0.5428812
172	0x3e7485fa	0.23879233
173	0x3f06b346	0.526173
174	0xbe6c26c7	-0.23061667
175	0x3ef2ec85	0.47446075
176	0x3e1caff4	0.15301496
177	0x3dbaf75b	0.091292106
178	0x3edf1f68	0.4357865
179	0xbe1988a9	-0.14993538
180	0x3e1d0b55	0.15336354
181	0x3f082939	0.531879
182	0x3ee02cd3	0.43784198
183	0x3e18b3d9	0.14912356
184	0x3eeab2d8	0.45839572
185	0x3ef20ade	0.47273916
186	0x3eafcf38	0.34337783
187	0x3d95832b	0.07300409
188	0x3e7ba140	0.2457323
189	0xbe7df072	-0.24798754
190	0xbd843b8b	-0.064566694
191	0x3e84fc33	0.25973663
192	0x3f077c70	0.5292425
193	0x3e04f91e	0.12985656
194	0x3ee14a22	0.4400187
195	0x3f17e010	0.5932627
196	0x3d8de7aa	0.06928952
197	0xbd546547	-0.051854398
198	0x3ece690a	0.40314513
199	0x3e6563e4	0.22401386
200	0xbd5db180	-0.054124355
201	0x3d8659cd	0.06560097
202	0x3c83771e	0.01604801
203	0xbdb03ad4	-0.086049706
204	0xbd9c657d	-0.07636545
205	0xbda2aca9	-0.079430886
206	0x3cf7516d	0.030190194
207	0x3da9c52b	0.0828956
208	0x3d67c25f	0.05658185
209	0x3d71c86e	0.059029035
210	0xbdc65d58	-0.09685773
211	0xbcd14375	-0.025544861
212	0x3dd2b697	0.102887325
213	0xbd3e88a7	-0.04651704
214	0xbd5fb956	-0.05462011
215	0xbdbb06c6	-0.09132151
216	0x3d99a1ac	0.075015396
217	0xbcbb8e60	-0.022895038
218	0x3dc97ffc	0.09838864
219	0x3c1e4ad1	0.009661392
220	0xbcf52cba	-0.029928554
221	0xbcfe7b12	-0.031064544
222	0x3dbde757	0.0927264
223	0x3dbd8d83	0.09255507
224	0xbd9d54dd	-0.07682202
225	0xbae7abed	-0.0017675139
226	0xbd79a921	-0.06095231
227	0xbdb0de83	-0.08636191
228	0xbc737d1d	-0.014861372
229	0x3d96198c	0.073290914
230	0x3b46ea6d	0.003035213
231	0xbd150fa3	-0.036391865
232	0x3c357655	0.011075576
233	0xbdc1d81b	-0.09465047
234	0x3b2bf493	0.0026238307
235	0xbd9a476d	-0.07533155
236	0x3db2c279	0.08728499
237	0xbdc34fa7	-0.09536677
238	0xbc01f4d7	-0.0079319095
239	0xbda28d67	-0.079371266
240	0x3b4635fd	0.0030244582
241	0x3ca0ac6e	0.01961347
242	0x3d0b2de0	0.033979297
243	0x3dbc16b4	0.09184018
244	0xbd89089c	-0.06691095
245	0xbd86b3ac	-0.065772384
246	0x3a8e0b65	0.0010837136
247	0xbd51d1af	-0.05122536
248	0x3d1c6de2	0.03819073
249	0xbda3959f	-0.07987522
250	0xbcb5983a	-0.022167314
251	0x3cddc1ff	0.027070044
252	0xbc31da5e	-0.010855285
253	0xbc4820ec	-0.01221488
254	0xbdc537cb	-0.09629782
255	0xbd44816e	-0.047974996

gru.weight_ih_l1 f4 [300, 100]
0	0x3c01c39e	0.007920174
1	0xbde1b7f3	-0.11021414
2	0xbd55bff1	-0.052185003
3	0xbdfc5c87	-0.12322336
4	0xbcccba49	-0.024991171
5	0xbcc170b0	-0.023613304
6	0x3e428cdc	0.18999046
7	0x3e5ccfc3	0.2156363
8	0xbcac77b4	-0.021053173
9	0x3d822a05	0.06355671
10	0x3d320d7d	0.043469895
11	0xbda55419	-0.08072681
12	0xbd4b23b4	-0.049594596
13	0xbe2d9a10	-0.16953301
14	0xbe00c13c	-0.12573713
15	0x3cf9cac7	0.0304922
16	0x3c9e3b68	0.019315436
17	0xbc42ed2c	-0.0118973665
18	0xbd3d4d4d	-0.046216298
19	0x3e217cae	0.15770218
20	0xbdb8025e	-0.089848265
21	0x3d86cbcf	0.06581842
22	0xbe444280	-0.19165993
23	0xbdfd2d60	-0.1236217
24	0xbe3b57e7	-0.18295251
25	0xbe02bf48	-0.1276828
26	0x3d973b6a	0.07384379
27	0xbdc19479	-0.09452147
28	0x3dbc7d98	0.092036426
29	0xbdb7819b	-0.08960267
30	0xbe0d2f0a	-0.13787475
31	0x3e1deba6	0.15421924
32	0xbd7b0e01	-0.061292652
33	0xbcf815b4	-0.030283786
34	0xbd78d88b	-0.060753386
35	0x3d6aa77f	0.057288643
36	0x3d01acc5	0.031658906
37	0x3d887014	0.06662002
38	0x3e216750	0.15762067
39	0x3e6fc494	0.23414832
40	0x3e0384ba	0.128436
41	0xbdc868c9	-0.09785611
42	0x3dcb50cf	0.099275224
43	0xbd05111a	-0.032487012
44	0x3c9d41f2	0.019196484
45	0xbcb13bad	-0.021634901
46	0x3e4b3e81	0.19848062
47	0x3dac3d56	0.084101364
48	0x3d4004a2	0.04687942
49	0x3bbb5957	0.0057174372
50	0x3d4efb0d	0.05053239
51	0xbd5ce569	-0.05392972
52	0x3bf0d68a	0.007349794
53	0x3d7f740c	0.06236653
54	0xbd4e2e3c	-0.05033706
55	0xbe124c83	-0.14287
56	0xbd624cf3	-0.055249166
57	0x3d45c639	0.048284743
58	0x3d3011f0	0.042985857
59	0x3d1e3ff0	0.038635194
60	0x3d9011a9	0.070346184
61	0x3d1de134	0.03854485
62	0xbe087832	-0.13327101
63	0x3d4277ce	0.047477536
64	0x3d4a5236	0.04939481
65	0x3d51ec21	0.05125058
66	0x3d2ea880	0.042641163
67	0xbdc7b4fc	-0.09751317
68	0x3d838e33	0.06423607
69	0xbdd1c219	-0.10242099
70	0xbd6a16af	-0.05715054
71	0xbd1d9152	-0.038468666
72	0xbdbdf5dc	-0.092754096
73	0x3df41576	0.11918156
74	0xbd875ab8	-0.066091
75	0xbdc5641f	-0.09638237
76	0x3e12d5b3	0.14339332
77	0x3de2220e	0.11041652
78	0xbcb14315	-0.021638433
79	0x3b85a5d3	0.0040786057
80	0xbe0ab817	-0.13546787
81	0xbe12dfac	-0.14343137
82	0xbe1f9eed	-0.15587969
83	0xbe1145f6	-0.14186844
84	0x3d5ce0ca	0.053925313
85	0x3dc9c7ea	0.09852584
86	0x3da4545b	0.08023902
87	0x3b69b25d	0.0035659291
88	0x3d9a122e	0.07522999
89	0x3e07d517	0.13264881
90	0xbcfbb20a	-0.030724544
91	0xbde80dea	-0.11330779
92	0xbd5bb26b	-0.05363695
93	0xbd29799e	-0.04137575
94	0xbcfecc6b	-0.031103333
95	0xbe5e0c60	-0.21684408
96	0x3dbc1fc3	0.091857456
97	0x3e729dfa	0.23693076
98	0xbd3d7922	-0.0462581
99	0x3da2a3ae	0.07941376
100	0xbdb35345	-0.08756117
101	0x3c99f99f	0.018795786
102	0xbdda71a3	-0.10666206
103	0x3cb651a0	0.022255719
104	0x3da31bd5	0.07964293
105	0xbe41977e	-0.18905446
106	0x3ba20b3c	0.004945187
107	0x3c3dc268	0.011581995
108	0xbda24b40	-0.07924509
109	0x3e1c453f	0.1526079
110	0xbd1f4852	-0.03888733
111	0x3df56f62	0.11984135
112	0x3d1350a2	0.03596557
113	0x3d8556ed	0.065107204
114	0xbc681bd2	-0.014166789
115	0x3df4eb03	0.119588874
116	0x3da7e209	0.0819741
117	0xbd9ff392	-0.07810129
118	0xbd9ad006	-0.075592086
119	0xbd3433f8	-0.043994874
120	0xbe2e6587	-0.17030917
121	0x3df40f97	0.11917036
122	0xbdbc36bd	-0.09190128
123	0x3b291432	0.002579939
124	0xbd3d8e4d	-0.046278287
125	0xbce39aa0	-0.027783692
126	0xbdd30bba	-0.10304971
127	0x3d0d21fa	0.03445623
128	0x3d1d24ba	0.038365103
129	0xbe294a51	-0.16532256
130	0xbe256fbf	-0.16155909
131	0xbc8b7dc1	-0.017027738
132	0x3ca6d204	0.020363815
133	0x3e736efa	0.23772803
134	0x3d68472a	0.056708492
135	0x3d35d940	0.04439664
136	0x3d932de4	0.07186487
137	0x3e406b38	0.187909
138	0x3a61ab27	0.00086085725
139	0x3dc2c9ad	0.09511123
140	0x3e38f4df	0.18062161
141	0xbc98a8d3	-0.01863519
142	0x3def30d8	0.11679238
143	0x3b8b0bea	0.0042433636
144	0x3d3a3b37	0.045466628
145	0x3c582ef8	0.013194792
146	0xbcc096bc	-0.023509376
147	0xbc90eaf6	-0.017690163
148	0x3e224a9b	0.15848772
149	0x3dabfd6c	0.08397946
150	0xbd1c2ad8	-0.038126796
151	0xbdbf76d3	-0.09348836
152	0xbd78420b	-0.06060986
153	0xbd247420	-0.040149808
154	0xbdc2653b	-0.094919644
155	0x3d2aff1c	0.041747198
156	0x3cb55c01	0.022138597
157	0x3d2598ac	0.040428802
158	0x3ae6c2c2	0.001760565
159	0x3bfaca0e	0.0076534813
160	0x3dcf0525	0.10108403
161	0xbd0ab3b6	-0.033862792
162	0xbd0d6c64	-0.034527197
163	0x3def1005	0.11672977
164	0x3df35cde	0.118829474
165	0xbddf5c9f	-0.10906338
166	0xbd7a747c	-0.061146244
167	0x3d9b0c1d	0.0757067
168	0xbcb81f7e	-0.022475954
169	0x3cd2e086	0.025741827
170	0xbbb9c39d	-0.005669071
171	0x3d0b28d7	0.033974495
172	0xbdb0424d	-0.08606396
173	0x3dad8882	0.084733024
174	0x3d7575f1	0.05992693
175	0xbb32b1dd	-0.002726666
176	0xbe0d0037	-0.13769613
177	0xbc96b87b	-0.018398514
178	0x3c9b4af9	0.018956648
179	0x3d93737a	0.0719976
180	0xbdb6ca99	-0.08925361
181	0xbd999247	-0.07498603
182	0xbd8852a3	-0.06656387
183	0xbd26c8a7	-0.0407187
184	0xbdb2b7b3	-0.08726444
185	0xbdb93286	-0.0904284
186	0xbdcae676	-0.09907238
187	0x3e020be9	0.12699856
188	0x3d09b210	0.03361708
189	0x3e47b0d3	0.19501047
190	0xbe6df80a	-0.2323915
191	0x3cad0d34	0.02112446
192	0xbc08451c	-0.008317258
193	0xbcb585a2	-0.022158448
194	0xbd2fe776	-0.042945348
195	0xbe08f1ff	-0.13373564
196	0x3e1e8074	0.15478688
197	0x3d892623	0.06696727
198	0x3dcc16d1	0.099652894
199	0x3d371971	0.044701997
200	0xbcfff9da	-0.031247068
201	0xbe04b27f	-0.12958716
202	0xbd9de870	-0.077103496
203	0x3bb70ecf	0.005586482
204	0xbda358f3	-0.0797595
205	0xbcb64371	-0.022248955
206	0x3d9f4fd9	0.077789016
207	0x3e10c802	0.14138797
208	0x3e005646	0.1253291
209	0x3dbaaeb4	0.09115353
210	0x3d854821	0.06507898
211	0xbe20dcb7	-0.15709196
212	0x3d3a03e6	0.045413874
213	0x3d08042a	0.033207096
214	0xbb7d818d	-0.0038681955
215	0xbce13040	-0.027488828
216	0xbdb77c20	-0.08959222
217	0xbd65980e	-0.056053214
218	0xbcec1f5c	-0.028823547
219	0x3dcaa5ca	0.09894903
220	0x3d90513d	0.07046745
221	0xbd96d737	-0.07365268
222	0xbe10affb	-0.14129631
223	0xbd94849a	-0.07251854
224	0xbda70ea3	-0.081570886
225	0xbc6f67a5	-0.014612113
226	0x3d3656c9	0.04451636
227	0x3d2a98fb	0.0416498
228	0xbdc36b7a	-0.09541984
229	0xbd07ad9c	-0.03312455
230	0xbdb15415	-0.086586155
231	0x3e7a1fa6	0.24426135
232	0x3c9442ea	0.018098313
233	0x3d8ecc32	0.06972541
234	0x3d78910d	0.060685206
235	0x3cfe84ed	0.031069243
236	0x3b88c1c7	0.0041734907
237	0xbc5b6ed5	-0.013393124
238	0xbc5f915e	-0.013645498
239	0x3d1db878	0.038506
240	0xba933873	-0.0011232033
241	0xbd67ab37	-0.056559768
242	0x3d1d58e5	0.038414855
243	0x3c26bdc4	0.01017708
244	0xbd59696c	-0.053079054
245	0x3e26842a	0.16261354
246	0x3da3c1d3	0.079959534
247	0xbde2c2e3	-0.11072328
248	0xbdaee5c2	-0.085399166
249	0xbcf23814	-0.029567756
250	0x3dec6179	0.11542029
251	0xbda13bfc	-0.07872769
252	0x3cfb29e8	0.03065963
253	0xbde3f5db	-0.111308776
254	0x3e317955	0.17331441
255	0x3bba0012	0.005676278

gru.weight_hh_l1 f4 [300, 100]
0	0xbd66ee80	-0.056379795
1	0xbdfdfa02	-0.12401201
2	0x3bbe2d68	0.0058037527
3	0xbd3b38f5	-0.045708615
4	0x3dc46ced	0.095910884
5	0x3dc4fec1	0.09618903
6	0x3dc115bf	0.09427976
7	0xbdfb6ec9	-0.1227699
8	0xbdc81944	-0.09770444
9	0xbdd27216	-0.102756664
10	0x3dae1f33	0.085020445
11	0x3d2b5132	0.04182548
12	0x3cc8af5f	0.024497686
13	0xbe15b985	-0.14621551
14	0x3c935cd6	0.017988604
15	0xbd51f3f9	-0.05125806
16	0x3cf85609	0.030314462
17	0xbd4bd9aa	-0.049768128
18	0x3e829416	0.25503606
19	0xbde9269e	-0.11384319
20	0xbd59afae	-0.053146057
21	0xbda9580d	-0.082687475
22	0xbd47baaa	-0.048762
23	0xbda2322d	-0.079197265
24	0x3d92f868	0.07176286
25	0xbe03f044	-0.12884623
26	0x3e1c7913	0.15280561
27	0x3d5ddb54	0.054164246
28	0xbd9491ff	-0.07254409
29	0x3d96628b	0.07343014
30	0xbd5122d4	-0.051058605
31	0xba78f82c	-0.000949743
32	0xbb8a903c	-0.00422862
33	0xbde46598	-0.1115219
34	0xbd841bec	-0.06450638
35	0x3cc986d9	0.024600433
36	0xbdca89c1	-0.09889556
37	0xbced0c92	-0.028936658
38	0x3d82b4ef	0.063821666
39	0x3dd341c8	0.10315281
40	0xbd478164	-0.04870738
41	0x3ce51c21	0.027967514
42	0xbdf6800e	-0.12036143
43	0x3de7d98a	0.11320789
44	0x3dbbbe4f	0.09167158
45	0xbd379c39	-0.04482672
46	0xbcb17cfb	-0.02166604
47	0x3d5805e9	0.05274001
48	0x3b8d423a	0.0043108733
49	0x3cada24e	0.021195557
50	0xbe058926	-0.13040599
51	0x3d0f332e	0.034960918
52	0x3990e4cf	0.00027636296
53	0xbd861287	-0.065465026
54	0xbc85d440	-0.01633656
55	0xbd3ab3cc	-0.045581624
56	0xbb815baa	-0.003947695
57	0x3d55a332	0.05215759
58	0xbbdb2cfc	-0.006688712
59	0x3c82724f	0.015923647
60	0x3dbb0ab1	0.091328986
61	0xbd9aa3db	-0.07550784
62	0x3c8d2efc	0.017234318
63	0x3b2410fb	0.0025034535
64	0xbe500b07	-0.20316707
65	0xbb01ec88	-0.0019824822
66	0x3bde01ad	0.006775102
67	0xbe159d14	-0.14610702
68	0x3d8b8cf9	0.06813998
69	0x3d9a4974	0.07533541
70	0xbe25277e	-0.16128346
71	0x3d7dbfdf	0.06195056
72	0x3cbdfac8	0.02319087
73	0x3dc245d0	0.09485972
74	0xbdf93e60	-0.121701
75	0xbe234b2a	-0.15946642
76	0x3dd4bc2e	0.10387455
77	0xbdc59724	-0.096479684
78	0xbda6f9f8	-0.081531465
79	0x3d95ec80	0.073204994
80	0xbe027f93	-0.12743978
81	0x3e0b54fe	0.1360664
82	0xbdcb3fe9	-0.09924299
83	0xbd79b291	-0.06096131
84	0xbdbe1172	-0.09280671
85	0xbd8fee12	-0.0702783
86	0xbd8daf4c	-0.06918201
87	0x3e090f43	0.13384728
88	0xbd70bcf1	-0.05877394
89	0x3c82e414	0.015977897
90	0xbc12369e	-0.008924155
91	0xbc82df87	-0.015975727
92	0x3dde75cb	0.10862311
93	0xbe2363aa	-0.15955988
94	0xbc1dd453	-0.009633142
95	0xbd0dfaab	-0.034662884
96	0x38bd8cb3	9.0384296e-05
97	0xbd94c765	-0.07264594
98	0x3d21846b	0.039432924
99	0x3dfc2fd9	0.12313814
100	0x3d7466c9	0.059668336
101	0xbdc4f4ee	-0.09617029
102	0x3e02795d	0.12741609
103	0xbd07f1df	-0.03318965
104	0x3dac82a6	0.08423357
105	0xbd5a7f7a	-0.053344227
106	0x3a3f558a	0.0007298818
107	0x3d7bf53b	0.061513167
108	0xbd3daeeb	-0.046309393
109	0x3cfc12c7	0.030770672
110	0xbc62ef1d	-0.013850954
111	0xbdf96f51	-0.12179435
112	0x3d166e66	0.036726378
113	0x3cb16356	0.021653812
114	0xbdc5341e	-0.09629081
115	0xbd9a4f36	-0.075346395
116	0xbb60a1c4	-0.0034276107
117	0xbda5dcb0	-0.080987334
118	0x3db82927	0.08992224
119	0x3d5be138	0.053681582
120	0xbde92ef7	-0.11385911
121	0xbd86a56f	-0.06574523
122	0xbd7c9356	-0.061663948
123	0xbce71143	-0.028206473
124	0x3e159de2	0.14611009
125	0xbdd15ac8	-0.10222393
126	0x3cfaf73b	0.030635467
127	0xbda0fe45	-0.07860998
128	0xbcbbc87d	-0.022922749
129	0x3cc951d1	0.024575146
130	0xbd859b8b	-0.06523808
131	0xbc0b8428	-0.008515395
132	0x3d68d1bd	0.056840647
133	0x3dc2df74	0.095152766
134	0x3c9271ec	0.017876588
135	0xbd87d889	-0.06633098
136	0xbdd8e38c	-0.10590276
137	0xbdaac6d5	-0.083387055
138	0x3d30b30d	0.043139506
139	0x3caa1731	0.020763012
140	0xbcff05c2	-0.031130675
141	0xbdb6397b	-0.08897682
142	0xbd90f756	-0.070784256
143	0x3d81e46d	0.06342397
144	0x3e0f5b43	0.13999657
145	0x3cf446c0	0.029818892
146	0xbe01b10d	-0.12665196
147	0x3e0a6e3e	0.13518617
148	0x3db4caee	0.08827768
149	0xbce7cad1	-0.028294953
150	0xbdee7661	-0.11643673
151	0xbd194b65	-0.037425417
152	0xbcf586f0	-0.02997157
153	0x3b960b66	0.0045789955
154	0x3da0d460	0.07853007
155	0x3cb58275	0.022156933
156	0x3dd275f1	0.10276402
157	0xbd26b096	-0.04069575
158	0x3dc29c88	0.09502512
159	0x3cb7d1fe	0.022439
160	0xbcd33828	-0.025783613
161	0xbe0cf60c	-0.13765734
162	0xbd7a93bb	-0.061176043
163	0xbd8ec5f4	-0.0697135
164	0xbe07700b	-0.13226335
165	0xbdd7f7b9	-0.10545296
166	0x3ca08b45	0.019597659
167	0xbe128d90	-0.14311814
168	0x3d3126f0	0.043250024
169	0x39a5a511	0.00031594236
170	0xbcbc55d2	-0.022990141
171	0x3bc4df2d	0.00600805
172	0xbc750b13	-0.014956254
173	0x3d52061d	0.05127536
174	0xbdcc21cc	-0.09967384
175	0xbe168f6e	-0.14703152
176	0xbced11a8	-0.028939083
177	0x3d664468	0.05621758
178	0x3c9b8ba0	0.018987477
179	0x3d747e55	0.059690792
180	0xbdfdd49a	-0.12394066
181	0xbce8f679	-0.02843784
182	0xbe4602a5	-0.19336946
183	0xbdb30e91	-0.08743013
184	0xbd13dcb3	-0.036099147
185	0x3cca3b58	0.0246865
186	0xbc8a444f	-0.016878275
187	0x3dca742b	0.098854385
188	0xbd6aff3b	-0.057372313
189	0x3d60fcf7	0.054928746
190	0x3cb1a1af	0.021683542
191	0xbd2fc579	-0.042912934
192	0x3dce06db	0.10059901
193	0xbdaf5727	-0.08561545
194	0x3d4ec5ec	0.05048172
195	0x3d4b4c1a	0.049633123
196	0x3d08ae5e	0.033369415
197	0xbdc24ee8	-0.094877064
198	0xbcead9ed	-0.028668368
199	0x3cfc1d46	0.030775677
200	0x3cfb5193	0.030678546
201	0xbbf5dbc7	-0.007503006
202	0xbd59fb45	-0.053218145
203	0x3d79d702	0.060996063
204	0x3d769652	0.06020195
205	0xbd4b5f96	-0.049651705
206	0xbd9e2c7e	-0.0772333
207	0xbcae5745	-0.021281848
208	0xbdd249ee	-0.10268007
209	0x3d984286	0.07434563
210	0x3deb5afe	0.11491965
211	0xbd5a29c7	-0.0532625
212	0xbcc2bde7	-0.023772193
213	0xbd600cee	-0.05469983
214	0xbd881753	-0.06645074
215	0xbd84a5a0	-0.06476903
216	0xbd43a3e6	-0.047763728
217	0xbd05e05d	-0.032684673
218	0x3e4b9b59	0.19883479
219	0x3d4f206e	0.050568037
220	0x3dc712dc	0.09720394
221	0x3d457e25	0.048216004
222	0xbda0d49a	-0.078530505
223	0xbd8ec9e8	-0.06972104
224	0x3e128ea9	0.14312233
225	0xbc673971	-0.014112816
226	0x3d2d9b90	0.042384684
227	0x3db63a7c	0.08897874
228	0xbc801ed2	-0.015639696
229	0xbc4da6b9	-0.012551957
230	0x3d331ce6	0.04372873
231	0xbcbda238	-0.023148641
232	0xbc85c608	-0.01632978
233	0x3cfe78e1	0.031063499
234	0x3d449585	0.047994155
235	0x3d27a621	0.040929917
236	0x3d932a61	0.071858175
237	0xbd5b01d6	-0.053468548
238	0xbcd0814b	-0.025452277
239	0x3d1a7f2e	0.037718944
240	0x3cd0c90b	0.02548649
241	0xbd85110c	-0.06497392
242	0xbc387f2b	-0.011260788
243	0xbdd718f6	-0.10502808
244	0xbd515720	-0.05110848
245	0xbcb15913	-0.02164892
246	0x3d10ced9	0.035353515
247	0x3e25054e	0.16115305
248	0x3da51789	0.080611296
249	0xbda6d324	-0.08145741
250	0x3ce18c04	0.027532585
251	0xbdb2d3e3	-0.087318204
252	0xbd1215f5	-0.03566547
253	0x3d9a7380	0.07541561
254	0xbd8c2a34	-0.06843987
255	0xbdb4cf1c	-0.088285655

gru.bias_ih_l1 f4 [300]
0	0xbe177ce4	-0.14793736
1	0x3a897b6f	0.0010489057
2	0xbd9219bf	-0.07133817
3	0xbe38bf97	-0.18041836
4	0xbe15d41b	-0.14631693
5	0xbd0d51d2	-0.034501858
6	0xbe0adeba	-0.13561526
7	0xbe374314	-0.17896682
8	0xbd727b48	-0.0591996
9	0xbd9e5476	-0.077309534
10	0xbe596b84	-0.2123242
11	0xbe36e3a1	-0.17860271
12	0xbdd42804	-0.10359195
13	0xbd570c9f	-0.05250227
14	0xbe23ff37	-0.16015325
15	0xbe0870bb	-0.13324253
16	0xbc6d3f17	-0.014480374
17	0xbe0ae70e	-0.13564703
18	0xbd4e7e1a	-0.05041323
19	0xbe3357f8	-0.17514026
20	0xbdc94f21	-0.09829546
21	0xbe3a39b8	-0.1818608
22	0x3bab48fd	0.0052272067
23	0xbc3617ed	-0.011114103
24	0xbdedbb1b	-0.11607953
25	0xbe48ae83	-0.19597821
26	0xbe012fa0	-0.12615824
27	0xbce6819d	-0.028137976
28	0xbd516814	-0.051124647
29	0xbdb0e618	-0.08637637
30	0xbdd3785e	-0.103256926
31	0xbe1b3d6e	-0.15160152
32	0xbd4cf748	-0.050040513
33	0xbe145795	-0.14486535
34	0xbe2722e3	-0.16321902
35	0xbde8f579	-0.11374945
36	0xbe1a063c	-0.1504144
37	0xbcad66cf	-0.021167187
38	0xbda57566	-0.080790326
39	0xbe53a11b	-0.20666926
40	0xbdf84488	-0.12122446
41	0xbe2e6a52	-0.17032745
42	0xbdea7dd1	-0.11449779
43	0xbe2498ad	-0.16073866
44	0xbddb250b	-0.10700425
45	0xbe7bf3f2	-0.24604777
46	0xbd897eff	-0.06713676
47	0x3d7e75d0	0.062124074
48	0xbe3b0ce0	-0.1826663
49	0xbc615527	-0.013753212
50	0xbe3233eb	-0.17402618
51	0x3c1bb964	0.00950465
52	0xbe45dd11	-0.19322611
53	0xbd7b0df0	-0.06129259
54	0xbe012012	-0.1260989
55	0xbce23f63	-0.027618116
56	0xbdab31ea	-0.0835913
57	0xbe407e40	-0.1879816
58	0xbe1d7701	-0.15377428
59	0xbdda78c5	-0.10667566
60	0x3c833d9a	0.016020585
61	0xbe0e1b92	-0.13877705
62	0xbe862542	-0.262003
63	0xbe405b5d	-0.18784852
64	0x3c7fae16	0.01560547
65	0xbd368d2d	-0.04456823
66	0xbe23d49c	-0.15999073
67	0xbe4f5695	-0.20247872
68	0xbcbed2d8	-0.023293898
69	0xbd41b2f5	-0.047289807
70	0x3cc41844	0.023937352
71	0xbe17b526	-0.14815196
72	0xbe2c2d3d	-0.16814132
73	0xbe4052e2	-0.18781617
74	0x3ca3068a	0.019900579
75	0xbd048293	-0.032351088
76	0xbdea5739	-0.11442418
77	0xbe12722b	-0.14301364
78	0x3b729d07	0.0037019865
79	0xbb19c77b	-0.0023464847
80	0xbcc69a83	-0.024243599
81	0xbcb38a18	-0.021916434
82	0xbd732619	-0.059362505
83	0xbdafad98	-0.08578032
84	0xbd2e1f34	-0.042510226
85	0xbd036929	-0.03208271
86	0xbdce6125	-0.100771226
87	0xbdf7a638	-0.120922506
88	0xbe2af082	-0.16693309
89	0xbd833bcd	-0.064078905
90	0xbe2d31d6	-0.16913542
91	0xbe25d340	-0.16193867
92	0x3b77f335	0.0037834172
93	0xbe2e0075	-0.16992362
94	0xbdfca18b	-0.123354994
95	0xbe210818	-0.15725744
96	0xbb58a8c3	-0.0033059574
97	0xbe061498	-0.13093793
98	0x3c80c754	0.015720047
99	0xbda9cc51	-0.082909234
100	0x3e20ff3a	0.15722361
101	0x3e0b056b	0.13576286
102	0x3ea910d3	0.33020648
103	0x3e316979	0.17325391
104	0x3eb1adf5	0.3470303
105	0x3e88c288	0.26710916
106	0x3c7d11b5	0.015446116
107	0x3d0a7ec9	0.033812318
108	0x3e49b292	0.19697025
109	0x3d1eacd8	0.038739055
110	0x3dd6b53c	0.104837865
111	0xbcf825b5	-0.030291418
112	0x3c009f5b	0.007850493
113	0x3d34db00	0.044154167
114	0x3ed9596c	0.42451036
115	0x3dc52914	0.09626976
116	0x3ebad5cb	0.36491236
117	0x3eb02928	0.344064
118	0xbdcfd8a0	-0.1014874
119	0x3db7dbc3	0.08977463
120	0x3ebb4860	0.36578655
121	0x3e4fd821	0.2029729
122	0x3ec7e93e	0.39045137
123	0x3dc0c2f7	0.094121866
124	0x3e9a682e	0.30157608
125	0x3e14b1a0	0.14520884
126	0x3e6893e8	0.22712672
127	0x3e355803	0.17709355
128	0x3e3377bb	0.17526142
129	0x3e498789	0.19680609
130	0x3ec4c5d2	0.38432175
131	0x3cbcf1ea	0.023064572
132	0x3ed31272	0.4122501
133	0x3eb3ed60	0.3514204
134	0x3ebf95e6	0.3741905
135	0x3e8eca02	0.27888495
136	0x3e40f7d5	0.1884454
137	0x3ea32f51	0.31872037
138	0x3da32bcd	0.07967339
139	0x3e4ffe06	0.20311746
140	0x3e15570c	0.14583987
141	0x3e7de82d	0.247956
142	0x3dfaa129	0.1223777
143	0x3ed74714	0.42046416
144	0x3b97c5c6	0.0046317307
145	0x3de50136	0.111818716
146	0x3eb8e52c	0.36112344
147	0x3d5c9226	0.053850316
148	0x3dc9be90	0.098508
149	0x3e92e96a	0.28693706
150	0x3db99566	0.090616986
151	0x3e74e48a	0.23915306
152	0x3e1fdb9a	0.15611115
153	0x3e2eb17a	0.1705989
154	0x3ed181c1	0.40919307
155	0x3ed4c7c9	0.41558674
156	0x3edf51a8	0.43616986
157	0x3ec22f58	0.37926745
158	0xbe141c11	-0.14463831
159	0x3e7a8191	0.24463488
160	0xbd37379f	-0.04473078
161	0x3e7cfa64	0.24704891
162	0x3e118657	0.14211403
163	0x3e898f55	0.26867166
164	0xbd23c9a7	-0.039987233
165	0x3e8c8803	0.2744752
166	0x3e0f5369	0.13996662
167	0x3d80d26b	0.06290134
168	0x3e2107be	0.1572561
169	0x3e27f063	0.16400294
170	0x3c900565	0.017580697
171	0x3e90c0b2	0.28272015
172	0x3e9517ae	0.2911963
173	0x3cc74b50	0.024327904
174	0x3e0296c1	0.1275282
175	0xbd8e036c	-0.069342464
176	0xbc0264f4	-0.007958639
177	0x3e95730e	0.29189342
178	0x3e2029d2	0.15640953
179	0x3e48d7a5	0.19613512
180	0x3e9e24b0	0.30887365
181	0x3e6922ca	0.22767177
182	0x3e429fda	0.19006291
183	0x3e6a3324	0.22871071
184	0x3e43910b	0.19098298
185	0xbbea2c60	-0.007146403
186	0x3dea5130	0.114412665
187	0x3ea5af12	0.3236013
188	0x3da46daf	0.08028733
189	0x3e82fa21	0.25581458
190	0x3e809e55	0.25120798
191	0x3d4e4bf1	0.050365392
192	0x3e26f162	0.16303018
193	0x3e1c47eb	0.1526181
194	0x3e4deb7a	0.20109358
195	0xbc32e2bd	-0.010918316
196	0x3e3f3684	0.1867314
197	0x3dc58b16	0.09645669
198	0x3ed75ca7	0.42062876
199	0x3e901265	0.28139034
200	0xbd949a6d	-0.07256017
201	0x3d0ec3e1	0.034854773
202	0x3abad48a	0.0014254015
203	0x3da185d3	0.07886853
204	0x3d6c4f0d	0.057692576
205	0xbd807e54	-0.06274095
206	0xbdcf5ef3	-0.10125532
207	0x3d921a16	0.07133882
208	0x3d462a92	0.048380442
209	0x3d4c6e8b	0.04991011
210	0xbd7e2d8f	-0.062055167
211	0x3d981a85	0.07426933
212	0x3c57a497	0.0131618
213	0x3dd0cc79	0.1019525
214	0xbd904d90	-0.07046044
215	0x3ce37460	0.027765453
216	0x3d5549cf	0.052072342
217	0x3d4fc2f9	0.05072305
218	0xbe17a7b5	-0.14810069
219	0x3d996530	0.07490003
220	0xbd74267a	-0.059607007
221	0x3d8c25a1	0.06843115
222	0xbc0fbf75	-0.008773674
223	0x3ceb427b	0.028718224
224	0xbd91fece	-0.07128678
225	0xbc110cfc	-0.008853193
226	0xbc031757	-0.00800117
227	0x3b0c91c1	0.002144918
228	0xbd2298fa	-0.03969667
229	0xbdb0d44b	-0.08634242
230	0x3c8a38ca	0.016872782
231	0x3db0a3e9	0.086250134
232	0xbd811ee4	-0.0630472
233	0x3d8a9182	0.06766035
234	0x3d95f3c4	0.07321885
235	0x3d49d2ce	0.049273305
236	0x3d58abc9	0.052898202
237	0x3bfb4c31	0.007668995
238	0xba10170a	-0.0005496597
239	0x3b6ddc72	0.0036294726
240	0xbd20275e	-0.039100043
241	0xbcc10ded	-0.02356621
242	0x3d748ddb	0.059705596
243	0xbc986bc8	-0.018606082
244	0xbd703ae0	-0.058649898
245	0x3cb47a69	0.022031026
246	0x3d3e66da	0.046484806
247	0xbd85dc4e	-0.065361604
248	0xbce588e8	-0.028019384
249	0xbcfba367	-0.030717565
250	0xbcce83f5	-0.025209406
251	0x3c7827af	0.01514618
252	0xbd429d59	-0.04751334
253	0x3ce2c29d	0.02768069
254	0xbdbb4fd1	-0.09146083
255	0xbb97bea4	-0.0046308804
