results/gru/gru_hidden_50_layers_1_bidirectional_False_length_64_batch_64_lr_0.001.pth (torch, 64589 bytes, 6 tensors)

gru.weight_ih_l0 f4 [150, 50]
0	0xbcb223e6	-0.021745633
1	0xbd19f292	-0.03758485
2	0xbe53ff03	-0.20702748
3	0x3ea248f7	0.31696293
4	0xbdd3b2a4	-0.10336807
5	0x3ea51f02	0.3225022
6	0xbed7b91c	-0.42133415
7	0xbd92eac5	-0.07173685
8	0xbca9a8a9	-0.020710306
9	0x3cbe3980	0.023220778
10	0x3dad5a5d	0.08464501
11	0xbd916575	-0.070994295
12	0x3dea4a0f	0.11439907
13	0xbcae14f2	-0.021250222
14	0xbd4b6ff0	-0.0496673
15	0xbe5dafb8	-0.21649063
16	0xbe9dffd9	-0.3085926
17	0xbda1e911	-0.07905782
18	0x3e296479	0.16542234
19	0x3f034792	0.5128108
20	0x3ea0d73a	0.31414205
21	0xbd64818a	-0.0557876
22	0x3d8cc9c7	0.068744235
23	0xbba17579	-0.004927334
24	0xbcf381d9	-0.029725002
25	0x3d4f47e4	0.05060567
26	0xbe7f8820	-0.24954271
27	0xbe399feb	-0.1812741
28	0xbe420dc5	-0.18950565
29	0xbe8bb5f1	-0.27287248
30	0x3d34d63a	0.044149615
31	0xbdddffe0	-0.1083982
32	0xbdb017a9	-0.08598263
33	0xbd94954f	-0.07255041
34	0x3d3a5535	0.045491416
35	0xbe71b88a	-0.23605552
36	0xbdb2dc49	-0.08733422
37	0x3db8ae5b	0.09017631
38	0xbd4485a4	-0.047979012
39	0xbca89f49	-0.020583766
40	0xbdf1ae2e	-0.118008
41	0x3da8da3c	0.0824475
42	0x3ef34a74	0.4751774
43	0xbe6ad82c	-0.22934026
44	0x3df471de	0.11935781
45	0x3e99ff92	0.30077797
46	0x3e566495	0.20936806
47	0xbe05f6a8	-0.13082373
48	0x3e5b6867	0.21426545
49	0x3da4797e	0.08030985
50	0xbd2feac5	-0.042948503
51	0xbcfbd345	-0.03074039
52	0x3e79e0aa	0.24402109
53	0x3e8edc26	0.27902335
54	0x3ea4e217	0.32203743
55	0x3d641388	0.05568269
56	0x3cfcd812	0.03086475
57	0x3dc78d9c	0.09743807
58	0xbd212143	-0.03933836
59	0x3d9a2be4	0.07527903
60	0xbd361c82	-0.04446078
61	0x3d92897c	0.07155129
62	0x3cc65a1b	0.024212888
63	0xbe7deb31	-0.2479675
64	0xbd430e97	-0.047621336
65	0xbf057376	-0.52129304
66	0xbe960dc0	-0.29307365
67	0xbcc4e562	-0.02403516
68	0x3ea164bf	0.31522176
69	0x3eaffdff	0.3437347
70	0xbe6c7f7e	-0.2309551
71	0xbe403053	-0.18768434
72	0xbd5528d7	-0.0520409
73	0xbd11b334	-0.035571292
74	0xbd5b3fa7	-0.0535275
75	0x3e6bfd36	0.23045811
76	0xbe1bce73	-0.15215473
77	0x3d5a69bc	0.053323492
78	0xbe2c5e28	-0.16832793
79	0xbe0a86cb	-0.13527982
80	0xbd04261e	-0.032262914
81	0x3e309442	0.17244056
82	0x3c3b3c8c	0.01142801
83	0xbcdda38b	-0.027055522
84	0x3d298b25	0.041392464
85	0xbdad76a6	-0.08469896
86	0x3e42a578	0.19008434
87	0xbe04405b	-0.12915175
88	0xbe8c43a8	-0.27395368
89	0x3d06d663	0.0329193
90	0xbdd7c544	-0.10535672
91	0x3d487acb	0.04894523
92	0xbe04c060	-0.1296401
93	0x3c5c1ecb	0.013435076
94	0xbe4c4acd	-0.19950409
95	0x3c9026b1	0.017596575
96	0x3db068ad	0.08613715
97	0xbe9dfc9d	-0.3085679
98	0x3e028dbb	0.12749378
99	0x3deea1c5	0.11651949
100	0xbe117967	-0.14206468
101	0x3e4fbb3a	0.20286265
102	0x3eacb7e0	0.33734035
103	0x3ec8de91	0.39232305
104	0xbe4b2f88	-0.1984235
105	0xbddbbab3	-0.107289694
106	0xbc44e600	-0.012017727
107	0xbcd9e2d9	-0.026597427
108	0x3dea11e4	0.114291936
109	0x3e57427d	0.21021457
110	0xbcfc6149	-0.030808108
111	0x3e4ca386	0.19984254
112	0x3df8d765	0.12150458
113	0xbe864a79	-0.26228693
114	0xbd731b6f	-0.059352335
115	0xbea76453	-0.3269373
116	0xbe1159e1	-0.14194442
117	0xbdd4a4e7	-0.10383015
118	0xbdcb4499	-0.09925193
119	0xbc97b955	-0.01852099
120	0xbe153b2c	-0.14573354
121	0xbdc92fa7	-0.09823542
122	0x3decdaca	0.11565168
123	0x3dcedd3a	0.10100789
124	0x3d715c91	0.05892617
125	0x3d30bcbe	0.04314875
126	0xbddf6a2b	-0.10908922
127	0xbebb3ce4	-0.36569893
128	0xbd1b68eb	-0.037941854
129	0x3e67d843	0.22641091
130	0x3dcbdbc3	0.099540256
131	0x3d8ca99e	0.068682894
132	0x3e34e314	0.17664748
133	0x3c2f5d9a	0.010703469
134	0xbe264c67	-0.16240083
135	0xbe813ece	-0.2524323
136	0xbcf95862	-0.030437652
137	0x3eb19b7c	0.34688938
138	0xbe3a9101	-0.18219377
139	0xbdb8ae2a	-0.09017594
140	0xbe5a1383	-0.21296506
141	0x3e3ddd4e	0.18541452
142	0xbe2d4b72	-0.16923311
143	0xbd49458f	-0.049138602
144	0xbe7aadb6	-0.24480328
145	0xbdc04c1e	-0.09389518
146	0xbd84f72f	-0.06492459
147	0x3e243c74	0.16038686
148	0x39764c95	0.00023488917
149	0x3e73c428	0.23805296
150	0x3e4c2a20	0.19937944
151	0xbdaa3149	-0.08310182
152	0xbdbed569	-0.093180485
153	0x3e7f0195	0.24902947
154	0x3c8fb962	0.017544452
155	0xbe2236c1	-0.158412
156	0xbd99281c	-0.074783534
157	0xbd6b995e	-0.05751931
158	0x3dfec596	0.1244003
159	0x3e98fed9	0.29881933
160	0x3e090e8f	0.1338446
161	0x3ce5b8ce	0.028042223
162	0x3de3fdf0	0.11132419
163	0x3db10c6e	0.08644949
164	0x3e68b9f8	0.22727191
165	0xbe1255b8	-0.14290512
166	0xbe46dbe2	-0.19419816
167	0xbd0d2316	-0.03445729
168	0xbe4d860e	-0.20070669
169	0xbe84a426	-0.25906485
170	0x3aea49c0	0.0017874762
171	0xbd3cdf61	-0.04611147
172	0xbe475145	-0.19464596
173	0x3e19de2f	0.15026163
174	0x3e2c8743	0.16848473
175	0xbda1bf93	-0.07897868
176	0xbe88edb5	-0.26743856
177	0xbe524c97	-0.20537029
178	0xbe5cbdbb	-0.21556751
179	0x3c27fd11	0.010253207
180	0x3d8dc5cd	0.06922493
181	0x3df89776	0.12138264
182	0x3da787f7	0.0818023
183	0xbdabb4f2	-0.08384122
184	0x3d55be81	0.05218363
185	0x3e7297f0	0.23690772
186	0x3c944ca3	0.01810295
187	0x3e96f33b	0.29482445
188	0x3c67b315	0.014141818
189	0xbd1c475d	-0.038153995
190	0xbe3bbf6d	-0.18334742
191	0x3dcf167b	0.1011171
192	0xbf1436db	-0.578962
193	0x3e06bb4b	0.13157384
194	0xbe45e2fc	-0.19324869
195	0xbd8519c2	-0.064990535
196	0xbd98ac11	-0.07454694
197	0x3c2983a4	0.010346327
198	0x3b36ea13	0.0027910515
199	0x3d8713b9	0.06595559
200	0x3e01c867	0.12674104
201	0x3e83396f	0.25629756
202	0x3d9d6c65	0.0768669
203	0x3e0d1333	0.13776855
204	0xbb0d0438	-0.0021517407
205	0x3e901ab6	0.2814538
206	0xbe0abfb4	-0.13549691
207	0x3e25cf4e	0.16192362
208	0xbd77f4ea	-0.060536303
209	0x3f57bdd5	0.84274036
210	0xbe387256	-0.18012366
211	0xbed9dfe0	-0.42553616
212	0x3d8cadc4	0.06869081
213	0x3de8752f	0.11350476
214	0x3bcc1ec5	0.006229254
215	0xbe7e78f5	-0.24850829
216	0xbe547fdd	-0.20751901
217	0xbd13d535	-0.036092002
218	0x3eab5860	0.33465862
219	0xbb54c688	-0.0032466967
220	0x3ee331df	0.44373986
221	0x3dbb68c6	0.09150843
222	0x3e41cf1f	0.18926667
223	0x3f4a41dc	0.79006743
224	0xbe762012	-0.24035671
225	0x3e0da062	0.13830712
226	0x3ecb6e6a	0.39732677
227	0xbe8bf143	-0.27332506
228	0x3df43b1b	0.11925336
229	0xbe73ff37	-0.23827825
230	0xbd147261	-0.036241893
231	0xbdb32c1b	-0.08748647
232	0x3e12009d	0.14258046
233	0xbe0e56fb	-0.13900368
234	0xbd87d077	-0.066315584
235	0x3eb2429d	0.34816447
236	0x3e5d4355	0.21607716
237	0xbd1ed826	-0.038780354
238	0xbe6bd7b0	-0.23031497
239	0xbe4c239a	-0.19935456
240	0xbeac7cc6	-0.33688945
241	0x3d11ed38	0.03562662
242	0xbef424e6	-0.476844
243	0x3e77ce70	0.24199843
244	0xbf26bf2a	-0.65135443
245	0xbd9bb2f1	-0.0760249
246	0xbdb6b74f	-0.08921682
247	0xbcc17249	-0.023614066
248	0x3dee56b9	0.11637635
249	0x3d2e8a20	0.042612195
250	0x3cb3c35c	0.02194374
251	0xbd9d1f98	-0.07672042
252	0x3ea64b96	0.32479542
253	0x3e3d7a16	0.18503603
254	0xbba13059	-0.0049190936
255	0x3e791b60	0.24326849

gru.weight_hh_l0 f4 [150, 50]
0	0xbe618a66	-0.22025451
1	0x3c451a1e	0.012030153
2	0x3d475292	0.04866273
3	0xbd17fb06	-0.03710463
4	0x3cf61d54	0.030043282
5	0xbd8b677f	-0.0680685
6	0x3cc12b29	0.02358015
7	0x3eb3be53	0.35106143
8	0x3e388dc4	0.1802283
9	0xbd282484	-0.04105045
10	0x3e66f337	0.22553717
11	0x3c42291d	0.0118506225
12	0x3e0dffec	0.13867158
13	0x3e9aa8e5	0.3020698
14	0xbed99ca4	-0.4250232
15	0x3df53745	0.119734325
16	0xbe196c5d	-0.14982744
17	0x3d07997a	0.03310535
18	0xbe998c4e	-0.29989856
19	0x3e60839a	0.21925202
20	0xbe8e70f2	-0.27820545
21	0x3e08f00e	0.13372824
22	0xbd4a3caa	-0.04937426
23	0xbe81b038	-0.25329757
24	0xbdf04e46	-0.117336795
25	0xbe087089	-0.13324179
26	0xbce2a472	-0.027666304
27	0x3c5aea80	0.013361573
28	0x3d016fa8	0.031600624
29	0x3d2097de	0.03920733
30	0x3d2ab938	0.041680545
31	0x3d548b48	0.05189064
32	0xbe59577b	-0.21224777
33	0xbc9c9a28	-0.019116476
34	0xbe3ddf0d	-0.18542118
35	0x3d43b0e7	0.04777613
36	0x3e5be7ad	0.21475096
37	0xbdca66dd	-0.09882901
38	0x3e5a678f	0.21328567
39	0x3e20eb85	0.15714844
40	0xbcfd55a5	-0.030924628
41	0x3d9e5652	0.07731308
42	0x3e549033	0.20758133
43	0xbe6816d2	-0.22664955
44	0xbd77c600	-0.060491562
45	0xbe3cafea	-0.18426481
46	0xbe35a942	-0.17740348
47	0x3cfbfd88	0.030760542
48	0xbdafe3da	-0.08588381
49	0x3ab94c8a	0.001413719
50	0x3da8f071	0.082489856
51	0x3e11d7d7	0.14242493
52	0xbe10ba35	-0.14133532
53	0x3e2360a3	0.15954833
54	0x3dc46d66	0.095911786
55	0x3d366353	0.044528317
56	0xbd931239	-0.0718121
57	0xbb765522	-0.0037587364
58	0x3b3c8bdc	0.0028769886
59	0x3df31f69	0.118712254
60	0x3e16d5bb	0.14729969
61	0x3e1b135a	0.15144101
62	0x3dfe56aa	0.124188736
63	0xbd25dc62	-0.040493377
64	0xbe4f354a	-0.20235172
65	0xbdccac67	-0.09993821
66	0x3e12b994	0.14328605
67	0x3e89e7e8	0.26934743
68	0x3d41212d	0.04715078
69	0x3e03d0bb	0.12872593
70	0xbe0a2f85	-0.1349469
71	0xbe10064e	-0.14064905
72	0x3d92e99c	0.07173464
73	0xbe834937	-0.25641796
74	0xbcfb635f	-0.030687032
75	0x3c08e02b	0.008354227
76	0xbdaa65ad	-0.08320174
77	0x3d358129	0.04431263
78	0x3e08a3ca	0.1334373
79	0x3b4c9764	0.0031218166
80	0xbe1c5bb0	-0.15269351
81	0x3c47e93e	0.012201605
82	0xbe189731	-0.14901425
83	0x3e00bc9e	0.12571952
84	0xbe694850	-0.22781491
85	0xbe0701c2	-0.13184264
86	0x3dbda732	0.092604056
87	0xbd9c6387	-0.07636171
88	0x3e956367	0.291774
89	0x3c5e4178	0.013565414
90	0xbdca27a9	-0.09870846
91	0xbdcba555	-0.09943644
92	0x3e417cac	0.18895215
93	0xbab873fe	-0.0014072654
94	0xbcac8703	-0.021060472
95	0xbdb5f74d	-0.088850595
96	0xbd53ead4	-0.05173762
97	0x3dd15b5e	0.10222505
98	0xbd12a383	-0.03580047
99	0xbdc05fe3	-0.09393289
100	0xbde23499	-0.110451885
101	0xbcb458a2	-0.02201492
102	0x3d26ef5c	0.040755615
103	0xbd5363be	-0.051608793
104	0xbca81641	-0.020518424
105	0x3df9df00	0.12200737
106	0xbcced948	-0.025250092
107	0x3dd906b9	0.10596985
108	0xbdf4352c	-0.11924204
109	0x3db92f36	0.09042208
110	0x3dcb026d	0.09912572
111	0x3e3a03c7	0.18165503
112	0x3e11ff58	0.14257562
113	0x39db6fd4	0.00041854254
114	0xbca19d2f	-0.019728271
115	0xbc7aafc1	-0.015300692
116	0x3d0eafcc	0.03483562
117	0xbd5b63a7	-0.053561833
118	0x3d290079	0.041260216
119	0x3bcacd1c	0.0061890017
120	0x3d3cddf4	0.04611011
121	0xbe202774	-0.1564005
122	0xbda7ce70	-0.08193672
123	0x3d7aa7d0	0.061195195
124	0xbdd9dd72	-0.106379405
125	0xbc457f5b	-0.01205429
126	0xbcc3aaa4	-0.023885079
127	0x3dbfc1aa	0.0936311
128	0xbd64869d	-0.05579244
129	0x3e50c072	0.20385912
130	0xbd239f3e	-0.039946787
131	0xbdcea47e	-0.10089968
132	0xbe4899cc	-0.19589919
133	0x3d72c379	0.05926845
134	0x3d071de5	0.032987494
135	0xbd354e03	-0.04426385
136	0x3dc49a58	0.09599751
137	0x3e8921e8	0.2678368
138	0x3cc94da5	0.024573157
139	0x3d1ebd91	0.038755003
140	0x3dd0e199	0.10199279
141	0xbc70b3fe	-0.014691351
142	0xbe163e00	-0.14672089
143	0xbde5aad1	-0.11214221
144	0x3de05476	0.1095361
145	0xbd6e5475	-0.058186013
146	0x3e85d8d6	0.26141995
147	0x3d6ebb37	0.05828401
148	0xbdcc956e	-0.09989439
149	0x3de90b8a	0.11379154
150	0x3e0a58ac	0.13510388
151	0x3e1a09b3	0.15042762
152	0xbe1249bd	-0.14285941
153	0xbdb9f567	-0.0908001
154	0x3cac06e5	0.020999381
155	0xbe20643f	-0.15663241
156	0x3d4255b2	0.047445007
157	0xbde20a1f	-0.11037087
158	0x3e50209b	0.20324938
159	0xbcd95dd9	-0.026534008
160	0xbdbee6ad	-0.09321342
161	0xbd1d7cb0	-0.03844899
162	0x3ba0be03	0.0049054637
163	0xbd174e45	-0.036939878
164	0xbdef65ce	-0.116893396
165	0xbbcde490	-0.0062833503
166	0x3d1601c3	0.036622774
167	0xbcfc06d7	-0.03076498
168	0xbe4e19bc	-0.20127004
169	0x3e90f96a	0.28315288
170	0x3dbff4e0	0.09372878
171	0xbdd6a6cb	-0.10481032
172	0xbb8b1ae2	-0.004245148
173	0x3e25ccec	0.16191453
174	0x3d77c9e3	0.06049527
175	0xbd8c3210	-0.06845486
176	0xbc8bf60c	-0.017085098
177	0x3cd0fe12	0.025511775
178	0x3c9ad329	0.018899517
179	0xbb79ccf0	-0.0038116537
180	0x3cebfb61	0.02880639
181	0x3cf69fdf	0.03010553
182	0x3c2a0bca	0.010378787
183	0x3db6f964	0.08934286
184	0x3de984bf	0.114022724
185	0x3e400162	0.18750528
186	0xbe021a5f	-0.12705372
187	0x3e7c2bd6	0.24626097
188	0x3d9c158b	0.076212965
189	0x3e08cd96	0.13359675
190	0x3d541522	0.051777966
191	0x3d678a64	0.056528464
192	0x3e287fff	0.16455077
193	0xbdfc53b8	-0.123206556
194	0x3d72e2ef	0.059298452
195	0xbd9e14c2	-0.07718803
196	0x3e2e7bb9	0.17039384
197	0xbe3d09d2	-0.18460777
198	0xbd88abea	-0.06673415
199	0x3d7eb94c	0.06218843
200	0xbd4662c5	-0.048434038
201	0xbdb5a66c	-0.08869633
202	0x3e040638	0.12892997
203	0x3cead6ac	0.028666817
204	0x3d969b9a	0.073538974
205	0x3eb1f50d	0.3475727
206	0xbb4b74f4	-0.0031045051
207	0x3e02c1d7	0.12769257
208	0x3d3125b9	0.043248866
209	0x3e0910bc	0.1338529
210	0xbd20250e	-0.039097838
211	0xbe1b0558	-0.15138757
212	0x3e115de3	0.14195971
213	0xbd9a0eb3	-0.07522335
214	0x3db5d229	0.088779755
215	0x3df01a47	0.11723762
216	0x3ee95294	0.45570815
217	0xbd133b68	-0.035945326
218	0xbc0c8897	-0.008577487
219	0x3e08a42b	0.13343875
220	0xbda73318	-0.08164042
221	0x3d80ce9b	0.06289407
222	0xbe076f21	-0.13225986
223	0x3e4976eb	0.1967427
224	0x3c9c64a7	0.019090964
225	0xbe7199b4	-0.2359379
226	0x3ea6486c	0.32477129
227	0x3da67483	0.081276916
228	0x3e535a41	0.20639898
229	0xbde3bbaf	-0.11119782
230	0xbd797ad2	-0.060908146
231	0xbddef9d0	-0.10887492
232	0xbd66166e	-0.056173734
233	0xbe7a04e2	-0.24415925
234	0xbdca1eb1	-0.09869135
235	0xbdc74c9d	-0.0973141
236	0xbe08b68a	-0.13350883
237	0xbe2026c0	-0.15639782
238	0x3dbdd6c4	0.09269479
239	0x3e61bb58	0.22044122
240	0x3d85d2a4	0.06534317
241	0x3e42dd03	0.19029622
242	0x3e4c03d1	0.19923331
243	0xbe1842ea	-0.14869276
244	0x3d64b959	0.055840824
245	0xbeccd2ba	-0.40004522
246	0x3e394c3e	0.1809549
247	0xbe4e8d5d	-0.20171113
248	0x3e4d9d3b	0.2007951
249	0xbcf87975	-0.030331353
250	0xbd1b9e00	-0.037992477
251	0x3b107163	0.002204024
252	0xbdff8d02	-0.12478067
253	0xbc107485	-0.008816843
254	0xbda086c0	-0.078382015
255	0x3d225995	0.039636213

gru.bias_ih_l0 f4 [150]
0	0x3d96371a	0.073347285
1	0x3d802406	0.06256871
2	0x3df2ba5f	0.11851954
3	0x3ca421ea	0.020035703
4	0xbb3f5398	-0.0029194113
5	0xbceb0c2e	-0.028692331
6	0x3cb64a02	0.022252087
7	0x3da92626	0.08259229
8	0xbd072ea9	-0.033003483
9	0x3e1bff0f	0.15234016
10	0x3dbab24c	0.09116039
11	0xbd077d95	-0.03307875
12	0x3e1ee5ad	0.15517302
13	0xbcf0d3f1	-0.029397937
14	0xbdfd6be1	-0.12374092
15	0xbc976a7c	-0.018483393
16	0xbd3e75d8	-0.046499103
17	0xbe2b2c4e	-0.1671612
18	0xbdb2dcf0	-0.08733547
19	0xbdb505ec	-0.0883902
20	0x3e05ec8f	0.13078521
21	0x3c597a0c	0.013273727
22	0x3a06886d	0.00051320234
23	0xbc3ce376	-0.01152884
24	0x3d0fc2b0	0.035097778
25	0x3bf6d208	0.007532362
26	0xbdf20302	-0.1181698
27	0x3d97088c	0.07374677
28	0xbdc75944	-0.09733823
29	0x3d81b350	0.06333029
30	0x3e034a3c	0.12821287
31	0xbd1fc9e3	-0.039010894
32	0xbda6022e	-0.081058845
33	0xbd91737d	-0.07102106
34	0x3d373280	0.044725895
35	0x3e0b98ff	0.13632582
36	0xbc88242b	-0.016618809
37	0xb887f49b	-6.482863e-05
38	0x3d34bb70	0.044124067
39	0x3d48caef	0.049021658
40	0x3d334ef1	0.043776456
41	0xbb5603ad	-0.0032656
42	0x3c0991a5	0.008396541
43	0x3dbaf4f0	0.09128749
44	0x3dfa7e14	0.12231079
45	0xbd9324ab	-0.07184728
46	0xbd0afa9e	-0.033930413
47	0x3d96d55b	0.07364913
48	0x3beae3c8	0.007168267
49	0x3d830dcb	0.06399115
50	0x3eab7fa0	0.33495808
51	0x3eba9a9b	0.3644608
52	0x3eb49817	0.35272285
53	0x3f28c433	0.65924376
54	0xbd37af41	-0.04484487
55	0x3ec8f449	0.39248875
56	0xbd61037c	-0.054934964
57	0x3eef1cf8	0.4670179
58	0x3c87af25	0.016563008
59	0xbeb64e86	-0.35606784
60	0x3e6c1cff	0.23057936
61	0x3f0e1195	0.5549558
62	0x3e4bc9ac	0.1990115
63	0x3eafc9c6	0.34333628
64	0xbaea1840	-0.001786001
65	0x3ce3e1a9	0.027817564
66	0x3deb2575	0.11481754
67	0x3ed087ad	0.40728512
68	0x3f231ffe	0.6372069
69	0x3f522c60	0.8209896
70	0x3b929247	0.004473004
71	0xbdf760c9	-0.12079007
72	0x3f03baca	0.5145689
73	0x3f2aec72	0.66767037
74	0x3f0805a7	0.53133625
75	0xbda73523	-0.08164432
76	0x3eecf93a	0.46283895
77	0x3deec93f	0.116594784
78	0x3f3e43b3	0.7432205
79	0xbe54d3a2	-0.20783857
80	0x3f41135b	0.7542016
81	0x3ed177a6	0.40911597
82	0x3f32133d	0.69560605
83	0x3f214e69	0.6301027
84	0x3ca1366b	0.019679269
85	0x3f1e1da8	0.61764
86	0x3eef153b	0.46695885
87	0x3edfabf1	0.43685868
88	0x3c2e59d4	0.010641534
89	0x3ed7eaf1	0.42171434
90	0xbe0ffc9f	-0.14061211
91	0x3f56122f	0.83621496
92	0x3daf93a4	0.08573082
93	0x3b94b39b	0.004538012
94	0x3ea52265	0.32252803
95	0x3e55cba5	0.20878465
96	0x3f11692b	0.568011
97	0x3f2ff49d	0.68732625
98	0x3eec85fd	0.46195975
99	0x3f410296	0.7539457
100	0x3db6ac5a	0.08919592
101	0x3bcd38f4	0.006262893
102	0x3cdcbe6b	0.026946267
103	0xbd4129ea	-0.047159113
104	0xbd9b5901	-0.075853355
105	0xbd2ed4d8	-0.042683452
106	0x3d9bff30	0.076170325
107	0xbcdba4f8	-0.026812062
108	0x3de57713	0.11204352
109	0x3dbb9ffb	0.09161373
110	0xbe15fb45	-0.14646633
111	0xbd6f1fee	-0.05838006
112	0xbda281f2	-0.07934941
113	0xbdd623b2	-0.10456027
114	0x3da4ac4f	0.08040678
115	0x3cdd2536	0.026995283
116	0x3dcdd50c	0.10050401
117	0x3b144118	0.0022621807
118	0xbabb12ff	-0.0014272629
119	0xbde0617a	-0.10956092
120	0x3cb920a6	0.022598576
121	0x3d4ab9fc	0.049493775
122	0x3c30df92	0.010795491
123	0x3da39c0b	0.07988747
124	0xbd9c1b84	-0.07622436
125	0xbd644a9d	-0.05573522
126	0xbdfe1c87	-0.12407785
127	0xbe09af20	-0.13445711
128	0x3dcf5cbb	0.10125109
129	0xbd3501d8	-0.04419121
130	0xbd62a69b	-0.05533467
131	0xbe001e9b	-0.12511675
132	0x3dd33537	0.10312884
133	0xbcaae257	-0.02085988
134	0x3ccc8789	0.024966972
135	0xbd6d8dbe	-0.057996504
136	0x3d296ffd	0.041366566
137	0x3e03e399	0.1287979
138	0x3da2837e	0.079352364
139	0xbc29c99b	-0.010363008
140	0xbd1f02aa	-0.0388209
141	0xbb22898f	-0.002480123
142	0x3d38265c	0.044958457
143	0xbd3cef84	-0.046126857
144	0xbdd10c4f	-0.10207426
145	0xbd8048ee	-0.0626391
146	0x3d49003d	0.049072493
147	0xbd2f2a6d	-0.04276507
148	0x3bae9e8b	0.0053289584
149	0xbd9a2640	-0.07526827

gru.bias_hh_l0 f4 [150]
0	0xbd71a7ec	-0.058998033
1	0xbdcc923c	-0.099888295
2	0xbcb1edde	-0.02171987
3	0xbd058202	-0.03259469
4	0x3c76d6f4	0.015065897
5	0x3d9234a5	0.071389474
6	0x3e0f07fd	0.13967891
7	0xbc2aae25	-0.010417496
8	0x3df00a52	0.117207184
9	0x3da91519	0.08255977
10	0x3d7bec7a	0.06150482
11	0x3b7b28b7	0.0038323828
12	0x3dfdf1eb	0.12399658
13	0xbdaa4df6	-0.08315651
14	0x3cc3e45a	0.023912597
15	0x3cf09e25	0.029372284
16	0xbd53b81d	-0.051689256
17	0xbd89ff98	-0.06738204
18	0xbd869a25	-0.065723695
19	0xbdf4eaa7	-0.11958819
20	0xbe009c7a	-0.12559691
21	0x3d40caa0	0.04706824
22	0x3c1888ce	0.0093099605
23	0xbdc8c880	-0.09803867
24	0xbd314be1	-0.043285254
25	0xbdcbc13a	-0.099489644
26	0x3cd69fd0	0.026199251
27	0xbbd3cc57	-0.006463568
28	0x3d9fe2ed	0.078069545
29	0xbdbe1ac9	-0.092824526
30	0xbd932a65	-0.071858205
31	0x3dbcea06	0.09224324
32	0x3d059fc6	0.032623075
33	0xbc1bc695	-0.009507795
34	0xbcf48f4e	-0.02985349
35	0x3dc4706e	0.09591757
36	0xbc568860	-0.013094038
37	0x3c7dc1b9	0.015488082
38	0x3dd3005a	0.103028014
39	0x3ccc2cda	0.02492373
40	0x3e260e44	0.1621638
41	0xbcccceff	-0.025001047
42	0x3cf38075	0.029724339
43	0x3bb9ec49	0.0056739193
44	0xbdf4a1f8	-0.119449556
45	0xbe1432d7	-0.14472519
46	0xbdf6e453	-0.12055268
47	0xbcefdb3b	-0.029279342
48	0xbdd517a3	-0.10404899
49	0xbdf8878e	-0.1213523
50	0x3eadf7d2	0.33978134
51	0x3f047c0d	0.51751786
52	0x3ec7cff6	0.3902585
53	0x3f1d1d27	0.6137261
54	0xbd420719	-0.04737005
55	0x3ee16e1d	0.44029322
56	0x3c278a14	0.0102257915
57	0x3ef36956	0.47541302
58	0xbe0e8fc1	-0.13922025
59	0xbe99fa4a	-0.30073768
60	0x3e5cbe4d	0.21556969
61	0x3f173a7b	0.5907361
62	0x3e5d4af6	0.21610627
63	0x3f046ad7	0.51725525
64	0x3e070e25	0.1318899
65	0x3d0027cb	0.03128795
66	0x3c9846e6	0.018588495
67	0x3eca0eb1	0.39464334
68	0x3f103581	0.5633164
69	0x3f234f8d	0.6379326
70	0xbe0d83ca	-0.13819805
71	0xbe7726db	-0.24135916
72	0x3ec19ec3	0.37816438
73	0x3f165e9a	0.587381
74	0x3f11fdd7	0.57027954
75	0x3d3a8dde	0.04554545
76	0x3e83d172	0.25745732
77	0x3e818828	0.2529919
78	0x3f361221	0.7112141
79	0xbe4c768e	-0.199671
80	0x3f4c9ec3	0.7992975
81	0x3e0f3085	0.13983352
82	0x3f5326f5	0.8248132
83	0x3f39ef87	0.72631115
84	0x3e3b8ca2	0.18315366
85	0x3eec30aa	0.46130878
86	0x3f22eaf2	0.6363975
87	0x3f1cafca	0.6120573
88	0x3e6d08fe	0.23147961
89	0x3f0cdb40	0.5502205
90	0x3cbff50f	0.023432283
91	0x3f4b91e7	0.79519504
92	0x3b961b49	0.0045808894
93	0xbce1dd09	-0.027571218
94	0x3e90857d	0.28226843
95	0x3e77854a	0.2417194
96	0x3ef7cf66	0.4840042
97	0x3f1de238	0.6167331
98	0x3ebd7058	0.36999774
99	0x3f46620c	0.7749336
100	0xbdf658b6	-0.12028639
101	0xbcc2232d	-0.023698414
102	0xbd08b78e	-0.033378176
103	0x3d1e6d97	0.03867873
104	0xb9eaed61	-0.0004480882
105	0x3db51abe	0.08842991
106	0x3db05946	0.086107776
107	0xbd81d524	-0.063394815
108	0xbd2bf1ca	-0.041978635
109	0xbe03df18	-0.12878072
110	0x3cdc1e05	0.026869783
111	0x3d01e558	0.03171286
112	0xbbe68bdd	-0.007035716
113	0x3cee12b8	0.02906166
114	0xbd83a915	-0.06428734
115	0x3d61e6c1	0.055151705
116	0xbc9f67e4	-0.019458719
117	0xbd0fadff	-0.035078045
118	0x3cdfe32a	0.02733
119	0xbceacc4b	-0.028661868
120	0xbdfecc86	-0.124413535
121	0xbd8c0d1e	-0.068384394
122	0xbd51b450	-0.05119735
123	0xbda5740e	-0.08078776
124	0x3c4f5207	0.012653834
125	0x3e235828	0.15951598
126	0xbd92a5f2	-0.07160558
127	0xbdbde4e7	-0.09272175
128	0xbd86b3ab	-0.06577238
129	0x3c3f1668	0.011663057
130	0x3db31fad	0.08746276
131	0x3c1da154	0.009620983
132	0xbcf352b0	-0.029702514
133	0x3d0ebf20	0.03485024
134	0xbb5a6325	-0.0033323255
135	0xbd451fc0	-0.048125982
136	0xbc778a38	-0.0151086375
137	0x3c06204b	0.00818641
138	0xbd5a9b4e	-0.053370766
139	0x3cde0ea8	0.027106598
140	0x3d96f527	0.07370978
141	0xbdf9e9c5	-0.12202791
142	0x3d33c9fe	0.043893807
143	0x3be2782a	0.0069112973
144	0xbd3ee918	-0.046609014
145	0x3d98d706	0.074628875
146	0xbd8dd03e	-0.06924485
147	0x3d96b021	0.07357813
148	0x3de13b77	0.1099767
149	0x3d43013a	0.04760859

fc.weight f4 [2, 50]
0	0xbdfade2b	-0.122494064
1	0x3e422bbe	0.18961999
2	0xbddae6bb	-0.106885396
3	0x3e8bc70f	0.27300307
4	0xbe272f07	-0.16326533
5	0x3e26374b	0.1623203
6	0x3d7d6472	0.06186337
7	0x3d3b9f79	0.04580638
8	0x3d8c11ee	0.06839357
9	0x3ddbe60a	0.10737236
10	0x3d85cc6d	0.06533132
11	0x3e81fbe1	0.2538748
12	0x3e322ff4	0.17401105
13	0x3c59b3cf	0.013287499
14	0x3e792c7a	0.24333373
15	0xbe22cd1f	-0.1589856
16	0xbe3e74f2	-0.18599299
17	0x3e10f475	0.14155753
18	0x3e542fe2	0.20721391
19	0xbdb4f513	-0.08835807
20	0x3e20aaea	0.15690199
21	0xbdf27998	-0.118395984
22	0x3e642258	0.22278726
23	0xbdffa1dc	-0.12482044
24	0x3e79ed0d	0.24406834
25	0x3e42f27e	0.19037816
26	0xbd81bfdb	-0.06335422
27	0x3d810d4e	0.06301366
28	0xbe5d9878	-0.21640193
29	0x3e017796	0.12643275
30	0xbe16c2d8	-0.14722764
31	0x3e1d5e0d	0.15367909
32	0xbd800964	-0.06251791
33	0x3e7d842d	0.24757452
34	0xbe4a2823	-0.19741873
35	0xbe2c038f	-0.16798232
36	0x3e04e0a5	0.1297632
37	0x3e170d19	0.1475109
38	0x3e4783f9	0.19483937
39	0x3e1907f9	0.14944448
40	0xbddf7b21	-0.10912157
41	0xbe49202f	-0.19641183
42	0xbe30a88d	-0.17251797
43	0xbe2845cd	-0.16432877
44	0x3e608b76	0.219282
45	0xbce512f5	-0.027963141
46	0xbe3ac9d3	-0.18241052
47	0x3da31b0d	0.07964144
48	0x3d7002e4	0.058596507
49	0xbdcd0339	-0.1001038
50	0x3e02a988	0.12759984
51	0xbd641b44	-0.055690065
52	0x3decbd88	0.11559588
53	0xbdc60645	-0.096691646
54	0x3dd67ff8	0.10473627
55	0xbe5d9bca	-0.2164146
56	0xbe1ed1af	-0.15509675
57	0xbe40334d	-0.1876957
58	0x3e4b461c	0.19850963
59	0xbe4aa3e4	-0.19789082
60	0xbe1e4191	-0.15454699
61	0xbdf80d00	-0.121118546
62	0xbddd4311	-0.108038075
63	0xbe36b042	-0.17840675
64	0xbe2c53fb	-0.16828911
65	0x3d607ba1	0.0548054
66	0x3e3c3e69	0.18383183
67	0xbdd8f9c1	-0.10594512
68	0xbe2dee59	-0.16985454
69	0x3dbccf00	0.092191696
70	0xbe29fd6b	-0.16600578
71	0x3e5e5c3d	0.21714874
72	0xbd6c8cf5	-0.057751615
73	0x3e37a818	0.17935216
74	0xbdf50dad	-0.11965499
75	0xbd278a7d	-0.040903557
76	0x3df1694a	0.117876604
77	0x3b68b722	0.0035509546
78	0x3d128f9c	0.035781488
79	0xbdf01cc6	-0.11724238
80	0x3e6dc1aa	0.23218408
81	0x3cb3d352	0.021951351
82	0x3e97080f	0.29498336
83	0xbdcc61e2	-0.09979607
84	0x3e356453	0.17714052
85	0x3e4cdfc2	0.20007232
86	0xbda1bbd4	-0.078971535
87	0xbd6239fa	-0.055231072
88	0xbe3dc253	-0.1853116
89	0xbdc0b9b3	-0.09410419
90	0x3dc0c839	0.094131894
91	0x3df1dc46	0.11809592
92	0x3e13519f	0.14386605
93	0x3dda5b53	0.1066195
94	0x3d765ce3	0.060147177
95	0x3e409917	0.18808399
96	0x3dd3917d	0.10330484
97	0xbe1b742d	-0.15181036
98	0xbe0d28cf	-0.13785098
99	0x3e18aee8	0.14910471

fc.bias f4 [2]
0	0x3d1376cc	0.036001965
1	0xbd681e48	-0.056669503
