results/gru/gru_hidden_150_layers_2_bidirectional_False_length_50_batch_64_lr_0.001.pth (torch, 913656 bytes, 10 tensors)

gru.weight_ih_l0 f4 [450, 50]
-0.037213437 -0.0035071257 -0.041713938 0.08913471 0.031735674 -0.0033651213 0.028998746 -0.0325565
-0.021593679 0.0676027 -0.02664584 0.0038225953 -0.0284587 -0.048779726 -0.00027830148 -0.03218717
-0.013764993 0.022097068 0.08198068 -0.0060856272 0.07423915 0.0038827886 0.0013040118 0.005850636
0.021582989 0.0756297 -0.045844533 -0.058777135 0.057504717 -0.080878675 -0.02766887 0.07196356
-0.029928492 -0.0048620817 -0.038518835 -0.034348574 0.03354389 0.08757944 -0.012532128 0.008029331
-0.07870132 -0.0055786166 -0.026279222 0.027579859 0.088928625 -0.007887897 -0.0308703 0.014671595
0.039795496 0.0020930315 -0.018137006 -0.0980724 0.024776375 0.09376329 -0.0038979247 0.083866246
-0.045308273 -0.11287007 0.057671506 -0.04926234 -0.053797778 -0.047200024 -0.0386767 -0.012971331
0.04058664 -0.00084671687 -0.10730591 -0.02371826 -0.05445606 0.04932648 -0.0029866062 0.023005532
-0.048083726 0.10909012 0.065649725 0.048162624 -0.08274698 0.048228372 0.034105442 0.041857313
-0.07657435 0.049372677 -0.033615258 -0.0463441 0.00856736 -0.08112775 -0.055650067 0.055975232
0.043736104 0.058805104 -0.010803008 -0.054255772 0.031926427 0.059874512 -0.06937395 0.04567356
0.009516819 0.0912429 -0.0709815 -0.03282646 -0.0051681907 -0.0024745087 -0.047045704 -0.059975408
-0.122758105 0.074048415 -0.040092714 0.032723904 0.030006696 0.084092095 0.01266908 0.08937302
-0.020708628 -0.004518144 0.06734373 0.037480187 -0.039248176 0.038348146 -0.0693431 0.020258253
-0.057302564 -0.039347693 -0.000476787 -0.05235426 -0.08608336 0.05388848 -0.045003433 0.046381786
-0.053930026 -0.043648113 -0.10274538 0.008919599 -0.012286537 -0.05472462 -0.08246523 -0.010895801
0.04387892 -0.044889033 -0.013031122 0.022399345 0.015150953 -0.034647178 -0.043549538 -0.0051881736
-0.052221283 0.008249753 0.051885467 0.012795923 -0.033477187 0.046764363 0.06195818 -0.08965604
0.027957471 0.014068397 -0.04281675 0.028942127 0.010653762 -0.058267225 -0.04918077 -0.016753908
-0.07529801 0.03368569 0.032248504 -0.10419039 -0.07333617 -0.003355729 0.01803056 0.05705329
-0.014632446 -0.060459007 0.01319092 0.006571137 0.023076849 -0.10709458 0.016467504 0.07705196
0.11201181 0.021318525 -0.033138845 0.014767513 -0.048629727 -0.07961718 -0.01121851 -0.015092451
-0.06027687 0.045594193 0.015190322 -0.032891188 0.054361086 -0.0007602996 0.08461806 -0.008749133
-0.1033106 -0.08476912 -0.065106645 0.056363605 -0.026296655 -0.06739849 -0.019914374 0.046471808
0.036691543 0.026820136 -0.01717751 0.102589674 -0.06786143 0.05826518 -0.013006606 -0.0052489825
-0.088096164 0.075460054 -0.09844495 -0.033407982 -0.0035158817 0.023970282 0.023296505 -0.024498345
-0.12545842 -0.056011274 -0.06486448 -0.03539031 -0.03861643 -0.04829973 -0.024723345 0.025120303
-0.098534934 0.056855675 -0.0415071 -0.025264561 -0.07766019 -0.02877421 0.04309798 -0.058716264
-0.040712252 -0.05825177 -0.059059232 -0.046210323 -0.017973652 0.03444504 -0.053241838 0.08554274
0.036762692 0.03725744 0.055490788 0.030296158 0.07368379 -0.023824548 -0.026608242 0.09615234
-0.05095539 -0.024628267 0.08425444 -0.06149167 -0.05516195 0.033552468 0.030306013 0.11221982
00000000: 1e6d 18bd ced7 65bb 3cdc 2abd 428c b63d
00000010: 44fd 013d 5e89 5cbb c78e ed3c f759 05bd
00000020: 3ae5 b0bc 4973 8a3d 6048 dabc 8284 7a3b
00000030: 3822 e9bc 40cd 47bd fee8 91b9 b2d6 03bd
00000040: 9186 61bc e904 b53c 7de5 a73d f169 c7bb
00000050: b20a 983d 6276 7e3b 60eb aa3a b1b6 bf3b
00000060: cfce b03c bfe3 9a3d 7ac7 3bbd 4bc0 70bd
00000070: 118a 6b3d b8a3 a5bd d3a9 e2bc a261 933d
00000080: 992c f5bc 1952 9fbb edc5 1dbd 17b1 0cbd
00000090: 5165 093d d95c b33d 8e53 4dbc 758d 033c
000000a0: 282e a1bd d4cc b6bb 8647 d7bc 28ef e13c
000000b0: 3620 b63d 3d3c 01bc b6e3 fcbc 2161 703c
000000c0: 9a00 233d 3e2b 093b 0f94 94bc 2fda c8bd
000000d0: d3f7 ca3c f806 c03d 5374 7fbb 11c2 ab3d
000000e0: 2b95 39bd 6c28 e7bd f538 6c3d 4fc7 49bd
000000f0: 0f5b 5cbd d054 41bd 766b 1ebd b585 54bc
00000100: 2d3e 263d 35f6 5dba 33c3 dbbd cc4c c2bc
00000110: 510d 5fbd 900a 4a3d f0ba 43bb 1976 bc3c
00000120: 71f3 44bd a46a df3d 5d73 863d 2c46 453d
00000130: 4077 a9bd 1d8b 453d 26b2 0b3d 9372 2b3d
00000140: 03d3 9cbd 013b 4a3d 27b0 09bd 50d3 3dbd
00000150: 1d5e 0c3c 4e26 a6bd 53f1 63bd 4946 653d
00000160: a124 333d 9fdd 703d 1aff 30bc 4d3b 5ebd
00000170: 49c5 023d fa3e 753d ee13 8ebd 3314 3b3d
00000180: 6fec 1b3c 8fdd ba3d c05e 91bd 0a75 06bd
00000190: ed59 a9bb 5e2b 22bb ffb2 40bd c6a8 75bd
000001a0: 9a68 fbbd b2a6 973d 4238 24bd 8009 063d
000001b0: 9ad0 f53c 7a38 ac3d f991 4f3c 3409 b73d
000001c0: 24a5 a9bc f00c 94bb 82eb 893d d384 193d
000001d0: b2c2 20bd f212 1d3d c103 8ebd a3f4 a53c
000001e0: 18b6 6abd 0c2b 21bd 45f9 f9b9 6c71 56bd
000001f0: 794c b0bd 2bba 5c3d 8555 38bd d4fa 3d3d
00000200: bbe5 5cbd 5dc8 32bd 2b6c d2bd 8223 123c
00000210: 794d 49bc ec26 60bd 88e3 a8bd 4d84 32bc
00000220: 62ba 333d 90dd 37bd 7d80 55bc d57e b73c
00000230: b43b 783c 33ea 0dbd 0061 32bd 8e01 aabb
00000240: fce5 55bd f929 073c db85 543d fea5 513c
00000250: 601f 09bd fd8b 3f3d dcc7 7d3d 969d b7bd
00000260: 1107 e53c 227f 663c 9e60 2fbd 0a18 ed3c
00000270: 1e8d 2e3c 9da9 6ebd c671 49bd 7e3f 89bc
00000280: d835 9abd 02fa 093d 0217 043d c561 d5bd
00000290: 4631 96bd caeb 5bbb d3b4 933c b6b0 693d
000002a0: edbc 6fbc dda3 77bd bb1e 583c b152 d73b
000002b0: a90b bd3c 6754 dbbd dce6 863c 6bcd 9d3d
000002c0: 7366 e53d 30a4 ae3c 99bc 07bd 70f3 713c
000002d0: f72f 47bd 550e a3bd d7cd 37bc 5446 77bc
000002e0: e1e4 76bd fac0 3a3d d4e0 783c e9b8 06bd
000002f0: bba9 5e3d d84e 47ba 3c4c ad3d 8658 0fbc
00000300: 8294 d3bd 6f9b adbd a256 85bd 86dd 663d
00000310: 156c d7bc 3808 8abd 7823 a3bc 3959 3e3d
00000320: df49 163d e7b5 db3c d9b7 8cbc 891a d23d
00000330: effa 8abd 78a7 6e3d a919 55bc a8ff abbb
00000340: c36b b4bd cd8a 9a3d 829d c9bd cfd6 08bd
00000350: b56a 66bb 535d c43c 50d8 be3c c1b0 c8bc
00000360: 2c78 00be 146c 65bd abd7 84bd 6ef5 10bd
00000370: 432c 1ebd f0d5 45bd 9d88 cabc 18c9 cd3c
00000380: afcc c9bd 7fe1 683d 5903 2abd a0f7 cebc
00000390: 4e0c 9fbd e4b7 ebbc 8287 303d 7780 70bd
000003a0: e4c1 26bd 6899 6ebd 18e8 71bd 0947 3dbd
000003b0: 7b3d 93bc 3e16 0d3d 1d14 5abd 0831 af3d
000003c0: 7a94 163d 429b 183d 4f4a 633d a62f f83c
000003d0: 87e7 963d b32b c3bc 87f9 d9bc 85eb c43d
000003e0: 99b6 50bd 38c1 c9bc 988d ac3d b0de 7bbd
000003f0: 7ff1 61bd 506e 093d 5144 f83c 81d3 e53d

gru.weight_hh_l0 f4 [450, 150]
0.008337135 0.02635843 0.07196189 -0.028727705 0.03546587 0.07864278 0.059714485 -0.015065664
0.07880071 -0.044150315 -0.014298697 -0.04115574 -0.035962444 0.040745407 0.07247189 -0.022870477
-0.042414676 0.022166494 0.02858151 0.08046076 0.06149039 0.01937296 -0.044928994 -0.035938993
0.00073359575 -0.005096481 0.013144742 -0.06690385 0.05781511 -0.10075908 -0.017704235 0.033814285
0.09426453 -0.01857263 0.027109152 -0.02243525 -0.03334935 0.07833745 0.080411784 0.051960073
0.01353757 -0.006924545 0.06739026 -0.031017583 0.041832004 -0.05065404 0.023404246 -0.064279795
-0.04796528 -0.007830294 -0.051054064 0.033495028 -0.074687414 -0.020025592 -0.06475752 0.0704364
0.025324566 -0.017120145 -0.027792377 -0.049936585 0.06336035 0.049482603 -0.025926633 -0.042951904
-0.07369973 0.05291883 -0.035479624 -0.07427373 -0.065877914 0.065067895 0.057501834 0.030679708
0.044819973 -0.030546935 0.057978082 0.055852573 -0.010331424 0.03977795 0.007013493 0.009731088
-0.07167364 -0.007028429 0.010732518 -0.057508107 -0.03361376 -0.021903401 -0.055645674 0.02159329
0.060443223 -0.085243076 -0.03355885 -0.027298426 -0.04259322 0.015299769 0.066136 -0.03330968
-0.011873749 0.091732785 -0.057460815 -0.052521843 -0.059791762 0.03577103 -0.059248127 -0.004620833
-0.08372386 0.08318645 -0.059842736 0.041130167 0.06621177 0.027141834 0.036675327 0.09077589
-0.029948464 0.035458103 0.06611622 -0.08227165 0.050660774 0.015902348 -0.017895794 0.023110447
-0.06388038 -0.002116366 -0.010078163 0.008057091 -0.045971353 -0.081484854 -0.015243765 0.054694176
-0.03434407 0.06695764 0.045772936 -0.07061005 -0.055016678 0.042615816 -0.027293531 0.011869592
-0.078598864 0.057325352 0.0130163105 -0.051116437 0.045286443 -0.026335133 -0.001979937 0.06568843
0.010873296 -0.048759565 0.05080125 0.0069584176 -0.008758345 0.009488913 0.063753515 0.058947403
0.022263829 -0.033580367 -0.0008215286 -0.017496996 0.10036394 -0.049027294 0.020190516 -0.048318036
0.07070751 -0.052147284 0.042818613 -0.082070805 -0.05138741 0.08001545 -0.0416414 0.017073374
0.022260189 -0.0017793634 0.001956211 -0.04038141 -0.07173052 -0.029480696 0.013585175 -0.010915008
0.04612222 0.07815072 -0.03802902 0.012589349 0.07178429 -0.04007687 0.075627275 -0.052666683
-0.019256745 0.05663901 0.04544563 -0.039259363 0.05922906 -0.045461956 0.10525169 0.057769317
-0.012410337 0.0153171085 0.103939906 -0.08269465 0.062301666 0.034625836 -0.08969344 -0.040248252
0.012050908 -0.04135532 -0.035249867 0.039745007 0.010572522 0.02731144 -0.011366926 0.0019593704
0.049995035 0.051419884 -0.041978527 -0.009038639 -0.026019268 0.05401712 -0.06533574 -0.05471078
0.06419213 0.104830496 0.048150416 0.048784588 0.008374141 -0.050625928 0.031395577 0.067383416
0.033680834 -0.031162806 0.023240354 -0.01924677 0.048457876 -0.08375713 0.020504583 0.05493801
0.06805413 0.06400021 0.04155684 -0.01632546 0.045991223 -0.007770278 0.085211165 -0.054422945
0.08185021 0.0062305857 0.04978165 0.0070723803 -0.016676372 0.06738172 -0.019749034 0.07025706
0.031284813 0.06774025 0.031750828 -0.020296283 0.09361213 -0.020425402 0.017551588 -0.032586183
00000000: 7b98 083c a2ed d73c c160 933d 5d56 ebbc
00000010: a944 113d 770f a13d 2d97 743d fad5 76bc
00000020: 4462 a13d f6d6 34bd 1545 6abc ec92 28bd
00000030: 5b4d 13bd a8e4 263d 246c 943d de5a bbbc
00000040: 03bb 2dbd 8296 b53c c523 ea3c 9cc8 a43d
00000050: 59dd 7b3d 0bb4 9e3c 7707 38bd c434 13bd
00000060: c74e 403a 6200 a7bb 0b5d 573c e304 89bd
00000070: 89cf 6c3d c75a cebd 7908 91bc d980 0a3d
00000080: c30d c13d a125 98bc 0314 de3c 21ca b7bc
00000090: 5499 08bd 636f a03d efae a43d 16d4 543d
000000a0: afcc 5d3c 4be7 e2bb e803 8a3d 9618 febc
000000b0: 0958 2b3d 9c7a 4fbd 43ba bf3c 20a5 83bd
000000c0: 3e77 44bd a24a 00bc 111e 51bd 1532 093d
000000d0: b7f5 98bd b60c a4bc 979f 84bd f640 903d
000000e0: 7775 cf3c 8c3f 8cbc d7ac e3bc 4e8a 4cbd
000000f0: 12c3 813d 45ae 4a3d 1764 d4bc 56ee 2fbd
00000100: e2ef 96bd 6ac1 583d 1553 11bd d31c 98bd
00000110: 00eb 86bd 5142 853d 0b87 6b3d 0354 fb3c
00000120: 2695 373d 913d fabc 6d7a 6d3d abc5 643d
00000130: 2245 29bc 34ee 223d 72d1 e53b 246f 1f3c
00000140: a1c9 92bd bc4e e6bb 71d7 2f3c 9f8d 6bbd
00000150: 95ae 09bd c36e b3bc b8ec 63bd 69e4 b03c
00000160: 5093 773d ec93 aebd 0175 09bd f3a0 dfbc
00000170: 3a76 2ebd e2ab 7a3c 5072 873d bb6f 08bd
00000180: 1d8a 42bc 66de bb3d 085c 6bbd 2521 57bd
00000190: 35e8 74bd a584 123d 2aae 72bd 5b6a 97bb
000001a0: 6a77 abbd a85d aa3d a81d 75bd 1b78 283d
000001b0: 099a 873d 8d58 de3c de38 163d b6e8 b93d
000001c0: 7b56 f5bc 843c 113d f167 873d 0a7e a8bd
000001d0: ac81 4f3d a445 823c 339a 92bc 1f52 bd3c
000001e0: b7d3 82bd bbb2 0abb e11e 25bc e401 043c
000001f0: 754c 3cbd 88e1 a6bd fcc0 79bc 0007 603d
00000200: 5eac 0cbd 1621 893d 677c 3b3d 009c 90bd
00000210: 2b59 61bd ec8d 2e3d af96 dfbc ad78 423c
00000220: 71f8 a0bd fdcd 6a3d 5d42 553c 785f 51bd
00000230: 477e 393d c7bc d7bc d5c1 01bb a887 863d
00000240: e925 323c 1cb8 47bd f914 503d 7003 e43b
00000250: 297f 0fbc 6377 1b3c 3491 823d d572 713d
00000260: a262 b63c 918b 09bd da5b 57ba dc55 8fbc
00000270: 9c8b cd3d d8d0 48bd 9566 a53c 22e9 45bd
00000280: 19cf 903d 6498 55bd 9262 2f3d bd14 a8bd
00000290: 9b7b 52bd 24df a33d 2c90 2abd 76dd 8b3c
000002a0: 005b b63c 8739 e9ba c633 003b fa66 25bd
000002b0: 73e7 92bd 8081 f1bc 5b94 5e3c ddd4 32bc
000002c0: a7ea 3c3d 7c0d a03d 51c4 1bbd 8f43 4e3c
000002d0: a403 933d a527 24bd 79e2 9a3d 05b9 57bd
000002e0: 52c0 9dbc 4efe 673d 3225 3a3d 6dce 20bd
000002f0: 2c9a 723d 5136 3abd 338e d73d 859f 6c3d
00000300: ba54 4bbc 9cf4 7a3c 72de d43d d05b a9bd
00000310: 0830 7f3d d2d3 0d3d 32b1 b7bd 5adb 24bd
00000320: 2c71 453c 3264 29bd 2a62 10bd a9cb 223d
00000330: 5f38 2d3c 3ebc df3c 583c 3abc c868 003b
00000340: 98c7 4c3d a89d 523d adf1 2bbd cd16 14bc
00000350: 5c26 d5bc 0e41 5d3d bfce 85bd 6918 60bd
00000360: 2a77 833d 5fb1 d63d 5f39 453d 59d2 473d
00000370: b133 093c 225d 4fbd a698 003d 5100 8a3d
00000380: eaf4 093d 2449 ffbc 8e62 be3c 67ab 9dbc
00000390: c47b 463d dc88 abbd 3af9 a73c ae06 613d
000003a0: f75f 8b3d 8b12 833d 8137 2a3d f9bc 85bc
000003b0: 4b61 3c3d d19d febb 3183 ae3d 98ea 5ebd
000003c0: 15a1 a73d f129 cc3b d8e7 4b3d 6dbf e73b
000003d0: e39c 88bc 6dff 893d bac8 a1bc efe2 8f3d
000003e0: 8124 003d 66bb 8a3d 280d 023d 6444 a6bc
000003f0: b7b7 bf3d 2c53 a7bc 59c8 8f3c 1779 05bd

gru.bias_ih_l0 f4 [450]
0.0040054447 0.0016430111 0.06329495 -0.044755116 -0.07496902 -0.05180635 -0.07262353 -0.054919627
0.06727278 -0.014681193 0.019753706 0.034837995 0.06770235 -0.004631785 -0.00780532 -0.052058786
-0.029682575 0.048241638 -0.036363084 -0.02377582 -0.00020402882 0.033536203 -0.00066709844 -0.03436187
-0.09504084 -0.031846385 -0.04474494 0.03889823 -0.0751651 -0.018866697 -0.046634823 0.001915991
-0.00014483303 -0.05367959 0.045498848 -0.06646404 -0.053041935 -0.029734777 0.045479525 0.02286299
0.034042858 -0.075332664 0.026804356 0.089753576 -0.047513757 0.094635725 -0.021365065 -0.0479
-0.04542633 -0.015626216 -0.10852412 -0.0019247514 -0.010958717 0.0040071625 0.04973648 0.06162615
-0.09495367 0.048185106 0.05487205 0.021108901 -0.08550507 -0.05522079 0.08157724 -0.027865782
-0.037924852 0.0068730325 0.06695527 -0.013625316 0.06759518 0.03798491 -0.0059788916 0.00014527721
0.072295174 -0.06594384 0.05918257 -0.040609743 0.059960697 -0.0042038867 -0.013250617 0.039823312
-0.0034233136 -0.03338648 -0.08826222 -0.03179738 0.026075412 0.06657836 0.027448013 -0.07018471
-0.024268094 -0.051668648 0.0061492813 -0.0024030446 -0.08384378 -0.0017853822 0.04346366 -0.020030638
-0.035159037 0.01604155 0.014454029 0.022768067 0.064320095 -0.03976583 0.050863266 -0.08482531
-0.0540209 -0.034208767 0.02783376 -0.067976385 0.10936035 -0.07504453 -0.04999833 0.019067954
0.06576506 -0.07853611 0.03975678 -0.037162397 -0.091202766 -0.009747005 0.054929662 0.07960639
0.028280398 0.0057309503 -0.0562365 -0.08795532 -0.058337845 -0.073756784 0.005870187 -0.024549099
0.05025797 0.048153304 0.00334597 0.0007821238 0.024023954 -0.076668635 -0.075077444 -0.019601354
-0.033549 -0.0010538219 0.0038005644 0.049831785 -0.08525088 -0.02948514 0.021991357 0.046203487
0.028405553 -0.10957718 0.03851648 -0.022925727 -0.021593321 -0.060354114 0.1356659 0.23840542
0.08613283 -0.09082468 0.045467593 0.13812225 -0.026169268 0.04433036 0.11100668 -0.091421485
0.061079502 0.2233298 0.0858676 0.12730093 0.09176156 0.062722795 0.10426218 0.1080139
0.10429315 0.19332425 0.13336426 0.024534164 0.10119212 0.09988305 -0.03442324 0.14444737
0.07451165 -0.043162182 0.08212679 0.06631543 0.09746399 0.06520104 0.05195481 0.18736082
0.21755065 0.071184404 0.04674967 -0.055380024 0.06818721 0.07296518 0.14466366 0.046803784
0.008755607 0.21639098 0.13897099 0.16015136 0.20938775 0.08001597 0.098996624 0.14567047
-0.10663432 0.12659022 0.033963535 0.15115657 0.06844567 0.07757358 0.07994575 0.1886395
-0.042878624 0.14196485 0.007703656 -0.055312842 0.09194866 -0.025532613 0.1363053 0.038540367
-0.061977837 0.05345953 0.053844422 0.010596296 0.20848899 0.13228974 0.07616499 0.06699894
0.2251964 0.05920798 0.017731741 -0.061090805 -0.023156008 0.09902466 0.10924719 0.117822476
0.043412045 0.19985731 0.13643067 0.15443079 0.005129695 -0.06191316 0.17328985 0.063261606
0.19806707 0.047383107 -0.014184869 0.1048545 0.11550206 0.06763523 0.078186385 -0.0012183705
0.08861707 -0.076593675 0.16204101 0.11861407 0.031188224 -0.007060141 0.13280487 -0.08819365
00000000: 1b40 833b 4e5a d73a c8a0 813d 2451 37bd
00000010: 5c89 99bd e532 54bd a5bb 94bd 67f3 60bd
00000020: 50c6 893d 6389 70bc 86d2 a13c 49b2 0e3d
00000030: 88a7 8a3d 3bc6 97bb c5c3 ffbb 983b 55bd
00000040: df28 f3bc 0699 453d 75f1 14bd 82c5 c2bc
00000050: 92f0 55b9 425d 093d 38e0 2eba 08bf 0cbd
00000060: c6a4 c2bd 5b71 02bd 7846 37bd c053 1f3d
00000070: 29f0 99bd 558e 9abc 2804 3fbd fd21 fb3a
00000080: 52de 17b9 21df 5bbd 005d 3a3d 4c1e 88bd
00000090: 8042 59bd 5996 f3bc bd48 3a3d 2a4b bb3c
000000a0: 8670 0b3d 0348 9abd cf94 db3c b9d0 b73d
000000b0: c99d 42bd 60d0 c13d ca05 afbc ca32 44bd
000000c0: f610 3abd 8d02 80bc e541 debd f147 fcba
000000d0: 318c 33bc 844e 833b 7bb8 4b3d b46b 7c3d
000000e0: 1277 c2bd bf5d 453d 84c1 603d 93ec ac3c
000000f0: 481d afbd 322f 62bd f811 a73d c846 e4bc
00000100: 1757 1bbd 2d37 e13b d81f 893d b83c 5fbc
00000110: 576f 8a3d 1196 1b3d 94ea c3bb 8e55 1839
00000120: 7e0f 943d 900d 87bd 6c69 723d 6756 26bd
00000130: 5999 753d c2c0 89bb 1e19 59bc c51d 233d
00000140: ac59 60bb 43c0 08bd d3c2 b4bd f83d 02bd
00000150: 1a9c d53c 3c5a 883d a8da e03c 00bd 8fbd
00000160: e2cd c6bc 81a2 53bd e97f c93b 667c 1dbb
00000170: 4ab6 abbd 7c03 eaba f306 323d 4b17 a4bc
00000180: ec02 10bd 9269 833c 97d0 6c3c 1984 ba3c
00000190: 41ba 833d 7fe1 22bd 0056 503d e4b8 adbd
000001a0: 0545 5dbd 7e1e 0cbd a003 e43c 3437 8bbd
000001b0: 52f8 df3d f2b0 99bd 0dcb 4cbd 6634 9c3c
000001c0: d5af 863d 8ad7 a0bd 01d8 223d 9937 18bd
000001d0: 84c8 babd e7b1 1fbc edfd 603d ad08 a33d
000001e0: 4bac e73c b2ca bb3b 3f58 66bd eb21 b4bd
000001f0: aaf3 6ebd cc0d 97bd b35a c03b 311b c9bc
00000200: 4ddb 4d3d 663c 453d 1048 5b3b 7107 4d3a
00000210: e2cd c43c 7204 9dbd 34c2 99bd 0593 a0bc
00000220: ad6a 09bd 6520 8aba e412 793b 6a1c 4c3d
00000230: 0398 aebd d28a f1bc 3827 b43c de3f 3d3d
00000240: c3b2 e83c 006a e0bd 75c3 1d3d bcce bbbc
00000250: 7ae4 b0bc e035 77bd 00ec 0a3e 8d20 743e
00000260: 6966 b03d 4a02 babd 3a3c 3a3d eb6f 0d3e
00000270: ef60 d6bc c093 353d 7857 e33d 303b bbbd
00000280: 802e 7a3d 91b0 643e 5adb af3d 2d5b 023e
00000290: 7ced bb3d cf74 803d 6987 d53d 6436 dd3d
000002a0: a697 d53d cbf6 453e a490 083e dffb c83c
000002b0: d03d cf3d 7c8f cc3d 62ff 0cbd 03ea 133e
000002c0: 9099 983d d4ca 30bd 1732 a83d 62d0 873d
000002d0: 339b c73d 1f88 853d 91ce 543d 84db 3f3e
000002e0: 99c5 5e3e 21c9 913d 957c 3f3d 2ad6 62bd
000002f0: bca5 8b3d c56e 953d b622 143e 53b5 3f3d
00000300: ad73 0f3c 9995 5d3e 694e 0e3e b8fe 233e
00000310: be69 563e 6adf a33d bebe ca3d a42a 153e
00000320: 1863 dabd dea0 013e 591d 0b3d cac8 1a3e
00000330: 3e2d 8c3d e6de 9e3d 99ba a33d b72a 413e
00000340: 7fa1 2fbd 3c5f 113e f36e fc3b b88f 62bd
00000350: 944f bc3d c529 d1bc 9e93 0b3e 81dc 1d3d
00000360: 79dc 7dbd 61f8 5a3d f88b 5c3d 169c 2d3c
00000370: 237e 553e f676 073e 64fc 9b3d be36 893d
00000380: e399 663e 1184 723d 2842 913c 5a3a 7abd
00000390: abb1 bdbc 71cd ca3d febc df3d e94c f13d
000003a0: d4d0 313d 65a7 4c3e 7bb4 0b3e 1b23 1e3e
000003b0: 0017 a83b a798 7dbd e572 313e 4d8f 813d
000003c0: 18d2 4a3e ca14 423d a767 68bc f5bd d63d
000003d0: 588c ec3d 5784 8a3d 2f20 a03d bbb1 9fba
000003e0: de7c b53d 25dd 9cbd 14ee 253e efeb f23d
000003f0: 727e ff3c c158 e7bb 00fe 073e df9e b4bd

gru.bias_hh_l0 f4 [450]
0.010547809 0.071896896 0.0351233 -0.06376603 -0.06062239 -0.029141188 -0.061041813 -0.045113284
0.033394575 0.019449396 -0.056462143 0.00986165 0.0019043451 -0.007333069 -0.031906117 0.0511075
0.014709167 -0.039221365 -9.178926e-05 0.060722254 -0.043202855 -0.011032249 -0.048693307 -0.10425291
-0.0056809797 -0.07991385 -0.038443264 -0.019787094 0.011829875 -0.06298129 -0.023106873 -0.043192744
0.05768869 -0.043513615 0.0030028427 -0.07418411 -0.037205733 -0.09844555 -0.08546075 0.077879384
-0.011080772 -0.042261954 -0.053072713 -0.014430594 0.04044493 -0.023670465 -0.02203875 0.038947243
-0.07450866 -0.0033033798 -0.07576283 0.079834916 0.01870042 -0.048393194 0.022565903 -0.049779925
0.01747687 0.023278473 0.018124778 -0.029596964 0.017245702 -0.04906512 0.07693903 0.058600217
0.057528146 -0.07597733 -0.07306969 -0.045499638 0.018138517 -0.049489386 0.064402886 -0.0079609435
-0.029062456 -0.08980454 -0.033122502 0.072796665 0.047407277 -0.08285681 -0.08576151 0.014048658
0.03645917 0.011888407 0.020078277 0.073343515 0.04305581 0.09529926 0.0010939207 0.0074201166
0.006079404 -0.058232896 0.03440504 0.026407827 0.052260984 0.07316376 -0.02580276 -0.01524677
-0.0711236 -0.069567986 0.0017788429 -0.00026216262 0.0795255 -0.010994369 0.02935237 0.011353338
-0.068536066 -0.0945741 -0.06713095 -0.063254274 0.021394476 0.05691113 -0.051279094 -0.052120607
-0.07250917 -0.08384885 -0.08125829 0.060248807 -0.056481495 -0.034838643 0.020424541 -0.06932794
-0.038036715 -0.04847017 -0.04444608 0.03940686 -0.0835471 0.012500479 -0.0229014 0.047255617
-0.08664824 -0.032744385 -0.013020224 -0.053329688 0.018442152 -0.06300416 -0.021448832 -0.039647263
-0.07396528 0.048352588 -0.042498298 0.058711533 0.050498195 0.07871232 -0.028614957 -0.096296236
-0.03888805 -0.011779939 0.06065295 -0.001216021 -0.056028545 -0.0772833 0.08502557 0.11966087
0.1502433 -0.03835466 0.0717515 0.114913896 -0.052561488 0.16448475 0.14480689 0.020257264
0.03990158 0.21386221 0.10746971 0.15039206 0.029385678 0.098981075 0.08278734 0.08031436
0.18088193 0.16468088 0.11993089 0.1619458 0.20757215 0.12592599 -0.037605513 0.15019985
0.14695044 0.05842246 -0.017107563 -0.011047917 0.118211806 0.12470668 0.06687208 0.036618434
0.22401935 0.09599461 -0.0009062018 0.0090161 0.034461785 0.16607384 0.18530774 0.09651272
-0.021247184 0.21434276 0.16805567 0.18057264 0.1633319 0.092457734 0.053425446 0.01902773
-0.062349696 0.08198638 -0.05289567 0.10535386 0.08865644 0.0888328 -0.042958435 0.14528492
-0.046821814 0.08613775 0.07625655 0.045159217 0.109397784 0.07391172 0.07983372 0.111524925
-0.026629198 0.11333124 -0.061382804 -0.050302148 0.0750379 0.1726266 0.07346598 0.00886939
0.217468 0.15486915 -0.021187356 0.03564424 0.019699486 0.06690883 0.14047016 0.12613644
0.08732268 0.21911982 0.1311628 0.17769848 0.027709031 -0.058241576 0.09979694 0.019433161
0.1510404 -0.0382633 0.088811494 0.19029096 0.19372052 0.13097073 0.14585413 0.09954919
-0.024870755 0.06180043 0.22062947 0.08819762 -0.027098332 -0.06071581 0.11425147 -0.045400053
00000000: b8d0 2c3c ae3e 933d 73dd 0f3d c497 82bd
00000010: 2f4f 78bd 80b9 eebc fb06 7abd b5c8 38bd
00000020: c0c8 083d 5754 9f3c d944 67bd c292 213c
00000030: 389b f93a 3e4a f0bb fdaf 02bd 1956 513d
00000040: b8fe 703c 95a6 20bd fc7e c0b8 e6b7 783d
00000050: 7af5 30bd 9bc0 34bc a272 47bd 8d82 d5bd
00000060: 8327 babb dfa9 a3bd af76 1dbd 8b18 a2bc
00000070: 18d2 413c 56fc 80bd a04a bdbc e0ea 30bd
00000080: fa4a 6c3d 553b 32bd 57cb 443b d7ed 97bd
00000090: 0a65 18bd d29d c9bd 0c06 afbd 3a7f 9f3d
000000a0: 208c 35bc df1a 2dbd c662 59bd 4c6e 6cbc
000000b0: 95a9 253d 90e8 c1bc 9c8a b4bc 2587 1f3d
000000c0: ff97 98bd 847d 58bb 8b29 9bbd 7d80 a33d
000000d0: a031 993c f137 46bd 21dc b83c 09e6 4bbd
000000e0: a72b 8f3c 7fb2 be3c 6a7a 943c 5575 f2bc
000000f0: dc46 8d3c 82f8 48bd 3692 9d3d c806 703d
00000100: a2a2 6b3d 019a 9bbd 90a5 95bd d45d 3abd
00000110: 3a97 943c 62b5 4abd a9e5 833d 9e6e 02bc
00000120: 6314 eebc 71eb b7bd 76ab 07bd 6b16 953d
00000130: 222e 423d d5b0 a9bd bba3 afbd 582c 663c
00000140: 3656 153d 98c7 423c 337b a43c 2035 963d
00000150: 4a5b 303d 422c c33d e361 8f3a 7324 f33b
00000160: bd35 c73b 9e85 6ebd 4dec 0c3d 3a55 d83c
00000170: 9d0f 563d e2d6 953d 4f60 d3bc 97cd 79bc
00000180: 40a9 91bd a979 8ebd 1028 e93a df72 89b9
00000190: 44de a23d ba21 34bc 6274 f03c 5a03 3a3c
000001a0: a35c 8cbd 11b0 c1bd f47b 89bd 758b 81bd
000001b0: 7843 af3c a51b 693d 070a 52bd 6b7c 55bd
000001c0: b07f 94bd f2b8 abbd bf6a a6bd 74c7 763d
000001d0: 2459 67bd f7b2 0ebd 5e51 a73c cffb 8dbd
000001e0: 63cc 1bbd a888 46bd 180d 36bd 1669 213d
000001f0: be1a abbd cfce 4c3c b89b bbbc 1b8f 413d
00000200: a274 b1bd fa1e 06bd c752 55bc 3b70 5abd
00000210: ff13 973c 5308 81bd 76b5 afbc 2b65 22bd
00000220: 1c7b 97bd 5d0d 463d b212 2ebd 817b 703d
00000230: 32d7 4e3d ed33 a13d ea69 eabc f636 c5bd
00000240: 1349 1fbd a500 41bc 3a6f 783d e562 9fba
00000250: 307e 65bd b546 9ebd e321 ae3d c210 f53d
00000260: 61d9 193e c719 1dbd 73f2 923d fa57 eb3d
00000270: b74a 57bd b16e 283e 4248 143e 90f2 a53c
00000280: d76f 233d b2fe 5a3e 1419 dc3d 6000 1a3e
00000290: 3cba f03c 97b6 ca3d 698c a93d db7b a43d
000002a0: 1d39 393e 1ba2 283e 549e f53d 1fd5 253e
000002b0: cb8d 543e bef2 003e 3d08 1abd fdcd 193e
000002c0: 2d7a 163e 644c 6f3d 2925 8cbc 5302 35bc
000002d0: 0819 f23d 3766 ff3d 3bf4 883d 36fd 153d
000002e0: 5465 653e d298 c43d 2c8e 6dba 44b8 133c
000002f0: cd27 0d3d 430f 2a3e 50c1 3d3e 76a8 c53d
00000300: 930e aebc ab7c 5b3e c916 2c3e 09e8 383e
00000310: 7a40 273e 7b5a bd3d a4d4 5a3d 0be0 9b3c
00000320: 6562 7fbd 7ae8 a73d 21a9 58bd c4c3 d73d
00000330: 8291 b53d f9ed b53d 2ff5 2fbd 92c5 143e
00000340: 3bc8 3fbd fd68 b03d 652c 9c3d dff8 383d
00000350: f20b e03d 075f 973d dd7f a33d 2e67 e43d
00000360: 7a25 dabc 361a e83d 896c 7bbd a009 4ebd
00000370: 78ad 993d 07c5 303e 5575 963d eb50 113c
00000380: eeaf 5e3e 0596 1e3e 1b91 adbc b2ff 113d
00000390: d160 a13c 7f07 893d 69d7 0f3e e929 013e
000003a0: 3cd6 b23d f260 603e 8b4f 063e 97f6 353e
000003b0: 0dfe e23c b88e 6ebd 5762 cc3d 4b32 9f3c
000003c0: 56aa 1a3e fab9 1cbd cde2 b53d a2db 423e
000003d0: ac5e 463e 311d 063e c95a 153e 72e0 cb3d
000003e0: c1bd cbbc 7322 7d3d b1ec 613e f4a0 b43d
000003f0: 52fd ddbc 24b1 78bd adfc e93d 68f5 39bd

gru.weight_ih_l1 f4 [450, 150]
-0.03771201 0.0033555962 0.09925625 -0.06961672 0.067266 0.07849966 0.06440584 -0.016932262
-0.07834638 -0.0036101914 -0.057314023 0.0018016112 -0.07977495 -0.049219448 -0.00021030338 -0.07950081
0.03461055 0.032543946 -0.03757714 0.007994529 -0.010355771 -0.042532742 0.015764585 -0.024666369
0.041843433 -0.0357454 0.041047417 0.014391034 0.02335429 0.046390504 -0.04243905 0.05512157
0.012730301 0.064391844 0.058075096 -0.11345444 0.06102351 0.04477677 -0.025178047 -0.074693024
0.005103323 0.06035561 -0.040805936 0.042096037 0.0035444326 0.017074829 -0.08274258 -0.043904714
-0.03474045 0.06005777 0.0275085 -0.056557555 0.101964906 -0.080488846 -0.0050280117 0.054454785
-0.01902421 0.10986728 -0.040366426 0.04218193 0.029191075 -0.06667427 0.035514623 0.06083803
-0.10852764 0.018671691 -0.047013845 0.00018307893 -0.035518944 0.07184628 -0.056371905 -0.056004595
0.027293775 -0.00911015 -0.001943117 -0.0033456406 0.064537704 -0.028609404 -0.08291879 0.011628004
-0.063563675 -0.011564392 0.033870313 -0.098149955 0.008919054 -0.10155128 0.0041424325 0.04824826
0.02404721 -0.03609163 -0.018521318 -0.043994557 0.05045382 -0.0926621 0.019465754 -0.059016243
-0.048390396 -0.049557652 -0.061922625 0.056107286 -0.02552215 -0.0643622 0.06042335 -0.08333442
-0.05536718 0.038844537 -0.06965227 -0.07304375 -0.010273113 0.00055024325 -0.09446338 0.0033210479
-0.03527025 0.008753266 -0.026404211 -0.04837711 -0.025315717 -0.028904002 -0.014504267 0.034598522
-0.0235842 -0.07310904 0.03575461 -0.028436359 -0.043774564 0.018259821 -0.04786886 0.0013233989
-0.021631006 0.030291816 0.018820817 -0.024771271 -0.024865536 0.0011542292 0.06472808 -0.07269408
-0.0131313875 -0.049443673 -0.03904277 -0.0059667043 0.04750449 0.049147453 -0.06853465 -0.0015292312
-0.0570951 0.1089868 -0.010834244 0.021327564 -0.033388045 0.08073243 -0.0717623 0.062022474
-0.017960979 -0.007355783 -0.08926648 0.06861272 0.009481291 0.048508633 -0.017460385 -0.017642548
0.0589738 -0.0070090354 0.007974484 0.0601627 -0.03455264 -0.038403217 -0.057288263 0.027395148
-0.035134193 -0.013809842 0.033375278 0.021332636 0.09068676 -0.031042237 -0.0016227356 -0.08935169
-0.019928038 -0.033150494 0.0031735294 0.0056971195 -0.08171367 0.05188657 -0.04476341 -0.042112563
-0.027297271 0.0017607381 0.08192189 -0.026567394 -0.03468495 0.075733766 0.027007582 -0.06031015
-0.018101413 0.06551851 0.06904778 -0.08636871 0.030979723 0.0741748 -0.0026156085 0.028677514
0.0524476 -0.0447463 0.011699254 0.072220415 0.10355526 -0.08236173 0.0514513 0.03239732
-0.007358642 -0.02891617 0.028690854 -0.0371825 -0.0039011259 0.024952875 0.09211593 -0.0041341
-0.06178418 0.074093714 0.010278494 -0.062049687 -0.018408116 -0.06228615 -0.0708643 -0.008645591
-0.0029917927 -0.029506275 -0.00448023 0.017605918 0.015958225 0.065572895 0.07343279 -0.003986388
-0.08157041 -0.038548484 -0.00929314 -0.031249061 0.062252954 -0.008111223 0.08709676 -0.023158299
0.05479338 -0.044752955 0.06792166 -0.00905245 0.074403726 0.094869785 0.059293095 0.045663945
-0.0059152576 -0.07950486 0.044201784 -0.034463946 0.00829071 -0.067375876 -0.030794516 -0.0063118087
00000000: e977 1abd 90e9 5b3b dc46 cb3d 3693 8ebd
00000010: c2c2 893d 6ec4 a03d 36e7 833d 87b5 8abc
00000020: 1174 a0bd f698 6cbb 1cc2 6abd 0a24 ec3a
00000030: 0d61 a3bd 559a 49bd e284 5cb9 52d1 a2bd
00000040: cbc3 0d3d cd4c 053d 7dea 19bd 7cfb 023c
00000050: 40ab 29bc d036 2ebd bb24 813c 2011 cabc
00000060: 0564 2b3d c569 12bd 5621 283d 5fc8 6b3c
00000070: 7f51 bf3c f803 3e3d 92d4 2dbd 28c7 613d
00000080: c192 503c dfdf 833d 27e0 6d3d cd5a e8bd
00000090: caf3 793d d967 373d 3142 cebc a8f8 98bd
000000a0: c739 a73b 7237 773d 2024 27bd e56c 2c3d
000000b0: b649 683b 83e0 8b3c f174 a9bd 6ed5 33bd
000000c0: 014c 0ebd 23ff 753d 8159 e13c e5a8 67bd
000000d0: fad2 d03d 56d7 a4bd 05c2 a4bb fb0b 5f3d
000000e0: a9d8 9bbc 1902 e13d 4457 25bd f6c6 2c3d
000000f0: 1f22 ef3c 858c 88bd c877 113d 4c31 793d
00000100: bd43 debd 60f5 983c 9791 40bd e0f8 3f39
00000110: 507c 11bd 2424 933d 3ae6 66bd 1365 65bd
00000120: 3297 df3c bd42 15bc 30b0 feba 8942 5bbb
00000130: 582c 843d 455e eabc 54d1 a9bd 6283 3e3c
00000140: ac2d 82bd 9378 3dbc 99bb 0a3d d802 c9bd
00000150: 3921 123c 1efa cfbd 3ebd 873b f89f 453d
00000160: a8fe c43c d1d4 13bd 05ba 97bc a333 34bd
00000170: aaa8 4e3d a1c5 bdbd a576 9f3c 04bb 71bd
00000180: 0235 46bd f7fc 4abd 94a2 7dbd c1d0 653d
00000190: d413 d1bc 54d0 83bd 7a7e 773d 3dab aabd
000001a0: b2c8 62bd 731b 1f3d d9a5 8ebd f697 95bd
000001b0: 8f50 28bc 333e 103a 0476 c1bd f0a5 593b
000001c0: 8a77 10bd dc69 0f3c a54d d8bc 1427 46bd
000001d0: e862 cfbc 16c8 ecbc 4ea3 6dbc 2eb7 0d3d
000001e0: a733 c1bc 31ba 95bd 6d73 123d 5ef3 e8bc
000001f0: f54c 33bd 9f95 953c 2312 44bd e675 ad3a
00000200: 8233 b1bc 8b26 f83c 1d2e 9a3c 1fed cabc
00000210: cfb2 cbbc 8149 973a 2890 843d a2e0 94bd
00000220: 0825 57bc 7385 4abd 50eb 1fbd 5884 c3bb
00000230: 1194 423d d74e 493d e55b 8cbd 7c70 c8ba
00000240: 8ddc 69bd 7934 df3d 1d82 31bc 25b7 ae3c
00000250: e7c1 08bd 0b57 a53d 1df8 92bd 470b 7e3d
00000260: e722 93bc c808 f1bb 58d1 b6bd d384 8c3d
00000270: 6b57 1b3c fdb0 463d 1509 8fbc 1b87 90bc
00000280: 838e 713d 0dac e5bb 69a7 023c 2a6d 763d
00000290: 1287 0dbd b14c 1dbd 19a7 6abd ca6b e03c
000002a0: dfe8 0fbd ad42 62bc 84b4 083d c8c1 ae3c
000002b0: fbb9 b93d 4a4c febc f9b1 d4ba 05fe b6bd
000002c0: 2040 a3bc d0c8 07bd fdfa 4f3b e7ae ba3b
000002d0: 7f59 a7bd 0387 543d d659 37bd 397e 2cbd
000002e0: 879e dfbc 91c8 e63a aac6 a73d dda3 d9bc
000002f0: ce11 0ebd 4e1a 9b3d 013f dd3c c707 77bd
00000300: 6a49 94bc 922e 863d ec68 8d3d 14e2 b0bd
00000310: 30c9 fd3c f5e8 973d a16a 2bbb 1bed ea3c
00000320: 4bd3 563d e547 37bd 3aae 3f3c 4ce8 933d
00000330: c814 d43d 44ad a8bd 99be 523d 0db3 043d
00000340: c320 f1bb 9be1 ecbc 1509 eb3c ad4c 18bd
00000350: 08aa 7fbb f969 cc3c 47a7 bc3d 5877 87bb
00000360: 6911 7dbd 72be 973d 2167 283c d027 7ebd
00000370: 9ecc 96bc c31f 7fbd 4d21 91bd 3da6 0dbc
00000380: f411 44bb 25b7 f1bc e5ce 92bb 493a 903c
00000390: d3ba 823c 154b 863d ee63 963d 3fa0 82bb
000003a0: 630e a7bd 04e5 1dbd 4142 18bc 08fe ffbc
000003b0: f4fc 7e3d efe4 04bc c95f b23d 79b6 bdbc
000003c0: 066f 603d e04e 37bd 831a 8b3d ba50 14bc
000003d0: fb60 983d 174b c23d 51dd 723d 1e0a 3b3d
000003e0: c7d4 c1bb 72d3 a2bd ee0c 353d 112a 0dbd
000003f0: c2d5 073c 5dfc 89bd c844 fcbc 4ad3 cebb

gru.weight_hh_l1 f4 [450, 150]
-0.038184088 0.053730816 -0.08073011 -0.06957478 0.0054785362 0.09105227 0.111704275 0.006689701
0.050392937 -0.007473876 0.05779538 0.017826883 -0.026251929 -0.046815947 -0.027268842 -0.03926447
-0.00503441 0.057235707 0.06481331 -0.061350267 0.014726323 -0.07495541 -0.08263905 -0.04635662
0.029414637 0.0016984659 0.060267825 -0.05570463 -0.028551951 0.017853532 -0.0058415 -0.045899376
0.038985077 0.054208472 0.09095175 0.00795398 0.046640817 -0.0030171846 0.034389526 -0.007371595
0.00026907158 -0.053686682 -0.06375607 -0.097636074 0.08941667 0.011455539 -0.08163191 0.028048148
0.017196577 -0.015122666 0.034720603 -0.015006657 0.012727452 -0.055428356 -0.03159094 -0.0151879955
0.030681498 -0.07125178 0.079015315 0.012562692 -0.051312674 -0.01530202 0.05146125 0.05828098
-0.06277711 -0.090281814 0.0099801505 -0.052540947 -0.013941988 -0.04259193 0.07571904 0.03467271
-0.020354057 0.025883319 0.065772474 0.07157639 0.082751684 -0.034128 0.015689284 -0.06579873
-0.02164927 0.1134845 0.04763811 0.014725285 0.011811228 -0.0425205 -0.039112814 -0.015704114
0.077018335 -0.021570921 -0.023078369 0.056717265 0.032612655 -0.052471105 0.07739042 -0.061052814
0.08016606 -0.034225073 -0.053898763 0.05698874 -0.037652746 -0.030285766 -0.013343793 -0.041028548
-0.005900699 0.050888147 -0.045080803 -0.036543123 0.021812716 0.008177181 -0.019801598 -0.03974901
0.021411894 -0.07308594 -0.021309953 0.096622705 0.015600055 -0.017065037 0.0171181 0.022971801
0.018820917 0.0405416 0.05033797 -0.009115396 0.008596886 0.020623526 -0.057383887 -0.028277064
0.05369638 -0.08052641 0.07788901 -0.059773576 0.026736012 0.0068669626 0.007962466 0.0017718578
0.010875932 0.060656887 0.08779102 0.02485454 0.019150171 0.09049183 0.059724487 0.03502379
0.02517076 0.03058117 0.084899895 0.058094423 0.01584603 0.035064764 0.05589787 0.086787045
0.05282503 -0.0764539 -0.06932293 0.05937273 0.04187887 -0.03257647 -0.048343956 -0.00823657
-0.009568902 -0.038375847 0.10561183 -0.05066046 -0.08171174 -0.069256626 0.04849448 -0.040598862
0.032021433 0.07677484 -0.078262225 0.03323581 0.052605424 0.05129595 0.07448453 0.06201286
-0.0033638354 0.043266885 -0.019927252 0.050679293 0.047956847 -0.05448493 -0.072672136 0.0060306406
-0.012575416 0.08045137 -0.045052797 0.026953507 -0.08024076 -0.07013852 0.06989126 -0.059873477
0.029478796 0.005814307 0.038272034 -0.044348404 -0.045759067 0.050692413 0.03631892 0.07113801
0.034885664 -0.07259003 -0.05508626 0.01397928 -0.02074541 0.06030903 -0.024701579 -0.008742784
0.025827847 -0.04339594 0.0739286 0.05906492 0.046821844 -0.07287595 0.033541147 -0.05311432
-0.02033873 0.06782468 -0.06415489 -0.020508047 -0.055608522 -0.0919847 -0.051720038 0.015337837
0.023423314 0.078590214 0.07521236 -0.08495101 -0.020827804 0.05855527 0.017464861 0.04927665
0.10322507 -0.023480836 -0.0841796 0.010429534 -0.004420261 -0.052513298 0.02688865 0.06714608
-0.02837513 0.016468711 0.05574665 0.018576246 0.010185789 -0.037457485 0.011051969 0.0017893187
0.006649911 -0.030008629 -0.024014525 -0.043925196 -0.025366975 0.016429745 0.0023847364 0.021671565
00000000: eb66 1cbd d814 5c3d d455 a5bd 397d 8ebd
00000010: 4b85 b33b 9d79 ba3d 36c5 e43d 4835 db3b
00000020: d368 4e3d 6ae7 f4bb d9ba 6c3d af09 923c
00000030: 490e d7bc 14c2 3fbd e862 dfbc c8d3 20bd
00000040: b1f7 a4bb fd6f 6a3d d7bc 843d 6b4a 7bbd
00000050: ad46 713c 3982 99bd aa3e a9bd 70e0 3dbd
00000060: f7f6 f03c 0f9f de3a 65db 763d 8a2a 64bd
00000070: c8e5 e9bc 9241 923c 0e6a bfbb fc00 3cbd
00000080: d1ae 1f3d b409 5e3d e944 ba3d 6951 023c
00000090: 710a 3f3d f5bb 45bb 08dc 0c3d 6c8d f1bb
000000a0: 2d12 8d39 91e6 5bbd 8b92 82bd 6cf5 c7bd
000000b0: 1620 b73d 03b0 3b3c a12e a7bd 3bc5 e53c
000000c0: d6df 8c3c 0fc5 77bc 3137 0e3d 7bde 75bc
000000d0: ce86 503c d808 63bd 8065 01bd 12d7 78bc
000000e0: c457 fb3c 74ec 91bd c8d2 a13d c0d3 4d3c
000000f0: 3d2d 52bd 53b5 7abc 08c9 523d 09b8 6e3d
00000100: 4991 80bd ace5 b8bd c983 233c 2d35 57bd
00000110: f06c 64bc e074 2ebd 9612 9b3d f904 0e3d
00000120: 8dbd a6bc 4109 d43c b8b3 863d a496 923d
00000130: b779 a93d cdc9 0bbd d086 803c 7cc1 86bd
00000140: cf59 b1bc 906a e83d 2e20 433d 5242 713c
00000150: e183 413c fa29 2ebd c234 20bd eaa5 80bc
00000160: cabb 9d3d 80b5 b0bc d90e bdbc 5d50 683d
00000170: d994 053d f1eb 56bd de7e 9e3d 8412 7abd
00000180: 1a2e a43d 972f 0cbd f3c4 5cbd 066d 693d
00000190: c439 1abd db19 f8bc ed9f 5abc 8d0d 28bd
000001a0: a75a c1bb 1770 503d a6a6 38bd 3eae 15bd
000001b0: 95b0 b23c 95f9 053c f636 a2bc dccf 22bd
000001c0: ff67 af3c 15ae 95bd 3692 aebc 20e2 c53d
000001d0: 6097 7f3c facb 8bbc 423b 8c3c 5c2f bc3c
000001e0: 532e 9a3c f30e 263d 302f 4e3d be58 15bc
000001f0: f4d9 0c3c abf2 a83c 5e0b 6bbd 4da5 e7bc
00000200: bcf0 5b3d 08eb a4bd 4684 9f3d 23d5 74bd
00000210: 7b05 db3c 4204 e13b 0175 023c af3d e83a
00000220: f730 323c 5b73 783d c7cb b33d c09b cb3c
00000230: d2e0 9c3c c853 b93d aaa1 743d 1b75 0f3d
00000240: e932 ce3c 5d85 fa3c ffdf ad3d 6bf4 6d3d
00000250: 89cf 813c 12a0 0f3d 2af5 643d 68bd b13d
00000260: 0f5f 583d dd93 9cbd 2ef9 8dbd d230 733d
00000270: 2e89 2b3d e86e 05bd 5004 46bd aef2 06bc
00000280: e2c6 1cbc fe2f 1dbd 044b d83d 5881 4fbd
00000290: 7c58 a7bd 6bd6 8dbd 26a2 463d fe4a 26bd
000002a0: e828 033d 213c 9d3d f247 a0bd 4622 083d
000002b0: c978 573d b41b 523d 588b 983d 3201 7e3d
000002c0: cb73 5cbb 9e38 313d 7a3e a3bc 1795 4f3d
000002d0: 666e 443d 972b 5fbd 21d5 94bd ae9c c53b
000002e0: 1e09 4ebc b0c3 a43d 4889 38bd 9acd dc3c
000002f0: 4555 a4bd c9a4 8fbd 2623 8f3d e43d 75bd
00000300: 847d f13c f185 be3b 23c3 1c3d aca6 35bd
00000310: dc6d 3bbd d9a2 4f3d 26c3 143d ceb0 913d
00000320: 45e4 0e3d 15aa 94bd 21a2 61bd 5a09 653c
00000330: 47f2 a9bc 9a06 773d f75a cabc e53d 0fbc
00000340: ec94 d33c f1bf 31bd e167 973d 0fee 713d
00000350: 43c8 3f3d fc3f 95bd 7162 093d 678e 59bd
00000360: 699d a6bc aae7 8a3d a463 83bd 7e00 a8bc
00000370: c3c5 63bd 7962 bcbd 64d8 53bd 8d4b 7b3c
00000380: 40e2 bf3c e8f3 a03d f008 9a3d ccfa adbd
00000390: 129f aabc a7d7 6f3d 7812 8f3c 50d6 493d
000003a0: aa67 d33d e25a c0bc 5b66 acbd a3e0 2a3c
000003b0: d6d7 90bb 2f18 57bd 9645 dc3c e283 893d
000003c0: f672 e8bc 64e9 863c 9956 643d 362d 983c
000003d0: 4ce2 263c 056d 19bd 5113 353c 9387 ea3a
000003e0: 7fe7 d93b a8d4 f5bc 1cba c4bc e8ea 33bd
000003f0: 67ce cfbc ac97 863c 3d49 1c3b 9188 b13c

gru.bias_ih_l1 f4 [450]
-0.10205564 0.054990098 -0.011859962 0.025368826 0.013702538 -0.03497234 -0.051168013 -0.093907736
-0.013023975 0.029195907 -0.036985476 -0.05739615 0.029406102 0.005063398 -0.0662106 -0.018256688
-0.033256147 0.004616829 -0.008829114 -0.04207974 0.024897285 -0.04906971 0.03367376 -0.068652704
-0.00836588 0.0008711195 0.049425147 -0.029440388 0.057711232 -0.053850792 -0.09057833 -0.06131252
-0.0081455875 -0.00023881474 0.018409537 0.0386872 -0.0513533 0.02975425 -0.06050858 0.04873191
-0.03441358 -0.072706394 -0.089698836 -0.05742491 -0.046828244 0.03096953 0.00034548342 0.016639657
0.068696186 -0.064878084 -0.0641115 -0.060791567 -0.013812688 -0.034273084 0.05507872 -0.03546803
0.03582017 -0.03930168 -0.058749035 0.06295604 0.06687274 -0.034062196 0.03164881 -0.045786493
-0.10718718 -0.08864121 0.025986312 -0.08001055 -0.041645948 0.082846016 0.017861418 0.02691823
-0.07744396 -0.053299826 -0.097329736 0.045161493 -0.09499115 0.003950202 0.0025766077 -0.08250726
0.012463838 -0.05809774 -0.012247628 -0.03371549 -0.047895424 -0.051474106 0.04517985 0.037503377
0.0063606203 0.0026606533 0.034227617 0.04804766 -0.03445269 -0.01881444 0.061866876 -0.056669336
-0.093329206 -0.006103079 0.048161965 0.05972784 0.009827952 -0.009741204 -0.034789015 0.04087533
-0.0037041246 -0.073470086 -0.06908974 -0.045725692 0.02442389 -0.05954068 0.010521832 -0.082140945
-0.08010269 0.04533471 0.002594416 -0.08482743 -0.0075381435 0.06672436 -0.011211246 -0.06204222
-0.014819221 -0.06700366 -0.07213148 0.029755466 0.012856695 0.01765167 -0.0802729 0.04145295
0.02215985 0.043454602 0.0038267944 0.033645578 0.003641417 -0.06296291 -0.046378937 0.046444505
0.05591474 0.012233016 0.040462453 -0.050719835 -0.011842463 0.02360318 -0.053035177 -0.03528521
0.034779474 -0.022902727 -0.06056477 -0.03873089 0.030621767 0.0025538134 -0.033933952 0.015516206
0.03705519 0.08067507 -0.07916875 0.044831302 0.1120153 0.052994657 -0.0145131955 -0.066282175
-0.031510726 -0.012731333 0.0036418547 0.03597264 0.022483798 0.07323363 0.09810978 0.057342377
-0.060645428 -0.0016596972 0.10232735 -0.028973157 -0.007744455 0.12807168 0.03421323 0.021569664
0.13789062 0.03985103 0.037963793 0.0739876 0.025616001 0.06078577 0.048108816 -0.027716806
-0.052902434 0.14990787 0.10688526 0.09306165 0.07248621 0.049946737 0.043880083 -0.037936248
0.12331461 0.11950185 -0.013155949 -0.048049122 0.12985545 -0.04625175 -0.020797107 0.124593854
0.12467221 0.084424295 0.04360797 0.04338865 -0.0075211655 -0.050921045 -0.06292773 0.005341126
0.13509387 0.006806646 -0.08695173 -0.040033646 0.11854922 0.025721295 0.07207071 -0.04150451
0.10701246 0.12714478 0.0770492 0.024652472 0.020550542 0.10329449 -0.031903833 0.10567766
-0.010292446 0.040852048 -0.008357117 -0.04981997 0.10304015 0.046040457 0.041618094 -0.035700206
-0.08522015 0.08854421 0.11676686 0.036008615 0.106584914 0.05127499 -0.03691364 -0.03282077
-0.049996495 0.04011272 -0.015484063 0.034755662 0.0404674 -0.04743393 0.0054686363 -0.05969156
0.11900777 0.019646903 -0.04653649 -0.05621797 0.0061825896 0.06624679 0.12000014 0.08933119
00000000: 8c02 d1bd 4c3d 613d 4950 42bc 49d2 cf3c
00000010: 9c80 603c 283f 0fbd 8d95 51bd b352 c0bd
00000020: 8362 55bc 412c ef3c 157e 17bd 3a18 6bbd
00000030: 11e5 f03c dcea a53b 6c99 87bd 0d8f 95bc
00000040: 9937 08bd c548 973b fda7 10bc ce5b 2cbd
00000050: 64f5 cb3c 52fd 48bd 7fed 093d ca99 8cbd
00000060: 0b11 09bc d75b 643a 0672 4a3d f82c f1bc
00000070: 9d62 6c3d a692 5cbd 2281 b9bd d622 7bbd
00000080: 1275 05bc 586a 7ab9 99cf 963c 7876 1e3d
00000090: d757 52bd 2fbf f33c d8d7 77bd 1c9b 473d
000000a0: 41f5 0cbd 17e7 94bd 06b4 b7bd 6236 6bbd
000000b0: f9ce 3fbd d0b3 fd3c 0022 b539 e44f 883c
000000c0: 96b0 8c3d cdde 84bd e44c 83bd 9400 79bd
000000d0: 9d4e 62bc ef61 0cbd 399a 613d ed46 11bd
000000e0: 2cb8 123d ccfa 20bd d4a2 70bd 19ef 803d
000000f0: 93f4 883d cd84 0bbd 2fa2 013d 9e8a 3bbd
00000100: f484 dbbd 8689 b5bd 3fe1 d43c 92dc a3bd
00000110: f194 2abd 2cab a93d 1c52 923c 9f83 dc3c
00000120: f09a 9ebd eb50 5abd d054 c7bd 42fb 383d
00000130: b88a c2bd b270 813b 4edc 283b 91f9 a8bd
00000140: 2035 4c3c e5f7 6dbd 46aa 48bc 4119 0abd
00000150: fe2d 44bd 83d6 52bd 820e 393d 249d 193d
00000160: c06c d03b 5b5e 2e3b 4232 0c3d a0cd 443d
00000170: 441e 0dbd be20 9abc 1f68 7d3d 1b1e 68bd
00000180: 6223 bfbd 56fc c7bb 7b45 453d 2ea5 743d
00000190: 6b05 213c 9299 1fbc ed7e 0ebd e46c 273d
000001a0: e6c0 72bb 7c77 96bd ec7e 8dbd dd4a 3bbd
000001b0: 9c14 c83c eee0 73bd c363 2c3c 8339 a8bd
000001c0: e10c a4bd e4b0 393d 1407 2a3b 01ba adbd
000001d0: 8802 f7bb c8a6 883d 60af 37bc fc1f 7ebd
000001e0: 51cc 72bc 3739 89bd abb9 93bd bcc1 f33c
000001f0: e3a4 523c 3c9a 903c 1e66 a4bd 92ca 293d
00000200: 9388 b53c 74fd 313d f5ca 7a3b f2cf 093d
00000210: d7a4 6e3b b3f2 80bd d7f7 3dbd 983c 3e3d
00000220: db06 653d fd6c 483c f5bb 253d 9abf 4fbd
00000230: e406 42bc 755b c13c 6a3b 59bd 3987 10bd
00000240: ec74 0e3d 809e bbbc c412 78bd 48a4 1ebd
00000250: 80da fa3c e15d 273b 54fe 0abd af37 7e3c
00000260: 2fc7 173d f938 a53d 3a23 a2bd 07a1 373d
00000270: 4768 e53d ed10 593d c1c8 6dbc f3be 87bd
00000280: 6411 01bd 1597 50bc 2fac 6e3b 0c58 133d
00000290: f12f b83c 83fb 953d c8ed c83d d7df 6a3d
000002a0: 5767 78bd 328a d9ba 0091 d13d 1d59 edbc
000002b0: 32c5 fdbb 3925 033e 2c23 0c3d ddb2 b03c
000002c0: 3333 0d3e d53a 233d ec7f 1b3d d086 973d
000002d0: a6d8 d13c 80fa 783d c00d 453d 5b0e e3bc
000002e0: 39b0 58bd 7381 193e a9e6 da3d 1b97 be3d
000002f0: a673 943d f394 4c3d 9abb 333d 0a63 1bbd
00000300: 5f8c fc3d 63bd f43d 0d8c 57bc 28cf 44bd
00000310: d4f8 043e 7a72 3dbd b25e aabc 102b ff3d
00000320: 2554 ff3d a5e6 ac3d 459e 323d 4cb8 313d
00000330: 1c74 f6bb 9692 50bd 41e0 80bd 9d04 af3b
00000340: 0c56 0a3e 490a df3b c013 b2bd 52fa 23bd
00000350: efc9 f23d 77b5 d23c cf99 933d a200 2abd
00000360: 5929 db3d 3e32 023e f9cb 9d3d fbf3 c93c
00000370: 9c59 a83c 108c d33d 98ad 02bd 876d d83d
00000380: a6a1 28bc 7a54 273d 4aec 08bc 0610 4cbd
00000390: b706 d33d eb94 3c3d bc77 2a3d 613a 12bd
000003a0: e787 aebd ab56 b53d 7723 ef3d c57d 133d
000003b0: 3149 da3d b905 523d c232 17bd 126f 06bd
000003c0: 20c9 4cbd 3c4d 243d deb0 7dbc f45b 0e3d
000003d0: 25c1 253d 154a 42bd 3f32 b33b 237f 74bd
000003e0: 59ba f33d 8bf2 a03c 0c9d 3ebd d044 66bd
000003f0: 5297 ca3b 66ac 873d a2c2 f53d 45f3 b63d
