results/gru/gru_hidden_1_layers_1_bidirectional_False_length_64_batch_64_lr_0.001.pth (torch, 3590 bytes, 6 tensors)

gru.weight_ih_l0 f4 [3, 50]
00000000: 3a98 0240 ff45 d7be e172 803f 8ccd 3bbe
00000010: 25e8 8bbe 311b 213f e655 f9be ea64 57bd
00000020: 545f 1a3f ebe3 233e c71e 2e3f 196d 29bf
00000030: c759 163d fb07 a03f e7fd 8c3f 002c 903f
00000040: ce15 00bf b02d b33d 665a bc3e ddb8 6ebe
00000050: 30dc 343f 0461 3c3f 63fa c3bf 31e6 d03d
00000060: bf47 533e f065 b4bf ae55 29bf 5c40 393f
00000070: 2825 8f3f 8977 8f3e f86a b33e 580c 9b3f
00000080: 70f0 b13f cd23 12be 448c 513d f369 1abd
00000090: 7ff5 553f 185f 03bf 0779 b83e 2416 a3bf
000000a0: a10b 6ebf b640 67bf 12d1 cfbe d564 41be
000000b0: 1136 90be c6f8 45be 68c6 993f b9b9 43be
000000c0: 8e92 883f f70d bdbf ef22 fc3b c498 18be
000000d0: f2be 463f db74 463d 8491 9a3e d4bb babc
000000e0: b831 a43e 1ef5 393f 39c0 733e bb8e 0dbe
000000f0: 9940 b0be 44e2 d3be 7c47 1d3e c6c1 413e
00000100: 9dcf 163e 3ecb 283e f707 cebe 1d36 5f3d
00000110: 4eaf 333f 3a44 3dbe 4308 b9be bf44 57be
00000120: e791 1fbe b420 a23d 4db5 583e bb0a 5c3d
00000130: 5491 b9bd 5a3a e8bd 3831 0dbf 9023 263f
00000140: b8a1 f13e f09e 3bbf f8a8 943e e919 4e3e
00000150: 4d50 353e 10c5 fdbe e76d 0e3d 503c fe3c
00000160: 451e 5fbe 65c4 303e fb21 83bd 7c99 993b
00000170: 7714 883d 8d55 82bd 4b12 f73e 0985 2fbe
00000180: e27a 9d3e e161 cc3e a100 dcbd e508 143f
00000190: d20a eb3e 12a1 cd3f 1787 43bf f266 8f3d
000001a0: 856d cb3e 7e76 2cbf 1ea6 54be e86a 8abd
000001b0: 7d25 f8be 54ae a53e eedd 88bd d0d0 37bf
000001c0: 2348 45be 3811 98be 26e9 88bc d348 c1be
000001d0: 9e11 8dbe a8ee ab3e f5d7 a03f 5ee6 6abe
000001e0: a74f 583f 312a 40bf b9f1 303f 8c1a d0bd
000001f0: 8102 34be 21eb 783e 5498 4f3e 9fbb e5bd
00000200: 0f85 c23e 7200 cfbe 98c1 07bd 0ec5 86be
00000210: a36b 3d3f 204b 14bf 9442 15bf 96cb df3e
00000220: 64fa c8bd a678 163e 455f a1be 48f5 ab3d
00000230: d72c b03e 232a 37bf f34d a33f f7c7 813e
00000240: b017 b3bc 3a39 b1bd c8d5 773f c2a2 d43e
00000250: 3aaf b13f 6e98 28bd
2.0405412 -0.4204559 1.0035058 -0.18340129 -0.2732555 0.62932116 -0.48698348 -0.052586474
0.6030171 0.16004913 0.6801571 -0.66182095 0.036706712 1.2502435 1.1014985 1.1263428
-0.5003327 0.087489486 0.3678772 -0.23312707 0.7064848 0.73585534 -1.5310787 0.102001555
0.20632838 -1.4093609 -0.6614636 0.7236383 1.1183214 0.28020886 0.35042548 1.2113142
1.3901501 -0.1427147 0.05115916 -0.037698697 0.8357772 -0.51316977 0.36029837 -1.2741132
-0.92986494 -0.90333116 -0.40589195 -0.1888612 -0.2816625 -0.19333181 1.2013674 -0.19113816
1.0669725 -1.4769887 0.007694594 -0.14902025 0.7763511 0.048451286 0.30189145 -0.022794642
0.32069182 0.72639644 0.23803796 -0.13823979 -0.34424284 -0.41383564 0.153593 0.18921575
0.14727636 0.1648378 -0.40240452 0.054494966 0.7018937 -0.18483058 -0.36139116 -0.21022318
-0.15583001 0.07916394 0.21162911 0.05372117 -0.09060922 -0.11339255 -0.55153227 0.64898014
0.47193694 -0.73289394 0.29035163 0.20127071 0.17706414 -0.4956441 0.03477278 0.031034619
-0.2178889 0.17262419 -0.06402966 0.004687486 0.06644528 -0.06363974 0.48256144 -0.17140593
0.30757815 0.39918426 -0.107423075 0.5782607 0.45906693 1.606478 -0.76378006 0.07002057
0.39731994 -0.67368305 -0.20766494 -0.06758672 -0.484661 0.32359564 -0.06682955 -0.71803
-0.19265799 -0.29700637 -0.016712736 -0.37750873 -0.27552503 0.33580518 1.2565905 -0.2293944
0.8449654 -0.7506438 0.6911884 -0.101613134 -0.1757908 0.24308445 0.20272952 -0.112174265
0.3799214 -0.40430027 -0.03314361 -0.26322216 0.73992366 -0.5792713 -0.58304715 0.4371001
-0.09813383 0.14694461 -0.31517997 0.08396393 0.3440921 -0.7154867 1.2758163 0.25347874
-0.021861881 -0.08653493 0.9681058 0.41530424 1.38816 -0.041160993

gru.weight_hh_l0 f4 [3, 1]
00000000: ac38 babe f995 b7be a5cf e93f
-0.36371362 -0.35856608 1.8266493

gru.bias_ih_l0 f4 [3]
00000000: fa83 2e3e 8535 853f f82a d83d
0.17042533 1.0406958 0.10555071

gru.bias_hh_l0 f4 [3]
00000000: bcd0 913f 4422 2540 e522 8cbd
1.1391826 2.5802164 -0.06842593

fc.weight f4 [2, 1]
00000000: 7067 d43f 67c7 89bf
1.6594067 -1.0763978

fc.bias f4 [2]
00000000: b90a 043e c563 053e
0.12894715 0.1302634
