results/gru/gru_hidden_100_layers_1_bidirectional_False_length_64_batch_64_lr_0.01.pth (torch, 186125 bytes, 6 tensors)

gru.weight_ih_l0 f4 [300, 50]
0	0xbe4703be	-0.19435021
1	0x3f14feb9	0.58201176
2	0xbf1ce175	-0.6128152
3	0xbd086dd4	-0.033307865
4	0xbef2f38a	-0.4745143
5	0xbf183534	-0.5945618
6	0x3f317be2	0.69329655
7	0x3d3b5fb3	0.045745563
8	0xbe0de289	-0.13855948
9	0x3e7d8284	0.24756819
10	0xbecbca5a	-0.3980282
11	0xbec951a8	-0.3932011
12	0xbdf07436	-0.117409155
13	0xbe2b1232	-0.1670616
14	0xbe83c8ca	-0.25739127
15	0xbea0e593	-0.3142515
16	0xbe83da74	-0.25752604
17	0xbcc1a9c7	-0.023640526
18	0x3fa66f1b	1.3002657
19	0x3d88e800	0.066848755
20	0x3f122d68	0.57100534
21	0xbd6ea834	-0.05826588
22	0x3f431090	0.7619715
23	0x3f21158b	0.62923497
24	0xbe532a3c	-0.2062158
25	0xbc8c316d	-0.017113412
26	0xbe29a6e4	-0.1656757
27	0x3d12b717	0.03581914
28	0x3dd329bb	0.10310694
29	0xbf2b5f99	-0.66942745
30	0xbe586f62	-0.21136239
31	0x3dbc44a3	0.09192779
32	0x3dd42fe6	0.103606984
33	0x3b60fa0a	0.0034328722
34	0x3ed37cdb	0.41306195
35	0xbde165c2	-0.11005737
36	0x3ec962be	0.39333147
37	0xbea7f42b	-0.32803473
38	0x3c856676	0.016284209
39	0x3eded2ea	0.4352029
40	0x3effcea8	0.49962354
41	0xbe1dd491	-0.15413119
42	0x3f3039bb	0.6883809
43	0xbcb953ff	-0.02262306
44	0x3efd01c8	0.4941542
45	0x3e854f76	0.26037186
46	0x3ecc10d0	0.39856577
47	0xbe152cbd	-0.14567848
48	0x3ebd6a39	0.36995104
49	0x3f3f2350	0.7466326
50	0xbf3be1f7	-0.7339167
51	0xbe44eeda	-0.1923174
52	0xbe9e3204	-0.30897534
53	0x3e058226	0.13037929
54	0xbe35393d	-0.17697616
55	0x3ef3961c	0.47575462
56	0x3e24ac9b	0.16081469
57	0xbd54f8c2	-0.051995046
58	0xbe94a160	-0.2902937
59	0xbefd639d	-0.4949006
60	0xbea5b447	-0.32364103
61	0x3f063386	0.5242237
62	0x3cae49d1	0.021275433
63	0xbe5ecb64	-0.21757275
64	0xbf1e870a	-0.61924803
65	0x3ec6347b	0.38711914
66	0xbe864cce	-0.26230472
67	0xbe68bdc7	-0.22728644
68	0x3daacee7	0.08340245
69	0xbe4b105f	-0.19830464
70	0x3f60af4f	0.877675
71	0xbdffb55e	-0.12485765
72	0x3e82bfe2	0.2553702
73	0xbe1fc9d6	-0.15604338
74	0x3f6d6598	0.92733145
75	0x3edbed6c	0.42954576
76	0xbf144982	-0.57924664
77	0x3e2d91f4	0.16950208
78	0xbea50734	-0.32232058
79	0xbf0d0860	-0.55090904
80	0x3e74b0dd	0.23895593
81	0x3db11061	0.08645702
82	0x3cd9932e	0.026559439
83	0xbef9bca0	-0.48776722
84	0xbe8b9614	-0.27262938
85	0xbe27dfd7	-0.16393982
86	0xbe37710d	-0.17914219
87	0xbf1347f6	-0.5753168
88	0xbf409c47	-0.7523846
89	0x3d89b0f8	0.06723207
90	0x3e37df8d	0.17956372
91	0x3eb77ef8	0.35839057
92	0x3d25edf3	0.04051013
93	0x3f21d714	0.6321881
94	0x3f323bb9	0.6962238
95	0x3f468e94	0.77561307
96	0x3ea8544c	0.32876813
97	0xbe14819f	-0.14502572
98	0xbda3e443	-0.08002522
99	0x3f17b8ca	0.5926634
100	0xbf0ae3cf	-0.5425386
101	0x3f0b32eb	0.5437457
102	0xbf1888ac	-0.59583545
103	0xbef4b67d	-0.47795478
104	0xbe6385ed	-0.22219057
105	0x3e4327c7	0.19058143
106	0x3e3f8f87	0.18707095
107	0xbf149a44	-0.5804789
108	0xbeecf7c1	-0.4628277
109	0x3f8af03c	1.0854564
110	0x3c4ddf47	0.0125654405
111	0x3f61bd22	0.8817922
112	0xbe025776	-0.12728676
113	0xbe670d25	-0.22563608
114	0x3f1a7c35	0.60345775
115	0x3f42a1a8	0.7602792
116	0x3e1570b0	0.14593768
117	0xbe7cdb91	-0.24693133
118	0xbf215dc6	-0.6303371
119	0xbf1e7320	-0.61894417
120	0x3f3e108b	0.7424399
121	0x3f159095	0.5842374
122	0x3ec37182	0.38172537
123	0xbec25e34	-0.37962496
124	0x3ec69a96	0.38789815
125	0xbe3d033c	-0.18458265
126	0x3e9996f5	0.29997984
127	0x3f0e7402	0.55645764
128	0x3e047741	0.12936117
129	0xbd66c511	-0.05634028
130	0x3f00b2ff	0.50273126
131	0x3e15c470	0.14625716
132	0x3ea695d6	0.3253619
133	0x3f0072ab	0.5017497
134	0xbe8b4ea7	-0.27208444
135	0x3e5c71ee	0.21527836
136	0x3f116624	0.5679648
137	0xbf812e1d	-1.0092198
138	0xbf3fee17	-0.7497267
139	0x3e00c586	0.12575349
140	0x3f001264	0.5002806
141	0x3ee1206f	0.43970057
142	0x3d719ed2	0.058989353
143	0x3ee7efca	0.45300132
144	0x3f844784	1.0334325
145	0x3f1f6f5d	0.622793
146	0xbcf80e69	-0.030280309
147	0x3f787d1b	0.97065896
148	0xbf103743	-0.5633432
149	0xbecd12e8	-0.40053487
150	0xbeb016bf	-0.34392354
151	0x3d63854e	0.05554705
152	0xbebc8c63	-0.36825857
153	0x3d59a78c	0.0531383
154	0x3e8e0a9c	0.2774247
155	0xbeb7ae80	-0.3587532
156	0xbe384ec9	-0.17998804
157	0xbde82bcd	-0.11336479
158	0xbe3d65fe	-0.18495938
159	0xbf7d822f	-0.9902677
160	0xbd169e18	-0.036771864
161	0xbee38b7b	-0.44442353
162	0x3d39e310	0.04538256
163	0xbf179ed8	-0.5922675
164	0xbdabee0a	-0.08395012
165	0x3d9ceffd	0.07662962
166	0xbf628e93	-0.884988
167	0xbe0758a7	-0.13217412
168	0x3f3e7d28	0.74409723
169	0xbf007d00	-0.50190735
170	0x3e9cde0e	0.30638164
171	0xbeb0b04c	-0.34509504
172	0x3e8aa9bd	0.27082625
173	0xbf16e491	-0.58942515
174	0x3d970a66	0.0737503
175	0x3dff07e2	0.124526754
176	0x3e97f17a	0.2967642
177	0x3f2671a0	0.6501713
178	0xbe01415b	-0.12622587
179	0xbf082dfa	-0.53195155
180	0x3ec64a2f	0.38728473
181	0xbebc7566	-0.36808318
182	0x3df09836	0.11747782
183	0xbe71c70b	-0.23611085
184	0xbe91bc59	-0.2846401
185	0xbdf4c5f4	-0.11951819
186	0xbcd2404c	-0.025665425
187	0xbea17eb9	-0.31541994
188	0x3f128c71	0.57245547
189	0x3e036d82	0.12834743
190	0x3ea322fb	0.31862625
191	0xbe87f210	-0.26551867
192	0x3f368759	0.71300274
193	0x3e9a5468	0.30142522
194	0xbe03c728	-0.12868941
195	0x3eb39b63	0.35079488
196	0x3f0a031f	0.5391101
197	0x3ec06772	0.37578923
198	0x3d930544	0.07178739
199	0x3eece0bb	0.46265206
200	0xbe99587b	-0.29950318
201	0x3ea11073	0.31457862
202	0xbf89e5c6	-1.0773246
203	0x3efb7225	0.49110523
204	0xbed7caf4	-0.42147028
205	0xbe95eab7	-0.29280636
206	0xbf00f21d	-0.50369436
207	0x3dd45b67	0.10368996
208	0xbf6b7607	-0.9197697
209	0x3e185343	0.14875512
210	0x3ed5b022	0.4173594
211	0xbe5d0b09	-0.21586241
212	0xbe7065d8	-0.2347635
213	0x3e29aec2	0.16570571
214	0xbf6902e5	-0.9102004
215	0x3da4c83d	0.08046005
216	0xbecfc0f4	-0.405769
217	0xbf079f12	-0.529771
218	0x3e4a3726	0.197476
219	0xbf877c62	-1.0584834
220	0x3f491512	0.78547776
221	0xbe417605	-0.18892677
222	0xbdc4e102	-0.09613229
223	0x3f1eb3b9	0.61992985
224	0xbf06b5e0	-0.5262127
225	0x3e275979	0.16342725
226	0xbee7a5ab	-0.45243582
227	0x3e323ae2	0.17405275
228	0xbeaba4cc	-0.33524168
229	0xbe653212	-0.22382382
230	0x3f7c48f4	0.9854882
231	0xbdabc0f6	-0.08386414
232	0xbe53f677	-0.20699488
233	0xbe6b2d88	-0.22966588
234	0x3e42e956	0.19034323
235	0x3e387beb	0.18016021
236	0x3d11dcd3	0.035610985
237	0x3e6d24a0	0.23158503
238	0xbe4e6ca3	-0.20158629
239	0x3ee9719c	0.4559449
240	0x3ec0a5ea	0.37626582
241	0x3e180128	0.14844191
242	0x3f5f9ab0	0.8734541
243	0xbebf55f9	-0.3737028
244	0xbf20d90a	-0.62831175
245	0xbefe81f3	-0.49708518
246	0x3ce883ae	0.028383102
247	0x3f0af811	0.5428477
248	0x3d7a124b	0.0610526
249	0x3d4eba48	0.05047062
250	0xbf030cdf	-0.51191515
251	0x3d887eaf	0.06664788
252	0xbd1ff1bb	-0.03904889
253	0x3f0e4d26	0.5558647
254	0xbe803c65	-0.25046077
255	0x3f2198b9	0.6312366

gru.weight_hh_l0 f4 [300, 100]
0	0x3dcf246e	0.1011437
1	0x3f15ac87	0.5846638
2	0x3ec3d132	0.3824554
3	0x3ea492c9	0.32143238
4	0xbe623649	-0.2209102
5	0x3eb8f98a	0.36127883
6	0xbe56e272	-0.2098482
7	0x3e29c78b	0.16580026
8	0x3e995970	0.29951048
9	0xbe8ddc12	-0.27706963
10	0x3e92f4b3	0.28702316
11	0xbbc5ec61	-0.0060401415
12	0x3ef993f3	0.4874569
13	0x3f80aa61	1.0051996
14	0x3eec8abd	0.461996
15	0x3e517135	0.20453341
16	0xbdc36635	-0.09540979
17	0x3dae8483	0.08521368
18	0xbeb66807	-0.35626242
19	0xbcc38cb9	-0.023870813
20	0xbd3e9bc1	-0.046535257
21	0x3e990fda	0.29894906
22	0x3d4343ff	0.047672268
23	0xbf06397c	-0.52431464
24	0xbf24ad8f	-0.6432733
25	0x3efe1629	0.49626282
26	0xbf00ee70	-0.50363827
27	0x3ce11bf6	0.027479153
28	0x3f106421	0.56402785
29	0x3e3f1a20	0.1866231
30	0xbe899729	-0.2687314
31	0x3dfc8ce5	0.12331561
32	0x3df1f142	0.118135944
33	0x3e671ff2	0.2257078
34	0xbeba5dd4	-0.3639971
35	0x3ba384a4	0.004990177
36	0x3e1d8aee	0.15385029
37	0x3f45fce6	0.7733902
38	0xbd89c43a	-0.0672688
39	0xbe9d6474	-0.30740702
40	0xbe23792a	-0.15964189
41	0x3e443f1f	0.19164704
42	0xbe264835	-0.16238482
43	0xbd5a3dec	-0.05328171
44	0x3e4e70ee	0.20160267
45	0xbf857db2	-1.0428984
46	0xbd8cadbf	-0.06869077
47	0xbe6dda38	-0.23227775
48	0x3df2253d	0.11823509
49	0xbe9356e9	-0.28777245
50	0x3edc4a7b	0.43025574
51	0x3f18228d	0.5942772
52	0xbe997088	-0.29968667
53	0x3f46e939	0.7769962
54	0x3bebaeb4	0.007192457
55	0xbe76afd0	-0.24090505
56	0x3dce9d05	0.10088543
57	0x3f2ff181	0.6872788
58	0x3ea9f367	0.33193514
59	0xbe054780	-0.13015556
60	0xbe8f57f8	-0.27996802
61	0xbecfdf00	-0.40599823
62	0xbe016f44	-0.126401
63	0x3dd667af	0.10468995
64	0x3e4f9240	0.20270634
65	0xbd156e25	-0.036481995
66	0xbebfa28c	-0.374287
67	0xbf21eece	-0.6325501
68	0x3ed49b76	0.41524857
69	0x3e806d3b	0.25083336
70	0xbe3ea8eb	-0.18619125
71	0x3db38daa	0.08767255
72	0x3e3c0063	0.18359523
73	0x3e0517de	0.12997386
74	0x3f42ccb0	0.7609358
75	0x3dd51e81	0.10406209
76	0x3d9ff7c7	0.07810932
77	0x3e85f03e	0.26159853
78	0x3c08f5c6	0.008359378
79	0xbef9d436	-0.48794717
80	0xbe817776	-0.25286454
81	0xbf49f645	-0.788914
82	0xbe58e1e0	-0.21179914
83	0xbba8dbc8	-0.005153153
84	0xbe31f1a5	-0.17377336
85	0x3e90b0ad	0.28259793
86	0x3dedacca	0.116052225
87	0x3db84c6e	0.08998953
88	0x3e5a3664	0.21309811
89	0xbd994c3f	-0.07485246
90	0xbe37e39f	-0.17957924
91	0x3e0a8897	0.13528667
92	0x3eb9af0e	0.3626637
93	0x3c86e830	0.016468138
94	0xbe2eaea1	-0.17058803
95	0x3b41d3ab	0.0029575627
96	0x3f3a80a9	0.7285257
97	0xbd7f9561	-0.06239832
98	0x3d3985bf	0.045293566
99	0x3e9c8edc	0.30577743
100	0xbec27383	-0.37978753
101	0xbe6d7548	-0.2318927
102	0x3dfc61c0	0.12323332
103	0xbef30fc4	-0.47472966
104	0x3e529e50	0.20568204
105	0xbf1f164c	-0.621434
106	0xbdff902e	-0.12478672
107	0x3d82e7a5	0.06391839
108	0xbf1beab1	-0.60904986
109	0xbf0cd5fa	-0.55014
110	0xbe7bde2b	-0.24596469
111	0xbde625c8	-0.11237675
112	0x3e03286c	0.12808388
113	0x3da731e0	0.0816381
114	0xbe288002	-0.16455081
115	0x3e54062e	0.20705482
116	0xbef84723	-0.48491773
117	0x3e046bbb	0.12931721
118	0x3e160c11	0.1465304
119	0x3e446873	0.19180469
120	0xbe4e8dab	-0.2017123
121	0x3e94abfb	0.2903746
122	0xbed3cd8d	-0.4136776
123	0x3f16bb22	0.5887929
124	0x3ed8784b	0.42279276
125	0xbe3bcebd	-0.18340583
126	0x3d3470df	0.044052955
127	0x3ece2b98	0.40267634
128	0x3e01a858	0.12661874
129	0x3e997795	0.29974046
130	0xbf58bed7	-0.846662
131	0x3ec87e25	0.3915874
132	0x3de86355	0.11347071
133	0xbf0085b4	-0.50204015
134	0x3e3bd67b	0.18343537
135	0x3d7fd662	0.06246031
136	0x3ed7153a	0.42008382
137	0xbd88bf17	-0.066770725
138	0x3eb525e8	0.35380483
139	0xbe78cda5	-0.24297197
140	0xbe2e86b9	-0.1704358
141	0xbee4a048	-0.44653535
142	0xbd740486	-0.059574626
143	0x3d9b26c1	0.07575751
144	0xbe834e11	-0.25645497
145	0x3e98890b	0.29792055
146	0x3e921557	0.28531906
147	0x3f0184f8	0.5059352
148	0xbee50091	-0.44726995
149	0xbe1611ee	-0.14655277
150	0x3e7914d0	0.24324346
151	0x3ecde795	0.40215746
152	0xbe83abf2	-0.2571712
153	0xbe9cf472	-0.30655247
154	0x3e5b347b	0.21406738
155	0xbe7ee262	-0.24891046
156	0x3d7cdc94	0.061733797
157	0xbeb4f5f1	-0.35343888
158	0xbe10f4d0	-0.14155889
159	0x3eb3c734	0.35112917
160	0xbd146395	-0.03622778
161	0xbe1acf62	-0.15118173
162	0x3d2e09dd	0.042489875
163	0x3ee1a445	0.4407064
164	0x3c391872	0.011297332
165	0xbef52f5b	-0.47887692
166	0x3d11bfe7	0.035583403
167	0x3db866f2	0.0900401
168	0x3c5c89f4	0.013460625
169	0xbeb68bea	-0.3565362
170	0x3c1de16e	0.009636266
171	0x3cb01a8b	0.021497032
172	0xbe4f2435	-0.20228656
173	0xbde555fe	-0.11198042
174	0x3e724881	0.2366047
175	0x3d415241	0.047197584
176	0x3e6b77d5	0.22994931
177	0xbe05f038	-0.13079917
178	0x3d9c4073	0.0762948
179	0x3e1ec187	0.15503512
180	0x3eeac7e6	0.45855635
181	0x3ed0144c	0.40640485
182	0xbe0869ea	-0.13321653
183	0xbed46f2b	-0.41491064
184	0xbd7c6dc2	-0.06162811
185	0x3e9a0125	0.30078998
186	0x3e744d8d	0.23857708
187	0x3eed4a3d	0.46345702
188	0xbf68643b	-0.9077794
189	0xbea849d2	-0.3286882
190	0x3f1376c0	0.57603073
191	0x3efaffb1	0.49023202
192	0x3e93c05f	0.28857705
193	0x3e3bfa63	0.18357234
194	0x3e3ee6fa	0.18642798
195	0xbf05dadf	-0.52287096
196	0xbed8c67a	-0.42338926
197	0xbe30f224	-0.1727987
198	0x3dc9d168	0.09854394
199	0x3e3459d0	0.17612386
200	0xbdeb2f38	-0.11483616
201	0xbdc864c3	-0.09784844
202	0x3df8d19e	0.12149356
203	0x3e6e4662	0.23269036
204	0xbcabea8b	-0.020985862
205	0xbecb353c	-0.39689052
206	0x3e7bac2a	0.24577394
207	0xbe99549f	-0.29947373
208	0x3e6d97b8	0.23202407
209	0xbf1bea3e	-0.609043
210	0xbeb61350	-0.3556161
211	0xbee2d2ee	-0.44301552
212	0xbdbf0926	-0.09327917
213	0x3d9c9639	0.0764584
214	0xbdf80207	-0.12109762
215	0x3e7e9f26	0.24865398
216	0x3ed02b77	0.4065816
217	0xbf0c0e0a	-0.5470892
218	0xbefb7c44	-0.49118245
219	0x3e30ee3f	0.17278384
220	0xbd5e4395	-0.05426367
221	0x3e42dc1c	0.19029278
222	0xbe2c247b	-0.16810791
223	0x3e9b9ab4	0.30391467
224	0x3e82ff54	0.25585425
225	0x3e96a6aa	0.2942403
226	0x3e386e3b	0.180108
227	0x3e14ea2b	0.14542453
228	0x3ce83340	0.02834475
229	0xbf5fc63a	-0.87411845
230	0xbea2d17d	-0.31800452
231	0x3e888134	0.26661074
232	0xbf3183af	-0.6934156
233	0xbea4f7b7	-0.3222024
234	0xbe978609	-0.29594448
235	0x3eb483d1	0.35256818
236	0xbda705ca	-0.08155401
237	0xbecd8606	-0.40141314
238	0xbeed383a	-0.4633196
239	0xbe0fe668	-0.14052737
240	0x3d36bf11	0.04461581
241	0xbe90e769	-0.28301552
242	0x3d1cb74b	0.03826074
243	0xbeacad30	-0.33725882
244	0xbecf27be	-0.40460008
245	0x3ea5f4d3	0.3241335
246	0xbf1811d3	-0.594022
247	0x3f44c854	0.76868176
248	0xbd4941f2	-0.049135156
249	0x3dec680d	0.115432836
250	0xbc5b1f57	-0.013374171
251	0x3ec09025	0.37609974
252	0xbe0292d1	-0.12751319
253	0xbd51579e	-0.05110895
254	0xbef69c48	-0.48166108
255	0xbe440d93	-0.19145803

gru.bias_ih_l0 f4 [300]
0	0xbe9e4f8f	-0.30920073
1	0xbf1ba242	-0.6079446
2	0xbf088bc8	-0.5333829
3	0xbecc5cec	-0.39914644
4	0xbee41f3c	-0.4455508
5	0xbf3d803a	-0.74023783
6	0xbe770bc5	-0.24125583
7	0xbece6e79	-0.4031866
8	0xbedca8a4	-0.43097413
9	0xbeac90bf	-0.33704183
10	0xbedae173	-0.4275013
11	0xbf16c972	-0.5890113
12	0xbf1af4e7	-0.6052994
13	0xbf58816e	-0.84572494
14	0xbea77027	-0.32702753
15	0xbebbb20c	-0.36659276
16	0xbeafde71	-0.34349397
17	0xbe82997b	-0.2550772
18	0xbf345d0e	-0.7045449
19	0xbee547df	-0.44781396
20	0xbef1e2c6	-0.47243327
21	0xbeedb8cc	-0.4643005
22	0xbf047e40	-0.5175514
23	0xbf54c890	-0.83118534
24	0xbf28f2e2	-0.6599561
25	0xbf62a876	-0.885383
26	0xbf2d67b5	-0.6773637
27	0xbef4665a	-0.47734338
28	0xbf1f36f8	-0.6219325
29	0xbf13d3a4	-0.5774481
30	0xbf16a189	-0.58840233
31	0xbefd530e	-0.49477428
32	0xbf16b85f	-0.5887508
33	0xbef802e6	-0.4843971
34	0xbee0fe1b	-0.43943867
35	0xbf1b7c2a	-0.60736334
36	0xbe9f087c	-0.3106116
37	0xbebdb8a3	-0.3705493
38	0xbf37bc05	-0.7177127
39	0x3dc2f38a	0.09519108
40	0xbf00ab9d	-0.5026186
41	0xbf05422a	-0.52054083
42	0xbecc3ef4	-0.3989178
43	0xbecbe196	-0.39820546
44	0xbe0bf1c4	-0.13666445
45	0xbf519d0a	-0.8188025
46	0xbdafba7f	-0.08580493
47	0xbe485da6	-0.19566974
48	0xbf0f574e	-0.5599259
49	0xbec16bb4	-0.37777483
50	0xbe9dd17f	-0.30823895
51	0xbe2dcc41	-0.16972448
52	0xbf186573	-0.595298
53	0xbed83226	-0.4222576
54	0xbeda5d64	-0.42649376
55	0xbeee385b	-0.4652737
56	0xbeee8ee6	-0.46593398
57	0xbf0341c1	-0.5127221
58	0xbf4de193	-0.80422324
59	0xbf23e8ea	-0.64027274
60	0xbee3fe42	-0.4452992
61	0xbf415dd6	-0.7553381
62	0xbf08cd2c	-0.5343807
63	0xbeff4044	-0.49853718
64	0xbee11174	-0.43958628
65	0xbea040e3	-0.31299505
66	0xbf31f8c9	-0.6952024
67	0xbf0356f0	-0.5130453
68	0xbf1785cb	-0.59188527
69	0xbf2da094	-0.6782315
70	0xbf03cc81	-0.51483923
71	0xbea2fa24	-0.31831467
72	0xbe9003b7	-0.28127834
73	0xbee55032	-0.44787747
74	0xbf1b5be8	-0.6068711
75	0xbe924627	-0.28569147
76	0xbf51337c	-0.81719184
77	0xbe4ee81c	-0.2020573
78	0xbf34db2f	-0.7064695
79	0xbf08cecd	-0.5344055
80	0xbf231ce5	-0.63715965
81	0xbf0e0f2c	-0.554919
82	0xbf18f25f	-0.5974483
83	0xbebdf7fa	-0.37103254
84	0xbe5f1ab4	-0.2178753
85	0xbee7d7b4	-0.45281756
86	0xbf2e102b	-0.6799342
87	0xbead683b	-0.33868584
88	0xbf0a5935	-0.5404237
89	0xbef8161a	-0.48454362
90	0xbeb71d12	-0.35764366
91	0xbe246da3	-0.16057448
92	0xbf2652ef	-0.64970297
93	0xbee4755d	-0.4462079
94	0xbf07d7d8	-0.53063726
95	0xbeaf5608	-0.34245324
96	0xbf41c009	-0.7568365
97	0xbf202902	-0.6256257
98	0xbeb069f1	-0.34455827
99	0xbeeaa406	-0.45828265
100	0x3f9a2757	1.2043256
101	0x3e1fff95	0.1562484
102	0xbddd1047	-0.1079412
103	0x3d0e5e67	0.034757998
104	0x3e94d195	0.29066148
105	0xbdee2535	-0.116281904
106	0x3ea49e77	0.3215215
107	0x3f1e3ade	0.61808574
108	0xbdb20681	-0.08692647
109	0x3c8a4096	0.0168765
110	0x3e94ccff	0.2906265
111	0xbc8d3a05	-0.01723958
112	0x3e63362b	0.22188632
113	0x3ed58940	0.41706276
114	0xbea0b570	-0.31388426
115	0x3ed4033c	0.41408718
116	0xbec7bb12	-0.3900991
117	0xbeda470c	-0.4263233
118	0x3eaa24b3	0.33231124
119	0x3f920bdd	1.140987
120	0x3e51ea67	0.20499574
121	0x3e986ba0	0.2976961
122	0x3f845a8d	1.0340134
123	0x3fccdbbc	1.6004558
124	0x3e76b3ba	0.24091998
125	0x3e03cfa4	0.12872177
126	0x3f6bb6d5	0.92075855
127	0x3e8250f6	0.25452393
128	0x3f6019c4	0.87539315
129	0xbe3f56e9	-0.18685497
130	0x3f5690cb	0.83814687
131	0xbe5e73e6	-0.21723899
132	0xbe60eb5f	-0.21964787
133	0x3f164d9c	0.5871217
134	0xbda878c0	-0.08226156
135	0x3f29f0a4	0.66382813
136	0x3f102f05	0.56321746
137	0x3f8975a5	1.0739027
138	0x3f357f60	0.70897484
139	0xbf016325	-0.5054191
140	0x3f97cb0c	1.185884
141	0x3f7254d1	0.9466067
142	0x3f2802e4	0.6562941
143	0x3e461dc8	0.19347298
144	0xbe5f9eb3	-0.21837883
145	0x3fb359e6	1.401181
146	0x3f08bf5c	0.5341699
147	0x3fe70221	1.8047525
148	0x3f1ba0e7	0.6079239
149	0x3f2ad420	0.6672993
150	0x3e04492f	0.12918542
151	0x3ec8be90	0.39207888
152	0xbe921a8a	-0.28535873
153	0x3f95610f	1.1670245
154	0x3e607c73	0.21922474
155	0x3f36bdb6	0.71383226
156	0x3f235173	0.63796157
157	0x3e8b77e8	0.2723992
158	0x3f0dfb44	0.55461526
159	0x3f2c14b2	0.6721908
160	0x3e7b861a	0.24562874
161	0x3e0dc5b1	0.13844945
162	0x3ecc7211	0.39930776
163	0x3fb4cab6	1.4124362
164	0x3f555b78	0.83342695
165	0x3f145344	0.57939553
166	0x3f233d4f	0.63765424
167	0x3f5a3e61	0.8525143
168	0x3dde29f1	0.108478434
169	0x3ea70f79	0.32628992
170	0x3fa04eb5	1.252402
171	0x3f597e08	0.84957933
172	0x3eb77669	0.35832527
173	0x3e71e55b	0.23622648
174	0x3e9ba0d3	0.30396137
175	0x3f1d3836	0.61413896
176	0x3f83b0ae	1.0288293
177	0x3e2ddb88	0.16978276
178	0x3eedc5da	0.4644001
179	0x3f9dfdd2	1.2343085
180	0x3c9264db	0.017870357
181	0x3f7ae567	0.9800629
182	0x3ddd7f6b	0.10815319
183	0x3ef01c06	0.4689638
184	0x3dc62b91	0.096762784
185	0xbe2465ca	-0.16054454
186	0xbe46a00f	-0.19396995
187	0x3e4eb44b	0.20185964
188	0xbe04e99b	-0.12979738
189	0x3f759396	0.95928323
190	0x3f95ac63	1.1693233
191	0x3ee09d64	0.4387008
192	0x3f6e9a67	0.9320435
193	0x3eb05321	0.34438422
194	0x3f83f3e7	1.0308808
195	0xbe74f7e6	-0.23922691
196	0x3e226687	0.15859424
197	0xbe072142	-0.1319628
198	0x3f3f1a42	0.7464944
199	0x3f46e535	0.7769349
200	0x3b9b3629	0.004736681
201	0x3ca38342	0.01996005
202	0xbd22d888	-0.03975728
203	0x3dcdc951	0.10048164
204	0xbdcf06f0	-0.10108745
205	0x3d97e96d	0.07417569
206	0x3d5d646d	0.05405085
207	0xbbee2dd5	-0.007268647
208	0x3c7031e2	0.0146603305
209	0xbc342475	-0.01099502
210	0x3cd0b0b3	0.025474882
211	0xbc1cc2f6	-0.009567967
212	0xbd897308	-0.067113936
213	0x3ddcd2b6	0.107823774
214	0xbaced8de	-0.0015781184
215	0xbd07cd98	-0.033155054
216	0xbc38457e	-0.011247037
217	0x3cbf7827	0.023372723
218	0x3ca2d5c2	0.019877318
219	0xbe1a1621	-0.15047504
220	0x3ca161ad	0.019699896
221	0xbe8dba7c	-0.2768134
222	0x3d86c7ab	0.065810524
223	0xbd08fd71	-0.033444826
224	0x3da02aaa	0.078206375
225	0x3d03d707	0.032187488
226	0x3daf774c	0.08567676
227	0xbcf8fb71	-0.030393334
228	0xbcb784a0	-0.022402108
229	0xbd9b4a10	-0.07582486
230	0x3c9f139c	0.01941853
231	0x3d4c938f	0.04994541
232	0x3d6afa6e	0.057367735
233	0x3cf7b46b	0.030237397
234	0x3e056342	0.13026145
235	0x3cb2242b	0.021745762
236	0xbcbd62bb	-0.023118367
237	0x3c1ccf8a	0.009570966
238	0xbb60c566	-0.0034297346
239	0xbdbb7640	-0.09153414
240	0x3d0dfaa5	0.03466286
241	0xbd6d434b	-0.057925504
242	0x3dad70b4	0.08468762
243	0x3c4755ee	0.012166483
244	0xb9b00644	-0.00033574004
245	0x3bc905fe	0.0061347475
246	0xbd4344f8	-0.047673196
247	0x3cb77466	0.02239437
248	0x3e2e2216	0.1700519
249	0x3d5b1f9e	0.05349695
250	0xbd9d4e02	-0.076808944
251	0x3bd6bf2c	0.006553551
252	0x3cf74630	0.030184835
253	0x3d8d9155	0.069124855
254	0xbdddd2aa	-0.108311966
255	0x3dd2ad01	0.10286904

gru.bias_hh_l0 f4 [300]
0	0xbe9df441	-0.30850413
1	0xbf27a1e3	-0.65481395
2	0xbf13d476	-0.57746065
3	0xbefd8428	-0.4951489
4	0xbee15079	-0.44006708
5	0xbf133cda	-0.5751473
6	0xbe62b8d4	-0.22140819
7	0xbf1394ed	-0.5764912
8	0xbf1ab7ea	-0.6043688
9	0xbeca4787	-0.39507696
10	0xbe945950	-0.2897439
11	0xbf1945de	-0.59872234
12	0xbf3104ca	-0.6914793
13	0xbf647448	-0.8923993
14	0xbea01cda	-0.31272012
15	0xbe39e40e	-0.18153402
16	0xbef59c17	-0.4797065
17	0xbe3bfae0	-0.1835742
18	0xbf48bdbd	-0.7841452
19	0xbed97cab	-0.42477927
20	0xbeed3256	-0.46327466
21	0xbf048085	-0.51758605
22	0xbec8260e	-0.39091533
23	0xbf29478a	-0.66124785
24	0xbf0805df	-0.5313396
25	0xbf6972ae	-0.9119061
26	0xbf394b3e	-0.72380435
27	0xbf04322d	-0.5163906
28	0xbf25fd53	-0.6483967
29	0xbf07df91	-0.5307551
30	0xbf32888a	-0.6973959
31	0xbf0f2771	-0.5591956
32	0xbf361875	-0.7113107
33	0xbee9f68f	-0.45695922
34	0xbf010482	-0.50397503
35	0xbf0c0217	-0.5469069
36	0xbeb5437d	-0.35403052
37	0xbee1520a	-0.44007903
38	0xbf166740	-0.58751297
39	0xbd35fe44	-0.04443194
40	0xbf0ad496	-0.5423063
41	0xbef87402	-0.48526007
42	0xbec4ef9c	-0.38464057
43	0xbea3f2a0	-0.32021046
44	0xbe17ae20	-0.14812517
45	0xbf3fe75c	-0.749624
46	0xbe6a81f7	-0.2290114
47	0xbdc26715	-0.094923176
48	0xbf2d5ae4	-0.67716813
49	0xbe9ebdda	-0.3100422
50	0xbec27ec3	-0.37987337
51	0xbea9303c	-0.33044612
52	0xbee3d04e	-0.4449486
53	0xbef01d20	-0.4689722
54	0xbeea3573	-0.45743904
55	0xbf025ff5	-0.5092767
56	0xbeb5303e	-0.35388368
57	0xbed98158	-0.42481494
58	0xbf473356	-0.7781271
59	0xbf180613	-0.5938427
60	0xbedf3cec	-0.43601167
61	0xbf3eb184	-0.7448962
62	0xbf19d7c1	-0.6009484
63	0xbf261693	-0.64878196
64	0xbf02110c	-0.5080726
65	0xbeea2438	-0.45730758
66	0xbf45c692	-0.7725612
67	0xbf1b2c37	-0.6061434
68	0xbf15f379	-0.58574635
69	0xbf09df2c	-0.5385616
70	0xbec62df9	-0.3870695
71	0xbec24682	-0.37944418
72	0xbe8efb98	-0.27926326
73	0xbf0bdda2	-0.5463506
74	0xbf16d29d	-0.5891512
75	0xbeaa77a2	-0.33294398
76	0xbf41771e	-0.75572383
77	0xbe352773	-0.1769083
78	0xbf049875	-0.5179513
79	0xbf24da94	-0.64396024
80	0xbf214c3d	-0.63006955
81	0xbf13641f	-0.5757465
82	0xbf291b65	-0.66057426
83	0xbecf02e8	-0.40431905
84	0xbe6bdc7a	-0.23033324
85	0xbed52b51	-0.4163461
86	0xbf20c43c	-0.6279943
87	0xbeb17c4f	-0.34665152
88	0xbf0ea874	-0.5572579
89	0xbedd8772	-0.432674
90	0xbea33f42	-0.318842
91	0xbe2825cc	-0.16420668
92	0xbf140ffa	-0.5783688
93	0xbeb51521	-0.35367683
94	0xbefd3bdc	-0.49459732
95	0xbe9711d2	-0.29505783
96	0xbf1e9035	-0.6193879
97	0xbf35afb5	-0.7097123
98	0xbe80c100	-0.25147247
99	0xbef6c373	-0.4819599
100	0x3f8baaf3	1.0911545
101	0x3e66135a	0.2246832
102	0xbd657f4a	-0.056029595
103	0xbcbbf4ee	-0.02294394
104	0x3e3833c5	0.17988499
105	0xbd93f28a	-0.07223995
106	0x3e38ac63	0.1803451
107	0x3f0db404	0.5535281
108	0xbe3b97be	-0.18319604
109	0xbdcc86eb	-0.09986671
110	0x3e4f1356	0.2022222
111	0xbe0892bc	-0.13337225
112	0x3e9304c9	0.28714588
113	0x3ec37cf3	0.38181266
114	0xbe8cee27	-0.27525446
115	0x3f112d66	0.567099
116	0xbeeaa537	-0.45829174
117	0xbefb26a6	-0.49052924
118	0x3e933f25	0.28759113
119	0x3f8cd5e8	1.1002779
120	0x3df3a182	0.118960395
121	0x3e997d2b	0.29978308
122	0x3f793670	0.9734869
123	0x3fbf779d	1.4958378
124	0x3eabc047	0.33545133
125	0x3d5e13bd	0.054218043
126	0x3f4906f9	0.78526264
127	0x3e146e2a	0.14495149
128	0x3f759ba7	0.9594063
129	0xbdc50f75	-0.09622089
130	0x3f6a4f39	0.91527134
131	0xbe9f03df	-0.3105764
132	0xbdd7fc1b	-0.10546132
133	0x3f02ec50	0.51141834
134	0xbe75c6e2	-0.24001649
135	0x3f1ad300	0.6047821
136	0x3eeea009	0.46606472
137	0x3f98e586	1.1945045
138	0x3f50f233	0.81619567
139	0xbf004f75	-0.5012124
140	0x3f9b3c25	1.212773
141	0x3f87b67f	1.0602568
142	0x3f2ca819	0.67443997
143	0x3e3f0711	0.1865504
144	0xbda88364	-0.08228186
145	0x3fb64452	1.42396
146	0x3f1ae284	0.60501885
147	0x3fdd2e12	1.7279685
148	0x3f017683	0.5057146
149	0x3f347cab	0.7050273
150	0x3e33bfe0	0.17553663
151	0x3efa6470	0.48904753
152	0xbdf78ec2	-0.12087776
153	0x3fa1e72e	1.2648675
154	0x3e9d2929	0.30695465
155	0x3f40455e	0.75105846
156	0x3f2a4976	0.6651834
157	0x3edebc74	0.43503153
158	0x3f0a5d91	0.5404902
159	0x3f28b445	0.6590007
160	0x3ec497f1	0.38397172
161	0x3e1472c4	0.14496905
162	0x3ed9a23c	0.42506588
163	0x3fa4767a	1.2848656
164	0x3f4a945a	0.79132617
165	0x3f184f90	0.594964
166	0x3f3d81ff	0.74026483
167	0x3f5d6739	0.8648563
168	0xbda92a0b	-0.08259972
169	0x3eba897d	0.3643302
170	0x3f9fd9de	1.2488363
171	0x3f56558e	0.83724296
172	0x3eb309c8	0.349684
173	0x3e14de94	0.14538032
174	0x3ebe78a4	0.37201416
175	0x3f091bd8	0.5355811
176	0x3f89d56a	1.0768254
177	0x3e9970ad	0.29968777
178	0x3eebdd0a	0.46067077
179	0x3fafa56f	1.3722361
180	0x3ddf47c0	0.10902357
181	0x3f6533b1	0.89532
182	0x3d69675f	0.056983348
183	0x3ec39407	0.38198873
184	0xbc39f3cd	-0.011349631
185	0xbe3630a8	-0.17791998
186	0xbdf44248	-0.11926705
187	0x3eb0e1e5	0.34547344
188	0xbe160d4c	-0.1465351
189	0x3f7bb3a1	0.98320967
190	0x3f8fd05b	1.123546
191	0x3f03172b	0.51207227
192	0x3f78d75d	0.9720362
193	0x3eae8625	0.3408672
194	0x3f6ef74c	0.93346095
195	0xbe30303d	-0.17205901
196	0x3d838eba	0.06423707
197	0xbe1f79f2	-0.15573862
198	0x3f565ffd	0.83740216
199	0x3f2f5a7b	0.6849744
200	0x3dcca7b2	0.09992923
201	0x3d8f889e	0.070084795
202	0x3d91df97	0.071227245
203	0x3e1c38e5	0.15256079
204	0x3d216c2c	0.0394098
205	0x3df7bc49	0.120964594
206	0xbdc41d28	-0.095758736
207	0x3e26c9c0	0.16287899
208	0xbe15535e	-0.14582583
209	0x3e7823bd	0.24232383
210	0x3d9a3367	0.075293355
211	0x3d0cd1df	0.034379836
212	0x3da4706f	0.080292575
213	0x3dcb1004	0.09915164
214	0xbc2291d6	-0.009922465
215	0xbdbb39bd	-0.09141872
216	0xbd9e538c	-0.07730779
217	0xbe8c03a2	-0.27346522
218	0xbc62fadc	-0.013853755
219	0xbdb2728c	-0.08713254
220	0x3d9b3cfb	0.075799905
221	0xbe29d34f	-0.16584514
222	0xbe12afe2	-0.14324906
223	0xbbd8868a	-0.006607835
224	0xbde7e0e6	-0.11322193
225	0x3db59a8a	0.088673666
226	0x3d979f35	0.07403413
227	0xbdc6e38c	-0.0971137
228	0x3d18e650	0.037329018
229	0xbda54b65	-0.08071021
230	0x3ccd513b	0.025063148
231	0xbd6e10c6	-0.058121465
232	0xbd330e7c	-0.043714985
233	0x3e068aa3	0.13138823
234	0xbbdecbf6	-0.0067992164
235	0xbe233423	-0.15937857
236	0xbe1b6dbd	-0.1517858
237	0xbd81a022	-0.06329371
238	0xbb998616	-0.0046851737
239	0xbd49a41e	-0.04922878
240	0x3cb3fe56	0.021971863
241	0x3df38277	0.118901186
242	0x3d2dcd8e	0.04243236
243	0x3d11e780	0.035621166
244	0xbe315088	-0.17315876
245	0x3d975c02	0.07390596
246	0xbe88a7fe	-0.26690668
247	0xbd78cb03	-0.060740482
248	0x3de4f3d2	0.111793175
249	0x3e649f7f	0.22326468
250	0xbe2ca5c2	-0.16860107
251	0xbd83d1c8	-0.06436497
252	0x3dc9681b	0.0983431
253	0x3d40e130	0.047089756
254	0xbd594ae4	-0.053049937
255	0x3d5b4b39	0.053538535

fc.weight f4 [2, 100]
0	0x3dff9396	0.12479322
1	0x3d5b9872	0.05361218
2	0xbcf83101	-0.030296804
3	0x3d6f5d43	0.05843855
4	0xbc75c044	-0.014999453
5	0x3a720e13	0.00092336646
6	0xbdc47f49	-0.0959459
7	0xbd4cc4c3	-0.049992334
8	0x3d3f38f1	0.046685163
9	0x3df3cb29	0.11903984
10	0xbcbc7453	-0.023004686
11	0xbdc54320	-0.09631944
12	0x3df6b8f0	0.12046993
13	0xbdf3f299	-0.11911506
14	0xbdf3e8ce	-0.11909638
15	0x3d9873cd	0.07443962
16	0xbe2ed718	-0.17074239
17	0xbccdf4bb	-0.02514111
18	0xbdc40742	-0.09571697
19	0xbe34927a	-0.17634001
20	0x3da52c83	0.080651306
21	0x3ca47f7b	0.020080319
22	0xbdf27859	-0.11839361
23	0xbe5b46ae	-0.21413681
24	0x3e1b1de0	0.15148115
25	0x3c132c51	0.008982734
26	0xbd62b4eb	-0.055348318
27	0x3e2abfd3	0.16674738
28	0x3dedc470	0.11609733
29	0xbd86759a	-0.065653995
30	0x3d9001b9	0.070315786
31	0xbdafd7ad	-0.08586059
32	0x3c8b1750	0.01697889
33	0x3d87d4bd	0.066323735
34	0xbdfa3786	-0.122176215
35	0xbe1001a4	-0.14063126
36	0x3e421c67	0.18956147
37	0x3df19fab	0.117980324
38	0x3d406b66	0.046977423
39	0xbe06aa50	-0.13150907
40	0x3b5897d6	0.0033049486
41	0x3cdd75f2	0.02703378
42	0x3daadfd1	0.08343471
43	0xbdafc6fb	-0.085828744
44	0xbd1dd2ad	-0.038530994
45	0xbdb290c2	-0.087190166
46	0x3d18317a	0.03715656
47	0xbded4f4c	-0.1158739
48	0x3d796213	0.060884546
49	0x3d3b7375	0.045764405
50	0xbdb65ed2	-0.08904804
51	0xbd9402de	-0.072271094
52	0xbd41430f	-0.047183093
53	0x3e821c6a	0.25412303
54	0xbc2c0a8d	-0.010500562
55	0xbdd279ad	-0.10277114
56	0xbdc5d465	-0.09659652
57	0xbcd7d7ec	-0.026348077
58	0xbc08fc6c	-0.008360963
59	0xbd194a66	-0.037424468
60	0x3ccc9d54	0.024977364
61	0xbc8dfc7e	-0.017332312
62	0x3d0b5b92	0.034022875
63	0x3e709a60	0.2349639
64	0x3d8076d4	0.06272665
65	0x3e29d9e2	0.16587022
66	0xbd99d4bc	-0.07511279
67	0xbc094af4	-0.008379687
68	0xbe44fad4	-0.19236308
69	0xbcffd2d4	-0.03122846
70	0xbe80b0b1	-0.25134805
71	0x3e35d478	0.17756832
72	0x3ddecfd6	0.10879485
73	0x3cb57906	0.022152435
74	0x3dc19350	0.09451926
75	0xbc5aeaf6	-0.013361683
76	0xbe19746e	-0.1498582
77	0xbd334d6e	-0.043775015
78	0x3d584077	0.052795853
79	0xbdfeb4de	-0.124368414
80	0xbd08ec72	-0.033428617
81	0xbe3874cd	-0.18013306
82	0x3d4684ab	0.048466366
83	0xbd24d187	-0.040238883
84	0x3d180343	0.037112486
85	0x3c3b7c38	0.01144319
86	0x3e196db7	0.14983259
87	0xbe2fc317	-0.17164265
88	0xbd736b44	-0.05942847
89	0xbd8c2568	-0.06843072
90	0xbe3182c2	-0.17335036
91	0x3d18ee85	0.037336845
92	0x3e7080a2	0.2348657
93	0xbe0eb845	-0.13937481
94	0xbe8872ee	-0.26650184
95	0xbb9d36dd	-0.0047978
96	0x3c1dcc99	0.009631299
97	0x3e269bd2	0.16270378
98	0xbe799b0c	-0.24375552
99	0x3e1ddece	0.15417024
100	0xbdc1c177	-0.094607286
101	0x3d257795	0.040397245
102	0x3e218639	0.15773858
103	0xbda0b657	-0.078472786
104	0x3a040862	0.00050366495
105	0xbd305aff	-0.04305553
106	0x3e58f7d2	0.21188286
107	0x3da0e7ce	0.07856713
108	0xbd7fc6b8	-0.062445372
109	0xbda58db2	-0.08083667
110	0x3d2281c0	0.03967452
111	0x3e233fcd	0.15942307
112	0xbde47baa	-0.111563995
113	0xbcef2a4c	-0.029194973
114	0x3e13ce29	0.14434113
115	0xbdb22a7a	-0.08699508
116	0x3e07bd00	0.13255692
117	0xbd9bd06e	-0.07608114
118	0xbd5ceb53	-0.05393536
119	0x3da23436	0.07920115
120	0xbcc124d3	-0.02357713
121	0x3c6170c5	0.0137597965
122	0x3da04aba	0.07826753
123	0x3e7308a9	0.23733772
124	0xbd7caf2f	-0.061690506
125	0x3d215c88	0.039394885
126	0x3e558f5a	0.20855466
127	0xbdd23011	-0.10263074
128	0xbe4e7001	-0.20159914
129	0x3e1e277c	0.1544475
130	0x3dbc8356	0.09204738
131	0x3e31fce4	0.17381626
132	0xbd2d736c	-0.042346403
133	0xbde3c9d1	-0.11122478
134	0x3dfa18e4	0.12211779
135	0x3daf10f7	0.08548158
136	0xbbcb36a7	-0.0062015834
137	0xbdcb0ba9	-0.099143334
138	0x3d084ecf	0.033278283
139	0x3db97d2a	0.09057076
140	0x3ded1829	0.11576874
141	0xbd0e6b22	-0.03477014
142	0x3da5f647	0.08103614
143	0x3bc34e4c	0.0059602614
144	0x3de1f684	0.11033347
145	0x3e8bd622	0.27311808
146	0xbd6f7523	-0.05846132
147	0x3e2a60a6	0.16638431
148	0xbd317af9	-0.043330166
149	0xbd3b3314	-0.04570301
150	0x3d3e3e48	0.046446115
151	0x3d93acf4	0.072107226
152	0x3de99174	0.11404696
153	0xbe1f262d	-0.15541907
154	0x3e29d3fe	0.16584775
155	0x3dc0a65b	0.0940673
156	0x3e368000	0.17822266
157	0x3e11af25	0.14226969
158	0x3d9e53b4	0.07730809
159	0x3e4fe69d	0.20302816
160	0x3def4442	0.11682941
161	0x3d8743b8	0.06604713
162	0xbd4a9c34	-0.049465373
163	0xbe7aeedf	-0.24505185
164	0xbe0517cc	-0.12997359
165	0xbde06093	-0.1095592
166	0x3cedb9fd	0.02901935
167	0xbd3b16cb	-0.045676034
168	0x3e6d4c66	0.23173675
169	0xbad62204	-0.0016337042
170	0x3e478184	0.19483
171	0xbe100afd	-0.14066692
172	0xbde17f7f	-0.11010646
173	0xbe17ba5c	-0.14817184
174	0xbd1c4a7a	-0.038156964
175	0x3e295d4f	0.165395
176	0x3e12ab52	0.14323166
177	0x3dea4cf5	0.1144046
178	0xbd2123b7	-0.0393407
179	0x3dee0701	0.1162243
180	0x3d3fa9f7	0.04679295
181	0x3dce839e	0.10083698
182	0xbd8161ed	-0.06317506
183	0xbd90cbe0	-0.07070136
184	0xbe0e7b50	-0.13914227
185	0xbd81b631	-0.063335784
186	0xbd289317	-0.0411559
187	0x3e31081a	0.17288247
188	0xbdcb4c73	-0.09926691
189	0x3cbb7676	0.022883635
190	0x3e26278a	0.1622602
191	0xbd1316ce	-0.03591042
192	0xbe06c001	-0.13159181
193	0x3dd414bd	0.10355518
194	0x3d98d858	0.07463139
195	0x3e1f9217	0.15583073
196	0x3c3676e6	0.011136746
197	0xbd1f64bf	-0.03891444
198	0x3e75f197	0.2401794
199	0xbdaf7c83	-0.085686706

fc.bias f4 [2]
0	0x3dace744	0.08442548
1	0x3d47d5c7	0.04878786
